ml-agents-release_20/Result/Dino/Dino06/Dino/Dino-513942.pt (torch, 205607 bytes, 21 tensors)

network_body._body_endoder.seq_layers.0.weight f4 [256, 29]
0.11600753 -0.19041066 -0.05712285 -0.17677125 -0.25382882 -0.0869066 -0.2218198 0.04474634
0.26182383 0.37374118 -0.24757063 -0.09225096 0.12282338 0.06443359 0.12790126 0.34525108
-0.25717145 0.018617708 -0.085082665 -0.01759198 0.19995344 0.09275932 -0.14046891 0.0061325612
-0.06583556 0.09516128 -0.20259331 -0.33921453 -0.44995704 0.12171915 0.06408637 -0.16345504
-0.1285237 -0.080726355 0.4314217 0.012689837 -0.13377415 0.13076162 0.004844819 0.41604862
0.32496312 -0.06782002 -0.33258 -0.20233126 -0.051202968 -0.008923624 -0.152192 0.043598145
-0.070953324 0.030880274 -0.07402644 -0.02662158 0.06150334 0.2779808 -0.1791105 -0.25251102
-0.012598492 0.12833497 0.058874533 0.084024675 0.22078627 -0.27167135 -0.32234424 -0.12535514
-0.06577994 -0.23694392 -0.13791794 -0.24885528 -0.110493325 -0.06509139 0.32962757 0.028300662
0.033600118 -0.21253872 0.21967146 -0.043601174 -0.116625056 0.040865477 -0.5348678 0.10726363
-0.07730854 0.037239015 0.035755236 -0.078915015 0.09405936 -0.48216516 -0.1781551 0.016135689
-0.11497366 0.40653363 -0.019157067 0.15386075 0.12135261 -0.25792533 0.37592945 0.025019184
-0.05231647 -0.20555061 -0.18914852 0.2750861 -0.15245529 0.113291115 0.09105297 -0.0010088045
-0.098045416 -0.08246157 0.31540006 -0.0017662086 -0.25003603 -0.044582676 -0.18348363 -0.2468972
-0.09212386 0.16695826 -0.03961646 -0.052107718 -0.04347355 -0.07302824 -0.12300699 -0.21013756
-0.055179633 -0.47292817 0.08011533 -0.026408289 -0.13650237 0.224227 0.091703944 0.07850919
0.5084738 -0.3331081 0.09911849 -0.065652266 0.2904424 -0.019463016 -0.03319641 0.06987245
0.07248851 0.05634734 0.45024243 0.034771897 0.017477958 0.18809581 0.0830439 -0.214046
-0.5154502 0.19857447 0.3682588 0.20726247 0.04751018 -0.02704981 -0.03314536 -0.21850818
0.4911836 0.052493412 0.35142115 -0.1485656 -0.23758727 0.25766334 0.3042524 -0.116590194
0.0077778897 -0.056922495 -0.30166322 -0.057876278 -0.103053965 0.24742377 -0.09861148 0.25630185
-0.0621451 0.19661969 0.30971622 -0.16621105 0.107539006 -0.55522764 -0.17977895 0.13688077
-0.09282412 -0.06715984 -0.0077270335 -0.16898216 -0.3207604 0.25984293 0.08137096 -0.26631594
0.056154504 -0.18495502 0.08766275 0.1732873 -0.11722618 0.055214554 0.13513833 0.04931072
-0.1273186 0.16563313 -0.35020986 0.30955768 0.03960271 -0.017559493 -0.16860521 0.08324099
0.04479392 0.27518 -0.34255153 0.5138937 -0.09210451 0.23392253 0.114273734 0.113492504
-0.35215458 -0.03995872 0.11184312 0.18730278 0.14547199 -0.079255976 0.048313152 0.26838103
0.11690494 0.023802698 0.4554466 -0.100093745 0.036215447 -0.30127063 -0.38146624 -0.03130203
-0.13774477 0.28864005 -0.18529637 0.16823979 0.1365838 -0.0007864709 0.26809037 0.19084458
0.41459358 0.4196053 -0.07838573 0.32304662 -0.023166468 -0.10090976 0.12836722 -0.06901483
-0.042018928 0.0019227134 -0.10677723 0.040237684 -0.1401507 0.19290616 -0.31127784 0.060156163
0.11745899 -0.013025778 0.11802362 -0.09922818 -0.11958534 -0.00908945 0.04473741 0.084646575
00000000: 5b95 ed3d 03fb 42be a6f9 69bd 8603 35be
00000010: daf5 81be 16fc b1bd bb24 63be f047 373d
00000020: c60d 863e 015b bf3e 2883 7dbe 12ee bcbd
00000030: d38a fb3d c2f5 833d 8cf8 023e c0c4 b03e
00000040: faab 83be 2a84 983c d23f aebd 0e1d 90bc
00000050: 98c0 4c3e 99f8 bd3d 15d7 0fbe a7f3 c83b
00000060: cbd4 86bd ebe3 c23d 9f74 4fbe 87ad adbe
00000070: c560 e6be e447 f93d b73f 833d c260 27be
00000080: b89b 03be dc53 a5bd 4ee3 dc3e 09e9 4f3c
00000090: 17fc 08be 60e6 053e 4ac1 9e3b 5304 d53e
000000a0: 9161 a63e 39e5 8abd ed47 aabe ed2f 4fbe
000000b0: 34ba 51bd 6434 12bc 38d8 1bbe f893 323d
000000c0: fa4f 91bd a1f8 fc3c 2d9b 97bd 8015 dabc
000000d0: edea 7b3d 8053 8e3e be68 37be 2049 81be
000000e0: e869 4ebc 3e6a 033e 6c26 713d 2115 ac3d
000000f0: cc15 623e 8218 8bbe 4e0a a5be 195d 00be
00000100: a2b7 86bd 6da1 72be 5c3a 0dbe ebd3 7ebe
00000110: 534a e2bd a24e 85bd f2c4 a83e cad6 e73c
00000120: 47a0 093d c0a3 59be 8ef1 603e 2597 32bd
00000130: 1ed9 eebd 8f62 273d 19ed 08bf 09ad db3d
00000140: f153 9ebd f087 183d 1574 123d 329e a1bd
00000150: 32a2 c03d 5ade f6be 4a6e 36be fe2e 843c
00000160: 4f77 ebbd 2d25 d03e 48ef 9cbc ac8d 1d3e
00000170: b887 f83d ca0e 84be d379 c03e 08f5 cc3c
00000180: cb49 56bd dc7b 52be 26b0 41be 16d8 8c3e
00000190: 3d1d 1cbe 2c05 e83d fb79 ba3d dd39 84ba
000001a0: 09cc c8bd 9de1 a8bd 1e7c a13e 2080 e7ba
000001b0: b904 80be 539c 36bd 22e3 3bbe 9fd2 7cbe
000001c0: 6fab bcbd 1bf7 2a3e df44 22bd e76e 55bd
000001d0: 5211 32bd d48f 95bd 17eb fbbd 4d2e 57be
000001e0: 0a04 62bd a423 f2be 8213 a43d 3256 d8bc
000001f0: 47c7 0bbe c39b 653e 47cf bb3d 6dc9 a03d
00000200: 572b 023f 258d aabe a3fe ca3d b274 86bd
00000210: deb4 943e e770 9fbc f5f8 07bd 4919 8f3d
00000220: db74 943d 78cc 663d 2d86 e63e fa6c 0e3d
00000230: ef2d 8f3c 309c 403e ec12 aa3d e02e 5bbe
00000240: 8bf4 03bf 1b57 4b3e 6b8c bc3e 9d3c 543e
00000250: 099a 423d 9097 ddbc 6ec3 07bd 9cc0 5fbe
00000260: 6b7c fb3e 5503 573d 79ed b33e 9521 18be
00000270: 144a 73be 73ec 833e f8c6 9b3e d7c6 eebd
00000280: abdd fe3b 9027 69bd 9a73 9abe ad0f 6dbd
00000290: f50d d3bd a85c 7d3e d1f4 c9bd ff39 833e
000002a0: dc8b 7ebd ac56 493e 2093 9e3e 3b33 2abe
000002b0: 693d dc3d 6623 0ebf f917 38be 792a 0c3e
000002c0: 921a bebd 198b 89bd 0e33 fdbb a909 2dbe
000002d0: b53a a4be 220a 853e d1a5 a63d 905a 88be
000002e0: 4402 663d d964 3dbe 8788 b33d 3a72 313e
000002f0: 4814 f0bd a828 623d b461 0a3e 0afa 493d
00000300: cf5f 02be bb9b 293e b54e b3be 587e 9e3e
00000310: 7436 223d edd8 8fbc d8a6 2cbe 417a aa3d
00000320: d479 373d 65e4 8c3e ea62 afbe 8a8e 033f
00000330: 4aa1 bcbd 6389 6f3e 5908 ea3d c26e e83d
00000340: 9b4d b4be c1ab 23bd 010e e53d 4dcc 3f3e
00000350: 9cf6 143e f550 a2bd 03e4 453d 3d69 893e
00000360: db6b ef3d e0fd c23c 4c30 e93e f3fd ccbd
00000370: a656 143d 2540 9abe 8b4f c3be 8f36 00bd
00000380: f70c 0dbe a1c8 933e 55be 3dbe 0d47 2c3e
00000390: a0dc 0b3e 2b2b 4eba 2443 893e c36c 433e
000003a0: 9c45 d43e 82d6 d63e b388 a0bd 5e66 a53e
000003b0: 9bc7 bdbc c7a9 cebd b272 033e a657 8dbd
000003c0: 0a1c 2cbd 8e03 fc3a 05ae dabd 45d0 243d
000003d0: aa83 0fbe 3189 453e cf5f 9fbe 4f66 763d
000003e0: 578e f03d 136a 55bc 5eb6 f13d 2538 cbbd
000003f0: 29e9 f4bd ebeb 14bc 933e 373d 2f5b ad3d

network_body._body_endoder.seq_layers.0.bias f4 [256]
0.011014367 0.016741488 0.0056093964 0.006649001 -0.008981043 0.01790389 -0.0019547443 0.011402255
0.012417093 0.0033311043 0.010567512 -0.009132665 -0.013060754 0.020940771 0.0137644615 0.002967917
0.051390223 0.016642028 -0.0013099019 0.01493995 0.018636456 0.0057452964 0.006386997 0.013715775
0.018296896 -0.0015031841 0.004915555 -0.007925021 -0.005641294 0.026522752 0.015543725 -0.010642872
0.0130945 0.004374603 -0.0038250212 0.023914926 0.00026277025 0.0052107205 -0.001750156 -0.00901757
-0.00093940354 0.02006671 -0.0093908515 -0.012635685 0.017369919 0.008415542 0.027356975 -0.0091438135
-0.0012955305 0.00393974 -0.0049690655 0.01813826 0.002098145 -0.0015729215 0.0031286469 0.011643325
0.016697375 -0.0007108005 0.022493133 0.0075516975 0.025088802 0.0014378784 0.002852874 0.029139148
0.015778335 0.0041627935 -0.00038733674 0.00058490504 -0.014761646 -0.013576678 0.0024255665 0.013511046
0.004858519 0.020563789 0.022891631 0.0025193123 0.0018488395 0.018141953 0.00093925145 0.05156611
0.010101668 0.049129467 0.000844328 0.006005188 0.006866433 -0.0002807291 -0.0022964042 0.0023395037
0.0026993884 0.010408196 0.0043544546 0.0013975701 0.006208635 0.002820075 0.010385449 0.0021363453
0.015135596 0.008272078 0.02630975 0.0054372144 0.0185678 0.017124133 0.007868964 0.021240437
0.0011291743 0.029650014 0.00028073372 0.0053676735 0.012182518 0.01131065 0.019305637 0.0035115674
0.0004165828 0.006027864 0.017029766 0.02141294 -0.008834593 0.039100748 -0.003917546 0.001751994
-0.014509673 0.017833214 0.059847075 0.018768879 0.021955162 0.011228301 0.01874912 0.006780881
0.02046761 0.00606353 0.0024707562 7.612052e-05 0.0025295662 0.0073516276 0.0122468835 0.018003901
0.023498377 0.013015606 0.022115748 -0.00918284 -0.0012360174 0.006969629 0.005394305 0.022014905
0.015004544 0.007855332 0.012654913 0.010469302 0.023206268 0.014664531 -0.006265482 0.0034581716
0.0022871508 0.016692262 0.0038076807 -0.010113766 0.0035496184 0.009974091 0.010404857 0.0042447327
0.015713893 0.013813925 0.013947743 0.009692465 0.0017661146 0.025093606 0.014674217 -0.000381942
0.007455899 0.0043406067 0.04090254 0.009894965 -4.25303e-05 0.007005853 0.0010641944 0.007081555
-6.2436166e-06 -0.011579364 0.0036223195 0.002438638 0.0024708875 0.017254628 0.013736089 -0.0058242003
0.010541196 0.010937023 0.009036232 0.0023211134 0.005182365 0.017505938 -0.0030389691 -0.011421404
-0.012680017 -0.0081760315 0.017526416 0.012470853 0.0015021882 0.005504079 0.0044436282 0.024737917
0.00848871 0.011238844 0.014782106 0.007838692 0.01967888 0.004758763 0.0057534603 0.01653258
-0.0005430421 0.009249446 -0.001917061 0.013401821 0.015039518 0.023032833 0.009982882 -2.2546265e-05
0.0055054016 0.0289718 -0.006488684 -0.0042479034 0.020742746 0.009658817 0.011514589 -0.009904716
0.008418632 -0.0006651071 0.008970453 0.00605969 0.03026201 0.0010647005 -0.0007758682 0.0071376157
0.00036193442 0.0015741702 0.037194427 0.008992406 0.0053185755 0.013774256 0.0010043771 -0.0048238365
-0.00095783797 0.013853558 0.01715827 0.004519032 0.0013064508 0.0035842767 0.00420177 0.005182236
0.012980736 0.0067208433 -0.002992415 0.008250956 0.017897528 0.018714624 0.0061073145 -0.0151277855
00000000: 9b75 343c 7225 893c 07cf b73b dddf d93b
00000010: 3925 13bc 2eab 923c 2b1b 00bb 86d0 3a3c
00000020: 1071 4b3c a84e 5a3b 5c23 2d3c 2ca1 15bc
00000030: c6fc 55bc fb8b ab3c 5684 613c 6281 423b
00000040: 8e7e 523d dd54 883c 04b1 abba b1c6 743c
00000050: 7bab 983c 0a43 bc3b 044a d13b 21b8 603c
00000060: 5fe3 953c 7d06 c5ba aa12 a13b f3d7 01bc
00000070: 9bda b8bb 3e46 d93c 1cab 7e3c 715f 2ebc
00000080: 508a 563c d458 8f3b 35ad 7abb 3ce9 c33c
00000090: 6dc4 8939 b1be aa3b 7e65 e5ba 6ebe 13bc
000000a0: 4e42 76ba f162 a43c 16dc 19bc e705 4fbc
000000b0: 5c4b 8e3c 57e1 093c bc1b e03c efcf 15bc
000000c0: cace a9ba ef18 813b 8bd3 a2bb b096 943c
000000d0: 0881 093b 7d2a ceba fc09 4d3b a5c3 3e3c
000000e0: efc8 883c 0455 3aba 8543 b83c 3b74 f73b
000000f0: 0887 cd3c 3177 bc3a 49f7 3a3b 39b5 ee3c
00000100: 9141 813c 0b68 883b 7513 cbb9 5054 193a
00000110: d5da 71bc b770 5ebc 41f6 1e3b 6f5d 5d3c
00000120: 3634 9f3b 6475 a83c 3b87 bb3c 0c1b 253b
00000130: c254 f23a 6f9e 943c 1938 763a fc36 533d
00000140: 7781 253c fb3b 493d e555 5d3a 2bc7 c43b
00000150: d1ff e03b d22e 93b9 457f 16bb 5c52 193b
00000160: 39e8 303b 2387 2a3c d0af 8e3b ac2e b73a
00000170: ce71 cb3b 02d1 383b bb27 2a3c ed01 0c3b
00000180: 4afb 773c 9c87 073c 8b87 d73c a92a b23b
00000190: 801b 983c e947 8c3c d4ec 003c 6d00 ae3c
000001a0: cd00 943a 96e4 f23c 712f 9339 4fe3 af3b
000001b0: 2f99 473c 4e50 393c db26 9e3c 5322 663b
000001c0: cc68 da39 6385 c53b 0282 8b3c 316a af3c
000001d0: f8be 10bc 1b28 203d c25e 80bb 2aa3 e53a
000001e0: fbb9 6dbc f616 923c 3522 753d 31c1 993c
000001f0: 50db b33c e8f6 373c c197 993c 2732 de3b
00000200: b0ab a73c 94b0 c63b 69ec 213b e5a2 9f38
00000210: 14c7 253b ece5 f03b 27a7 483c eb7c 933c
00000220: ab7f c03c 693f 553c 162c b53c 9f73 16bc
00000230: dd01 a2ba 7c61 e43b b6c2 b03b 9a58 b43c
00000240: 9ed5 753c a7b3 003c 8d56 4f3c 6f87 2b3c
00000250: 121b be3c 8043 703c ac4e cdbb 7ea2 623b
00000260: 06e4 153b 36be 883c 488a 793b 36b4 25bc
00000270: b7a0 683b 5f6a 233c 2279 2a3c 6617 8b3b
00000280: 6cba 803c cd53 623c 1385 643c 25cd 1e3c
00000290: f97c e73a 1b91 cd3c 216c 703c 633f c8b9
000002a0: 9d50 f43b a63b 8e3b 6c89 273d 7e1e 223c
000002b0: 9062 32b8 5b91 e53b 707c 8b3a 640c e83b
000002c0: 4280 d1b6 5fb7 3dbc 7064 6d3b 8ed1 1f3b
000002d0: 9dee 213b 9459 8d3c 550d 613c efd8 bebb
000002e0: fbb4 2c3c 3331 333c b40c 143c d21d 183b
000002f0: d4d0 a93b 9d68 8f3c 7129 47bb d720 3bbc
00000300: d9bf 4fbc c3f4 05bc 8f93 8f3c 8c52 4c3c
00000310: 12e5 c43a 905b b43b db9b 913b 2ca7 ca3c
00000320: 3b14 0b3c 2123 383c a530 723c db6d 003c
00000330: 9a35 a13c 66ef 9b3b 8687 bc3b 556f 873c
00000340: f05a 0eba fd8a 173c e545 fbba 5093 5b3c
00000350: 4f68 763c 5aaf bc3c 3e8f 233c bc21 bdb7
00000360: a866 b43b 4556 ed3c 079f d4bb ff31 8bbb
00000370: b1ec a93c 0440 1e3c b0a7 3c3c 6447 22bc
00000380: 4dee 093c 955a 2eba cff8 123c 5d90 c63b
00000390: 09e8 f73c 6c8d 8b3a a263 4bba a9e2 e93b
000003a0: 04c2 bd39 6354 ce3a 2f59 183d e254 133c
000003b0: 7247 ae3b 6bad 613c 4ea5 833a 4611 9ebb
000003c0: 6b17 7bba 09fa 623c 808f 8c3c 6314 943b
000003d0: 373d ab3a 2fe6 6a3b 00af 893b bfcf a93b
000003e0: 27ad 543c 853a dc3b 651c 44bb 052f 073c
000003f0: d69d 923c 694f 993c de1f c83b 88da 77bc

action_model._discrete_distribution.branches.0.weight f4 [2, 256]
0.009930279 -0.071982235 0.0022984142 -0.027348885 -0.007132564 0.012154764 -0.00047277674 0.018177483
0.046838805 -0.0067211348 0.025131544 -0.007349879 -0.011592645 -0.029459193 -0.032789763 -0.024405612
0.039876644 0.056392472 -0.0020561293 0.018720703 0.0058273347 -0.025921777 -0.036516372 0.008333885
0.026826505 -0.0047687986 0.009088593 0.010785677 -0.011923414 -0.044261377 0.06312253 -0.0030513504
0.021294331 0.036065638 0.004626388 0.001103786 -0.010965609 -0.018668493 -0.006258831 -0.0043000737
-0.0112440325 0.05408689 -0.010245822 -0.012673355 0.019636583 0.012344264 0.026353886 -5.1392776e-06
-0.014686402 0.004389105 -0.009366268 -0.045280285 -0.014026205 -0.016932523 0.0031811201 9.305754e-06
-0.031537116 0.0047144433 0.023041053 -0.005714129 0.023659427 0.006211703 -0.025674103 0.015932662
-0.0043775216 0.033165473 -0.014566466 -0.0020094179 -0.003522975 0.0089172125 0.0050069257 0.024674391
0.0044699796 0.026401354 0.040582992 -0.0077729467 0.0031806554 0.014158137 0.009304836 -0.042815074
0.019940509 0.011680093 -0.020670926 0.013211773 0.032680966 -0.0054802103 0.015910333 -0.010586899
-0.0030304743 -0.03412707 0.0044532195 -0.011653209 -0.021729875 0.008005629 0.018295322 -0.0065393844
0.041175757 0.018217407 -0.041104227 0.007729546 0.0074932617 -0.051499415 0.016084323 -0.055244748
-0.0120067075 -0.017121816 -0.0030433158 -0.0005846232 -0.042050447 -0.030832902 -0.06789801 -0.015596511
0.0028291536 0.0062119644 -0.003938575 0.011921188 -0.009080941 0.037470277 -0.010269885 0.010323375
-0.009414028 -0.036559816 0.028269717 -0.050101507 0.016156679 -0.049556255 0.031048477 0.003743638
0.012809569 -0.015196113 -0.010104636 -0.0061576297 -0.019865902 0.0011234619 -0.0008212293 0.059892055
-0.05387887 0.012579503 0.025214491 -0.01717921 -0.011010996 -0.033629254 0.013529688 0.06307489
0.024725828 0.019137947 -0.033556905 -0.0440221 0.02434225 -0.03144855 -0.017559923 0.0194415
0.01119836 0.016355872 -0.015462325 -0.0122819925 0.010814345 0.060531672 0.0348639 -0.016685344
0.012063065 0.02655856 0.06053253 -0.0403374 -0.01694577 0.02486706 0.028249145 -0.010262806
-0.01213366 0.014485205 0.010799595 0.021996401 -0.0036750948 -0.008539383 0.003224679 0.037699677
-0.021246662 0.00825744 -0.0042076046 0.011305231 0.0027378506 -0.0019805268 0.013795896 -0.0046205474
0.04119462 0.03190549 -0.043868385 -0.020880938 0.0153803155 -0.049210772 -0.005059679 -0.011876537
-0.021432178 0.01726409 0.051264573 -0.0067606443 -0.011186222 -0.01325607 0.010812196 -0.04020649
-0.037154086 0.008863725 0.022434318 0.043064065 -0.05476567 -0.0030149962 -0.03227503 0.020492768
-0.0024860026 0.02064872 -0.029355746 0.02121936 0.021814428 0.014807627 -0.037744533 -0.00828251
0.0017596851 0.01706332 0.0085623665 -0.019063767 -0.020131143 -0.036094945 0.038656622 0.008754911
0.0014671556 -0.001276681 -0.00050686207 -0.009784214 0.038704727 -0.01603757 0.013188808 0.01932566
0.0023369135 -0.0047701006 0.051147267 0.007181248 0.0114258425 -0.0012911826 -0.0008773499 -0.009891364
-0.033018988 0.055575516 0.028513495 -0.02375004 0.001583549 -0.020190923 0.011564901 -0.0066500045
0.016180435 0.013134647 -0.004833024 -0.032396156 0.026398737 0.047094613 0.01374821 -0.012696249
00000000: 9cb2 223c 6c6b 93bd fea0 163b c50a e0bc
00000010: 49b8 e9bb c624 473c 05df f7b9 f2e8 943c
00000020: 0cda 3f3d f73c dcbb abe0 cd3c 41d7 f0bb
00000030: 14ef 3dbc 6854 f1bc 8f4e 06bd 47ee c7bc
00000040: b155 233d cbfb 663d 20c0 06bb 295c 993c
00000050: 3af3 be3b e859 d4bc 3192 15bd d98a 083c
00000060: 42c3 db3c 9543 9cbb 52e8 143c 68b6 303c
00000070: 6c5a 43bc 6b4b 35bd 6346 813d 2af9 47bb
00000080: 7371 ae3c 90b9 133d f598 973b eaac 903a
00000090: 19a9 33bc abee 98bc e116 cdbb a2e7 8cbb
000000a0: e438 38bc 378a 5d3d 18de 27bc e7a3 4fbc
000000b0: e6dc a03c 993f 4a3c 1be4 d73c 0f72 acb6
000000c0: 3c9f 70bc 7bd2 8f3b fa74 19bc d277 39bd
000000d0: 2bce 65bc 13b6 8abc 577a 503b e91f 1c37
000000e0: 102d 01bd 9e7b 9a3b 97c0 bc3c 973d bbbb
000000f0: 6ad1 c13c 8b8b cb3b 7f52 d2bc 3785 823c
00000100: 5071 8fbb 85d8 073d 30a8 6ebc 70b0 03bb
00000110: b6e1 66bb 8019 123c 2311 a43b f321 ca3c
00000120: e878 923b a747 d83c 5a3a 263d 34b4 febb
00000130: 8b72 503b 88f7 673c 5073 183c dc5e 2fbd
00000140: 475a a33c dc5d 3f3c 1356 a9bc 3176 583c
00000150: 7adc 053d 5693 b3bb 6356 823c ac74 2dbc
00000160: ec9a 46bb d4c8 0bbd 50ec 913b 1aed 3ebc
00000170: da02 b2bc 0b2a 033c 12e0 953c 5548 d6bb
00000180: e9a7 283d ac3c 953c e85c 28bd 2248 fd3b
00000190: 098a f53b 0df1 52bd 45c3 833c 5148 62bd
000001a0: c8b7 44bc 0d43 8cbc 5e72 47bb 6641 19ba
000001b0: 173d 2cbd 4895 fcbc 1d0e 8bbd 8288 7fbc
000001c0: 5269 393b bc8d cb3b 290f 81bb 1651 433c
000001d0: 3ac8 14bc 6f7a 193d 0543 28bc 6023 293c
000001e0: 4c3d 1abc bfbf 15bd e595 e73c 3d37 4dbd
000001f0: 035b 843c 80fb 4abd 6059 fe3c d357 753b
00000200: 3adf 513c 1ef9 78bc ea8d 25bc f1c5 c9bb
00000210: d1bd a2bc 2041 933a c447 57ba 5f51 753d
00000220: 17b0 5cbd 421a 4e3c 9f8e ce3c 6abb 8cbc
00000230: 7767 34bc d4be 09bd a0ab 5d3c 682d 813d
00000240: d28d ca3c 2fc7 9c3c f772 09bd 8450 34bd
00000250: 6669 c73c 32d0 00bd d4d9 8fbc c843 9f3c
00000260: 5379 373c c0fc 853c b155 7dbc 693a 49bc
00000270: a72e 313c 0ff0 773d 73cd 0e3d b4af 88bc
00000280: 29a4 453c 5691 d93c f5f0 773d d438 25bd
00000290: dbd1 8abc 01b6 cb3c c06a e73c 5425 28bc
000002a0: 42cc 46bc 5a53 6d3c c9f0 303c cc31 b43c
000002b0: dcd9 70bb c5e8 0bbc 2355 533b fa6a 1a3d
000002c0: 7b0d aebc 374a 073c f2df 89bb 9339 393c
000002d0: 836d 333b bacb 01bb 2f08 623c f667 97bb
000002e0: b1bb 283d 55af 023d 56af 33bd 800e abbc
000002f0: b8fd 7b3c 3c91 49bd aacb a5bb cf95 42bc
00000300: 8992 afbc 6c6d 8d3c cdfa 513d 6588 ddbb
00000310: 6a46 37bc fd2f 59bc a325 313c 8faf 24bd
00000320: e22e 18bd 2839 113c 2dc8 b73c f263 303d
00000330: f851 60bd 3e97 45bb d232 04bd 73e0 a73c
00000340: 34ec 22bb 8127 a93c 767b f0bc 39d4 ad3c
00000350: 2cb4 b23c b09b 723c 039a 1abd 5db3 07bc
00000360: 3ca5 e63a 60c8 8b3c 2b49 0c3c 9e2b 9cbc
00000370: 11ea a4bc 4bd8 13bd 6856 1e3d c270 0f3c
00000380: 934d c03a 4e56 a7ba f0de 04ba f84d 20bc
00000390: d988 1e3d 3961 83bc df15 583c d950 9e3c
000003a0: e726 193b 814e 9cbb cc7f 513d ad50 eb3b
000003b0: 7533 3b3c e63c a9ba f5fd 65ba 630f 22bc
000003c0: eb3e 07bd 27a3 633d 2295 e93c 728f c2bc
000003d0: 168f cf3a 6f67 a5bc b67a 3d3c 48e8 d9bb
000003e0: d58c 843c b432 573c 585e 9ebb d5b1 04bd
000003f0: 2a42 d83c 48e6 403d 2c40 613c ee03 50bc

action_model._discrete_distribution.branches.0.bias f4 [2]
-0.00030380793 0.00030380386
00000000: 6948 9fb9 dd47 9f39

exp_avg f4 [256, 29]
-1.7251883e-06 1.7200842e-05 2.7149135e-06 2.7149135e-06 -1.5312406e-06 2.0030782e-05 -3.0897561e-07 1.6832429e-06
-1.6828254e-06 2.4592458e-05 -4.719065e-06 -2.6590603e-06 7.641024e-07 3.2321777e-06 1.4194286e-05 4.293764e-06
5.8333455e-07 2.452086e-05 -6.913619e-06 -5.174288e-06 -1.8884231e-05 2.494408e-05 1.2130719e-05 5.315816e-06
3.2287674e-06 2.1875421e-05 -6.913619e-06 -5.465452e-06 0.0 1.4617919e-05 -6.19686e-05 -4.9763068e-05
-4.9763068e-05 -3.385341e-06 -0.00017166472 7.7936325e-05 -6.824606e-06 1.4373993e-05 -8.58023e-05 -2.5685447e-05
-3.5191933e-05 -0.00010056072 0.00020057983 -0.00019713287 -3.2902957e-05 2.1656426e-06 -9.104459e-05 -8.234797e-06
-1.8456742e-05 0.00036086803 -0.00030330717 -0.00015467464 -5.235108e-05 -8.039107e-06 -8.0839854e-05 -8.234797e-06
-1.6851058e-05 0.0 2.2005578e-07 -1.7849718e-06 -4.1867565e-06 -4.1867565e-06 2.0977282e-07 -2.4668602e-06
-3.4945845e-06 -3.7065124e-06 2.1489741e-07 -2.1191124e-06 -3.8474573e-06 -3.951767e-06 1.02445405e-07 -4.801646e-06
-1.0524725e-06 -2.7789617e-06 1.9464748e-08 -2.0289585e-06 -3.7421783e-06 -3.824107e-06 -1.7790227e-06 -3.4096595e-06
-5.6298956e-07 -2.3665061e-06 -5.7991993e-08 -1.9515016e-06 -3.7421783e-06 -3.8116507e-06 0.0 6.404734e-06
-1.6500453e-05 -1.3336717e-05 -1.3336717e-05 -8.712046e-06 -8.6191714e-05 7.14713e-05 1.9494317e-05 6.2065787e-06
-4.115651e-05 1.15174835e-05 4.2150627e-06 -6.84636e-05 0.00021759362 -0.00017256248 -1.5616493e-05 -3.2905564e-06
-4.2959695e-05 2.2817825e-05 1.5627893e-05 0.0003064738 -0.00019398231 -0.00013592395 -3.4288718e-05 -1.1494387e-05
-3.4755867e-05 2.2817825e-05 1.6772869e-05 0.0 2.6898083e-06 -6.4631413e-06 -3.25034e-05 -3.25034e-05
-4.7211302e-07 -1.42859735e-05 -2.1518654e-05 -2.5670257e-05 2.630116e-06 -1.5990368e-05 -2.2916487e-05 -2.581701e-05
-8.0820055e-06 1.9591313e-05 -4.778605e-05 -2.9585393e-05 -1.3745758e-06 -1.685485e-05 -1.8047316e-05 -2.1006232e-05
3.360643e-05 -3.006475e-05 -3.981842e-05 -3.0268724e-05 -4.4164017e-06 -1.38130235e-05 -1.8047316e-05 -2.0543943e-05
0.0 -4.631522e-06 3.600973e-05 -3.643947e-05 -3.643947e-05 3.4037848e-07 6.1424755e-05 -6.68264e-05
-4.606178e-05 -4.498373e-06 5.488985e-05 -5.545274e-05 -4.9776496e-05 2.2059554e-05 -9.539194e-05 6.8271125e-05
-2.2633245e-05 3.0136873e-06 5.435792e-05 -6.2432875e-05 -5.7410183e-05 -0.00017305237 0.00010736786 6.062324e-05
-6.9656912e-06 9.276531e-06 4.8095066e-05 -6.2432875e-05 -5.8220714e-05 0.0 2.2840297e-07 -1.6819159e-06
-3.7477735e-06 -3.7477735e-06 -5.5266852e-08 -4.026598e-06 -1.1194218e-06 -2.6134985e-06 2.2491325e-07 -2.04291e-06
-3.38329e-06 -3.4843465e-06 -8.9268474e-07 7.8944856e-07 -5.098051e-06 -2.3607386e-06 7.230363e-08 -2.2382565e-06
-3.0353344e-06 -3.1934658e-06 7.4473323e-06 -9.590842e-06 -3.0577762e-06 -2.420849e-06 -2.1266734e-08 -2.144686e-06
-3.0353344e-06 -3.1706707e-06 0.0 -7.9842885e-06 2.87312e-05 1.5731457e-05 1.5731457e-05 9.686682e-07
5.9449452e-05 -2.393977e-05 -1.5570012e-06 -7.729326e-06 6.349751e-05 -1.9289822e-05 -8.578097e-06 2.5612677e-05
-0.00015695256 0.00016781823 3.2349657e-05 5.271793e-06 6.828132e-05 -3.7074744e-05 -2.6117077e-05 -0.00025816172
0.00015551962 0.00013912043 4.9291135e-05 1.7942257e-05 5.561085e-05 -3.7074744e-05 -2.7869111e-05 0.0
-1.0974842e-05 7.5340606e-05 -4.7983976e-05 -4.7983976e-05 9.110277e-07 0.00013901677 -0.00012354601 -7.093061e-05
-1.0640842e-05 0.00011668901 -8.966636e-05 -7.5663855e-05 4.2639724e-05 -0.00024704277 0.00022078482 -2.0382386e-05
7.189034e-06 0.00011410445 -0.00010491168 -9.307637e-05 -0.00051239046 0.00035785345 0.00017091885 1.36861745e-05
00000000: 058d e7b5 874a 9037 dc31 3636 dc31 3636
00000010: 0785 cdb5 c707 a837 49e1 a5b4 c9eb e135
00000020: 71dd e1b5 e74b ce37 7658 9eb6 4f72 32b6
00000030: b81c 4d35 64e8 5836 ff23 6e37 2713 9036
00000040: 7296 1c35 25b2 cd37 89fb e7b6 cc9e adb6
00000050: 9469 9eb7 013f d137 0b85 4b37 835e b236
00000060: cdad 5836 1c81 b737 89fb e7b6 e063 b7b6
00000070: 0000 0000 7c3f 7537 24f5 81b8 b0b8 50b8
00000080: b0b8 50b8 b72f 63b6 e600 34b9 bf71 a338
00000090: ebfe e4b6 d427 7137 c2f0 b3b8 1477 d7b7
000000a0: 0d9b 13b8 20e4 d2b8 bd52 5239 74b5 4eb9
000000b0: 4801 0ab8 7555 1136 31ef beb8 2f28 0ab7
000000c0: 8dd3 9ab7 e332 bd39 3305 9fb9 2830 22b9
000000d0: 8b93 5bb8 b4df 06b7 9188 a9b8 2f28 0ab7
000000e0: 5f5b 8db7 0000 0000 7948 6c34 2a93 efb5
000000f0: f77b 8cb6 f77b 8cb6 ea3d 6134 568c 25b6
00000100: 8184 6ab6 66bd 78b6 8dbe 6634 1336 0eb6
00000110: 6819 81b6 6c99 84b6 f5ff db33 d31d a1b6
00000120: ae42 8db5 337e 3ab6 6f33 a732 3e29 08b6
00000130: 2222 7bb6 d450 80b6 c1c6 eeb5 81d1 64b6
00000140: 5920 17b5 44d0 1eb6 df12 79b3 8bf6 02b6
00000150: 2222 7bb6 a9cb 7fb6 0000 0000 3fe8 d636
00000160: 746a 8ab7 c3c0 5fb7 c3c0 5fb7 f429 12b7
00000170: d3c1 b4b8 dde2 9538 ba87 a337 1b42 d036
00000180: 779f 2cb8 373b 4137 1d6f 8d36 1e94 8fb8
00000190: d829 6439 e3f1 34b9 2a00 83b7 54d3 5cb6
000001a0: 9f2f 34b8 e868 bf37 a518 8337 38ae a039
000001b0: bb67 4bb9 cf86 0eb9 3bd1 0fb8 04d8 40b7
000001c0: d4c6 11b8 e868 bf37 76b3 8c37 0000 0000
000001d0: 8e82 3436 f6dd d8b6 4354 08b8 4354 08b8
000001e0: b876 fdb4 caad 6fb7 f582 b4b7 7556 d7b7
000001f0: 0c81 3036 0e23 86b7 c83c c0b7 9b91 d8b7
00000200: f397 07b7 0658 a437 e16d 48b8 262e f8b7
00000210: 117e b8b5 8463 8db7 5164 97b7 8a36 b0b7
00000220: a1f4 0c38 8f33 fcb7 b402 27b8 97e9 fdb7
00000230: 9a30 94b6 7cbe 67b7 5164 97b7 c855 acb7
00000240: 0000 0000 7968 9bb6 2709 1738 95d6 18b8
00000250: 95d6 18b8 43bd b634 2ad1 8038 2625 8cb8
00000260: 7632 41b8 bbf0 96b6 8739 6638 ed95 68b8
00000270: 1bc7 50b8 880c b937 280d c8b8 c82c 8f38
00000280: 86dc bdb7 c13e 4a36 5ffe 6338 65ee 82b8
00000290: b7cb 70b8 6475 35b9 ae2a e138 b545 7e38
000002a0: d5ba e9b6 66a2 1b37 afb9 4938 65ee 82b8
000002b0: 0432 74b8 0000 0000 ee3e 7534 31be e1b5
000002c0: 4282 7bb6 4282 7bb6 8c5e 6db3 371c 87b6
000002d0: 0a3f 96b5 9063 2fb6 af7f 7134 ed18 09b6
000002e0: 7b0c 63b6 9ed4 69b6 d4a0 6fb5 7eea 5335
000002f0: ed0f abb6 2e6d 1eb6 5745 9b33 f434 16b6
00000300: a6b2 4bb6 534f 56b6 19e4 f936 5ae8 20b7
00000310: 3234 4db6 de75 22b6 0bae b6b2 6ded 0fb6
00000320: a6b2 4bb6 b5c7 54b6 0000 0000 42f4 05b7
00000330: c803 f137 0cf7 8337 0cf7 8337 3003 8235
00000340: 5d59 7938 44d2 c8b7 27fa d0b5 34ad 01b7
00000350: f729 8538 94d0 a1b7 a5ea 0fb7 ceda d637
00000360: a293 24b9 5df8 2f39 2eaf 0738 5be4 b036
00000370: 4132 8f38 b480 1bb8 ff15 dbb7 e159 87b9
00000380: fb12 2339 dbe0 1139 f4bd 4e38 b482 9637
00000390: b23f 6938 b480 1bb8 76c8 e9b7 0000 0000
000003a0: 9620 38b7 2e00 9e38 6742 49b8 6742 49b8
000003b0: 598d 7435 08c5 1139 218c 01b9 95c0 94b8
000003c0: 1286 32b7 efb6 f438 430b bcb8 b9ad 9eb8
000003d0: 0ed8 3238 8585 81b9 7982 6739 d7fa aab7
000003e0: 5539 f136 5c4b ef38 0804 dcb8 ff31 c3b8
000003f0: f151 06ba 479e bb39 ae38 3339 ac9d 6537

exp_avg_sq f4 [256, 29]
5.605262e-10 5.2419256e-09 8.9070123e-10 8.9070123e-10 5.5998634e-10 5.339731e-09 7.778137e-10 7.911288e-10
5.599177e-10 5.71796e-09 4.847492e-10 5.4257077e-10 5.710031e-10 5.4909877e-09 5.94617e-10 6.9707756e-10
5.897582e-10 5.715619e-09 4.7927895e-10 4.979228e-10 8.1968377e-10 5.5363945e-09 4.5438503e-10 6.295829e-10
7.6058115e-10 5.4656906e-09 4.7927895e-10 4.895464e-10 0.0 8.594383e-09 1.4251946e-08 2.6804213e-07
2.6804213e-07 8.578754e-09 1.4026573e-07 1.2848787e-07 1.457309e-07 8.585536e-09 1.534813e-08 2.674391e-07
2.6740858e-07 2.2079039e-08 2.0121998e-07 5.885714e-08 9.2716604e-08 8.774118e-09 1.5671313e-08 2.678104e-07
2.675762e-07 1.17460424e-07 1.255822e-07 3.924506e-08 7.781584e-08 9.361031e-09 1.4563782e-08 2.678104e-07
2.6760864e-07 0.0 1.2279278e-11 7.9695896e-11 4.6287387e-11 4.6287387e-11 1.2284597e-11 1.0650355e-10
2.2669639e-11 2.4652254e-11 1.2272366e-11 8.111653e-11 4.488556e-11 4.503603e-11 1.2730989e-11 1.2497096e-10
4.6667748e-12 1.0843007e-11 1.2746553e-11 8.014688e-11 4.473175e-11 4.4802707e-11 1.6755576e-11 1.2368648e-10
2.0113227e-12 8.498008e-12 1.30843765e-11 7.9614496e-11 4.473175e-11 4.478462e-11 0.0 2.6017366e-09
1.6184692e-09 2.1944241e-07 2.1944241e-07 2.7536295e-09 6.509508e-08 1.4609522e-07 1.5674792e-07 2.5972564e-09
3.2820011e-09 2.1780151e-07 2.1799676e-07 1.0577498e-08 1.3556874e-07 7.0409996e-08 1.03915724e-07 2.7997598e-09
3.2802563e-09 2.1783414e-07 2.1785554e-07 8.346151e-08 8.1320856e-08 4.8156707e-08 8.859682e-08 3.4438887e-09
2.3968767e-09 2.1783414e-07 2.178204e-07 0.0 1.6735464e-10 9.563649e-11 2.535778e-09 2.535778e-09
1.6714896e-10 1.9865826e-10 2.3610542e-09 2.3792055e-09 1.6699342e-10 1.9259963e-10 2.398304e-09 2.4317777e-09
2.2262264e-10 6.6678335e-10 1.794404e-09 2.0267132e-09 1.8057796e-10 1.978636e-10 2.384342e-09 2.4003617e-09
6.1160627e-10 6.640046e-10 1.3949369e-09 1.8639963e-09 2.1730559e-10 1.4053536e-10 2.384342e-09 2.3971924e-09
0.0 1.0240492e-09 6.1319616e-09 2.6378133e-08 2.6378133e-08 1.0118424e-09 1.3452613e-08 1.7843318e-08
1.898952e-08 1.0241308e-09 6.8717503e-09 2.5821159e-08 2.5863544e-08 1.623426e-09 2.5767006e-08 4.9368625e-09
1.0493365e-08 1.0955062e-09 6.931672e-09 2.5848445e-08 2.5835924e-08 1.28793225e-08 1.6099506e-08 3.907706e-09
8.569394e-09 1.349602e-09 6.4623973e-09 2.5848445e-08 2.5829735e-08 0.0 1.3111851e-11 4.159741e-10
3.1886986e-09 3.1886986e-09 1.862895e-11 1.4808251e-09 2.2494582e-09 2.3683393e-09 1.31077605e-11 4.2771348e-10
3.1855265e-09 3.1847347e-09 5.373833e-11 3.0380818e-09 6.3581684e-10 1.2043935e-09 1.3973552e-11 4.1704543e-10
3.1757164e-09 3.178117e-09 4.525369e-10 2.8388112e-09 3.9659875e-10 9.901329e-10 1.6391645e-11 4.1486523e-10
3.1757164e-09 3.1774923e-09 0.0 3.5931838e-09 4.337253e-09 7.886813e-08 7.886813e-08 3.6174455e-09
1.1946899e-08 6.9228825e-08 7.055653e-08 3.5922447e-09 7.136258e-09 7.6092086e-08 7.6617916e-08 4.456528e-09
4.423246e-08 3.572961e-08 4.9886754e-08 3.859949e-09 7.221524e-09 7.5949636e-08 7.614383e-08 2.5379972e-08
3.0050796e-08 2.8202185e-08 4.3889496e-08 5.122258e-09 5.5362244e-09 7.5949636e-08 7.607112e-08 0.0
4.4710586e-09 2.0305132e-08 2.2479946e-07 2.2479946e-07 4.4178323e-09 7.574029e-08 1.5967764e-07 1.6787757e-07
4.4685136e-09 2.2890783e-08 2.2265519e-07 2.2281709e-07 6.191428e-09 1.9177904e-07 4.3416797e-08 9.142235e-08
4.774888e-09 2.316647e-08 2.2296275e-07 2.2282588e-07 7.7622786e-08 1.3423377e-07 3.0985223e-08 7.437348e-08
00000000: 8613 1a30 771c b431 87d5 7430 87d5 7430
00000010: 89ed 1930 c578 b731 c6cd 5530 bd76 5930
00000020: b5e8 1930 b577 c431 313f 0530 0624 1530
00000030: c5f4 1c30 3dab bc31 7472 2330 799c 3f30
00000040: 8b1c 2230 1e63 c431 42be 0330 34de 0830
00000050: 1e50 6130 a43a be31 02cd f92f f50e 2d30
00000060: 2411 5130 b9cc bb31 42be 0330 c490 0630
00000070: 0000 0000 7fa6 1332 b9d8 7432 6ee7 8f34
00000080: 6ee7 8f34 c261 1332 f39b 1634 7af6 0934
00000090: 347a 1c34 967f 1332 e5d6 8332 8d94 8f34
000000a0: 5b90 8f34 52a8 bd32 ed0e 5834 1cca 7c33
000000b0: 7e1b c733 fbbc 1632 959d 8632 95c7 8f34
000000c0: 65a7 8f34 8d3e fc33 c6d7 0634 668e 2833
000000d0: b61b a733 40d2 2032 3134 7a32 95c7 8f34
000000e0: daab 8f34 0000 0000 f404 582d cd40 af2e
000000f0: f792 4b2e f792 4b2e e81c 582d 2b34 ea2e
00000100: 7d67 c72d f1d7 d82d d3e5 572d 8c60 b22e
00000110: a668 452e 1012 462e 47f7 5f2d 3368 092f
00000120: 9232 a42c 90c0 3e2d 5f3d 602d af3e b02e
00000130: 79bb 442e 5d0b 452e 3462 932d a6fe 072f
00000140: c588 0d2c a07f 152d cb2e 662d fa12 af2e
00000150: 79bb 442e 00f7 442e 0000 0000 3cca 3231
00000160: d370 de30 df9f 6b34 df9f 6b34 5d3a 3d31
00000170: 66ca 8b33 59de 1c34 8a4e 2834 6b7b 3231
00000180: 9389 6131 d3dc 6934 7e12 6a34 54b8 3532
00000190: da90 1134 4e34 9733 4628 df33 e565 4031
000001a0: e16a 6131 cbe5 6934 adeb 6934 733b b333
000001b0: 9da2 ae33 dcd4 4e33 9e42 be33 88a9 6c31
000001c0: 4db6 2431 cbe5 6934 04e2 6934 0000 0000
000001d0: 2502 382f 8f4e d22e e141 2e31 e141 2e31
000001e0: 40c8 372f 546d 5a2f 1b40 2231 6d7f 2331
000001f0: 789c 372f fac3 532f 69cf 2431 491c 2731
00000200: b4c6 742f b548 3730 fa9e f630 5146 0b31
00000210: 2d8c 462f a78d 592f cad9 2331 9cf3 2431
00000220: f71d 2830 2b85 3630 fbb7 bf30 c517 0031
00000230: 16ee 6e2f 3085 1a2f cad9 2331 dbbb 2431
00000240: 0000 0000 87be 8c30 4eb1 d231 2196 e232
00000250: 2196 e232 0a11 8b30 381d 6732 df45 9932
00000260: 651e a332 66c1 8c30 8e1c ec31 54cd dd32
00000270: 892a de32 391f df30 3f56 dd32 1aa1 a931
00000280: 4f46 3432 b390 9630 a22b ee31 5509 de32
00000290: cced dd32 dc43 5d32 304b 8a32 8c44 8631
000002a0: 9838 1332 e67c b930 d90b de31 5509 de32
000002b0: 30e0 dd32 0000 0000 87aa 662d 26af e42f
000002c0: 2e20 5b31 2e20 5b31 abdc a32d e785 cb30
000002d0: e394 1a31 44c0 2231 1b98 662d 5223 eb2f
000002e0: 60e8 5a31 72da 5a31 fb57 6c2e 80c6 5031
000002f0: a2c5 2e30 d487 a530 49d3 752d ed45 e52f
00000300: cb3b 5a31 0766 5a31 e8c8 f82f e514 4331
00000310: 5008 da2f 3415 8830 b42e 902d 1713 e42f
00000320: cb3b 5a31 095b 5a31 0000 0000 f5eb 7631
00000330: e106 9531 375e a933 375e a933 c696 7831
00000340: 043f 4d32 f3aa 9433 dd84 9733 70db 7631
00000350: 3033 f531 1168 a333 2589 a433 0920 9931
00000360: 1bfa 3d33 1f75 1933 1143 5633 78a0 8431
00000370: 3221 f831 c119 a333 8384 a333 2603 da32
00000380: 3311 0133 4341 f232 0381 3c33 dcff af31
00000390: 2539 be31 c119 a333 8a5c a333 0000 0000
000003a0: d99f 9931 756b ae32 6860 7134 6860 7134
000003b0: aacb 9731 aaa6 a233 db73 2b34 d641 3434
000003c0: 7689 9931 5da1 c432 fe12 6f34 7f3f 6f34
000003d0: 60bc d431 d2eb 4d34 4679 3a33 f853 c433
000003e0: 5c10 a431 9bff c632 8967 6f34 e941 6f34
000003f0: 94b1 a633 e621 1034 9d14 0533 41b7 9f33

exp_avg f4 [256]
1.8188093e-05 -9.7131255e-05 -5.7516154e-06 -2.3420966e-05 -3.627011e-05 -5.0387443e-06 -5.2004416e-06 3.648541e-05
1.6370052e-05 -7.391138e-05 4.707136e-06 6.142894e-06 -4.0830222e-05 -0.00011010459 -0.00016063712 -0.00010094436
-6.162001e-05 -8.0696416e-05 -2.9028251e-06 -4.7393838e-05 2.5898316e-06 -7.8053e-05 -1.9098678e-05 3.2319727e-05
1.560392e-06 -6.04759e-06 3.6837737e-05 7.028525e-06 -3.6976802e-05 -0.00021047957 -0.00017449129 -1.1718724e-06
-1.0003386e-05 -1.9160672e-05 -3.0351237e-07 1.355642e-05 -6.5468025e-06 -4.215518e-05 -2.7323646e-05 -1.069072e-06
3.289072e-06 4.2237767e-05 -9.945448e-06 -1.6289954e-05 -5.4852935e-05 3.143051e-05 -1.5507949e-05 -3.2623382e-06
-3.803588e-06 2.365148e-05 -3.0212053e-05 -0.00024064504 -2.2815131e-05 -2.9324086e-05 -4.418926e-06 3.1888267e-05
-0.00011800798 3.1757466e-07 1.9999786e-06 -2.5713507e-06 -4.7672373e-05 1.0826791e-05 -7.476097e-05 -5.3249805e-05
-9.601839e-06 -2.0638261e-05 3.7190218e-06 2.1405097e-06 -1.776134e-05 -8.167671e-07 -1.2976762e-06 -3.799076e-06
8.4615215e-07 -2.8581631e-05 2.053982e-05 -1.5779231e-05 3.3670385e-06 3.102009e-05 2.642675e-05 -0.00012454091
3.0029529e-05 2.659379e-06 -7.666759e-05 5.72786e-06 -1.0425383e-07 7.76818e-06 8.774643e-06 -3.4800642e-06
-1.1743326e-05 -7.073233e-05 4.178158e-06 -3.7138263e-05 -1.9562083e-05 3.33211e-07 8.073129e-06 -2.6599519e-05
-6.909682e-05 5.7142366e-05 -6.538312e-05 3.3066364e-05 -1.0921811e-05 -0.00020807145 -2.166242e-05 -0.00027076682
-3.0421776e-05 -5.269066e-05 4.243766e-06 5.1283596e-06 -0.0001353305 -0.0001713377 -0.0002578901 -1.2359636e-05
-6.7770253e-07 -5.482226e-06 -2.879757e-06 -1.1200071e-05 1.694984e-07 -0.00010261387 -7.104229e-05 -4.7993144e-05
-1.653025e-05 -0.00010687561 -7.567565e-05 -0.00020226669 2.2154314e-05 -0.0001261914 -1.075201e-05 1.8738081e-05
9.449497e-06 -5.0546856e-05 1.2538446e-05 -1.0958641e-05 -2.7059144e-05 2.199706e-06 -3.0211959e-05 -3.916595e-05
-7.659349e-05 2.697878e-05 -0.00010549014 -5.2641608e-05 -3.634164e-05 -5.483843e-05 -4.098453e-06 -7.0459624e-05
1.5436965e-05 -3.573311e-05 -0.00016615137 -0.0001144028 -7.217038e-08 -0.0002079367 3.0193389e-05 -5.797358e-06
1.5184383e-05 3.3055164e-06 -5.209454e-05 -3.0096364e-05 8.478693e-06 -2.6207023e-05 1.7450902e-05 -2.8654731e-05
1.1222038e-05 3.1781077e-05 -8.765035e-05 7.473379e-05 8.511079e-06 -9.1552385e-05 4.6487066e-06 -1.9356286e-05
-1.20248815e-05 1.0506934e-06 -1.9344978e-05 -9.616331e-06 -2.2942115e-05 -3.5601923e-05 1.3589546e-06 -8.981878e-06
-4.760435e-05 7.610778e-06 1.2403925e-06 3.6094756e-05 2.139893e-05 -4.3350333e-08 2.7327367e-06 -6.973033e-07
-7.460153e-05 1.30442795e-05 -8.837055e-05 -3.4049794e-05 5.1254474e-06 -0.00014906241 -1.1632654e-05 2.731314e-05
-1.9672223e-05 -3.117834e-05 1.8887262e-05 -8.862891e-06 6.9557376e-07 -4.1110943e-05 3.340702e-06 -0.00016507792
-3.3740784e-05 -9.81914e-06 5.520519e-05 4.7132958e-06 6.867833e-05 -3.3289638e-05 -1.2160243e-05 -5.049828e-05
-2.6434052e-05 2.7757233e-05 -4.266297e-05 -1.529982e-05 -4.143286e-05 4.841898e-06 4.492342e-05 7.2443654e-06
1.1258458e-05 -1.1947752e-06 -1.183382e-06 -6.135415e-05 -0.00016178825 -0.000109818575 -5.0038267e-05 2.136523e-05
2.2002782e-06 1.5566576e-06 -6.5386253e-06 -4.3603974e-05 -3.553942e-05 1.1382609e-05 1.2433804e-05 3.574223e-05
5.581695e-06 -2.8345787e-06 -0.00020733915 1.0587511e-05 1.0841654e-05 1.6237496e-05 -3.379377e-07 -1.4925305e-05
3.3438802e-05 5.8498244e-05 -8.036615e-06 -2.6173208e-05 -5.1084044e-06 -2.4029974e-05 8.078527e-06 9.8557875e-06
7.723475e-06 1.8859671e-06 -5.1698776e-06 -4.0713825e-05 2.10537e-05 -0.00012620114 -8.23561e-07 -2.2163991e-05
00000000: a292 9837 f2b2 cbb8 00fe c0b6 2478 c4b7
00000010: bc20 18b8 7c12 a9b6 747f aeb6 e907 1938
00000020: 6b52 8937 df00 9bb8 fef1 9d36 0f1f ce36
00000030: 1e41 2bb8 f4e7 e6b8 b370 28b9 17b2 d3b8
00000040: fe39 81b8 8f3b a9b8 28ce 42b6 bfc8 46b8
00000050: f8cc 2d36 63b0 a3b8 1936 a0b7 0b8f 0738
00000060: a96e d135 67ec cab6 3882 1a38 92d6 eb36
00000070: 8a17 1bb8 2eb4 5cb9 a6f7 36b9 3b49 9db5
00000080: 37d4 27b7 3bbb a0b7 6cf2 a2b4 6170 6337
00000090: 9bac dbb6 c8cf 30b8 1535 e5b7 097d 8fb5
000000a0: d4b9 5c36 7528 3138 60db 26b7 69a6 88b7
000000b0: e411 66b8 41d4 0338 1117 82b7 8bee 5ab6
000000c0: 2541 7fb6 2b67 c637 e46f fdb7 a955 7cb9
000000d0: 1f63 bfb7 fffc f5b7 4946 94b6 c4bf 0538
000000e0: 0d7b f7b8 217f aa34 5f37 0636 788f 2cb6
000000f0: d2f3 47b8 b7a4 3537 fdc8 9cb8 8b58 5fb8
00000100: 9617 21b7 5420 adb7 4f94 7936 ada5 0f36
00000110: 30fe 94b7 cf3f 5bb5 d12b aeb5 a1f3 7eb6
00000120: 2223 6335 96c2 efb7 ed4c ac37 a45d 84b7
00000130: 48f5 6136 911b 0238 03af dd37 3297 02b9
00000140: ece7 fb37 c977 3236 99c8 a0b8 f131 c036
00000150: 26e2 dfb3 1454 0237 ce36 1337 0c8b 69b6
00000160: 3305 45b7 2156 94b8 1b32 8c36 e8c4 1bb8
00000170: 4119 a4b7 2ce4 b234 d371 0737 0822 dfb7
00000180: 13e8 90b8 26ac 6f38 4c1e 89b8 bdb0 0a38
00000190: d23c 37b7 c12d 5ab9 b1b7 b5b7 b5f5 8db9
000001a0: 4432 ffb7 2a00 5db8 ac65 8e36 4614 ac36
000001b0: 81e7 0db9 1da9 33b9 6c35 87b9 3b5c 4fb7
000001c0: 5deb 35b5 f6f3 b7b6 d941 41b6 f0e7 3bb7
000001d0: 5eff 3534 6732 d7b8 8afc 94b8 3f4c 49b8
000001e0: 71aa 8ab7 6822 e0b8 0eb4 9eb8 8d17 54b9
000001f0: 07d8 b937 3f52 04b9 8863 34b7 b92f 9d37
00000200: 4889 1e37 4602 54b8 375c 5237 01db 37b7
00000210: 12fd e2b7 a99e 1336 b06f fdb7 1e46 24b8
00000220: d1a0 a0b8 7d50 e237 963a ddb8 7fcb 5cb8
00000230: 8a6d 18b8 5102 66b8 7185 89b6 b9c3 93b8
00000240: a17e 8137 22e0 15b8 eb38 2eb9 89eb efb8
00000250: 16fc 9ab3 9509 5ab9 cf47 fd37 ed86 c2b6
00000260: 6ec0 7e37 57d4 5d36 1680 5ab8 7377 fcb7
00000270: b63f 0e37 27d7 dbb7 8763 9237 915f f0b7
00000280: 4946 3c37 ac4c 0538 ecd0 b7b8 66ba 9c38
00000290: ceca 0e37 d0ff bfb8 16fc 9b36 4f5f a2b7
000002a0: 79be 49b7 8d05 8d35 0647 a2b7 d455 21b7
000002b0: d173 c0b7 4653 15b8 5365 b635 dfb0 16b7
000002c0: c8aa 47b8 1660 ff36 907b a635 7364 1738
000002d0: da81 b337 3230 3ab3 0f64 3736 512e 3bb5
000002e0: 6473 9cb8 c1d8 5a37 9453 b9b8 b0d0 0eb8
000002f0: 42fb ab36 a34d 1cb9 de29 43b7 861e e537
00000300: c705 a5b7 7dc5 02b8 1670 9e37 d4b1 14b7
00000310: 77b7 3a35 8a6e 2cb8 d330 6036 c418 2db9
00000320: e484 0db8 e3bc 24b7 1f8c 6738 e726 9e36
00000330: 6607 9038 7aa0 0bb8 d903 4cb7 1ece 53b8
00000340: b2be ddb7 34d8 e837 04f1 32b8 1d58 80b7
00000350: 32c8 2db8 9677 a236 286c 3c38 a014 f336
00000360: b5e2 3c37 2a5c a0b5 b2d4 9eb5 42ab 80b8
00000370: b4a5 29b9 664e e6b8 2ee0 51b8 7b39 b337
00000380: 7ea8 1336 59ee d035 5d66 dbb6 69e3 36b8
00000390: 2910 15b8 eff7 3e37 c89a 5037 ede9 1538
000003a0: 654a bb36 b139 3eb6 2e69 59b9 03a1 3137
000003b0: 8de4 3537 c235 8837 ce6d b5b4 b267 7ab7
000003c0: a440 0c38 035c 7538 00d5 06b7 898e dbb7
000003d0: dc68 abb6 fa93 c9b7 0289 0737 495a 2537
000003e0: 1394 0137 5621 fd35 e978 adb6 23c4 2ab8
000003f0: 7a9c b037 dc54 04b9 ae12 5db5 cfec b9b7

exp_avg_sq f4 [256]
6.7597843e-09 2.8810882e-07 1.3791787e-10 2.2287436e-07 2.7944385e-09 3.294196e-08 3.6645866e-09 8.5887315e-08
2.4717633e-07 4.2281766e-08 3.4718976e-08 9.373567e-10 1.5970338e-08 3.2484117e-08 1.8335483e-07 1.6739466e-07
6.6508825e-08 3.122678e-07 2.8250744e-08 2.733881e-08 2.8149758e-09 1.1698178e-08 2.4713728e-07 2.031616e-08
3.103782e-08 2.891237e-08 1.8010901e-08 1.0634852e-09 2.2510505e-09 1.0273045e-07 4.1450642e-07 9.779476e-10
5.6621353e-08 6.0817385e-08 1.1891788e-08 6.405952e-09 1.8548114e-08 1.434892e-07 1.4302429e-09 1.3540508e-08
4.6753435e-08 3.0994045e-07 1.1673053e-09 1.1054928e-08 1.3686366e-08 1.3559693e-08 9.727487e-09 1.5253151e-09
5.4325683e-10 4.3303623e-09 4.2614282e-08 3.072596e-07 1.3386287e-07 8.021641e-08 1.5959278e-08 1.2920181e-08
2.3379145e-07 1.8464075e-08 5.031259e-08 1.429441e-10 1.4308557e-07 1.5697045e-09 1.512045e-07 1.0110642e-08
5.6557603e-10 2.2391771e-07 3.5116337e-08 1.0113651e-08 3.2988556e-09 1.8320866e-09 5.157748e-08 3.3968515e-08
1.500812e-08 6.015961e-08 1.7463883e-07 7.741392e-08 7.5077894e-10 1.3671617e-08 1.6304698e-08 4.857768e-08
2.542089e-08 4.0425454e-09 3.710724e-08 9.722562e-09 9.942049e-08 1.8030025e-08 4.406354e-09 7.416175e-08
3.224754e-09 3.0317997e-07 1.0642725e-08 3.1387255e-09 1.18103266e-07 1.0523072e-08 3.8522124e-08 8.870777e-08
1.0986498e-07 4.6278682e-08 5.0856563e-08 3.9928683e-08 3.121023e-09 3.4920623e-07 6.746631e-08 6.2103004e-07
1.4614755e-09 5.870204e-09 1.4102094e-08 7.4119657e-09 2.0602103e-07 1.942728e-07 6.834637e-07 9.2655455e-08
3.1531037e-08 3.254799e-09 3.209196e-10 1.0515539e-08 2.7001446e-09 6.263527e-08 1.5975623e-08 3.743639e-08
3.0532756e-09 4.0125936e-08 1.632059e-08 3.1875e-07 2.324637e-08 2.0592101e-07 2.0170477e-08 9.8322e-09
1.266921e-08 1.955698e-07 1.6058098e-07 1.3089064e-08 2.4490367e-07 1.5358952e-09 2.2918047e-09 2.8189407e-07
2.607448e-07 1.6763016e-08 4.517608e-08 4.1236156e-08 1.3556345e-09 2.14473e-07 9.6181365e-09 4.2246785e-07
4.862299e-08 5.31912e-08 2.4784566e-07 3.5628403e-07 5.820442e-08 9.8450855e-08 3.4543604e-08 6.741095e-08
4.494172e-09 2.9010184e-08 2.160715e-08 3.4120045e-09 6.092052e-09 2.6280446e-07 1.6093718e-07 6.966234e-08
2.4264676e-08 1.2254739e-07 4.322037e-07 2.2471225e-07 4.4697657e-08 3.0123015e-08 1.61427e-07 4.940537e-10
5.78003e-10 7.425553e-08 9.263942e-09 5.2310984e-08 2.6251346e-08 4.1537096e-08 2.8954798e-08 1.4239073e-07
1.0890742e-08 4.2461368e-09 1.219103e-10 5.7580436e-08 1.29205135e-08 2.3498425e-09 9.872489e-09 1.4487849e-08
2.0448017e-07 4.8080985e-08 2.5343033e-07 9.7533324e-08 1.8125473e-08 1.6084745e-07 2.2673165e-08 3.0033082e-08
2.521732e-08 2.8764246e-08 3.8771083e-07 6.2753e-10 5.802949e-08 1.8313249e-07 4.7030575e-09 1.05115e-07
3.0259738e-08 5.89944e-09 3.6825167e-08 1.9623077e-07 1.8638544e-07 1.02982646e-07 2.2184798e-07 4.5692033e-08
1.1101991e-08 8.675907e-08 1.9674554e-08 4.1270543e-08 3.4578537e-08 2.319424e-08 1.0484234e-07 6.2416774e-08
1.3317893e-08 1.12691225e-08 2.2306743e-09 2.4309742e-08 6.543305e-08 3.5028944e-07 2.2980716e-07 5.269761e-09
1.1874045e-09 2.7807476e-09 9.580483e-11 3.6149185e-08 1.8743219e-07 4.151064e-08 2.1557396e-09 5.4418567e-08
9.417365e-09 4.0062794e-08 2.1260192e-07 3.6150498e-09 1.273096e-08 8.200658e-09 6.04259e-08 2.6389825e-08
1.0694677e-07 3.0811748e-07 5.432258e-08 2.1059371e-08 5.018255e-08 1.5491656e-07 3.2913612e-09 2.063281e-09
1.1093819e-08 1.8528105e-08 7.4926565e-10 2.506968e-07 1.1537886e-07 1.8257934e-07 1.1265373e-08 2.6091406e-08
00000000: b143 e831 60ad 9a34 6ea4 172f 3d4f 6f34
00000010: 4808 4031 117c 0d33 17d4 7b31 0d71 b833
00000020: a8b3 8434 4b99 3533 eb1d 1533 4fd4 8030
00000030: 252f 8932 aa84 0b33 31e0 4434 18bd 3334
00000040: 9dd3 8e33 c2a5 a734 0bac f232 aed6 ea32
00000050: 9471 4131 22f9 4832 4aae 8434 b583 ae32
00000060: 724e 0533 f95a f832 64b6 9a32 0f2a 9230
00000070: e6b0 1a31 aa9c dc33 5489 de34 7968 8630
00000080: d62f 7333 b69a 8233 a34c 4c32 5a1b dc31
00000090: bc53 9f32 0312 1a34 3392 c430 c99f 6832
000000a0: f2cd 4833 e465 a634 e76e a030 16ec 3d32
000000b0: 4621 6b32 29f4 6832 f11d 2732 41a3 d130
000000c0: 4d54 1530 45ca 9431 e606 3733 70f5 a434
000000d0: f2bb 0f34 7043 ac33 d316 8932 8ff7 5d32
000000e0: 1b08 7b34 ee9a 9e32 4717 5833 302b 1d2f
000000f0: 10a3 1934 11bd d730 c75a 2234 13b3 2d32
00000100: e076 1b30 086e 7034 d2d2 1633 4fc0 2d32
00000110: 15b2 6231 d1cc fb30 0a86 5d33 c7e4 1133
00000120: 34eb 8032 1831 8133 5b84 3b34 c13e a633
00000130: 5f5f 4e30 68e0 6a32 690e 8c32 b9a3 5033
00000140: 215d da32 9be6 8a31 d85f 1f33 4808 2732
00000150: fe80 d533 72e0 9a32 b366 9731 da42 9f33
00000160: 799a 5d31 bdc4 a234 33d7 3632 0bb1 5731
00000170: f59f fd33 f6c8 3432 8673 2533 9d7f be33
00000180: e9ee eb33 f3c3 4633 626d 5a33 0d7e 2b33
00000190: 9e79 5631 8a7a bb34 ffe1 9033 dcb4 2635
000001a0: 19dd c830 dcb2 c931 aa45 7232 57ac fe31
000001b0: a136 5d34 4d99 5034 4577 3735 e0f9 c633
000001c0: be6c 0733 08ab 5f31 6b6d b02f d4a7 3432
000001d0: 728d 3931 1b82 8633 c43a 8932 bfc9 2033
000001e0: cbd1 5131 ef56 2c33 5b31 8c32 ab20 ab34
000001f0: 4faf c732 231b 5d34 5943 ad32 79ea 2832
00000200: c6a7 5932 d1fd 5134 2a6c 2c34 50de 6032
00000210: 4e7b 8334 8217 d330 db7d 1d31 3a57 9734
00000220: 7efc 8b34 43fe 8f32 a007 4233 a21b 3133
00000230: 2651 ba30 e449 6634 033d 2532 8acf e234
00000240: 8bd5 5033 5874 6433 a60f 8534 4e47 bf34
00000250: 70fc 7933 ee6b d333 185d 1433 90c3 9033
00000260: 286b 9a31 1232 f932 a09a b932 9e78 6a31
00000270: 4252 d131 9217 8d34 13ce 2c34 4799 9533
00000280: 966e d032 9295 0334 a009 e834 6f48 7134
00000290: 98f9 3f33 9b60 0133 b754 2d34 f0cd 0730
000002a0: 58e1 1e30 6976 9f33 3f27 1f32 89ac 6033
000002b0: 527f e132 8566 3233 46b8 f832 11e4 1834
000002c0: fd19 3b32 6ae5 9131 b30a 062f 5c4e 7733
000002d0: 05f9 5d32 de7a 2131 aa9b 2932 3ce6 7832
000002e0: 158f 5b34 9a81 4e33 330f 8834 8373 d133
000002f0: 56b2 9b32 69b5 2c34 d1c2 c232 b9fd 0033
00000300: 799d d832 3f15 f732 9226 d034 7f7e 2c30
00000310: 193c 7933 13a3 4434 8898 a131 95bb e133
00000320: eff6 0133 06b4 ca31 b329 1e33 81b3 5234
00000330: 3d21 4834 4f27 dd33 1c35 6e34 ec3e 4433
00000340: 13bb 3e32 4e50 ba33 cd00 a932 7141 3133
00000350: 8183 1433 ac3c c732 b025 e133 fc09 8633
00000360: b6cc 6432 209a 4132 704a 1931 b0d1 d032
00000370: 3384 8c33 6a0f bc34 e9c0 7634 4f11 b531
00000380: 1532 a330 6e17 3f31 53ad d22e 7342 1b33
00000390: f840 4934 6e49 3233 2c24 1431 d9b9 6933
000003a0: 02ca 2132 8211 2c33 9247 6434 a16c 7831
000003b0: 5bb7 5a32 e0e2 0c32 7dc3 8133 d7af e232
000003c0: 9caa e533 586b a534 4f50 6933 0ce6 b432
000003d0: 4c88 5733 2457 2634 3d2e 6231 a0c9 0d31
000003e0: 2297 3e32 bc27 9f32 e2f4 4d30 8197 8634
000003f0: 33c6 f733 070b 4434 a289 4132 9c1f e032
