ml-agents-release_20/Result/Dino/Dino06/Dino/Dino-999980.pt (torch, 205607 bytes, 21 tensors)

network_body._body_endoder.seq_layers.0.weight f4 [256, 29]
000000 34 d1 e8 3d 9a f5 44 be 88 cd 67 bd 7f 78 34 be
       0.11368027 -0.19234315 -0.056592494 -0.1762409
000010 fc 20 83 be 4c ac c8 bd 1d d7 4b be 7f f0 6a 3d
       -0.25611103 -0.09798488 -0.19906278 0.05735826
000020 2c ce 84 3e c5 fc bc 3e 8a e5 73 be 77 a9 b2 bd
       0.25938547 0.36911598 -0.23818031 -0.08723729
000030 b2 67 f0 3d f2 83 80 3d 8c be 05 3e f0 ef b6 3e
       0.11738528 0.062751666 0.13060969 0.35729933
000040 46 a7 85 be b7 4b 6f 3c c0 a0 9b bd db 81 31 bc
       -0.26104182 0.014605454 -0.0759902 -0.010834183
000050 5e 7c 51 3e 78 e0 b8 3d df 1b 16 be 76 78 85 3c
       0.20457599 0.09027189 -0.1465907 0.016292792
000060 df 26 99 bd c2 d8 be 3d 15 25 46 be 9f e4 a9 be
       -0.07478117 0.09318687 -0.19350083 -0.33182237
000070 c5 60 e6 be 0a 1f 03 3e b1 8a 8c 3d 1c 5d 11 be
       -0.44995704 0.12804809 0.06862391 -0.14195675
000080 43 30 db bd 77 f6 9a bd ff 9f fe 3e 6b a0 2c bd
       -0.107025646 -0.07566541 0.49731442 -0.042145174
000090 c7 92 16 be 93 98 0c 3e d6 58 8d 3c 10 22 df 3e
       -0.14704429 0.13730077 0.017254274 0.43580675
0000a0 bd f3 b0 3e c2 29 1b bd 18 2c 9d be d2 4e 64 be
       0.34560958 -0.03788162 -0.30697703 -0.22295693
0000b0 f6 c3 97 bd 4e e3 a4 38 e7 1d 12 be 81 1f 82 3d
       -0.074104235 7.862468e-05 -0.1426922 0.06353665
0000c0 b9 23 4f bd f5 9b 87 3d 2c b4 97 bd 41 30 0c bd
       -0.050571177 0.06621543 -0.07407412 -0.034225706
0000d0 17 7f 1f 3d 6f 72 96 3e 4f 9c 33 be 8a 27 6e be
       0.03893956 0.2938418 -0.17540096 -0.2325727
0000e0 51 33 fb 3b 3e 6a 03 3e bc 48 81 3d 12 eb b0 3d
       0.0076660295 0.12833497 0.06312701 0.08638586
0000f0 11 be 68 3e 4a c4 87 be 03 e5 a2 be ad d7 01 be
       0.22728755 -0.26516944 -0.31815347 -0.1267993
000100 5b 69 47 bd e9 d9 64 be 20 c2 08 be c2 7b 7b be
       -0.04868446 -0.22348751 -0.13355303 -0.24558929
000110 cd 5b d7 bd 1f 3c 72 bd 8a 2b ac 3e c4 23 02 3d
       -0.105155565 -0.059139367 0.33626968 0.03177239
000120 76 a1 2b 3d 4c 9c 49 be 12 f1 65 3e 16 74 26 bd
       0.041902028 -0.19688529 0.22455242 -0.040638052
000130 d3 b0 e3 bd 30 fa 3e 3d 89 6a 05 bf 3e 64 df 3d
       -0.11117711 0.046625316 -0.52115685 0.109077916
000140 49 9b 98 bd c5 6e 56 3d 68 6d 2c 3d 35 d3 9c bd
       -0.07451493 0.05235173 0.042096525 -0.07657472
000150 7d ca cb 3d b6 f5 f3 be 4a 6e 36 be 12 c8 ab 3c
       0.09950731 -0.476484 -0.1781551 0.020969424
000160 f6 f3 e3 bd 6d d7 d2 3e 53 99 63 bc 61 a4 20 3e
       -0.11130516 0.41179982 -0.013891536 0.15687706
000170 64 ee 39 3e 94 9d 9a be 9e f6 b5 3e 87 18 f7 3c
       0.18157345 -0.30198348 0.35539716 0.030163063
000180 31 1d 10 bd c6 f5 4e be 72 42 3d be 5d bc 99 3e
       -0.03518409 -0.20210943 -0.18482378 0.30026522
000190 ef 45 10 be d6 52 c5 3d 02 c8 86 3d 40 c5 f0 3b
       -0.14089178 0.0963494 0.06581117 0.007347733
0001a0 a2 94 ae bd 75 8a a1 bd d3 8c a3 3e 0f d4 1a 3c
       -0.08524443 -0.07887737 0.31943378 0.009449973
0001b0 06 3f 7e be 0a f1 51 bd 0c 8e 54 be cf 1f 6b be
       -0.24828729 -0.051255263 -0.20757312 -0.22961353
0001c0 43 60 b7 bd b3 a2 2e 3e 71 3c 12 bd e7 6e 55 bd
       -0.08953907 0.17054252 -0.035702173 -0.052107718
0001d0 07 b4 0f bd 89 24 85 bd e0 5e 0c be a7 97 65 be
       -0.035083797 -0.06501109 -0.13708067 -0.22421132
0001e0 d4 34 43 bd 25 08 df be ab c9 60 3d b1 2a 42 bd
       -0.047657803 -0.435609 0.054879826 -0.047403995
0001f0 e9 e6 02 be f6 64 7b 3e 76 c8 93 3d 37 d2 7b 3d
       -0.12783398 0.24550232 0.07215969 0.061479773
000200 79 b8 08 3f bf 42 b8 be ed ee bd 3d 36 08 ac bd
       0.5340648 -0.35988423 0.09274087 -0.084000036
000210 db 99 9a 3e 12 fe 18 bb 18 6b 56 bd 9f e6 54 3d
       0.30195507 -0.0023344797 -0.052348226 0.05197775
000220 f7 b2 2b 3d c1 7d 8b 3d 82 e7 e6 3e ed 53 9a 3c
       0.04191872 0.06811095 0.450985 0.018838847
000230 72 3e 1b 3d a2 df 47 3e d5 d9 82 3d e8 d8 6d be
       0.03790135 0.19518903 0.063892044 -0.23227274
000240 8b f4 03 bf 85 58 45 3e df 7a ba 3e 54 31 55 3e
       -0.5154502 0.19272049 0.36421868 0.20819598
000250 70 6d 46 3d 04 9f 03 bd 3b 71 a9 bd 58 39 30 be
       0.04844421 -0.03213407 -0.0827355 -0.17209375
000260 cf 39 04 3f 69 ef 3d 3d 8b ad ae 3e 41 01 14 be
       0.5165071 0.046370897 0.34116778 -0.14453603
000270 10 b1 70 be 8f 20 71 3e c8 b3 9a 3e 30 49 d6 bd
       -0.23505044 0.23547576 0.30215287 -0.10463178
000280 92 9b 18 3d e2 a9 87 bd 95 bf 9e be 30 4b 5d bd
       0.03725774 -0.066241995 -0.3100554 -0.054026783
000290 44 c2 cc bd 6b 75 7e 3e c5 02 d2 bd db ac 83 3e
       -0.09997991 0.24849479 -0.102544345 0.25717816
0002a0 9e 1d 0f bd ff 01 37 3e 04 92 9c 3e 12 42 26 be
       -0.034940355 0.17871855 0.3058015 -0.16236141
0002b0 93 f3 e2 3d 66 23 0e bf f6 51 35 be de a9 0d 3e
       0.11081614 -0.55522764 -0.17707047 0.1383433
0002c0 ec 8d bd bd 73 fe 88 bd 9d 40 de bb f7 a9 14 be
       -0.09255585 -0.06689157 -0.006782605 -0.14517961
0002d0 82 6e ae be 60 cc 7f 3e a0 b1 ac 3d cf df 86 be
       -0.34068686 0.24980307 0.08432317 -0.26342627
0002e0 ef ee 64 3d 5a 66 3d be 86 95 ce 3d 06 f6 34 3e
       0.055891927 -0.18496075 0.10087113 0.17671975
0002f0 27 20 01 be 16 93 2a 3d ca 40 0f 3e d6 1e 53 3d
       -0.12609921 0.04164418 0.13989559 0.05154308
000300 f1 87 02 be 8c 90 29 3e 13 ee af be 28 d3 9e 3e
       -0.1274717 0.16559047 -0.34361324 0.31020474
000310 ff 04 03 3d 92 42 fd bc a0 d5 22 be 77 d8 ac 3d
       0.031987187 -0.030915532 -0.15901804 0.08439725
000320 83 d9 36 3d 7f da 8c 3e ea 62 af be 6b 3c 02 3f
       0.04464103 0.2751045 -0.34255153 0.5087344
000330 19 9f c3 bd 25 39 81 3e 29 ed 07 3e 8d 03 e0 3d
       -0.0955183 0.2523891 0.13274063 0.10938177
000340 e7 b3 d5 be 5c 3e 3a 3c 4e 76 18 3e 35 26 3a 3e
       -0.41738817 0.011367407 0.1488888 0.18178637
000350 dd fd 01 3e 78 65 65 bd 04 f7 8d 3d 69 66 7f 3e
       0.12694497 -0.05600497 0.0693188 0.2494141
000360 a7 d7 04 3e 08 e6 25 3d 36 28 fc 3e 17 dd e0 bd
       0.1297289 0.040502578 0.4924943 -0.109796695
000370 34 22 b8 3c ca 80 8e be 0f 26 b8 be ce a4 4d bb
       0.022477247 -0.27832633 -0.35966536 -0.0031378749
000380 58 34 14 be 0d e8 96 3e ae e8 1a be 42 73 16 3e
       -0.14473093 0.29473916 -0.15127823 0.14692405
000390 06 bb 09 3e b2 82 b5 3c 13 95 94 3e c3 6c 43 3e
       0.1345025 0.022157047 0.29019985 0.19084458
0003a0 01 fb d0 3e dc 61 d4 3e 59 86 92 bd ee e6 a8 3e
       0.408165 0.4148091 -0.07154531 0.32988685
0003b0 95 3e eb bc 93 1c 1d be ba c5 36 3e be 5b 1e bd
       -0.028716365 -0.15342931 0.17848864 -0.03866171
0003c0 3a ec 47 bd 70 63 44 bc c3 d2 c6 bd 89 cb 46 3d
       -0.048809268 -0.011986598 -0.09708168 0.04853395
0003d0 ab dd 28 be 6e 58 47 3e 06 f4 97 be 7e ce c1 3d
       -0.1649081 0.19467327 -0.29678363 0.094632134
0003e0 8f 80 da 3d f1 03 c7 bc 85 9f 02 3e 1f 2e b9 bd
       0.10669052 -0.024293872 0.12756164 -0.09042
0003f0 8f f2 df bd d6 9a 5c bc 68 73 49 3d 6b 4f ef 3d
       -0.10934936 -0.01346465 0.049182326 0.1168507

network_body._body_endoder.seq_layers.0.bias f4 [256]
000000 40 2d 11 3c f9 c2 21 3d 64 89 4c 3c 59 96 4f 3c
       0.008860886 0.03949258 0.012483928 0.012670123
000010 1e 6e 96 bc a4 fc 82 3c 79 f7 88 ba 67 04 df 3c
       -0.018363055 0.015989609 -0.0010449729 0.027223779
000020 a9 ff 88 3c 45 2b 6c 3b 96 68 e9 3c 3a ba e3 3c
       0.01672347 0.0036036533 0.028492253 0.02779876
000030 65 6c 77 bc 84 92 0b 3d 24 54 f1 3c 92 9e 1b 3c
       -0.015101527 0.034075275 0.029459067 0.009498255
000040 28 e7 ad 3d 99 ed f5 3c 55 bb d1 b9 c3 d5 ba 3c
       0.08491355 0.030020522 -0.0004000316 0.022807008
000050 54 4c 1a 3d c6 15 e4 3c ab a4 a6 3c ca 83 44 3c
       0.03767045 0.027842414 0.020342192 0.011994312
000060 00 ee 87 3c 99 5a 0d bb ab 6f f0 3b 97 0d 6c bc
       0.01659298 -0.0021568893 0.0073375306 -0.014407537
000070 1b 49 9b ba 9d a7 59 3d ac 75 fd 3c d0 6f 15 3b
       -0.0011847349 0.053138364 0.0309399 0.002280224
000080 34 1a c0 3c aa be 20 3c df be 93 bb 04 f8 db 3c
       0.023449995 0.009811083 -0.0045088376 0.026851662
000090 29 3f 0b 3c 5a f1 be 3b c8 3d 9e bb 9e 7c 1c bc
       0.008498945 0.005827111 -0.0048291422 -0.009551195
0000a0 93 0b ae 3b 35 10 00 3d ed ea 72 3c 0c bc 76 3b
       0.0053114383 0.031265456 0.0148265185 0.0037648706
0000b0 31 a2 1f 3d bc 5b b6 3c 13 71 51 3d 04 2f a0 ba
       0.038973037 0.02226054 0.051133227 -0.0012221043
0000c0 34 d6 1c 3d 22 2a 3d 3b 9d 99 a5 bb 64 35 ef 3c
       0.038290218 0.0028864224 -0.0050537125 0.029200263
0000d0 1b d3 c6 3b 24 d9 ac b9 2e e7 24 3a e5 1c bb 3c
       0.006067646 -0.0003296818 0.0006290552 0.022840926
0000e0 d5 8e 2a 3d ca 55 12 3c 5e d9 57 3d f5 95 f5 3c
       0.04164012 0.0089315865 0.052697532 0.029978732
0000f0 73 03 cd 3c 3a 16 cd bb 1d e6 6d 3c a8 47 f4 3c
       0.025026059 -0.006258753 0.014520195 0.029819325
000100 4c 68 cb 3c 90 7a d2 3b 09 d1 6f ba 23 48 82 3a
       0.024830006 0.006423302 -0.0009148275 0.0009939711
000110 dd 8e 53 bc bb 30 fb 3b b1 2a 07 3b 6a 55 82 3c
       -0.012912479 0.0076657212 0.0020624811 0.01590987
000120 e0 27 e8 3b 9c 71 9b 3c 92 82 e9 3c c3 22 68 3b
       0.0070848316 0.018975072 0.028504644 0.003542111
000130 67 c1 b9 ba f0 5b 94 3c 8e 61 c9 3b b6 35 a4 3d
       -0.0014172018 0.018110245 0.0061456626 0.08018057
000140 32 4f a6 3a 8b 34 a5 3d 4d e1 0c 3c 2e 73 d6 3b
       0.0012688397 0.080666624 0.008598638 0.006544492
000150 3d 2b 0c 3c dc e6 1e 3c db 8a 02 3c e8 e2 3d 3b
       0.008555231 0.009698596 0.007967676 0.0028974358
000160 46 63 04 3d f6 b8 32 3c 29 4d aa 3b 8f f0 0c 3d
       0.032321237 0.010908356 0.0051971865 0.034409102
000170 7f 00 a8 3c 62 c5 ba 3b be ef cc 3c 87 96 2b 3b
       0.020508049 0.0056997994 0.025016662 0.002618225
000180 41 08 03 3d 85 37 0a 3c cd ef 7d 3d 10 75 98 3c
       0.031990293 0.008436088 0.06199627 0.018610507
000190 93 97 96 3c 0a 2f 17 3d 90 bb 89 3c 94 9a 04 3d
       0.018382823 0.036910094 0.01681307 0.03237398
0001a0 d9 00 a5 bb 26 30 92 3d f3 07 fe b9 56 d8 6a 3b
       -0.0050355014 0.0713809 -0.00048452578 0.0035834513
0001b0 8f 75 d2 3c 27 b4 7a 3c 60 39 f8 3c 4c 42 f6 3b
       0.025690822 0.015301741 0.030300796 0.0075152274
0001c0 a6 82 14 3b 9b da 77 3c ad 2b df 3c 46 ae f0 3c
       0.002266088 0.015127803 0.027242506 0.029379975
0001d0 a4 bc dd 3c 70 d1 5d 3d 28 7c d3 3b 8d 9d c6 3b
       0.02706749 0.054154813 0.0064540096 0.006061262
0001e0 31 07 26 bc 62 eb 4d 3d b7 6b ce 3d 06 72 18 3d
       -0.0101335505 0.050273307 0.10079139 0.037218116
0001f0 c9 19 da 3c 62 af 09 3d 4d f7 38 3d 7a df ed 3c
       0.026623623 0.033614524 0.04515772 0.029037226
000200 33 1b a6 3c 11 9c 6f 3c a7 2e 98 3b 3c 28 47 3c
       0.020276641 0.0146246115 0.0046442333 0.012155589
000210 73 f8 af 3a 1a b6 f9 3c d9 0a 48 3d 17 91 ea 3c
       0.0013425484 0.03048234 0.04883847 0.028633637
000220 e2 a5 43 3d 13 9f 4a 3c 28 89 0f 3d 1e 0a b0 bb
       0.04776562 0.012367028 0.03504291 -0.0053723
000230 3d 61 9b bb a8 56 32 3c dc 86 aa 3b dd ad e5 3c
       -0.0047418163 0.010884918 0.005204065 0.028037006
000240 00 f6 b9 3c 87 00 4e 3c 1c af 88 3c c4 65 b4 3c
       0.02270031 0.012573368 0.016685061 0.022021182
000250 a8 eb 3b 3d 38 6d e3 3c fc 6b a0 3c 8b 59 68 3b
       0.045879036 0.02776204 0.019582741 0.0035453762
000260 b0 12 e6 bb 88 5f ae 3c c2 67 16 3c 81 a4 2b bc
       -0.0070212707 0.021285787 0.009180011 -0.0104762325
000270 bd f8 f1 bb 6c 23 a4 3c bb c7 be 3c 15 08 46 3c
       -0.0073843882 0.020036422 0.023288598 0.012086888
000280 22 bd 1e 3d fe 87 a4 3c 81 bf c4 3c 8a e0 e8 3c
       0.03875459 0.020084377 0.024017097 0.028427381
000290 8a d0 57 3c af d4 11 3d 42 45 c9 3c 50 8e 49 3d
       0.013172278 0.03560322 0.024569158 0.049207985
0002a0 2a 75 78 3d ff 27 eb 3b 44 c1 56 3d c8 ca e4 3c
       0.06065861 0.0071763988 0.052430406 0.027928725
0002b0 11 53 02 b9 39 bf d8 3c 6e 62 e8 3b 5a 78 0b 3c
       -0.00012428711 0.02645837 0.007091812 0.008512581
0002c0 00 03 20 3c b3 70 2d bb 72 fe 68 3b 9f 3c de 3b
       0.00976634 -0.002646488 0.0035552052 0.006782129
0002d0 13 16 a1 3c 89 af b4 3c 8a 57 67 3d 22 f4 ad bb
       0.019663846 0.022056358 0.056479968 -0.005308644
0002e0 92 22 a4 3c 4e 1e a7 3c ca 8b c8 3c 5b 7b b6 3b
       0.020036016 0.020400193 0.02448072 0.0055689043
0002f0 4c 59 0f 3c 5b 13 3f 3d e8 4d 1a 3c b3 be 03 bc
       0.008749317 0.04664932 0.009417988 -0.008041072
000300 77 01 3d bb 9c 96 ea ba c5 24 d0 3c 1f 64 c6 3c
       -0.0028839984 -0.0017897668 0.025408158 0.024217663
000310 cf 22 56 3a 23 55 a3 3c 45 64 de 3c 66 7d 4b 3d
       0.0008168639 0.019938057 0.027147422 0.049680136
000320 4d fe eb 3c 52 e0 c4 3c cd 3d 00 3d 3e 00 75 3c
       0.028807783 0.024032746 0.031308938 0.014953671
000330 d5 b6 65 3d 8b 73 06 3c 4b 37 42 3c 48 3b 26 3d
       0.056082565 0.0082062585 0.011854003 0.04058388
000340 7c 5e 5f 3c 73 92 c4 3b 09 06 53 3c 87 00 46 3c
       0.013633367 0.0059989034 0.012879857 0.012085087
000350 41 c8 e3 3c e8 72 d8 3c 6f 21 2e 3d 06 40 d8 3a
       0.02780545 0.02642198 0.042512354 0.0016498573
000360 7f 9f cc 3b e6 d9 69 3d a1 99 9b bb 60 23 cb bb
       0.0062445994 0.05709257 -0.0047485386 -0.0061992854
000370 da 8b 2b 3d 35 6c 92 3c 75 42 bc 3c 2a 3e b2 b9
       0.04188142 0.017873863 0.022980908 -0.00033997121
000380 60 22 94 3c a5 0b 06 3c b3 41 79 3d c6 62 95 3c
       0.018082798 0.008181487 0.06085367 0.018235575
000390 b0 1f 39 3d 72 05 94 3c 5c cb ef bb 41 91 88 3c
       0.045196235 0.018069003 -0.0073179435 0.016670825
0003a0 b9 a6 e4 39 68 1e 0e 3b a5 8c 2f 3d ad ad 44 3c
       0.00043611767 0.0021685604 0.04285874 0.012004298
0003b0 0e b4 6c 3c a4 9e 5b 3c d1 4b fc 3a 47 82 f4 ba
       0.014447225 0.013404522 0.0019248669 -0.0018654548
0003c0 30 14 a5 3c 96 93 b7 3c 8b 72 22 3d ed 2f 0d 3d
       0.020151228 0.022409242 0.039660018 0.034469534
0003d0 35 93 8a 3a 5e e0 6b 3b 77 d7 85 3c 13 67 7a bb
       0.0010572436 0.0035991888 0.016338093 -0.003820841
0003e0 94 ad 3e 3d 7a 7e 13 3c f7 5c 28 bb 5f f5 d5 3c
       0.046552256 0.009002322 -0.0025690177 0.026117979
0003f0 ef da 2c 3d e5 81 12 3d bb c8 5d 3c 65 e5 38 3b
       0.04220098 0.03576841 0.013536627 0.0028212902

action_model._discrete_distribution.branches.0.weight f4 [2, 256]
000000 03 db fd 3b 8a 15 08 be 1e fd 4b 3b df 0a 3d bd
       0.0077470555 -0.13289467 0.0031126211 -0.046152946
000010 19 21 5e ba 6f 06 20 3c 39 8e 3d bb 72 9d 4e 3d
       -0.000847356 0.009767159 -0.0028923883 0.05044312
000020 a6 7b 85 3d d7 17 90 bb d8 ab aa 3d 59 c0 0f bd
       0.06517725 -0.004397373 0.08333558 -0.035095546
000030 24 52 e4 3b e2 c3 28 bd 21 5d 88 bd c4 ac 26 bd
       0.0069677997 -0.041202433 -0.06658388 -0.040692106
000040 b4 b5 c5 3d 51 b1 cf 3d 3e 65 b5 3b c5 45 4f 3d
       0.09653798 0.10141242 0.0055357506 0.050603647
000050 8c e1 b9 3c 5a dc 51 bd 15 c3 97 bd ca e1 80 3b
       0.022690557 -0.051235534 -0.07410256 0.003933166
000060 2c 61 c7 3c ac 43 49 bb 79 49 3e 3c 8c 99 46 3c
       0.024338327 -0.0030710502 0.011614197 0.012121569
000070 1f 34 7e bc 10 91 b0 bd 51 af de 3d c3 d8 14 bc
       -0.015515356 -0.086214185 0.10873283 -0.009084883
000080 05 01 73 3d c5 96 5d 3d 04 bc ff 3b b3 88 37 3b
       0.059327144 0.054098863 0.0078043956 0.0028005063
000090 6f 4f 04 bd 1e 89 a7 bc a1 74 4d bb 06 a4 26 bb
       -0.032302316 -0.020451125 -0.0031350034 -0.0025427355
0000a0 c3 76 f3 bc ee 1a b8 3d 95 9e ab bc ff e5 38 bd
       -0.029719716 0.089895114 -0.020949641 -0.045141216
0000b0 08 0e 8c 3d 83 9b 2c 3d 8a 7c 37 3d 23 6e 00 3d
       0.06838614 0.042140495 0.044796504 0.031355035
0000c0 c3 49 04 bd e4 ee 8c 3b e0 c9 12 bc dd a4 83 bd
       -0.032296907 0.004300939 -0.008959264 -0.064279296
0000d0 db 20 ce bc f2 e4 a6 bc 61 ee 4b bb 64 5f 1d 3c
       -0.025162151 -0.020372842 -0.0031117427 0.009605262
0000e0 32 f5 95 bd 51 68 f0 3c 25 56 a3 3d c6 83 07 bc
       -0.07322158 0.029346617 0.07975415 -0.008271163
0000f0 8b e5 f4 3c 65 59 d9 3b 20 fd 49 bd 7c 20 9b 3c
       0.02989461 0.006632971 -0.049313664 0.018936388
000100 37 f0 06 bc e5 29 35 3d 21 21 23 bc 27 57 86 3b
       -0.008235983 0.044229407 -0.009956629 0.004099745
000110 63 63 4c 3a a2 fc 4a 3d 9b 10 32 3c 35 29 10 3d
       0.0007796792 0.049557336 0.010868217 0.035195548
000120 82 c2 94 3c 58 08 d3 3c 91 99 84 3d 53 cf 2e bc
       0.018159155 0.025760815 0.06474603 -0.010669547
000130 60 aa 85 3b 6c 88 61 3c ca da fd 3c 13 a1 a1 bd
       0.004079148 0.013765436 0.030988116 -0.078920506
000140 a1 00 2d 3c 8f 88 04 3d c6 e9 05 bd ee 3f 87 3c
       0.010559232 0.032356795 -0.032693647 0.016509976
000150 21 09 4b 3d 2b 3a 11 bd 52 44 1c 3d be 50 83 bc
       0.049569253 -0.035455864 0.038151093 -0.016029712
000160 28 2c ba bc 60 e6 0d bd 3f 18 90 3a a2 2d 0d bd
       -0.022726133 -0.03464353 0.0010993554 -0.034467347
000170 47 1f 59 bd d8 77 b5 bb 95 25 49 3d 5e a6 ce bb
       -0.053008344 -0.005537968 0.049108107 -0.0063064536
000180 b8 8a ae 3d 0b a3 85 3c ac 26 c3 bd fc 0e 20 3d
       0.08522552 0.016313097 -0.095288604 0.03907679
000190 ac 2d a0 3b 68 0a c4 bd e3 76 30 3d d0 04 a5 bd
       0.004888257 -0.09572297 0.04308213 -0.080575585
0001a0 11 a1 93 bb 5a d8 82 bd f1 0b 0c bb 9d ab a3 bb
       -0.0045052846 -0.06388922 -0.0021369422 -0.004994823
0001b0 53 df 99 bd f0 d3 1a bd 16 06 d1 bd 1a 0c eb bc
       -0.07513299 -0.037799776 -0.10206239 -0.028692294
0001c0 d8 fc 7c 3c 45 78 11 3d 00 9b eb bb 3d 39 eb 3c
       0.015441142 0.03551509 -0.0071901083 0.028713817
0001d0 69 d2 83 bd d4 85 99 3d 5c f2 ab bc 81 77 f6 3c
       -0.06436617 0.07496229 -0.02098959 0.03008628
0001e0 47 ff c5 3b 32 83 be bd 62 21 ab 3d 0f eb ba bd
       0.0060423943 -0.09302367 0.08355977 -0.09126865
0001f0 85 72 a6 3c 27 d8 d1 bd 69 99 bb 3d 3e c6 0c 3d
       0.020318279 -0.10246306 0.0916012 0.034368746
000200 72 01 47 3c 7c a0 0b bd c2 8f a6 bc 9b 56 f6 bc
       0.012146341 -0.034088597 -0.020332221 -0.030070594
000210 14 eb 5f bc 82 6d 00 3d 1f 78 e9 bc 78 36 c3 3d
       -0.013666887 0.031354435 -0.028499661 0.095318735
000220 95 cc d6 bd 7a 10 03 3c 30 5c 95 3d 6f 38 cb bc
       -0.1048824 0.007999534 0.07292974 -0.024807183
000230 58 6b 72 bb d6 2f 4e bd e8 70 8f 3c fd cc b3 3d
       -0.0036990251 -0.05033859 0.017509893 0.08779333
000240 fa 5e 4a 3d 99 67 09 3d b1 7c 27 bd e1 81 a2 bd
       0.049406983 0.033546064 -0.0408904 -0.07934929
000250 86 a4 a8 3d af 68 60 bd b5 66 83 bd cc e4 be 3c
       0.08234505 -0.054787334 -0.06416074 0.023302458
000260 75 4b 32 3c 9d ed e6 3c 8c 24 c2 bc e0 6d d9 3a
       0.010882248 0.028189475 -0.023699068 0.0016588531
000270 ce bf 20 3c 38 ea ce 3d f3 4b 88 3d f5 da 0d bd
       0.009811355 0.101032674 0.06655111 -0.03463264
000280 5d 56 3a 3d ca 4d 60 3d 27 f9 c6 3d 75 e7 ad bd
       0.04549252 0.054761685 0.09715491 -0.084914126
000290 ed 5c 3c bd 6f 2e 44 3d ea 42 72 3d 3a fb f7 bc
       -0.04598706 0.047895845 0.059145845 -0.030271161
0002a0 71 28 2b bd 46 36 da 3c 43 fc a5 3c 45 7c 82 3d
       -0.041786615 0.026637208 0.02026189 0.06371359
0002b0 7c 75 48 bb 50 53 15 bd 53 45 76 bc 26 83 45 3d
       -0.0030587604 -0.036456406 -0.015031177 0.048220776
0002c0 f4 50 1e bd b6 83 10 3d 8c b4 25 bb 0f a5 bd 3c
       -0.03865142 0.03528186 -0.0025284616 0.023149995
0002d0 7f 06 01 3d 9a 30 4a bc 17 2a 83 3d bd fd 3e 3b
       0.031500336 -0.012340689 0.064045124 0.002914294
0002e0 78 f0 95 3d 71 c8 84 3d 97 f4 ae bd 26 33 ee bc
       0.073212564 0.06483544 -0.085427456 -0.029077124
0002f0 8e 47 d6 3c 9f a1 d7 bd ae a1 d1 bc 3e e1 c4 bc
       0.026157167 -0.10528874 -0.02558979 -0.024033185
000300 61 d0 38 bd f9 c0 26 3d 35 3f a0 3d 16 84 3b bc
       -0.0451206 0.040711377 0.07824556 -0.011445066
000310 f7 db e6 bb 7e 45 28 bd b6 18 14 3d 4e fa a1 bd
       -0.007045265 -0.041081898 0.03615638 -0.0790907
000320 5f 60 79 bd bf f7 d3 3c 7b cc 3d 3d b0 5d 87 3d
       -0.060882922 0.02587497 0.046337586 0.06609666
000330 b5 f2 ec bd 6f 70 4b bc 03 ad 53 bd c4 3b 98 3d
       -0.1156973 -0.012416943 -0.05167867 0.074332744
000340 20 d2 9f bc 83 69 5a 3c c6 85 32 bd 68 56 b5 3c
       -0.019509375 0.01333082 -0.043584608 0.022135928
000350 85 73 4f 3d 4a 1d 8e 3c 6b 27 cb bd ef 91 89 bc
       0.050647277 0.01734795 -0.09919628 -0.01679322
000360 1d 5d d0 bb d5 76 28 3d 03 37 06 bc 30 bd 22 bc
       -0.006358756 0.041128952 -0.008191827 -0.009932801
000370 9c e3 4c bd c8 dc 70 bd 0b b4 94 3d 7f 68 ca 3c
       -0.050021753 -0.058804303 0.07260903 0.02470803
000380 89 a1 cd 3b 9a cc 52 bc 68 55 2e bc 36 a3 f3 bc
       0.00627536 -0.012866164 -0.01064048 -0.029740911
000390 58 00 96 3d 9d 3a 66 bd ba f3 83 3c fc c6 7f 3d
       0.07324284 -0.05620824 0.016107429 0.062445626
0003a0 07 10 c3 3b ac 92 47 bc 87 ed 99 3d fb dc 1d 3c
       0.0059528383 -0.012180965 0.07516008 0.009635205
0003b0 2f 38 1a 3d 19 02 a0 bb c3 52 d5 bb f8 35 8d bc
       0.037651237 -0.0048830626 -0.00651011 -0.017237648
0003c0 a6 13 b0 bd eb e2 bf 3d 75 84 97 3d 6c 7d 93 bd
       -0.08597498 0.09369453 0.07398311 -0.07201657
0003d0 24 d9 cc 3a e2 6f a6 bc db 25 fb 3c 3c a2 92 bb
       0.0015628678 -0.020317022 0.0306577 -0.0044749063
0003e0 36 28 a4 3d da f6 fc 3c 29 7b ff ba e4 b8 93 bd
       0.08015482 0.030879427 -0.0019491661 -0.072129995
0003f0 8f 7d 90 3d 75 78 c5 3d 75 81 11 3d d2 a2 60 bd
       0.070551984 0.09642116 0.03552385 -0.054842778

action_model._discrete_distribution.branches.0.bias f4 [2]
000000 9e 79 a5 ba 7f 79 a5 3a
       -0.0012624746 0.001262471

exp_avg f4 [256, 29]
000000 69 a0 85 b5 7b b7 54 b5 41 44 f9 36 41 44 f9 36
       -9.955958e-07 -7.9243154e-07 7.428724e-06 7.428724e-06
000010 cd c6 85 b5 3e d2 24 37 19 db 55 b6 39 88 2c 36
       -9.967131e-07 9.824113e-06 -3.1867005e-06 2.570929e-06
000020 69 a0 85 b5 1f e3 2b b6 71 4f 1a 37 22 73 19 37
       -9.955958e-07 -2.5613188e-06 9.197612e-06 9.146317e-06
000030 dd 48 82 b5 72 a3 26 37 e7 de 5e b6 7d 87 bb 32
       -9.706961e-07 9.932426e-06 -3.3210324e-06 2.1831278e-08
000040 8a a9 b9 b5 b4 f1 15 b6 38 54 1b 37 57 d7 1a 37
       -1.3832916e-06 -2.234342e-06 9.258329e-06 9.229253e-06
000050 bd f8 27 37 75 6a a8 b5 46 23 51 b6 6a 1e 26 b5
       1.001189e-05 -1.2547958e-06 -3.1163959e-06 -6.188408e-07
000060 e0 94 ab b4 db 53 5d b6 38 54 1b 37 1b 0e 1a 37
       -3.1959553e-07 -3.2980377e-06 9.258329e-06 9.1823995e-06
000070 00 00 00 00 f1 c7 bb 37 c1 3c 16 37 b3 c3 6d ba
       0.0 2.2385242e-05 8.954842e-06 -0.0009069994
000080 b3 c3 6d ba 67 a9 bd 37 45 7b 82 ba ba e5 cb 38
       -0.0009069994 2.260944e-05 -0.000995495 9.722584e-05
000090 4c 63 f6 b9 f1 c7 bb 37 93 4f 2d 37 00 20 6e ba
       -0.00046994758 2.2385242e-05 1.0330131e-05 -0.0009083748
0000a0 9e 41 6e ba dd 8c aa 37 cd 52 84 ba 62 25 ee 38
       -0.0009088757 2.0331174e-05 -0.0010095477 0.000113556875
0000b0 7d fd 65 b9 5b de e7 37 03 20 cf 36 b7 69 6e ba
       -0.00021933574 2.7640888e-05 6.1728074e-06 -0.0009094732
0000c0 f5 77 6e ba 84 dd 94 ba fb 39 21 39 2d 00 df 38
       -0.00090968545 -0.0011357521 0.00015375756 0.000106335014
0000d0 4d 48 22 b9 5f c9 9e 37 f5 b9 79 37 b7 69 6e ba
       -0.00015476458 1.8928838e-05 1.4884853e-05 -0.0009094732
0000e0 65 5a 6e ba 00 00 00 00 1f 17 c6 33 64 7f 8b 33
       -0.00090924493 0.0 9.224299e-08 6.495864e-08
0000f0 d3 91 58 35 d3 91 58 35 51 44 c6 33 51 07 5b 35
       8.067847e-07 8.067847e-07 9.23252e-08 8.1594504e-07
000100 a7 4c 6f 33 3c 64 b0 34 1f 17 c6 33 51 a3 f7 33
       5.571624e-08 3.2855485e-07 9.224299e-08 1.1531541e-07
000110 58 0d 4b 35 78 bb 4c 35 f3 0d c5 33 62 95 44 35
       7.564281e-07 7.6268725e-07 9.176065e-08 7.323307e-07
000120 1b 36 16 34 0a 3e 89 34 02 eb 01 34 26 39 c0 33
       1.3989522e-07 2.5563378e-07 1.2099557e-07 8.951092e-08
000130 c0 42 4a 35 d5 17 4b 35 85 a9 e7 34 0c 1d ca 34
       7.5348e-07 7.5658073e-07 4.3150445e-07 3.7646566e-07
000140 72 85 27 34 e6 05 80 34 b9 82 b7 33 38 46 06 34
       1.5601634e-07 2.384615e-07 8.54538e-08 1.2505268e-07
000150 c0 42 4a 35 3f 6b 4b 35 00 00 00 00 94 25 04 37
       7.5348e-07 7.5779457e-07 0.0 7.876562e-06
000160 4d 7c 07 36 be f8 c1 b9 be f8 c1 b9 61 4b 06 37
       2.018892e-06 -0.00036997156 -0.00036997156 8.004573e-06
000170 b6 fa e6 b9 ff fe 97 38 f2 70 36 b9 94 25 04 37
       -0.00044055813 7.247738e-05 -0.00017398948 7.876562e-06
000180 19 93 51 37 5c 76 c7 b9 1f 23 c7 b9 57 d3 e8 36
       1.249162e-05 -0.00038044422 -0.00037982405 6.938742e-06
000190 08 db ea b9 80 bc a9 38 23 51 86 b8 70 b7 37 37
       -0.0004479515 8.093659e-05 -6.404731e-05 1.095036e-05
0001a0 2d e8 26 37 97 bd c7 b9 0b 8c c7 b9 1c ad fe b9
       9.948429e-06 -0.00038097493 -0.00038060578 -0.00048575632
0001b0 7f a9 4d 38 4f bd a0 38 83 2c 17 b8 b7 17 a7 36
       4.9033664e-05 7.664656e-05 -3.604266e-05 4.9797486e-06
0001c0 df 89 85 37 97 bd c7 b9 ba 6c c7 b9 00 00 00 00
       1.5919037e-05 -0.00038097493 -0.00038037245 0.0
0001d0 00 ae 3a 35 d3 e9 3f 34 fe 0e 8a 36 fe 0e 8a 36
       6.9543603e-07 1.7873326e-07 4.114466e-06 4.114466e-06
0001e0 20 30 3c 35 11 33 af b4 3c d1 9a 36 c4 20 90 36
       7.010549e-07 -3.2633446e-07 4.6139157e-06 4.295349e-06
0001f0 00 ae 3a 35 0f 5a 9c 35 96 ef 51 36 01 77 56 36
       6.9543603e-07 1.1649116e-06 3.1282884e-06 3.1957754e-06
000200 27 0c 35 35 a8 bb 0d b5 01 7a a2 36 4f 6d 99 36
       6.744544e-07 -5.279967e-07 4.8421794e-06 4.5724805e-06
000210 b0 fb 88 35 b7 e0 70 35 1a 12 4e 36 d5 ca 50 36
       1.020604e-06 8.973397e-07 3.0706929e-06 3.111248e-06
000220 25 8c a4 34 a6 61 04 b3 12 24 9e 36 75 39 9b 36
       3.064935e-07 -3.0822456e-08 4.712966e-06 4.626049e-06
000230 80 c6 f0 34 6c 3a c5 35 1a 12 4e 36 f6 3c 52 36
       4.484791e-07 1.4694647e-06 3.0706929e-06 3.1327922e-06
000240 00 00 00 00 f0 84 3b b6 4b 36 f9 b5 75 6b bd 38
       0.0 -2.7942551e-06 -1.8567747e-06 9.032238e-05
000250 75 6b bd 38 5c 0c 3d b6 b3 2e e0 38 5b 6f 9a b7
       9.032238e-05 -2.8170389e-06 0.00010689851 -1.8410085e-05
000260 79 36 2d 38 f0 84 3b b6 b3 98 d5 b6 28 e0 c6 38
       4.1297146e-05 -2.7942551e-06 -6.365671e-06 9.483128e-05
000270 87 58 c6 38 b3 70 2e b6 1c 67 e5 38 7e 24 b1 b7
       9.457865e-05 -2.599362e-06 0.000109387765 -2.1117037e-05
000280 34 44 6e 37 29 44 8e b6 c5 66 ac b6 23 55 c7 38
       1.4201785e-05 -4.2398647e-06 -5.1379634e-06 9.5049174e-05
000290 39 09 c7 38 94 30 f1 38 52 33 1b b7 ca 7e a8 b7
       9.490777e-05 0.00011500824 -9.250669e-06 -2.0086201e-05
0002a0 0c b0 fa 36 f1 bd c1 b5 ba 1d 05 b7 23 55 c7 38
       7.471075e-06 -1.4434901e-06 -7.934339e-06 9.5049174e-05
0002b0 57 cc c6 38 00 00 00 00 9d 90 aa 34 bd e6 ea 34
       9.479437e-05 0.0 3.1770188e-07 4.375378e-07
0002c0 7a 84 76 b7 7a 84 76 b7 a3 37 ad 34 e7 74 8e b7
       -1.4693587e-05 -1.4693587e-05 3.2264242e-07 -1.6982156e-05
0002d0 29 9d 36 36 9c 3d 06 b7 9d 90 aa 34 a5 43 6f 35
       2.7211593e-06 -8.001367e-06 3.1770188e-07 8.9132874e-07
0002e0 81 21 7e b7 55 7e 7d b7 22 05 98 34 6f 75 99 b7
       -1.51473805e-05 -1.5109389e-05 2.831594e-07 -1.8293706e-05
0002f0 e0 a3 88 36 5a 84 34 b6 db 7d de 34 e8 a1 5f 35
       4.0721934e-06 -2.689913e-06 4.1442294e-07 8.330958e-07
000300 ce c6 7e b7 c3 4a 7e b7 b7 34 bd b7 1b a0 99 36
       -1.5185868e-05 -1.5156987e-05 -2.2555103e-05 4.578394e-06
000310 3e 81 87 36 29 cf b4 b5 89 9f 83 34 85 88 86 35
       4.0383593e-06 -1.3471337e-06 2.4516729e-07 1.002351e-06
000320 ce c6 7e b7 f9 38 7e b7 00 00 00 00 99 f7 5b b7
       -1.5185868e-05 -1.5152845e-05 0.0 -1.31110655e-05
000330 33 97 6d b6 68 d0 59 39 68 d0 59 39 f3 f7 5d b7
       -3.5403762e-06 0.0002077237 0.0002077237 -1.3230357e-05
000340 48 1c a6 39 f3 fc eb b8 a9 f3 88 38 99 f7 5b b7
       0.00031683058 -0.00011252789 6.5303706e-05 -1.31110655e-05
000350 24 50 c5 b7 0f c4 6e 39 82 fe 6d 39 16 6a 51 b7
       -2.3521548e-05 0.00022770486 0.00022696893 -1.2482071e-05
000360 64 0b ad 39 92 a5 04 b9 31 1f a0 b7 6e 0d a5 b7
       0.00033005618 -0.0001265018 -1.9088011e-05 -1.9675786e-05
000370 6c c1 99 b7 6c 34 70 39 b4 a8 6f 39 1d de ae 39
       -1.832909e-05 0.00022907712 0.00022855663 0.00033353354
000380 d4 cb b1 b7 5e 50 fe b8 54 47 26 b8 68 3e c0 b6
       -2.119496e-05 -0.000121266334 -3.9643914e-05 -5.729311e-06
000390 9f 5f 07 b8 6c 34 70 39 89 09 6f 39 00 00 00 00
       -3.2275562e-05 0.00022907712 0.00022796368 0.0
0003a0 cf 3f 39 b7 70 18 d4 b6 99 6a b8 39 99 6a b8 39
       -1.1041716e-05 -6.3209372e-06 0.00035174636 0.00035174636
0003b0 4d d2 3a b7 48 79 e0 39 f2 49 ad b8 aa e6 2d 39
       -1.1135428e-05 0.0004281497 -8.263056e-05 0.00016584495
0003c0 cf 3f 39 b7 cb 81 95 b7 53 72 be 39 21 5c be 39
       -1.1041716e-05 -1.7822624e-05 0.00036324802 0.00036308265
0003d0 f4 88 2f b7 44 6e ea 39 0f 87 d6 b8 f5 ff 4a 38
       -1.04627e-05 0.00044714112 -0.00010229472 4.839893e-05
0003e0 c8 7a 8e b7 9c 7f 55 b7 e0 e3 be 39 84 db be 39
       -1.6984894e-05 -1.2725501e-05 0.00036409404 0.00036403176
0003f0 ce 2b 01 3a ab 1a 7d b8 40 90 cd b8 dd 1e a2 37
       0.0004927487 -6.0344737e-05 -9.8020304e-05 1.9326277e-05

exp_avg_sq f4 [256, 29]
000000 08 db 88 2f 71 ce e4 30 81 40 04 30 81 40 04 30
       2.4893887e-10 1.6647858e-09 4.8112986e-10 4.8112986e-10
000010 8e bb 88 2f 47 c5 f9 30 05 5b d3 2f 27 e8 d5 2f
       2.4871522e-10 1.8173204e-09 3.844535e-10 3.8909428e-10
000020 c0 ca 88 2f d4 03 fd 30 b3 c6 b0 2f 22 3f bc 2f
       2.4882318e-10 1.8409261e-09 3.2155398e-10 3.424186e-10
000030 58 18 8c 2f 58 56 00 31 bc 3c 93 2f 96 e6 b6 2f
       2.548315e-10 1.8675532e-09 2.6782299e-10 3.3269448e-10
000040 23 ec 8d 2f a2 c5 fc 30 12 56 ae 2f 88 45 b2 2f
       2.5815536e-10 1.8391584e-09 3.1711572e-10 3.2427416e-10
000050 ea 9e 00 30 20 f6 f0 30 2c 77 51 2f 95 0b a2 2f
       4.679196e-10 1.7532251e-09 1.9050778e-10 2.9475858e-10
000060 af ba b2 2f b3 04 f1 30 12 56 ae 2f 48 95 b0 2f
       3.2510658e-10 1.7536393e-09 3.1711572e-10 3.2120284e-10
000070 00 00 00 00 d6 e7 3d 33 df 88 06 33 ce e6 b5 35
       0.0 4.4215845e-08 3.132379e-08 1.3552724e-06
000080 ce e6 b5 35 40 3c 45 33 e6 d9 b0 35 af 55 be 34
       1.3552724e-06 4.5922434e-08 1.3176439e-06 3.54526e-07
000090 c4 18 00 35 dc e9 3d 33 bd 02 10 33 c5 62 b5 35
       4.7719755e-07 4.4217686e-08 3.3530103e-08 1.3514297e-06
0000a0 b7 97 b5 35 6e 11 9d 33 1f 94 a9 35 bc f8 44 34
       1.3529706e-06 7.314053e-08 1.263459e-06 1.8344412e-07
0000b0 d2 8b 9d 34 b9 65 3e 33 a6 35 11 33 9f 29 b5 35
       2.9345262e-07 4.433034e-08 3.3809236e-08 1.3497664e-06
0000c0 06 51 b5 35 86 01 93 35 b5 b2 88 34 b0 be ff 33
       1.3509132e-06 1.0952797e-06 2.5462e-07 1.1909049e-07
0000d0 c9 a6 82 34 f2 e2 43 33 8a d6 09 33 9f 29 b5 35
       2.433574e-07 4.560838e-08 3.209292e-08 1.3497664e-06
0000e0 bb 48 b5 35 00 00 00 00 f5 66 97 2c a5 d1 d3 2d
       1.3506718e-06 0.0 4.3031087e-12 2.4081024e-11
0000f0 41 b3 86 2d 41 b3 86 2d 08 73 97 2c b7 5d 12 2e
       1.5313641e-11 1.5313641e-11 4.304449e-12 3.3279792e-11
000100 18 11 f3 2c 3a 6b 05 2d af 5d 97 2c c3 7c d7 2d
       6.908373e-12 7.583984e-12 4.302079e-12 2.4498075e-11
000110 af 85 82 2d 63 26 83 2d c2 f8 9c 2c d8 93 28 2e
       1.4838656e-11 1.4910023e-11 4.4614043e-12 3.833009e-11
000120 bf 07 e1 2b a0 b6 77 2c cb 46 9c 2c 34 ee d4 2d
       1.5989362e-12 3.5202188e-12 4.4416463e-12 2.4207393e-11
000130 09 43 82 2d ab 84 82 2d 57 a4 cc 2c 69 74 26 2e
       1.4809058e-11 1.4838205e-11 5.816274e-12 3.7847423e-11
000140 b5 84 4c 2b ae 64 43 2c cc a8 a0 2c 5e a9 d3 2d
       7.2659527e-13 2.7767055e-12 4.5662137e-12 2.4063137e-11
000150 09 43 82 2d ec 72 82 2d 00 00 00 00 9f c8 d4 31
       1.4809058e-11 1.4830324e-11 0.0 6.19282e-09
000160 6b f4 02 31 66 d4 b9 34 66 d4 b9 34 39 2b f0 31
       1.9056425e-09 3.4613475e-07 3.4613475e-07 6.989833e-09
000170 e0 ee 89 34 5e fc 37 34 e1 2a 46 34 6a cb d4 31
       2.5692043e-07 1.7135014e-07 1.8455786e-07 6.1931376e-09
000180 34 4d 88 31 56 af b8 34 96 e9 b8 34 73 35 75 32
       3.966898e-09 3.4400244e-07 3.4442627e-07 1.427303e-08
000190 9f bc 8f 34 ab fe c3 33 33 89 0c 34 4a 1c da 31
       2.6773066e-07 9.126719e-08 1.3088429e-07 6.347851e-09
0001a0 57 4d 86 31 cf 6f b8 34 01 96 b8 34 82 bd 79 34
       3.908706e-09 3.4354022e-07 3.4381813e-07 2.3258875e-07
0001b0 00 44 86 33 a9 c5 82 33 ab df f0 33 be b4 f5 31
       6.2522304e-08 6.089551e-08 1.1216556e-07 7.1509865e-09
0001c0 b4 54 4e 31 cf 6f b8 34 f1 8c b8 34 00 00 00 00
       3.0025094e-09 3.4354022e-07 3.437522e-07 0.0
0001d0 49 ea ac 2f c3 6a 29 2f cb 45 3f 31 cb 45 3f 31
       3.1453087e-10 1.540839e-10 2.783383e-09 2.783383e-09
0001e0 3d fc b4 2f 49 13 9b 2f 99 32 38 31 62 6f 37 31
       3.2921035e-10 2.820804e-10 2.6804285e-09 2.6693319e-09
0001f0 61 f2 ac 2f cb 47 b0 2f d4 6d 35 31 d8 af 36 31
       3.1458838e-10 3.2065225e-10 2.6401397e-09 2.6584441e-09
000200 83 f4 e2 2f ee 4f 17 30 48 a9 12 31 86 25 25 31
       4.1282897e-10 5.5047067e-10 2.1342021e-09 2.403199e-09
000210 d7 85 b6 2f 2d 40 a9 2f 60 80 33 31 88 0e 34 31
       3.3200706e-10 3.078652e-10 2.61209e-09 2.6201707e-09
000220 2a e5 65 30 83 ee 13 30 bd df e5 30 fe e8 18 31
       8.3635376e-10 5.3817234e-10 1.6725533e-09 2.2251352e-09
000230 77 99 de 2f f6 2c 82 2f 60 80 33 31 1a ef 33 31
       4.0490608e-10 2.367881e-10 2.61209e-09 2.6183842e-09
000240 00 00 00 00 50 5c a7 30 70 59 86 31 17 da 02 33
       0.0 1.2177086e-09 3.910081e-09 3.0466335e-08
000250 17 da 02 33 3c 56 ab 30 49 57 c9 32 1e fd 99 32
       3.0466335e-08 1.2466397e-09 2.3439172e-08 1.7926649e-08
000260 84 c5 9e 32 5c 6b a7 30 97 6e 9c 31 63 66 00 33
       1.848344e-08 1.2181363e-09 4.55277e-09 2.9895443e-08
000270 46 c1 00 33 df 29 f0 30 15 b8 ef 32 bb fb d9 31
       2.9978104e-08 1.7474199e-09 2.7906973e-08 6.3441497e-09
000280 77 e3 4a 32 ce a0 af 30 4f df 9b 31 ac 25 00 33
       1.1809667e-08 1.2778629e-09 4.536481e-09 2.9836585e-08
000290 e7 4b 00 33 6c 5d b1 32 53 89 27 32 b5 5d 9f 31
       2.9871355e-08 2.0647995e-08 9.751903e-09 4.6381623e-09
0002a0 f0 c7 27 32 38 bd d4 30 2c 3c 91 31 ac 25 00 33
       9.76614e-09 1.5478809e-09 4.226896e-09 2.9836585e-08
0002b0 51 3f 00 33 00 00 00 00 b4 8c 4a 2d 49 50 3e 2f
       2.985991e-08 0.0 1.1513613e-11 1.7308922e-10
0002c0 e2 31 eb 30 e2 31 eb 30 65 66 73 2d a4 c9 95 30
       1.7112678e-09 1.7112678e-09 1.3835687e-11 1.0898487e-09
0002d0 c2 96 86 30 fa 74 91 30 b6 94 4a 2d f7 20 43 2f
       9.792631e-10 1.0583385e-09 1.1515391e-11 1.7746858e-10
0002e0 c7 e3 ea 30 06 e7 ea 30 e9 09 f9 2d 9e bf d6 30
       1.7090479e-09 1.7091402e-09 2.8312424e-11 1.562501e-09
0002f0 d7 7c bd 2f 9a bd 24 30 a7 b9 4f 2d 97 34 41 2f
       3.4467604e-10 5.993229e-10 1.1807811e-11 1.7571931e-10
000300 05 68 ea 30 4d 89 ea 30 58 16 13 30 d7 49 99 30
       1.7055305e-09 1.7064764e-09 5.351004e-10 1.1153202e-09
000310 40 4b 7d 2f f9 15 09 30 68 88 62 2d bf f9 3f 2f
       2.303695e-10 4.9871535e-10 1.2876901e-11 1.7460076e-10
000320 05 68 ea 30 eb 80 ea 30 00 00 00 00 aa dd 68 32
       1.7055305e-09 1.7062382e-09 0.0 1.3554578e-08
000330 af 0b af 31 dd 2c 86 34 dd 2c 86 34 f6 61 6f 32
       5.0944986e-09 2.4992087e-07 2.4992087e-07 1.3933905e-08
000340 90 ca de 33 0b 32 69 34 4e 47 5e 34 5f e7 68 32
       1.03745265e-07 2.1718022e-07 2.0701302e-07 1.3556785e-08
000350 22 f4 3a 32 b6 12 84 34 3c 1f 84 34 f8 94 86 32
       1.0882134e-08 2.460053e-07 2.4609642e-07 1.5667396e-08
000360 bc 7c 13 34 f0 3e 03 34 6b 0a 33 34 7b e9 6f 32
       1.373582e-07 1.2223222e-07 1.6674464e-07 1.3964718e-08
000370 a2 7f 3b 32 21 99 83 34 c8 9d 83 34 72 7d 11 34
       1.0913853e-08 2.4512067e-07 2.4515452e-07 1.3549814e-07
000380 fd c0 1b 33 f7 20 c2 33 a0 b7 1e 34 c7 c6 8d 32
       3.626427e-08 9.039825e-08 1.4781699e-07 1.6504954e-08
000390 6d b8 0a 32 21 99 83 34 9a 97 83 34 00 00 00 00
       8.074591e-09 2.4512067e-07 2.4510956e-07 0.0
0003a0 11 94 58 32 38 ed cc 32 b0 0e 05 35 b0 0e 05 35
       1.2606521e-08 2.38566e-08 4.9567734e-07 4.9567734e-07
0003b0 a9 7d 5e 32 b4 45 af 34 6a 5e a5 34 37 b0 a7 34
       1.29506725e-08 3.2647006e-07 3.080234e-07 3.1234387e-07
0003c0 c2 a2 58 32 f0 04 f6 32 8d 14 04 35 8e 36 04 35
       1.2609862e-08 2.8640414e-08 4.920374e-07 4.925322e-07
0003d0 ec 76 89 32 f5 f5 d7 34 04 12 04 34 c6 aa 60 34
       1.6002978e-08 4.0225828e-07 1.2300012e-07 2.0923753e-07
0003e0 f8 76 61 32 4f a9 f3 32 79 e4 03 35 06 f5 03 35
       1.3123774e-08 2.8365916e-08 4.9133774e-07 4.915786e-07
0003f0 8b a1 99 34 85 f9 1d 34 f1 8e b9 33 55 96 3c 34
       2.861601e-07 1.4712539e-07 8.640735e-08 1.7563555e-07

exp_avg f4 [256]
000000 ae 45 bd 36 b7 84 65 ba 04 64 81 35 70 c7 bc b9
       5.6407507e-06 -0.0008755433 9.640357e-07 -0.00036006747
000010 75 6a a7 36 e2 aa b3 38 70 d4 69 b7 66 58 48 39
       4.989381e-06 8.5672145e-05 -1.3937344e-05 0.00019106417
000020 46 4e af 39 07 49 31 b8 d8 17 e1 39 d0 dd 71 b9
       0.0003343692 -4.22681e-05 0.0004293311 -0.00023066183
000030 ae 34 9a 36 63 49 17 b9 d7 02 ec b9 5c 50 8a b9
       4.5956904e-06 -0.00014427821 -0.00045015544 -0.00026381284
000040 35 9f 98 39 8a 6a 20 3a fc 72 1a 38 63 39 d8 39
       0.00029110318 0.0006119391 3.682355e-05 0.00041241487
000050 92 44 43 38 e1 18 54 b9 5b 88 1f ba 49 67 38 37
       4.6555484e-05 -0.00020227164 -0.0006085687 1.0991303e-05
000060 df 90 70 38 24 f0 cf b7 1e e1 e0 36 6d 6b ed b6
       5.735538e-05 -2.4788147e-05 6.7019273e-06 -7.0756564e-06
000070 b0 1a fa b7 11 1f fe b9 7a e9 3a 3a b4 9b 49 b7
       -2.981475e-05 -0.00048469802 0.00071301276 -1.2016786e-05
000080 2a 5b b6 39 4d 92 89 39 90 c6 01 38 0b 1f 58 37
       0.00034781668 0.0002623968 3.0940922e-05 1.2881831e-05
000090 a3 c8 53 b9 c2 3e 04 b9 77 04 73 34 bf 69 c5 36
       -0.00020197271 -0.0001261188 2.2632763e-07 5.883368e-06
0000a0 88 ab 7b b9 40 53 cd 39 ac 92 96 b8 32 59 97 b9
       -0.00024001126 0.00039162673 -7.179877e-05 -0.0002886742
0000b0 95 e8 c4 39 23 ec 28 39 bb c4 b6 38 c9 4f 44 39
       0.0003755732 0.00016109696 8.71508e-05 0.00018721739
0000c0 05 e2 11 b9 d1 f1 5e b6 65 d5 5e b8 c4 86 b5 b9
       -0.00013912476 -3.3221334e-06 -5.3127664e-05 -0.00034623418
0000d0 a5 c0 68 b9 80 4a d2 b8 66 bc 3f 37 df 3c 7c 36
       -0.0002219701 -0.00010027457 1.1428352e-05 3.7586358e-06
0000e0 ff c5 3c ba b1 a0 f2 38 44 c7 a6 39 c5 bb 08 b7
       -0.00072011346 0.0001156939 0.00031810452 -8.14995e-06
0000f0 f4 0a 99 39 e5 18 12 34 28 35 d3 b9 96 c3 b8 38
       0.00029190595 1.3606366e-07 -0.0004028466 8.8102344e-05
000100 c1 eb c4 b7 c7 f9 bb 39 68 8c c1 36 d1 5a 44 38
       -2.3474802e-05 0.00035853518 5.7681937e-06 4.681462e-05
000110 d3 60 23 b7 61 a9 6e 39 32 9d f7 37 71 29 18 39
       -9.738101e-06 0.00022760547 2.9517894e-05 0.00014511288
000120 66 e4 3b 39 de a6 d0 38 5e 12 9f 39 12 99 c3 b8
       0.00017918795 9.949294e-05 0.00030340528 -9.326836e-05
000130 84 4c a0 b5 d3 5a 1a 37 39 c6 03 39 3f e1 da b9
       -1.1943198e-06 9.200262e-06 0.00012566977 -0.00041748022
000140 fe 2d 70 37 7d 4d 66 38 62 42 09 b9 19 ef 2a 38
       1.4315823e-05 5.490844e-05 -0.00013090068 4.0753835e-05
000150 a6 e5 87 39 87 ca 8b b9 82 c6 34 39 f8 0e ea b8
       0.00025920308 -0.0002666304 0.00017240088 -0.00011160778
000160 cb 4a d4 b8 6b 21 37 b9 20 27 f1 b6 da 7b 3c b9
       -0.00010122879 -0.00017464689 -7.1869144e-06 -0.00017975215
000170 4d 8f e7 b9 93 18 b6 b8 8e 8a 96 39 dc 3a a1 b8
       -0.0004416652 -8.6830136e-05 0.0002871346 -7.688042e-05
000180 16 3f 03 3a f1 98 cc 37 20 6c 37 ba 85 cb 7b 39
       0.0005006654 2.4389914e-05 -0.0006997008 0.00024013042
000190 c7 b4 f8 37 fb 47 3f ba e6 98 c9 39 ff 4e 10 ba
       2.9648085e-05 -0.00072967977 0.00038451626 -0.00055049354
0001a0 f4 8f 2f 34 70 dc e9 b9 d0 1e 94 37 2b 22 f4 b5
       1.6350515e-07 -0.00044605462 1.7657323e-05 -1.8189361e-06
0001b0 56 82 ea b9 b4 71 20 b9 bc d9 24 ba 67 fa 44 b9
       -0.00044729066 -0.00015301147 -0.00062885485 -0.00018785299
0001c0 0b df 91 38 01 a8 70 39 f8 40 53 b7 60 41 f7 38
       6.955684e-05 0.0002295077 -1.2591707e-05 0.00011790055
0001d0 00 37 0f ba a4 f3 ba 39 20 55 d7 b8 9e 55 ab 39
       -0.0005463213 0.0003565821 -0.00010267855 0.0003267945
0001e0 8d d2 98 37 33 91 24 ba 65 38 a6 39 b9 85 27 ba
       1.8217857e-05 -0.000627774 0.00031704005 -0.00063904707
0001f0 46 aa 2e 38 e3 42 47 ba 53 68 a5 39 a3 19 91 38
       4.1643412e-05 -0.00076012145 0.0003154898 6.918914e-05
000200 81 bd f5 37 61 79 b3 b9 78 76 6a b9 0b b8 54 b9
       2.929452e-05 -0.00034231975 -0.00022360112 -0.00020286457
000210 c3 09 bf b8 b3 a3 80 38 4d 9f 6d b9 8a 1a 0b 3a
       -9.109408e-05 6.134007e-05 -0.00022661425 0.0005306384
000220 82 41 5b ba 12 e0 55 36 48 11 00 3a 5f 41 ca b8
       -0.00083639484 3.18699e-06 0.00048853876 -9.644287e-05
000230 db 4c 92 34 5d b3 8d b9 c7 a7 e7 38 76 4b f9 39
       2.725054e-07 -0.00027027252 0.00011046189 0.00047549204
000240 80 42 90 39 39 e1 80 39 8c 16 48 b9 26 c4 0c ba
       0.00027515367 0.00024581866 -0.00019081886 -0.00053698046
000250 73 1c a3 39 09 b0 77 b9 46 e7 1c ba 56 f9 53 39
       0.0003111098 -0.00023621334 -0.000598539 0.00020215413
000260 54 a1 cd 35 f1 1c d9 38 7c fc db b8 19 6f 83 36
       1.5320643e-06 0.00010352757 -0.00010489763 3.9170377e-06
000270 b1 bb 3c b5 da 2b 02 3a 6f f9 c4 39 46 2c 75 b9
       -7.0308585e-07 0.0004965641 0.00037569876 -0.00023381514
000280 37 ac f9 38 1c b8 b0 39 b5 95 20 3a 79 e0 49 ba
       0.00011905323 0.00033706508 0.0006125824 -0.00077009905
000290 b3 4d b8 b9 de aa 90 39 dd db df 39 f4 98 26 b9
       -0.00035153105 0.00027593126 0.00042697685 -0.00015887973
0002a0 ac f1 87 b9 38 dd 83 39 1c 71 96 38 83 9b b7 39
       -0.00025929266 0.00025151088 7.1736256e-05 0.00035020345
0002b0 e4 38 be b7 f1 16 ae b9 a6 06 59 b9 92 f7 84 39
       -2.2676257e-05 -0.0003320496 -0.0002069721 0.00025361456
0002c0 04 96 05 b9 93 32 46 39 48 a8 e5 34 88 76 55 39
       -0.00012739754 0.00018901592 4.2777015e-07 0.00020357419
0002d0 f7 4b 46 39 bc f0 3d b8 40 63 02 39 b7 13 1b 38
       0.0001891105 -4.5285313e-05 0.0001243474 3.697324e-05
0002e0 aa 76 05 3a 28 82 a0 39 c4 de 26 ba 05 f9 2a b9
       0.00050912297 0.00030614552 -0.0006365592 -0.0001630523
0002f0 fa 88 3c 39 8f 03 5b ba d6 b0 74 b9 f6 2a 24 b9
       0.00017980105 -0.0008354717 -0.0002333553 -0.00015656263
000300 15 62 59 b9 89 4e b8 39 76 82 d8 39 e6 77 52 b7
       -0.00020731271 0.00035153728 0.0004129593 -1.2544891e-05
000310 73 39 1c 38 61 c6 f6 b9 88 41 8a 38 e1 e0 01 ba
       3.7246802e-05 -0.0004706858 6.592559e-05 -0.0004954469
000320 e0 20 8c b9 36 50 ae 38 52 5f 89 38 1c 90 c8 39
       -0.00026727375 8.311907e-05 6.550424e-05 0.00038254343
000330 2d e9 90 ba 70 b2 39 b9 cd 87 c3 b9 55 14 b8 39
       -0.001105582 -0.00017709448 -0.00037294478 0.00035110363
000340 c8 9e 18 b9 6b b4 94 38 cf e4 28 b9 24 f7 21 39
       -0.00014555 7.0907954e-05 -0.00016106966 0.00015446224
000350 71 f7 5b 39 39 41 45 38 77 27 75 ba 3c 66 fe b8
       0.00020977647 4.7029203e-05 -0.0009351889 -0.000121307065
000360 9e e4 3a b7 21 6b 8a 38 2d 8b c9 b8 e9 89 0c b7
       -1.1139693e-05 6.600307e-05 -9.6103504e-05 -8.37676e-06
000370 c9 23 a9 b9 e9 88 e3 b9 85 9e 0f 3a c6 d6 e8 38
       -0.00032260854 -0.0004339882 0.00054786383 0.00011102627
000380 d4 8b 5f b6 df 25 20 b8 63 c6 84 b8 0d 9c 68 b9
       -3.331098e-06 -3.8182243e-05 -6.331203e-05 -0.00022183378
000390 22 d4 b5 39 65 86 d2 b9 ff 91 ec b6 31 c1 69 39
       0.00034681062 -0.00040154453 -7.0503443e-06 0.00022292581
0003a0 78 8f 64 38 97 2d ae b8 b2 3b 02 3a c4 ed 24 37
       5.449305e-05 -8.305458e-05 0.0004968002 9.830521e-06
0003b0 a6 f3 6b 39 84 01 66 b6 92 5b ea b8 c8 e9 bc b8
       0.00022502113 -3.4273553e-06 -0.00011175046 -9.008084e-05
0003c0 83 c0 34 ba e2 2b e5 39 a6 fc ad 39 51 c6 01 ba
       -0.00068951416 0.0004371098 0.0003318537 -0.0004950511
0003d0 17 3e 10 b8 34 49 da b8 68 78 b6 38 65 62 3d b6
       -3.43901e-05 -0.00010408685 8.700864e-05 -2.8220468e-06
0003e0 a0 01 94 39 91 c6 13 39 31 8f 12 b6 05 85 30 ba
       0.0002822997 0.00014092984 -2.1839044e-06 -0.00067336886
0003f0 00 a7 a1 39 ba 3f 1b 3a d7 19 7b 39 04 15 b8 b9
       0.00030832738 0.0005922277 0.00023946851 -0.00035110873
