ml-agents-release_20/Result/Dino/Dino06/Dino/Dino-499977.onnx (onnx, 34598 bytes, 4 tensors)

action_model._discrete_distribution.branches.0.bias f4 [2]
00000000: a6db 8cb8 86d9 8c38
-6.716633e-05 6.716237e-05

action_model._discrete_distribution.branches.0.weight f4 [2, 256]
00000000: 3f16 393c 5e1a 90bd db4e 133b 0c6e d9bc
00000010: c1c7 96bb 60c8 553c ae9f c339 cf04 a33c
00000020: 0f57 383d 4208 70bb 79b6 ba3c 03e6 f4bb
00000030: 3c3c 1ebc ffc4 d4bc 5c15 fdbc b08c b5bc
00000040: 2b4d 183d 1917 583d d4a9 18bb 26e6 803c
00000050: 362c 9a3b 6980 aebc 2eb9 12bd 2241 2b3c
00000060: 95f5 d63c 4ec8 b3bb ed46 3a3c 06a9 283c
00000070: b6f8 e2bb 14e4 2abd a0c8 6f3d fd0a 28bb
00000080: e0fc ad3c 47dd 013d daa5 573b cd0d 463b
00000090: 1a51 3fbc e83b 96bc ecba b1bb 71f5 7cbb
000000a0: 8c4b 4bbc 70bc 5e3d d5a6 27bc 0460 45bc
000000b0: 4480 8e3c 0f9f 673c b57c d23c 395e 45bb
000000c0: f140 72bc 933c 913b 78b5 19bc aed2 2fbd
000000d0: 93b7 62bc 04f7 84bc 8bdb 653b bab3 b13a
000000e0: 7e8a f8bc 21a7 9c3b fad2 bb3c 84cf c1bb
000000f0: c2fb ae3c 01e0 c83b 998e cebc 33c5 543c
00000100: 30a0 6dbb 85e4 fd3c b9a5 79bc e388 14bb
00000110: 52a3 2fbb 1e5b 083c 797f 8f3b 8c81 b83c
00000120: e291 533b ae34 c63c 51e0 1c3d 1187 02bc
00000130: 1bd1 663b e441 7e3c a798 073c ca3d 22bd
00000140: b549 a73c 0ca7 423c 2bd9 9bbc b449 543c
00000150: 9f82 f03c c3ce fdbb 8736 7b3c e021 3bbc
00000160: bf29 85ba 123c 09bd 74b5 033c d12c 37bc
00000170: 3941 acbc 5de8 ed3b 346c 8e3c 92dc b2bb
00000180: 5ef7 1b3d 4e4e b43c a3b3 23bd c2e7 fb3b
00000190: 5deb 2e3b 97af 49bd 832c 5c3c 7a90 59bd
000001a0: 548c 25bc e97b 6dbc 622f 6abb 2cf6 81ba
000001b0: e978 22bd 6054 e2bc 37b9 7ebd a03f 88bc
000001c0: 6d83 143b d5db 0d3b 9fa0 7dbb 9083 283c
000001d0: 0476 0ebc e971 083d 57d2 f5bb e322 ff3b
000001e0: 13d9 e8bb 9d70 08bd f05e d73c 5cab 3abd
000001f0: a8c3 943c ddaf 36bd 74a2 ec3c 2ad5 ac3b
00000200: d59c 6e3c 98b4 75bc 0f18 37bc 8155 d7bb
00000210: f0d3 a0bc 66a1 943b 4c90 c23a a8bb 6a3d
00000220: 6d5b 5cbd 80fc 813c 5a9e 9e3c 1b11 80bc
00000230: 8d98 e0bb 5864 02bd 1179 423c 9977 783d
00000240: a7ce c13c 2499 843c 3753 fdbc 2e86 32bd
00000250: f654 b83c 24c1 dbbc bf6a 99bc 6d39 8e3c
00000260: 4fee 2f3c ae21 853c e8e1 3ebc d0a7 20bc
00000270: 7563 373c 77b0 663d bbe4 0a3d c135 85bc
00000280: 81bd 403c a822 d83c e912 683d db4c 28bd
00000290: 4d75 95bc 9c00 a93c 0710 dc3c 4205 21bc
000002a0: fae1 3ebc 9f5b 533c 608e 2a3c 046e a53c
000002b0: 08f1 33bb ddbd 02bc ec6a 1a3b 263b 0d3d
000002c0: 6535 84bc 9bff d13b 49c6 a6bb 6107 363c
000002d0: d3c8 503b 54f9 2239 6d05 623c 0c3b 98bb
000002e0: c7d0 183d 5df1 f83c 353d 27bd 7aa8 a7bc
000002f0: e003 5e3c c815 3cbd f667 b3bb 7859 59bc
00000300: a735 abbc eccf 703c 6ac8 523d 7fdf b0bb
00000310: 27d6 4dbc 94ba 52bc fe91 2a3c fe76 1fbd
00000320: 77e5 11bd 9740 eb3b 6d8a c33c 91b2 273d
00000330: 7093 59bd 7fff 3ebb 5432 04bd 031a 943c
00000340: a4f8 b7ba 13b8 b33c 0957 e0bc 0149 9f3c
00000350: d38e a03c 5484 783c fbab 18bd e614 23bc
00000360: 5e48 b73b 8b53 853c 8790 e73b 1616 88bc
00000370: c40d 79bc a8e1 0cbd 81f0 113d 525e 183c
00000380: b0cf 1e3b 747a b5b9 ae03 0eba cbda 14bc
00000390: 26da 1f3d 3b27 95bc 3331 5c3c e48f 973c
000003a0: afb9 c83a d22a a8bb 8869 3f3d beea f33b
000003b0: aaaf 2c3c ac7d 083b 51e5 deba ae40 22bc
000003c0: c196 05bd 5003 603d 66d6 e13c 7007 b7bc
000003d0: be76 883a 89c1 a6bc 3ad3 223c 8f3f cfbb
000003e0: b554 723c 77d0 5d3c 363d 9abb 9b45 03bd
000003f0: 8144 d63c b2ba 303d c7f6 463c 9046 4abc
0.011296808 -0.07036279 0.0022477421 -0.026541732 -0.0046014492 0.013048261 0.0003731227 0.019899754
0.0450049 -0.0036626016 0.022792088 -0.0074737086 -0.009657916 -0.025972841 -0.030893974 -0.022161812
0.037182968 0.052756403 -0.0023294585 0.015734743 0.0047049774 -0.021301465 -0.035821132 0.010452541
0.02624015 -0.0054865247 0.011369449 0.010294205 -0.0069266213 -0.04172142 0.05854094 -0.0025641315
0.021238744 0.031705167 0.0032905252 0.0030220628 -0.011677051 -0.018339112 -0.005423894 -0.0038598443
-0.0124081485 0.054378927 -0.010232647 -0.012046818 0.017395146 0.014137044 0.02569423 -0.0030115976
-0.014785991 0.00443227 -0.009381644 -0.04292553 -0.013837713 -0.016231067 0.0035073485 0.0013557591
-0.030339476 0.0047806655 0.02292775 -0.0059146304 0.021360282 0.006130219 -0.02521448 0.012986469
-0.003625881 0.030992756 -0.015237265 -0.0022664599 -0.0026800227 0.008322505 0.0043792096 0.02252271
0.0032282998 0.024195042 0.038299862 -0.007966773 0.0035219851 0.015518639 0.008276141 -0.039609708
0.020420888 0.011880647 -0.019024452 0.012957025 0.02935916 -0.007745595 0.015332825 -0.011421651
-0.0010159536 -0.033504553 0.008038867 -0.011180119 -0.021027194 0.007260366 0.01738558 -0.005458423
0.038077705 0.022009995 -0.039966237 0.00768754 0.002669058 -0.04923972 0.013438347 -0.0531163
-0.010104258 -0.0144948745 -0.0035733809 -0.0009915284 -0.03966609 -0.027628124 -0.062188353 -0.016631901
0.0022661344 0.0021645923 -0.0038700474 0.010285273 -0.008695129 0.03331176 -0.007501881 0.0077861412
-0.0071059554 -0.03331052 0.026290387 -0.045573577 0.018159702 -0.04460131 0.028886057 0.0052744346
0.014563759 -0.01499667 -0.01117517 -0.006571472 -0.01963231 0.0045358418 0.0014844029 0.05730787
-0.053798128 0.015867472 0.019362617 -0.015633157 -0.006854123 -0.031833977 0.011869685 0.060660932
0.02365811 0.016186304 -0.030923469 -0.043584995 0.02250145 -0.026825495 -0.018727658 0.017361367
0.01073797 0.016251411 -0.01165054 -0.009805635 0.011193146 0.056320634 0.03390954 -0.016260983
0.011763931 0.026383713 0.05665866 -0.04108892 -0.01824441 0.020630173 0.026863111 -0.009827914
-0.011650557 0.012900262 0.010409921 0.020194061 -0.0027456898 -0.007979837 0.0023562266 0.034480236
-0.016138742 0.0064086444 -0.0050895554 0.011110158 0.0031857982 0.00015542406 0.013795239 -0.004645711
0.03730848 0.030388528 -0.040829856 -0.020466078 0.013550729 -0.04591921 -0.0054750396 -0.01326596
-0.020899607 0.01469801 0.05146066 -0.0053977366 -0.012563265 -0.0128618665 0.010410784 -0.03893184
-0.035619225 0.0071793306 0.023869717 0.04094178 -0.053119123 -0.0029143987 -0.03227456 0.01807881
-0.0014035893 0.02193836 -0.027385252 0.01944399 0.019599354 0.015168268 -0.03727339 -0.009953713
0.0055933436 0.016275188 0.0070667895 -0.016612094 -0.015201036 -0.03439489 0.035629753 0.009299831
0.0024232678 -0.00034614245 -0.00054174184 -0.009085367 0.039026402 -0.018207183 0.013439464 0.01850123
0.0015314127 -0.0051320577 0.0467315 0.007443755 0.010539928 0.002082686 -0.0017005597 -0.009903116
-0.032614473 0.05469066 0.027568053 -0.022342414 0.0010411364 -0.020355957 0.009938056 -0.0063247154
0.014790704 0.013538471 -0.004707004 -0.032048803 0.026155712 0.043146797 0.012143797 -0.012345925

network_body._body_endoder.seq_layers.0.bias f4 [256]
00000000: 7dec 503c c094 833c c9f5 783b 187e d53b
00000010: 3142 47bc aea5 953c 11e3 fdba 1884 443c
00000020: 38c0 453c e1eb 083b ef8f 2b3c 9a42 14bc
00000030: a737 65bc de7f 923c 015e 503c 2f02 0d3b
00000040: 0d98 4c3d 4e68 813c 6aef 9dba c13a 6a3c
00000050: 14f5 923c 4eb6 163b dcae cb3b 709f 6d3c
00000060: cb35 953c 9ab2 91ba c3d5 bf3b ed79 d1bb
00000070: 1acf 0ebc c044 c93c 098f 633c c48f 32bc
00000080: a336 5a3c 4220 443b b02b 75bb 181c cc3c
00000090: 7b3a ba39 a85c a93b d3f9 8bbb 63f7 12bc
000000a0: e017 1fba e3b7 a43c 2d31 29bc 61cc 56bc
000000b0: d71b 883c 088c 193c 03df de3c c7b8 1abc
000000c0: 1e28 eeba a354 9e3b 64fd 9dbb 946d 8a3c
000000d0: 155d 073b d34f edba f70e 4b3b af0a 4d3c
000000e0: 6d53 833c e3fe 2aba fd45 b53c d2d2 da3b
000000f0: bbe1 c53c dfb7 073b d9a0 2d3b 5b57 dc3c
00000100: e69b 663c 6f43 533b 01c3 7db9 6c81 3b3a
00000110: 4338 81bc 2d75 61bc 55f0 253b ac61 523c
00000120: 31be 993b 5c16 a03c ead7 b63c c8a2 273b
00000130: 0024 203b f4af 9c3c 5c79 763a 1fdd 473d
00000140: 97dd 303c bc35 4b3d d595 c8b8 18e1 c63b
00000150: f278 d63b 7bf0 7439 9c83 1fbb 08a3 263b
00000160: 458e ff3a cfe0 283c 0ce1 953b e36f 33ba
00000170: 08df c63b 1116 3c3b a8de 203c 0c02 ee3a
00000180: 2c87 623c 2ecd 1a3c d9b7 cf3c 6bef b53b
00000190: 1b2b 8f3c ca72 833c 1193 e13b de38 a63c
000001a0: 1ec8 c4ba 4b34 d23c a607 cc39 d892 b33b
000001b0: fcce 363c 191d 233c 0f35 913c 64ae 783b
000001c0: 0331 013a bfd9 a43b 1f27 863c 96d1 a83c
000001d0: 9f34 17bc 4cc2 173d e956 b4bb af44 673a
000001e0: 11d7 79bc 8ddd 783c aaea 6e3d b445 8a3c
000001f0: a565 bb3c af06 193c fe3b 943c 9657 ee3b
00000200: 09ba af3c 9932 c13b 925b 483b e555 a438
00000210: e956 263b 934d 003c 2319 1f3c 984f 8e3c
00000220: d157 c13c cb6e 613c 4759 a73c 91da 20bc
00000230: 43ae a5bb abd6 d23b 1a0f a33b 6662 ae3c
00000240: 53da 733c 7b0a d13b a429 3f3c 9fef 253c
00000250: 6707 b93c cf10 4e3c ecdf aebb bbb6 373b
00000260: 0445 1a3b 249f 893c 34e3 153b 1f55 4dbc
00000270: aa11 9a3b a7d5 143c bdea 263c efbf 833b
00000280: 0de1 813c 2ae5 643c 3a53 533c cd5b 2e3c
00000290: 0fc0 0c3b 0337 b73c e6e1 6a3c 555c a1bb
000002a0: ccfc 9b3b 3ee5 803b 1b06 263d 3fa6 153c
000002b0: 8891 8cb9 71c0 d83b 4e14 a23a 826a d83b
000002c0: 2828 f7ba a62a 43bc f3ad a33b a552 213b
000002d0: 41d0 2a3b 444f 8d3c 97bc 5d3c b5f6 bcbb
000002e0: bee1 163c 029b 303c 82c7 033c 990d 0d3b
000002f0: 0f02 953b d7bd 803c 0549 3fbb bc07 2fbc
00000300: 7863 57bc 9cf6 19bc 41c9 903c 4f31 333c
00000310: 53e2 ce3a e366 ae3b 4129 913b 64bf c03c
00000320: 8935 f93b 53a2 263c 773e 7c3c e02c ee3b
00000330: 3c1d a03c 67ca 983b 2738 bf3b fb60 803c
00000340: c509 8dba ae6d 1e3c a98a 83bb a89b 563c
00000350: fa2a 673c e1a4 c13c dabe 273c 71f1 9339
00000360: 6fe0 c13b 3874 eb3c 5549 d6bb 2f3b aabb
00000370: 8d40 943c 17d8 143c dbb7 2c3c 2a01 19bc
00000380: 1467 153c eb3b 04ba daa8 a63b 4e8f b63b
00000390: 3c16 f93c 76f6 ff3a 1c09 f639 a191 eb3b
000003a0: 5d22 b139 3d67 d43a 34df 103d b304 1b3c
000003b0: 7910 ae3b 3902 6e3c ede5 aa3a 50c5 9fbb
000003c0: c5f9 77ba 7e82 633c 63aa 863c d33e 493b
000003d0: 76a7 b33a 2239 703b f722 633b efb9 c43b
000003e0: 3091 4d3c d318 e63b 793b 78bb d7fb 043c
000003f0: d863 913c 4d93 8d3c 2e9b bb3b ad81 7cbc
0.012751696 0.01606214 0.0037988296 0.0065152757 -0.012161777 0.018267479 -0.0019370039 0.011994384
0.012069754 0.0020892548 0.010471328 -0.009049082 -0.013990319 0.017883237 0.012717725 0.0021516194
0.049949694 0.015796807 -0.00120495 0.014296235 0.017939128 0.0022996846 0.006215913 0.014503345
0.018214127 -0.001111585 0.00585434 -0.0063927085 -0.008716369 0.024568915 0.013889083 -0.010898534
0.0133186905 0.0029926454 -0.0037410073 0.02491574 0.00035520256 0.005168516 -0.0042717247 -0.008970114
-0.00060689263 0.020107215 -0.010326666 -0.013110251 0.016614838 0.009371765 0.02720595 -0.009443468
-0.0018169915 0.004831867 -0.0048214663 0.016897954 0.0020654846 -0.0018105455 0.0030984262 0.012514754
0.016030991 -0.00065229664 0.0221281 0.006677964 0.024155488 0.002070896 0.0026493578 0.026897123
0.014075255 0.0032236238 -0.00024200605 0.0007152769 -0.015773898 -0.013760847 0.002532025 0.01284067
0.004691862 0.019541912 0.022319753 0.0025579203 0.002443552 0.01912687 0.0009402239 0.048794862
0.010795019 0.049611792 -9.5646516e-05 0.0060693137 0.0065451795 0.0002335924 -0.002433992 0.0025426764
0.0019497356 0.010307505 0.004573947 -0.00068449805 0.006069068 0.0028699676 0.00981871 0.0018158569
0.013826173 0.009448333 0.02535622 0.0055522225 0.017476609 0.016045947 0.0068839868 0.020290788
-0.0015013253 0.0256597 0.0003891561 0.0054801516 0.011157747 0.009955668 0.017725496 0.0037945742
0.0004928263 0.00503084 0.016376076 0.02060775 -0.009228854 0.03705053 -0.0055035246 0.00088221853
-0.01524903 0.015189541 0.05832926 0.01687894 0.022875616 0.009339972 0.018095013 0.0072736247
0.021451013 0.0058959243 0.0030572158 7.8361285e-05 0.0025381392 0.007830995 0.009710583 0.017371938
0.023601444 0.013759325 0.020428313 -0.009817735 -0.005056174 0.006434282 0.0049761655 0.021287154
0.0148835955 0.006379423 0.011667643 0.010127931 0.022586538 0.01257725 -0.005336752 0.00280325
0.0023539672 0.016799517 0.002287102 -0.0125325015 0.0047018128 0.009084142 0.010187802 0.004020683
0.015854383 0.013970653 0.012898261 0.010642004 0.002147678 0.022365099 0.014336085 -0.004924337
0.0047603603 0.003933578 0.040533166 0.009133874 -0.0002681131 0.0066147377 0.001236567 0.0066044936
-0.0018856572 -0.011912024 0.0049951016 0.002461591 0.002606407 0.01724971 0.013533733 -0.0057667145
0.009209095 0.010779144 0.008043172 0.0021522997 0.0045473645 0.015715523 -0.002918781 -0.010682996
-0.013146274 -0.009397175 0.01767409 0.010937049 0.0015784003 0.0053223236 0.0044299667 0.023528762
0.007605259 0.010170537 0.015395752 0.007268533 0.01954519 0.0046628 0.0058355513 0.015671244
-0.0010760358 0.009669704 -0.0040143323 0.013098635 0.0141093675 0.02363819 0.010238374 0.00028217913
0.005916647 0.02874194 -0.0065395036 -0.0051950435 0.018097186 0.009084723 0.010541881 -0.009338656
0.009118814 -0.0005044329 0.0050860466 0.0055712825 0.03040611 0.0019528407 0.00046927563 0.007188991
0.00033785673 0.0016205084 0.035369113 0.00946157 0.0053120223 0.014526897 0.0013038494 -0.0048758164
-0.0009459521 0.013886092 0.016438669 0.0030707612 0.0013706523 0.0036655148 0.0034658292 0.0060036103
0.012546822 0.0070220022 -0.0037877245 0.008116684 0.017747805 0.017282153 0.005725286 -0.0154117765

network_body._body_endoder.seq_layers.0.weight f4 [256, 29]
00000000: 73f4 eb3d cf5b 41be 9687 63bd ff66 33be
00000010: be5d 82be d825 aebd 863e 62be 777a 3c3d
00000020: bca7 853e 398c c03e fd35 7ebe e3b4 bcbd
00000030: a22a fc3d 7773 853d 076a 063e eeb9 b13e
00000040: ebca 83be cd6d ab3c 5db2 b0bd b2fd 94bc
00000050: 493a 4a3e 6198 c13d dfe8 0bbe 677a 063c
00000060: 9d39 85bd 7cf7 c63d e8ad 50be 2c0c aebe
00000070: c560 e6be e29b fc3d e4b5 783d ac99 27be
00000080: a2d4 03be ec41 a2bd 6b7a db3e d2e9 673c
00000090: 01b5 08be 318a 073e b610 5239 5e13 d53e
000000a0: 3a61 a63e e8db 99bd 93bd a8be a30b 52be
000000b0: a00b 53bd e136 03bc 5bc3 20be 9abb 333d
000000c0: 88f7 90bd f723 063d 7bcb 99bd 7788 f4bc
000000d0: c87c 793d ac40 8e3e 25a8 3bbe 2d24 81be
000000e0: 814b 4bbc 3e6a 033e 4f52 743d 2e25 a93d
000000f0: 3368 603e 4def 8bbe 51a5 a4be 7e54 01be
00000100: f6d5 8cbd 5076 75be 1d73 0cbe 8f48 80be
00000110: 3aeb e4bd b827 88bd d1df a83e f363 dc3c
00000120: 233e fb3c 4e20 5dbe 1662 613e e051 39bd
00000130: 9a50 f1bd 7521 223d e558 09bf 6ea3 d93d
00000140: 2a46 a3bd 37cf 0a3d 4926 133d 4ec8 a4bd
00000150: b62a be3d 7b84 f7be 4a6e 36be 9489 8e3c
00000160: fecb f0bd f01e d03e 3053 9dbc 2fa1 1e3e
00000170: 7b08 f43d a977 83be edb4 c03e 7f07 d73c
00000180: fe30 6bbd 0020 52be 8c72 41be f691 893e
00000190: e7d0 18be 0b53 e33d e622 ba3d 5851 45ba
000001a0: 6871 d3bd 28ed a7bd 90ac a13e 0b0e 703a
000001b0: 237f 80be 194d 41bd d749 3cbe b1fd 7dbe
000001c0: afb7 c5bd 5971 2b3e 8cad 20bd e76e 55bd
000001d0: ca1b 2bbd 25a4 9dbd 220b 01be e343 5abe
000001e0: 72c9 5bbd c855 f6be ceed a03d f016 e9bc
000001f0: b713 0abe e5d0 5d3e f131 b83d fa66 9c3d
00000200: 2d15 013f ba26 a9be c458 c23d d102 8cbd
00000210: e7d0 943e e3ae debc 8767 0dbd 88b1 8b3d
00000220: 8e74 9c3d fa32 573d 5339 e43e 7bcc 023d
00000230: 13f8 803c 9ac3 393e a35b a73d e1d1 5cbe
00000240: 8bf4 03bf 96c1 493e 0323 be3e 916c 533e
00000250: d859 3f3d a8b2 e9bc b4b5 f2bc fa09 62be
00000260: 32c8 fa3e 60d7 503d d45c b63e 56e9 19be
00000270: efc9 74be 82b5 863e 6e5f 9a3e 7a14 e6bd
00000280: cbe5 f33b f706 6abd f70f 98be 9613 75bd
00000290: 1da1 d6bd d9a5 783e 006f c5bd 8fbe 853e
000002a0: 6884 7dbd baf8 4a3e 27a1 a03e 3534 2cbe
000002b0: d193 d83d 6623 0ebf c909 38be 12de 0b3e
000002c0: 45db bdbd cc4b 89bd 6dbb fcbb 752d 2dbe
000002d0: 6729 a4be 0615 853e d6be a63d ec88 88be
000002e0: e19a 663d 4e40 3dbe d807 b23d e5b8 313e
000002f0: 32c3 f0bd 4031 623d 0955 0a3e 1468 483d
00000300: 9235 02be dfc3 293e 1cfd b2be 4f6f 9e3e
00000310: 41f7 203d 6cfb 8fbc 8fd2 2cbe 82bd a93d
00000320: c922 383d a3f8 8c3e ea62 afbe 002e 033f
00000330: 488f b6bd 8bc6 6f3e a782 ea3d 6a99 e53d
00000340: 7d7c b2be f4b7 25bd 2aeb e43d c854 3e3e
00000350: 94c7 1a3e b8ec a3bd 0cee 433d 7d14 8b3e
00000360: d918 e83d 5d1b e23c 3ab2 e93e c873 cdbd
00000370: 8267 2c3d 51d2 9abe fdbe c3be 580e 18bd
00000380: 7299 0abe d3d7 953e f262 3cbe caf5 2d3e
00000390: dbe5 103e bd43 f9ba d7cc 883e c36c 433e
000003a0: a369 d33e 179e d83e 19f2 a2bd 04cc a43e
000003b0: d6a5 cabc 1462 cabd f7c8 013e da9d 8fbd
000003c0: 8acb 32bd f0c0 ef3b 2e78 debd b319 1e3d
000003d0: b12f 0abe bf2d 423e e830 9dbe cd28 763d
000003e0: 1b21 f03d 14d3 febb d697 ed3d 3b02 cfbd
000003f0: 90aa 00be c1be eabb cda4 493d 0122 ae3d
0.11521234 -0.18882678 -0.055549227 -0.17519759 -0.25462145 -0.08503312 -0.22094163 0.04601523
0.26104534 0.3760698 -0.24825282 -0.09214189 0.12312819 0.06516164 0.13126384 0.34712166
-0.25740752 0.02092638 -0.0862777 -0.018187378 0.19748797 0.09452892 -0.13663052 0.008207894
-0.065051295 0.09715173 -0.2037884 -0.3399366 -0.44995704 0.1233442 0.06072034 -0.16367215
-0.12874082 -0.0792273 0.42866835 0.014154868 -0.13350298 0.1323631 0.00020033386 0.41616338
0.32496053 -0.07512647 -0.32957134 -0.20512252 -0.05152476 -0.00800869 -0.15699522 0.043880083
-0.07078463 0.032749142 -0.07509514 -0.029850228 0.060910016 0.27783716 -0.18325861 -0.25222912
-0.012408138 0.12833497 0.059648808 0.082590446 0.21914749 -0.2733101 -0.32157376 -0.12629887
-0.06876747 -0.23970914 -0.13715787 -0.25055358 -0.111776784 -0.06648201 0.32983258 0.026903128
0.030669278 -0.21594355 0.22010073 -0.045244098 -0.11782952 0.03958269 -0.5365127 0.10626875
-0.07972367 0.03388902 0.035925183 -0.080460176 0.0928549 -0.48343262 -0.1781551 0.017399587
-0.117576584 0.40648603 -0.019204706 0.15491174 0.1191568 -0.2567723 0.37638035 0.026248692
-0.05741977 -0.2052002 -0.18891352 0.26869172 -0.1492344 0.110998236 0.090886876 -0.0007527075
-0.10324365 -0.08199531 0.31576967 0.0009157366 -0.25096998 -0.047192667 -0.18387543 -0.24803807
-0.096541755 0.16742457 -0.039228007 -0.052107718 -0.04177455 -0.07697324 -0.12601903 -0.21314959
-0.05365891 -0.4811232 0.07857858 -0.02845332 -0.13484083 0.21661718 0.089939006 0.07636829
0.50422937 -0.3303736 0.09489587 -0.06836475 0.2906563 -0.027183002 -0.03452256 0.06820971
0.076394185 0.05253885 0.44574985 0.03193329 0.015743291 0.18141022 0.08171775 -0.21564437
-0.5154502 0.19702753 0.37136087 0.20646884 0.04671654 -0.028527573 -0.029627658 -0.22074118
0.48980862 0.050986648 0.35617697 -0.15030417 -0.23905157 0.26310354 0.30150932 -0.11234374
0.007443165 -0.05713555 -0.2969968 -0.05983313 -0.10479949 0.24282016 -0.09640312 0.26121947
-0.06189385 0.19821444 0.3137295 -0.1681679 0.10575069 -0.55522764 -0.17972483 0.13658932
-0.09270338 -0.0670391 -0.0077127726 -0.16911872 -0.32062837 0.25992602 0.08141868 -0.26666963
0.056300048 -0.18481562 0.08692902 0.17355688 -0.117559806 0.05522275 0.13509001 0.04892738
-0.12715748 0.16578625 -0.34958732 0.30944297 0.0392983 -0.017575942 -0.16877197 0.08288099
0.04495505 0.27533445 -0.34255153 0.51242065 -0.089140475 0.23415582 0.11450701 0.11210902
-0.34860602 -0.040458634 0.111776665 0.18587029 0.15115196 -0.08004135 0.04783444 0.2716407
0.11332864 0.027600938 0.4564379 -0.10031849 0.0420909 -0.30238584 -0.3823165 -0.037123054
-0.13535097 0.29266223 -0.1839712 0.16988292 0.14150183 -0.001901738 0.2671878 0.19084458
0.41291532 0.42308113 -0.07956333 0.32186902 -0.02473728 -0.09881988 0.12674318 -0.0701253
-0.04365114 0.007316701 -0.10862766 0.038598727 -0.13494755 0.18962763 -0.30701375 0.060097504
0.11725064 -0.0077766273 0.11601226 -0.10107847 -0.12565064 -0.007163853 0.049229432 0.085025795
