ml-agents-release_20/Result/Dino/Dino06/Dino/Dino-499977.pt (torch, 205607 bytes, 21 tensors)

network_body._body_endoder.seq_layers.0.weight f4 [256, 29]
0	0x3debf473	0.11521234
1	0xbe415bcf	-0.18882678
2	0xbd638796	-0.055549227
3	0xbe3366ff	-0.17519759
4	0xbe825dbe	-0.25462145
5	0xbdae25d8	-0.08503312
6	0xbe623e86	-0.22094163
7	0x3d3c7a77	0.04601523
8	0x3e85a7bc	0.26104534
9	0x3ec08c39	0.3760698
10	0xbe7e35fd	-0.24825282
11	0xbdbcb4e3	-0.09214189
12	0x3dfc2aa2	0.12312819
13	0x3d857377	0.06516164
14	0x3e066a07	0.13126384
15	0x3eb1b9ee	0.34712166
16	0xbe83caeb	-0.25740752
17	0x3cab6dcd	0.02092638
18	0xbdb0b25d	-0.0862777
19	0xbc94fdb2	-0.018187378
20	0x3e4a3a49	0.19748797
21	0x3dc19861	0.09452892
22	0xbe0be8df	-0.13663052
23	0x3c067a67	0.008207894
24	0xbd85399d	-0.065051295
25	0x3dc6f77c	0.09715173
26	0xbe50ade8	-0.2037884
27	0xbeae0c2c	-0.3399366
28	0xbee660c5	-0.44995704
29	0x3dfc9be2	0.1233442
30	0x3d78b5e4	0.06072034
31	0xbe2799ac	-0.16367215
32	0xbe03d4a2	-0.12874082
33	0xbda241ec	-0.0792273
34	0x3edb7a6b	0.42866835
35	0x3c67e9d2	0.014154868
36	0xbe08b501	-0.13350298
37	0x3e078a31	0.1323631
38	0x395210b6	0.00020033386
39	0x3ed5135e	0.41616338
40	0x3ea6613a	0.32496053
41	0xbd99dbe8	-0.07512647
42	0xbea8bd93	-0.32957134
43	0xbe520ba3	-0.20512252
44	0xbd530ba0	-0.05152476
45	0xbc0336e1	-0.00800869
46	0xbe20c35b	-0.15699522
47	0x3d33bb9a	0.043880083
48	0xbd90f788	-0.07078463
49	0x3d0623f7	0.032749142
50	0xbd99cb7b	-0.07509514
51	0xbcf48877	-0.029850228
52	0x3d797cc8	0.060910016
53	0x3e8e40ac	0.27783716
54	0xbe3ba825	-0.18325861
55	0xbe81242d	-0.25222912
56	0xbc4b4b81	-0.012408138
57	0x3e036a3e	0.12833497
58	0x3d74524f	0.059648808
59	0x3da9252e	0.082590446
60	0x3e606833	0.21914749
61	0xbe8bef4d	-0.2733101
62	0xbea4a551	-0.32157376
63	0xbe01547e	-0.12629887
64	0xbd8cd5f6	-0.06876747
65	0xbe757650	-0.23970914
66	0xbe0c731d	-0.13715787
67	0xbe80488f	-0.25055358
68	0xbde4eb3a	-0.111776784
69	0xbd8827b8	-0.06648201
70	0x3ea8dfd1	0.32983258
71	0x3cdc63f3	0.026903128
72	0x3cfb3e23	0.030669278
73	0xbe5d204e	-0.21594355
74	0x3e616216	0.22010073
75	0xbd3951e0	-0.045244098
76	0xbdf1509a	-0.11782952
77	0x3d222175	0.03958269
78	0xbf0958e5	-0.5365127
79	0x3dd9a36e	0.10626875
80	0xbda3462a	-0.07972367
81	0x3d0acf37	0.03388902
82	0x3d132649	0.035925183
83	0xbda4c84e	-0.080460176
84	0x3dbe2ab6	0.0928549
85	0xbef7847b	-0.48343262
86	0xbe366e4a	-0.1781551
87	0x3c8e8994	0.017399587
88	0xbdf0cbfe	-0.117576584
89	0x3ed01ef0	0.40648603
90	0xbc9d5330	-0.019204706
91	0x3e1ea12f	0.15491174
92	0x3df4087b	0.1191568
93	0xbe8377a9	-0.2567723
94	0x3ec0b4ed	0.37638035
95	0x3cd7077f	0.026248692
96	0xbd6b30fe	-0.05741977
97	0xbe522000	-0.2052002
98	0xbe41728c	-0.18891352
99	0x3e8991f6	0.26869172
100	0xbe18d0e7	-0.1492344
101	0x3de3530b	0.110998236
102	0x3dba22e6	0.090886876
103	0xba455158	-0.0007527075
104	0xbdd37168	-0.10324365
105	0xbda7ed28	-0.08199531
106	0x3ea1ac90	0.31576967
107	0x3a700e0b	0.0009157366
108	0xbe807f23	-0.25096998
109	0xbd414d19	-0.047192667
110	0xbe3c49d7	-0.18387543
111	0xbe7dfdb1	-0.24803807
112	0xbdc5b7af	-0.096541755
113	0x3e2b7159	0.16742457
114	0xbd20ad8c	-0.039228007
115	0xbd556ee7	-0.052107718
116	0xbd2b1bca	-0.04177455
117	0xbd9da425	-0.07697324
118	0xbe010b22	-0.12601903
119	0xbe5a43e3	-0.21314959
120	0xbd5bc972	-0.05365891
121	0xbef655c8	-0.4811232
122	0x3da0edce	0.07857858
123	0xbce916f0	-0.02845332
124	0xbe0a13b7	-0.13484083
125	0x3e5dd0e5	0.21661718
126	0x3db831f1	0.089939006
127	0x3d9c66fa	0.07636829
128	0x3f01152d	0.50422937
129	0xbea926ba	-0.3303736
130	0x3dc258c4	0.09489587
131	0xbd8c02d1	-0.06836475
132	0x3e94d0e7	0.2906563
133	0xbcdeaee3	-0.027183002
134	0xbd0d6787	-0.03452256
135	0x3d8bb188	0.06820971
136	0x3d9c748e	0.076394185
137	0x3d5732fa	0.05253885
138	0x3ee43953	0.44574985
139	0x3d02cc7b	0.03193329
140	0x3c80f813	0.015743291
141	0x3e39c39a	0.18141022
142	0x3da75ba3	0.08171775
143	0xbe5cd1e1	-0.21564437
144	0xbf03f48b	-0.5154502
145	0x3e49c196	0.19702753
146	0x3ebe2303	0.37136087
147	0x3e536c91	0.20646884
148	0x3d3f59d8	0.04671654
149	0xbce9b2a8	-0.028527573
150	0xbcf2b5b4	-0.029627658
151	0xbe6209fa	-0.22074118
152	0x3efac832	0.48980862
153	0x3d50d760	0.050986648
154	0x3eb65cd4	0.35617697
155	0xbe19e956	-0.15030417
156	0xbe74c9ef	-0.23905157
157	0x3e86b582	0.26310354
158	0x3e9a5f6e	0.30150932
159	0xbde6147a	-0.11234374
160	0x3bf3e5cb	0.007443165
161	0xbd6a06f7	-0.05713555
162	0xbe980ff7	-0.2969968
163	0xbd751396	-0.05983313
164	0xbdd6a11d	-0.10479949
165	0x3e78a5d9	0.24282016
166	0xbdc56f00	-0.09640312
167	0x3e85be8f	0.26121947
168	0xbd7d8468	-0.06189385
169	0x3e4af8ba	0.19821444
170	0x3ea0a127	0.3137295
171	0xbe2c3435	-0.1681679
172	0x3dd893d1	0.10575069
173	0xbf0e2366	-0.55522764
174	0xbe3809c9	-0.17972483
175	0x3e0bde12	0.13658932
176	0xbdbddb45	-0.09270338
177	0xbd894bcc	-0.0670391
178	0xbbfcbb6d	-0.0077127726
179	0xbe2d2d75	-0.16911872
180	0xbea42967	-0.32062837
181	0x3e851506	0.25992602
182	0x3da6bed6	0.08141868
183	0xbe8888ec	-0.26666963
184	0x3d669ae1	0.056300048
185	0xbe3d404e	-0.18481562
186	0x3db207d8	0.08692902
187	0x3e31b8e5	0.17355688
188	0xbdf0c332	-0.117559806
189	0x3d623140	0.05522275
190	0x3e0a5509	0.13509001
191	0x3d486814	0.04892738
192	0xbe023592	-0.12715748
193	0x3e29c3df	0.16578625
194	0xbeb2fd1c	-0.34958732
195	0x3e9e6f4f	0.30944297
196	0x3d20f741	0.0392983
197	0xbc8ffb6c	-0.017575942
198	0xbe2cd28f	-0.16877197
199	0x3da9bd82	0.08288099
200	0x3d3822c9	0.04495505
201	0x3e8cf8a3	0.27533445
202	0xbeaf62ea	-0.34255153
203	0x3f032e00	0.51242065
204	0xbdb68f48	-0.089140475
205	0x3e6fc68b	0.23415582
206	0x3dea82a7	0.11450701
207	0x3de5996a	0.11210902
208	0xbeb27c7d	-0.34860602
209	0xbd25b7f4	-0.040458634
210	0x3de4eb2a	0.111776665
211	0x3e3e54c8	0.18587029
212	0x3e1ac794	0.15115196
213	0xbda3ecb8	-0.08004135
214	0x3d43ee0c	0.04783444
215	0x3e8b147d	0.2716407
216	0x3de818d9	0.11332864
217	0x3ce21b5d	0.027600938
218	0x3ee9b23a	0.4564379
219	0xbdcd73c8	-0.10031849
220	0x3d2c6782	0.0420909
221	0xbe9ad251	-0.30238584
222	0xbec3befd	-0.3823165
223	0xbd180e58	-0.037123054
224	0xbe0a9972	-0.13535097
225	0x3e95d7d3	0.29266223
226	0xbe3c62f2	-0.1839712
227	0x3e2df5ca	0.16988292
228	0x3e10e5db	0.14150183
229	0xbaf943bd	-0.001901738
230	0x3e88ccd7	0.2671878
231	0x3e436cc3	0.19084458
232	0x3ed369a3	0.41291532
233	0x3ed89e17	0.42308113
234	0xbda2f219	-0.07956333
235	0x3ea4cc04	0.32186902
236	0xbccaa5d6	-0.02473728
237	0xbdca6214	-0.09881988
238	0x3e01c8f7	0.12674318
239	0xbd8f9dda	-0.0701253
240	0xbd32cb8a	-0.04365114
241	0x3befc0f0	0.007316701
242	0xbdde782e	-0.10862766
243	0x3d1e19b3	0.038598727
244	0xbe0a2fb1	-0.13494755
245	0x3e422dbf	0.18962763
246	0xbe9d30e8	-0.30701375
247	0x3d7628cd	0.060097504
248	0x3df0211b	0.11725064
249	0xbbfed314	-0.0077766273
250	0x3ded97d6	0.11601226
251	0xbdcf023b	-0.10107847
252	0xbe00aa90	-0.12565064
253	0xbbeabec1	-0.007163853
254	0x3d49a4cd	0.049229432
255	0x3dae2201	0.085025795

network_body._body_endoder.seq_layers.0.bias f4 [256]
0	0x3c50ec7d	0.012751696
1	0x3c8394c0	0.01606214
2	0x3b78f5c9	0.0037988296
3	0x3bd57e18	0.0065152757
4	0xbc474231	-0.012161777
5	0x3c95a5ae	0.018267479
6	0xbafde311	-0.0019370039
7	0x3c448418	0.011994384
8	0x3c45c038	0.012069754
9	0x3b08ebe1	0.0020892548
10	0x3c2b8fef	0.010471328
11	0xbc14429a	-0.009049082
12	0xbc6537a7	-0.013990319
13	0x3c927fde	0.017883237
14	0x3c505e01	0.012717725
15	0x3b0d022f	0.0021516194
16	0x3d4c980d	0.049949694
17	0x3c81684e	0.015796807
18	0xba9def6a	-0.00120495
19	0x3c6a3ac1	0.014296235
20	0x3c92f514	0.017939128
21	0x3b16b64e	0.0022996846
22	0x3bcbaedc	0.006215913
23	0x3c6d9f70	0.014503345
24	0x3c9535cb	0.018214127
25	0xba91b29a	-0.001111585
26	0x3bbfd5c3	0.00585434
27	0xbbd179ed	-0.0063927085
28	0xbc0ecf1a	-0.008716369
29	0x3cc944c0	0.024568915
30	0x3c638f09	0.013889083
31	0xbc328fc4	-0.010898534
32	0x3c5a36a3	0.0133186905
33	0x3b442042	0.0029926454
34	0xbb752bb0	-0.0037410073
35	0x3ccc1c18	0.02491574
36	0x39ba3a7b	0.00035520256
37	0x3ba95ca8	0.005168516
38	0xbb8bf9d3	-0.0042717247
39	0xbc12f763	-0.008970114
40	0xba1f17e0	-0.00060689263
41	0x3ca4b7e3	0.020107215
42	0xbc29312d	-0.010326666
43	0xbc56cc61	-0.013110251
44	0x3c881bd7	0.016614838
45	0x3c198c08	0.009371765
46	0x3cdedf03	0.02720595
47	0xbc1ab8c7	-0.009443468
48	0xbaee281e	-0.0018169915
49	0x3b9e54a3	0.004831867
50	0xbb9dfd64	-0.0048214663
51	0x3c8a6d94	0.016897954
52	0x3b075d15	0.0020654846
53	0xbaed4fd3	-0.0018105455
54	0x3b4b0ef7	0.0030984262
55	0x3c4d0aaf	0.012514754
56	0x3c83536d	0.016030991
57	0xba2afee3	-0.00065229664
58	0x3cb545fd	0.0221281
59	0x3bdad2d2	0.006677964
60	0x3cc5e1bb	0.024155488
61	0x3b07b7df	0.002070896
62	0x3b2da0d9	0.0026493578
63	0x3cdc575b	0.026897123
64	0x3c669be6	0.014075255
65	0x3b53436f	0.0032236238
66	0xb97dc301	-0.00024200605
67	0x3a3b816c	0.0007152769
68	0xbc813843	-0.015773898
69	0xbc61752d	-0.013760847
70	0x3b25f055	0.002532025
71	0x3c5261ac	0.01284067
72	0x3b99be31	0.004691862
73	0x3ca0165c	0.019541912
74	0x3cb6d7ea	0.022319753
75	0x3b27a2c8	0.0025579203
76	0x3b202400	0.002443552
77	0x3c9caff4	0.01912687
78	0x3a76795c	0.0009402239
79	0x3d47dd1f	0.048794862
80	0x3c30dd97	0.010795019
81	0x3d4b35bc	0.049611792
82	0xb8c895d5	-9.5646516e-05
83	0x3bc6e118	0.0060693137
84	0x3bd678f2	0.0065451795
85	0x3974f07b	0.0002335924
86	0xbb1f839c	-0.002433992
87	0x3b26a308	0.0025426764
88	0x3aff8e45	0.0019497356
89	0x3c28e0cf	0.010307505
90	0x3b95e10c	0.004573947
91	0xba336fe3	-0.00068449805
92	0x3bc6df08	0.006069068
93	0x3b3c1611	0.0028699676
94	0x3c20dea8	0.00981871
95	0x3aee020c	0.0018158569
96	0x3c62872c	0.013826173
97	0x3c1acd2e	0.009448333
98	0x3ccfb7d9	0.02535622
99	0x3bb5ef6b	0.0055522225
100	0x3c8f2b1b	0.017476609
101	0x3c8372ca	0.016045947
102	0x3be19311	0.0068839868
103	0x3ca638de	0.020290788
104	0xbac4c81e	-0.0015013253
105	0x3cd2344b	0.0256597
106	0x39cc07a6	0.0003891561
107	0x3bb392d8	0.0054801516
108	0x3c36cefc	0.011157747
109	0x3c231d19	0.009955668
110	0x3c91350f	0.017725496
111	0x3b78ae64	0.0037945742
112	0x3a013103	0.0004928263
113	0x3ba4d9bf	0.00503084
114	0x3c86271f	0.016376076
115	0x3ca8d196	0.02060775
116	0xbc17349f	-0.009228854
117	0x3d17c24c	0.03705053
118	0xbbb456e9	-0.0055035246
119	0x3a6744af	0.00088221853
120	0xbc79d711	-0.01524903
121	0x3c78dd8d	0.015189541
122	0x3d6eeaaa	0.05832926
123	0x3c8a45b4	0.01687894
124	0x3cbb65a5	0.022875616
125	0x3c1906af	0.009339972
126	0x3c943bfe	0.018095013
127	0x3bee5796	0.0072736247
128	0x3cafba09	0.021451013
129	0x3bc13299	0.0058959243
130	0x3b485b92	0.0030572158
131	0x38a455e5	7.8361285e-05
132	0x3b2656e9	0.0025381392
133	0x3c004d93	0.007830995
134	0x3c1f1923	0.009710583
135	0x3c8e4f98	0.017371938
136	0x3cc157d1	0.023601444
137	0x3c616ecb	0.013759325
138	0x3ca75947	0.020428313
139	0xbc20da91	-0.009817735
140	0xbba5ae43	-0.005056174
141	0x3bd2d6ab	0.006434282
142	0x3ba30f1a	0.0049761655
143	0x3cae6266	0.021287154
144	0x3c73da53	0.0148835955
145	0x3bd10a7b	0.006379423
146	0x3c3f29a4	0.011667643
147	0x3c25ef9f	0.010127931
148	0x3cb90767	0.022586538
149	0x3c4e10cf	0.01257725
150	0xbbaedfec	-0.005336752
151	0x3b37b6bb	0.00280325
152	0x3b1a4504	0.0023539672
153	0x3c899f24	0.016799517
154	0x3b15e334	0.002287102
155	0xbc4d551f	-0.0125325015
156	0x3b9a11aa	0.0047018128
157	0x3c14d5a7	0.009084142
158	0x3c26eabd	0.010187802
159	0x3b83bfef	0.004020683
160	0x3c81e10d	0.015854383
161	0x3c64e52a	0.013970653
162	0x3c53533a	0.012898261
163	0x3c2e5bcd	0.010642004
164	0x3b0cc00f	0.002147678
165	0x3cb73703	0.022365099
166	0x3c6ae1e6	0.014336085
167	0xbba15c55	-0.004924337
168	0x3b9bfccc	0.0047603603
169	0x3b80e53e	0.003933578
170	0x3d26061b	0.040533166
171	0x3c15a63f	0.009133874
172	0xb98c9188	-0.0002681131
173	0x3bd8c071	0.0066147377
174	0x3aa2144e	0.001236567
175	0x3bd86a82	0.0066044936
176	0xbaf72828	-0.0018856572
177	0xbc432aa6	-0.011912024
178	0x3ba3adf3	0.0049951016
179	0x3b2152a5	0.002461591
180	0x3b2ad041	0.002606407
181	0x3c8d4f44	0.01724971
182	0x3c5dbc97	0.013533733
183	0xbbbcf6b5	-0.0057667145
184	0x3c16e1be	0.009209095
185	0x3c309b02	0.010779144
186	0x3c03c782	0.008043172
187	0x3b0d0d99	0.0021522997
188	0x3b95020f	0.0045473645
189	0x3c80bdd7	0.015715523
190	0xbb3f4905	-0.002918781
191	0xbc2f07bc	-0.010682996
192	0xbc576378	-0.013146274
193	0xbc19f69c	-0.009397175
194	0x3c90c941	0.01767409
195	0x3c33314f	0.010937049
196	0x3acee253	0.0015784003
197	0x3bae66e3	0.0053223236
198	0x3b912941	0.0044299667
199	0x3cc0bf64	0.023528762
200	0x3bf93589	0.007605259
201	0x3c26a253	0.010170537
202	0x3c7c3e77	0.015395752
203	0x3bee2ce0	0.007268533
204	0x3ca01d3c	0.01954519
205	0x3b98ca67	0.0046628
206	0x3bbf3827	0.0058355513
207	0x3c8060fb	0.015671244
208	0xba8d09c5	-0.0010760358
209	0x3c1e6dae	0.009669704
210	0xbb838aa9	-0.0040143323
211	0x3c569ba8	0.013098635
212	0x3c672afa	0.0141093675
213	0x3cc1a4e1	0.02363819
214	0x3c27beda	0.010238374
215	0x3993f171	0.00028217913
216	0x3bc1e06f	0.005916647
217	0x3ceb7438	0.02874194
218	0xbbd64955	-0.0065395036
219	0xbbaa3b2f	-0.0051950435
220	0x3c94408d	0.018097186
221	0x3c14d817	0.009084723
222	0x3c2cb7db	0.010541881
223	0xbc19012a	-0.009338656
224	0x3c156714	0.009118814
225	0xba043beb	-0.0005044329
226	0x3ba6a8da	0.0050860466
227	0x3bb68f4e	0.0055712825
228	0x3cf9163c	0.03040611
229	0x3afff676	0.0019528407
230	0x39f6091c	0.00046927563
231	0x3beb91a1	0.007188991
232	0x39b1225d	0.00033785673
233	0x3ad4673d	0.0016205084
234	0x3d10df34	0.035369113
235	0x3c1b04b3	0.00946157
236	0x3bae1079	0.0053120223
237	0x3c6e0239	0.014526897
238	0x3aaae5ed	0.0013038494
239	0xbb9fc550	-0.0048758164
240	0xba77f9c5	-0.0009459521
241	0x3c63827e	0.013886092
242	0x3c86aa63	0.016438669
243	0x3b493ed3	0.0030707612
244	0x3ab3a776	0.0013706523
245	0x3b703922	0.0036655148
246	0x3b6322f7	0.0034658292
247	0x3bc4b9ef	0.0060036103
248	0x3c4d9130	0.012546822
249	0x3be618d3	0.0070220022
250	0xbb783b79	-0.0037877245
251	0x3c04fbd7	0.008116684
252	0x3c9163d8	0.017747805
253	0x3c8d934d	0.017282153
254	0x3bbb9b2e	0.005725286
255	0xbc7c81ad	-0.0154117765

action_model._discrete_distribution.branches.0.weight f4 [2, 256]
0	0x3c39163f	0.011296808
1	0xbd901a5e	-0.07036279
2	0x3b134edb	0.0022477421
3	0xbcd96e0c	-0.026541732
4	0xbb96c7c1	-0.0046014492
5	0x3c55c860	0.013048261
6	0x39c39fae	0.0003731227
7	0x3ca304cf	0.019899754
8	0x3d38570f	0.0450049
9	0xbb700842	-0.0036626016
10	0x3cbab679	0.022792088
11	0xbbf4e603	-0.0074737086
12	0xbc1e3c3c	-0.009657916
13	0xbcd4c4ff	-0.025972841
14	0xbcfd155c	-0.030893974
15	0xbcb58cb0	-0.022161812
16	0x3d184d2b	0.037182968
17	0x3d581719	0.052756403
18	0xbb18a9d4	-0.0023294585
19	0x3c80e626	0.015734743
20	0x3b9a2c36	0.0047049774
21	0xbcae8069	-0.021301465
22	0xbd12b92e	-0.035821132
23	0x3c2b4122	0.010452541
24	0x3cd6f595	0.02624015
25	0xbbb3c84e	-0.0054865247
26	0x3c3a46ed	0.011369449
27	0x3c28a906	0.010294205
28	0xbbe2f8b6	-0.0069266213
29	0xbd2ae414	-0.04172142
30	0x3d6fc8a0	0.05854094
31	0xbb280afd	-0.0025641315
32	0x3cadfce0	0.021238744
33	0x3d01dd47	0.031705167
34	0x3b57a5da	0.0032905252
35	0x3b460dcd	0.0030220628
36	0xbc3f511a	-0.011677051
37	0xbc963be8	-0.018339112
38	0xbbb1baec	-0.005423894
39	0xbb7cf571	-0.0038598443
40	0xbc4b4b8c	-0.0124081485
41	0x3d5ebc70	0.054378927
42	0xbc27a6d5	-0.010232647
43	0xbc456004	-0.012046818
44	0x3c8e8044	0.017395146
45	0x3c679f0f	0.014137044
46	0x3cd27cb5	0.02569423
47	0xbb455e39	-0.0030115976
48	0xbc7240f1	-0.014785991
49	0x3b913c93	0.00443227
50	0xbc19b578	-0.009381644
51	0xbd2fd2ae	-0.04292553
52	0xbc62b793	-0.013837713
53	0xbc84f704	-0.016231067
54	0x3b65db8b	0.0035073485
55	0x3ab1b3ba	0.0013557591
56	0xbcf88a7e	-0.030339476
57	0x3b9ca721	0.0047806655
58	0x3cbbd2fa	0.02292775
59	0xbbc1cf84	-0.0059146304
60	0x3caefbc2	0.021360282
61	0x3bc8e001	0.006130219
62	0xbcce8e99	-0.02521448
63	0x3c54c533	0.012986469
64	0xbb6da030	-0.003625881
65	0x3cfde485	0.030992756
66	0xbc79a5b9	-0.015237265
67	0xbb1488e3	-0.0022664599
68	0xbb2fa352	-0.0026800227
69	0x3c085b1e	0.008322505
70	0x3b8f7f79	0.0043792096
71	0x3cb8818c	0.02252271
72	0x3b5391e2	0.0032282998
73	0x3cc634ae	0.024195042
74	0x3d1ce051	0.038299862
75	0xbc028711	-0.007966773
76	0x3b66d11b	0.0035219851
77	0x3c7e41e4	0.015518639
78	0x3c0798a7	0.008276141
79	0xbd223dca	-0.039609708
80	0x3ca749b5	0.020420888
81	0x3c42a70c	0.011880647
82	0xbc9bd92b	-0.019024452
83	0x3c5449b4	0.012957025
84	0x3cf0829f	0.02935916
85	0xbbfdcec3	-0.007745595
86	0x3c7b3687	0.015332825
87	0xbc3b21e0	-0.011421651
88	0xba8529bf	-0.0010159536
89	0xbd093c12	-0.033504553
90	0x3c03b574	0.008038867
91	0xbc372cd1	-0.011180119
92	0xbcac4139	-0.021027194
93	0x3bede85d	0.007260366
94	0x3c8e6c34	0.01738558
95	0xbbb2dc92	-0.005458423
96	0x3d1bf75e	0.038077705
97	0x3cb44e4e	0.022009995
98	0xbd23b3a3	-0.039966237
99	0x3bfbe7c2	0.00768754
100	0x3b2eeb5d	0.002669058
101	0xbd49af97	-0.04923972
102	0x3c5c2c83	0.013438347
103	0xbd59907a	-0.0531163
104	0xbc258c54	-0.010104258
105	0xbc6d7be9	-0.0144948745
106	0xbb6a2f62	-0.0035733809
107	0xba81f62c	-0.0009915284
108	0xbd2278e9	-0.03966609
109	0xbce25460	-0.027628124
110	0xbd7eb937	-0.062188353
111	0xbc883fa0	-0.016631901
112	0x3b14836d	0.0022661344
113	0x3b0ddbd5	0.0021645923
114	0xbb7da09f	-0.0038700474
115	0x3c288390	0.010285273
116	0xbc0e7604	-0.008695129
117	0x3d0871e9	0.03331176
118	0xbbf5d257	-0.007501881
119	0x3bff22e3	0.0077861412
120	0xbbe8d913	-0.0071059554
121	0xbd08709d	-0.03331052
122	0x3cd75ef0	0.026290387
123	0xbd3aab5c	-0.045573577
124	0x3c94c3a8	0.018159702
125	0xbd36afdd	-0.04460131
126	0x3ceca274	0.028886057
127	0x3bacd52a	0.0052744346
128	0x3c6e9cd5	0.014563759
129	0xbc75b498	-0.01499667
130	0xbc37180f	-0.01117517
131	0xbbd75581	-0.006571472
132	0xbca0d3f0	-0.01963231
133	0x3b94a166	0.0045358418
134	0x3ac2904c	0.0014844029
135	0x3d6abba8	0.05730787
136	0xbd5c5b6d	-0.053798128
137	0x3c81fc80	0.015867472
138	0x3c9e9e5a	0.019362617
139	0xbc80111b	-0.015633157
140	0xbbe0988d	-0.006854123
141	0xbd026458	-0.031833977
142	0x3c427911	0.011869685
143	0x3d787799	0.060660932
144	0x3cc1cea7	0.02365811
145	0x3c849924	0.016186304
146	0xbcfd5337	-0.030923469
147	0xbd32862e	-0.043584995
148	0x3cb854f6	0.02250145
149	0xbcdbc124	-0.026825495
150	0xbc996abf	-0.018727658
151	0x3c8e396d	0.017361367
152	0x3c2fee4f	0.01073797
153	0x3c8521ae	0.016251411
154	0xbc3ee1e8	-0.01165054
155	0xbc20a7d0	-0.009805635
156	0x3c376375	0.011193146
157	0x3d66b077	0.056320634
158	0x3d0ae4bb	0.03390954
159	0xbc8535c1	-0.016260983
160	0x3c40bd81	0.011763931
161	0x3cd822a8	0.026383713
162	0x3d6812e9	0.05665866
163	0xbd284cdb	-0.04108892
164	0xbc95754d	-0.01824441
165	0x3ca9009c	0.020630173
166	0x3cdc1007	0.026863111
167	0xbc210542	-0.009827914
168	0xbc3ee1fa	-0.011650557
169	0x3c535b9f	0.012900262
170	0x3c2a8e60	0.010409921
171	0x3ca56e04	0.020194061
172	0xbb33f108	-0.0027456898
173	0xbc02bddd	-0.007979837
174	0x3b1a6aec	0.0023562266
175	0x3d0d3b26	0.034480236
176	0xbc843565	-0.016138742
177	0x3bd1ff9b	0.0064086444
178	0xbba6c649	-0.0050895554
179	0x3c360761	0.011110158
180	0x3b50c8d3	0.0031857982
181	0x3922f954	0.00015542406
182	0x3c62056d	0.013795239
183	0xbb983b0c	-0.004645711
184	0x3d18d0c7	0.03730848
185	0x3cf8f15d	0.030388528
186	0xbd273d35	-0.040829856
187	0xbca7a87a	-0.020466078
188	0x3c5e03e0	0.013550729
189	0xbd3c15c8	-0.04591921
190	0xbbb367f6	-0.0054750396
191	0xbc595978	-0.01326596
192	0xbcab35a7	-0.020899607
193	0x3c70cfec	0.01469801
194	0x3d52c86a	0.05146066
195	0xbbb0df7f	-0.0053977366
196	0xbc4dd627	-0.012563265
197	0xbc52ba94	-0.0128618665
198	0x3c2a91fe	0.010410784
199	0xbd1f76fe	-0.03893184
200	0xbd11e577	-0.035619225
201	0x3beb4097	0.0071793306
202	0x3cc38a6d	0.023869717
203	0x3d27b291	0.04094178
204	0xbd599370	-0.053119123
205	0xbb3eff7f	-0.0029143987
206	0xbd043254	-0.03227456
207	0x3c941a03	0.01807881
208	0xbab7f8a4	-0.0014035893
209	0x3cb3b813	0.02193836
210	0xbce05709	-0.027385252
211	0x3c9f4901	0.01944399
212	0x3ca08ed3	0.019599354
213	0x3c788454	0.015168268
214	0xbd18abfb	-0.03727339
215	0xbc2314e6	-0.009953713
216	0x3bb7485e	0.0055933436
217	0x3c85538b	0.016275188
218	0x3be79087	0.0070667895
219	0xbc881616	-0.016612094
220	0xbc790dc4	-0.015201036
221	0xbd0ce1a8	-0.03439489
222	0x3d11f081	0.035629753
223	0x3c185e52	0.009299831
224	0x3b1ecfb0	0.0024232678
225	0xb9b57a74	-0.00034614245
226	0xba0e03ae	-0.00054174184
227	0xbc14dacb	-0.009085367
228	0x3d1fda26	0.039026402
229	0xbc95273b	-0.018207183
230	0x3c5c3133	0.013439464
231	0x3c978fe4	0.01850123
232	0x3ac8b9af	0.0015314127
233	0xbba82ad2	-0.0051320577
234	0x3d3f6988	0.0467315
235	0x3bf3eabe	0.007443755
236	0x3c2cafaa	0.010539928
237	0x3b087dac	0.002082686
238	0xbadee551	-0.0017005597
239	0xbc2240ae	-0.009903116
240	0xbd0596c1	-0.032614473
241	0x3d600350	0.05469066
242	0x3ce1d666	0.027568053
243	0xbcb70770	-0.022342414
244	0x3a8876be	0.0010411364
245	0xbca6c189	-0.020355957
246	0x3c22d33a	0.009938056
247	0xbbcf3f8f	-0.0063247154
248	0x3c7254b5	0.014790704
249	0x3c5dd077	0.013538471
250	0xbb9a3d36	-0.004707004
251	0xbd03459b	-0.032048803
252	0x3cd64481	0.026155712
253	0x3d30bab2	0.043146797
254	0x3c46f6c7	0.012143797
255	0xbc4a4690	-0.012345925

action_model._discrete_distribution.branches.0.bias f4 [2]
0	0xb88cdba6	-6.716633e-05
1	0x388cd986	6.716237e-05

exp_avg f4 [256, 29]
0	0x36cf0724	6.169912e-06
1	0xb77eac5a	-1.51797085e-05
2	0xb5ba0a01	-1.3860991e-06
3	0xb5ba0a01	-1.3860991e-06
4	0x36d3dd4c	6.3140524e-06
5	0xb745e008	-1.1794276e-05
6	0xb6a4f144	-4.915668e-06
7	0xb63a3ab2	-2.7750325e-06
8	0x36cf7ec7	6.1838396e-06
9	0xb7a292cf	-1.9380268e-05
10	0x363bf0e0	2.800538e-06
11	0x34d00137	3.8743903e-07
12	0x370ca1db	8.382335e-06
13	0xb73b87ef	-1.1177718e-05
14	0xb6ff07dc	-7.600507e-06
15	0xb652b578	-3.1398067e-06
16	0x36e618b4	6.85741e-06
17	0xb7a96a26	-2.01958e-05
18	0x364577bb	2.942498e-06
19	0x35c4144f	1.4609049e-06
20	0x3757fe56	1.2874216e-05
21	0xb794325b	-1.7666423e-05
22	0xb6bc074b	-5.6036856e-06
23	0xb662db09	-3.380412e-06
24	0x35ec93f4	1.762643e-06
25	0xb77d5a73	-1.51010345e-05
26	0x364577bb	2.942498e-06
27	0x35f95769	1.8577385e-06
28	0x00000000	0.0
29	0xb832258a	-4.2473468e-05
30	0x38470676	4.7451314e-05
31	0x3678ec3d	3.7092389e-06
32	0x3678ec3d	3.7092389e-06
33	0xb85fcf3f	-5.3360356e-05
34	0x3664a488	3.4070417e-06
35	0x3875f4a2	5.8640384e-05
36	0xb7293dba	-1.0087557e-05
37	0xb8326ac8	-4.2537955e-05
38	0x387bc97a	6.0030703e-05
39	0xb713bbf2	-8.805642e-06
40	0xb629459d	-2.5223483e-06
41	0xb90911a9	-0.00013071917
42	0x384691fb	4.7342834e-05
43	0x38c1122e	9.2063434e-05
44	0x36b6cc65	5.4478173e-06
45	0xb83eb7bf	-4.5470657e-05
46	0x3885685f	6.361375e-05
47	0xb71ea52e	-9.455993e-06
48	0xb6b49dfd	-5.3828103e-06
49	0xb97381a3	-0.0002322258
50	0x393e2c0e	0.00018136224
51	0x3879c603	5.955064e-05
52	0x374a5e3f	1.2062082e-05
53	0xb8018a93	-3.0885054e-05
54	0x384da395	4.9028156e-05
55	0xb71ea52e	-9.455993e-06
56	0xb6d9f6a5	-6.495817e-06
57	0x00000000	0.0
58	0xb51ff69f	-5.9590997e-07
59	0x35b98111	1.3821137e-06
60	0x35bcae9b	1.4057908e-06
61	0x35bcae9b	1.4057908e-06
62	0xb520e094	-5.993145e-07
63	0x363a378e	2.7748497e-06
64	0x328d63a8	1.6459879e-08
65	0x343dedcc	1.7688507e-07
66	0xb520326b	-5.967801e-07
67	0x35c32c75	1.4541571e-06
68	0x35b3211e	1.3346178e-06
69	0x35b8e4bb	1.3775638e-06
70	0xb536949f	-6.8016556e-07
71	0x362b3015	2.5508973e-06
72	0x34ac7a08	3.2126286e-07
73	0x34d2d78c	3.927238e-07
74	0xb52cb9da	-6.434544e-07
75	0x35c99b00	1.5020778e-06
76	0x35b2f64c	1.3333715e-06
77	0x35b69a57	1.3604975e-06
78	0xb4b75139	-3.4145503e-07
79	0x3623615a	2.4345559e-06
80	0x33d45f7c	9.889388e-08
81	0x34b043a7	3.2831778e-07
82	0xb50a4ff0	-5.152533e-07
83	0x35b8660b	1.3738767e-06
84	0x35b2f64c	1.3333715e-06
85	0x35b578f4	1.3520753e-06
86	0x00000000	0.0
87	0xb79e2a45	-1.8854751e-05
88	0x3750e62b	1.2451356e-05
89	0x35e6aca0	1.7186576e-06
90	0x35e6aca0	1.7186576e-06
91	0xb7ebb79a	-2.809968e-05
92	0xb80a9f5e	-3.3050186e-05
93	0x386cd4f6	5.646512e-05
94	0x374d0691	1.2220481e-05
95	0xb79e9fb2	-1.8909432e-05
96	0x37bfc4ba	2.2860582e-05
97	0xb710e2ba	-8.635858e-06
98	0xb6273c50	-2.4920046e-06
99	0xb89eb2bd	-7.56732e-05
100	0xb71570bd	-8.907341e-06
101	0x38a78dbd	7.989581e-05
102	0x37891b08	1.634426e-05
103	0xb7b28544	-2.128131e-05
104	0x37d96f19	2.592015e-05
105	0xb71c6c51	-9.323544e-06
106	0xb6b4b48a	-5.3854355e-06
107	0xb90aab24	-0.0001322446
108	0x389d7c79	7.509528e-05
109	0x385c0d68	5.2464573e-05
110	0x37a53b7d	1.9697234e-05
111	0xb70b5fb4	-8.307328e-06
112	0x37593360	1.294617e-05
113	0xb71c6c51	-9.323544e-06
114	0xb6d7410f	-6.415073e-06
115	0x00000000	0.0
116	0xb6ba6a05	-5.5555743e-06
117	0x3680e198	3.84096e-06
118	0x36e5f6c2	6.853458e-06
119	0x36e5f6c2	6.853458e-06
120	0xb6ec5302	-7.0430115e-06
121	0xb51761d7	-5.639426e-07
122	0x3755d6c6	1.2745795e-05
123	0x372b5dce	1.0214235e-05
124	0xb6bae003	-5.5693104e-06
125	0x36e8793a	6.9282514e-06
126	0x367daa3a	3.7799023e-06
127	0x36bbdafd	5.598528e-06
128	0xb746996c	-1.1837441e-05
129	0x358f04da	1.0655742e-06
130	0x378577fc	1.5910708e-05
131	0x372e45a0	1.0387419e-05
132	0xb6d4326a	-6.3239613e-06
133	0x370480d6	7.89781e-06
134	0x366f3e15	3.5649912e-06
135	0x369f0e15	4.7402086e-06
136	0xb75a6add	-1.3018694e-05
137	0x36da76c0	6.5107306e-06
138	0x374366a3	1.1646803e-05
139	0x372930e8	1.0084572e-05
140	0xb62489fd	-2.4518224e-06
141	0x36871442	4.025672e-06
142	0x366f3e15	3.5649912e-06
143	0x3694bf99	4.4330486e-06
144	0x00000000	0.0
145	0x377525b9	1.4611921e-05
146	0xb7fda044	-3.023458e-05
147	0x372e4f7a	1.0389713e-05
148	0x372e4f7a	1.0389713e-05
149	0x3796854c	1.7943465e-05
150	0xb6f45946	-7.2821595e-06
151	0xb78554a6	-1.5894253e-05
152	0x36951c4b	4.4438398e-06
153	0x3775c78b	1.4649598e-05
154	0xb823b9d7	-3.9035305e-05
155	0x37a0aa3a	1.9152754e-05
156	0x376bb0d2	1.4048261e-05
157	0x3819a908	3.6635465e-05
158	0xb72dea0e	-1.0366099e-05
159	0xb8042159	-3.150231e-05
160	0x368fccab	4.2855586e-06
161	0x378c0de9	1.6695778e-05
162	0xb82e12dd	-4.15024e-05
163	0x37a43223	1.957367e-05
164	0x37894b82	1.6366834e-05
165	0x38875fcc	6.455145e-05
166	0xb83ec69e	-4.5484507e-05
167	0xb7cbd79f	-2.4299892e-05
168	0x34d4e1a9	3.9652267e-07
169	0x36bcbab1	5.6245703e-06
170	0xb7ff467a	-3.0431187e-05
171	0x37a43223	1.957367e-05
172	0x37907c29	1.7223954e-05
173	0x00000000	0.0
174	0xb4ae01a8	-3.241123e-07
175	0x35c3beef	1.4584201e-06
176	0x35c6f51b	1.4823485e-06
177	0x35c6f51b	1.4823485e-06
178	0xb4ff9d4e	-4.7611906e-07
179	0x361cf4f6	2.3388397e-06
180	0x354a61ef	7.5393376e-07
181	0x339a4606	7.183921e-08
182	0xb4ae947a	-3.2518057e-07
183	0x35d5473a	1.5890466e-06
184	0x35b59179	1.3527889e-06
185	0x35c0da66	1.4368677e-06
186	0xb599bef2	-1.1454961e-06
187	0x35ebdcb9	1.7573103e-06
188	0x36068ae6	2.0048406e-06
189	0x34c1a1b0	3.6066695e-07
190	0xb4c198fd	-3.6060365e-07
191	0x35dd28dd	1.6477676e-06
192	0x35b270f2	1.3294905e-06
193	0x35ba8e7c	1.3899548e-06
194	0xb6057d88	-1.9891613e-06
195	0x36770a0f	3.6811723e-06
196	0x3578350e	9.2464404e-07
197	0x34bf9e58	3.5691733e-07
198	0xb4568047	-1.997697e-07
199	0x35c792a9	1.4869339e-06
200	0x35b270f2	1.3294905e-06
201	0x35b8a2a6	1.3756405e-06
202	0x00000000	0.0
203	0x37db04d0	2.6109075e-05
204	0xb7cde3a0	-2.45439e-05
205	0xb7a29b83	-1.938432e-05
206	0xb7a29b83	-1.938432e-05
207	0x3806a66b	3.210308e-05
208	0xb68ac21e	-4.1353187e-06
209	0xb8400b4d	-4.5786892e-05
210	0xb7d4e1f6	-2.537759e-05
211	0x37db9d1a	2.617999e-05
212	0xb8322289	-4.247067e-05
213	0xb5cd25e6	-1.528472e-06
214	0xb74354a2	-1.1642611e-05
215	0x385ebaaf	5.3102787e-05
216	0x3706148f	7.991809e-06
217	0xb8a57e7e	-7.891374e-05
218	0xb7d55e14	-2.5435387e-05
219	0x37f982e3	2.9744062e-05
220	0xb8454f89	-4.7042533e-05
221	0xb50bc48c	-5.206755e-07
222	0xb6e9ba3a	-6.9656207e-06
223	0x38af00cf	8.344801e-05
224	0xb83d478a	-4.5127737e-05
225	0xb86b773b	-5.6139408e-05
226	0xb7eb3a0e	-2.8041217e-05
227	0x37095392	8.185294e-06
228	0xb7d5c5fc	-2.5483772e-05
229	0xb50bc48c	-5.206755e-07
230	0xb6b0a751	-5.264687e-06
231	0x00000000	0.0
232	0x3804c5e0	3.1655538e-05
233	0xb8738bec	-5.8066027e-05
234	0xb803beb5	-3.1410444e-05
235	0xb803beb5	-3.1410444e-05
236	0x38227b70	3.873877e-05
237	0xb87ec431	-6.0741037e-05
238	0xb8163bf6	-3.581863e-05
239	0x3606c575	2.008249e-06
240	0x380523f8	3.174317e-05
241	0xb8a40509	-7.821067e-05
242	0xb73e7aa5	-1.1353438e-05
243	0xb7b95c85	-2.2096801e-05
244	0x3895532f	7.120368e-05
245	0xb7f44653	-2.9119814e-05
246	0xb8d183fb	-9.99048e-05
247	0xb5da9bef	-1.6287648e-06
248	0x3817a086	3.6150705e-05
249	0xb8ae8d50	-8.323288e-05
250	0xb7342aa4	-1.0738764e-05
251	0xb791db50	-1.7387472e-05
252	0x390fda4e	0.00013718868
253	0xb9079b39	-0.00012932428
254	0xb889c08b	-6.568533e-05
255	0xb714630f	-8.844551e-06

exp_avg_sq f4 [256, 29]
0	0x301b1b3e	5.6427385e-10
1	0x31b955fe	5.393985e-09
2	0x30752843	8.9187696e-10
3	0x30752843	8.9187696e-10
4	0x301b08cb	5.6401167e-10
5	0x31bccea6	5.4950133e-09
6	0x30578d35	7.841721e-10
7	0x305afc44	7.966643e-10
8	0x301ae8be	5.635562e-10
9	0x31c92dbb	5.855069e-09
10	0x3005c23f	4.866116e-10
11	0x3015cf5b	5.4500554e-10
12	0x301e3419	5.75541e-10
13	0x31c2b127	5.666283e-09
14	0x30231993	5.93354e-10
15	0x304121fe	7.0261297e-10
16	0x3023b792	5.9559924e-10
17	0x31c911ab	5.8518785e-09
18	0x3003fabd	4.8013843e-10
19	0x30093c8c	4.992635e-10
20	0x3060b5b4	8.174894e-10
21	0x31c399b4	5.692721e-09
22	0x2ff90fde	4.530411e-10
23	0x302e96f2	6.351534e-10
24	0x30516fe6	7.6192774e-10
25	0x31c0e892	5.6143756e-09
26	0x3003fabd	4.8013843e-10
27	0x3006df26	4.906603e-10
28	0x00000000	0.0
29	0x31fc8b44	7.349998e-09
30	0x32612310	1.3104696e-08
31	0x3485bbb1	2.4909744e-07
32	0x3485bbb1	2.4909744e-07
33	0x32005ea7	7.472102e-09
34	0x3407a76c	1.2633762e-07
35	0x34029323	1.2160721e-07
36	0x3414aa59	1.3845546e-07
37	0x31fc1e14	7.3375848e-09
38	0x326e65e5	1.3876591e-08
39	0x3485b1da	2.4902585e-07
40	0x3485a93f	2.4896323e-07
41	0x3299b4c2	1.7893743e-08
42	0x3448226f	1.8638978e-07
43	0x336c3b6b	5.5002072e-08
44	0x33bd8bfa	8.82646e-08
45	0x3201f1c2	7.563758e-09
46	0x3272a828	1.4124488e-08
47	0x3485df54	2.4935673e-07
48	0x3485c318	2.491513e-07
49	0x33e08f5a	1.0456888e-07
50	0x33fdbbd0	1.18153935e-07
51	0x331a4838	3.59216e-08
52	0x339f27b4	7.4112364e-08
53	0x3208cd8d	7.962979e-09
54	0x32642eaf	1.3281961e-08
55	0x3485df54	2.4935673e-07
56	0x3485c599	2.4916952e-07
57	0x00000000	0.0
58	0x2d5dd431	1.26095115e-11
59	0x2eb59491	8.257318e-11
60	0x2e5134b4	4.7567908e-11
61	0x2e5134b4	4.7567908e-11
62	0x2d5df49e	1.26167115e-11
63	0x2ef33c17	1.1061035e-10
64	0x2dcc84a9	2.3251028e-11
65	0x2dde1be4	2.5250864e-11
66	0x2d5daf3d	1.2601306e-11
67	0x2eb8afc3	8.398573e-11
68	0x2e4b3376	4.6202563e-11
69	0x2e4bcbc9	4.6337854e-11
70	0x2d6663d8	1.3096156e-11
71	0x2f0ed252	1.2989546e-10
72	0x2ca991ef	4.8194708e-12
73	0x2d42227f	1.1035283e-11
74	0x2d66b17b	1.3113395e-11
75	0x2eb668bd	8.295007e-11
76	0x2e4a93ff	4.606093e-11
77	0x2e4ad67c	4.6119983e-11
78	0x2d95d309	1.7033057e-11
79	0x2f0dba54	1.2890072e-10
80	0x2c137f39	2.096058e-12
81	0x2d1885b1	8.669885e-12
82	0x2d6cb8d8	1.345609e-11
83	0x2eb54f33	8.244996e-11
84	0x2e4a93ff	4.606093e-11
85	0x2e4ac3cf	4.6103395e-11
86	0x00000000	0.0
87	0x3125f32c	2.4148887e-09
88	0x30d8c5d5	1.5772296e-09
89	0x34673d11	2.1535767e-07
90	0x34673d11	2.1535767e-07
91	0x3132915c	2.5985036e-09
92	0x3385b76d	6.22666e-08
93	0x341aa3e4	1.4401991e-07
94	0x342667f4	1.5497773e-07
95	0x31258b6b	2.408991e-09
96	0x3154cb58	3.0965648e-09
97	0x34663c0b	2.1442263e-07
98	0x34665b53	2.1453643e-07
99	0x3223851b	9.518113e-09
100	0x340d2859	1.3146327e-07
101	0x33940f65	6.894587e-08
102	0x33dcab5d	1.0275719e-07
103	0x313473a1	2.6259175e-09
104	0x31553a5f	3.102876e-09
105	0x34664054	2.1443822e-07
106	0x34663e41	2.1443067e-07
107	0x33a99719	7.89716e-08
108	0x33ad3622	8.065787e-08
109	0x3347e2f7	4.653972e-08
110	0x33bc3781	8.764528e-08
111	0x315a4f42	3.1768228e-09
112	0x311e69ca	2.305216e-09
113	0x34664054	2.1443822e-07
114	0x346633aa	2.1439214e-07
115	0x00000000	0.0
116	0x2f17675e	1.3770093e-10
117	0x2eb6caa0	8.312395e-11
118	0x311c7254	2.2765976e-09
119	0x311c7254	2.2765976e-09
120	0x2f1bb3a2	1.4160986e-10
121	0x2f30c0b2	1.6075566e-10
122	0x31133f3a	2.1427256e-09
123	0x3114307b	2.1564392e-09
124	0x2f16da66	1.3720011e-10
125	0x2f2b25dc	1.556581e-10
126	0x3116bf22	2.193652e-09
127	0x3118385b	2.2150946e-09
128	0x2f4af3be	1.8458388e-10
129	0x302ab8f7	6.210849e-10
130	0x30d9312e	1.5802806e-09
131	0x30faf61c	1.8259843e-09
132	0x2f26c770	1.5168466e-10
133	0x2f321347	1.6195854e-10
134	0x311679f5	2.1897197e-09
135	0x3116fc93	2.1971445e-09
136	0x3014ce30	5.4135096e-10
137	0x3028bddc	6.138785e-10
138	0x30a50c33	1.2008797e-09
139	0x30e61976	1.6741939e-09
140	0x2f3f4a74	1.73978e-10
141	0x2f029500	1.1876367e-10
142	0x311679f5	2.1897197e-09
143	0x3116dd2a	2.195359e-09
144	0x00000000	0.0
145	0x30771ddd	8.9900515e-10
146	0x31c656ad	5.7724123e-09
147	0x32cf10eb	2.4105665e-08
148	0x32cf10eb	2.4105665e-08
149	0x30771b22	8.9896635e-10
150	0x32561876	1.2462001e-08
151	0x328c59ea	1.6339033e-08
152	0x3296436a	1.7492955e-08
153	0x3076fcc2	8.985347e-10
154	0x31d9bf8e	6.3373085e-09
155	0x32cbadcb	2.3711342e-08
156	0x32cc3908	2.377466e-08
157	0x30bf7e87	1.393304e-09
158	0x32ced16d	2.4076792e-08
159	0x319695d9	4.3826103e-09
160	0x32256fcf	9.629686e-09
161	0x308604aa	9.751109e-10
162	0x31dbda5f	6.398565e-09
163	0x32cba99c	2.370944e-08
164	0x32cbc887	2.37235e-08
165	0x323e1b51	1.1065667e-08
166	0x3284f033	1.5476052e-08
167	0x3169a962	3.4002245e-09
168	0x32074603	7.873953e-09
169	0x309ff448	1.1638202e-09
170	0x31cf7636	6.037932e-09
171	0x32cba99c	2.370944e-08
172	0x32cba8ba	2.3709038e-08
173	0x00000000	0.0
174	0x2d73da5f	1.3861439e-11
175	0x2ff26739	4.4092888e-10
176	0x31681e6d	3.3777738e-09
177	0x31681e6d	3.3777738e-09
178	0x2dad9fc4	1.9738773e-11
179	0x30d7a291	1.5689513e-09
180	0x3123d437	2.3840252e-09
181	0x312c72ef	2.5094626e-09
182	0x2d73c585	1.3856809e-11
183	0x2ff93584	4.533086e-10
184	0x3167e53d	3.374523e-09
185	0x3167d640	3.3736711e-09
186	0x2e7a47bb	5.690713e-11
187	0x315d5418	3.2207534e-09
188	0x30391a30	6.733982e-10
189	0x30af68de	1.2762731e-09
190	0x2d820076	1.4779494e-11
191	0x2ff2f5e8	4.419427e-10
192	0x31672e79	3.364134e-09
193	0x31675b19	3.3666707e-09
194	0x30038a9d	4.7854504e-10
195	0x314eb7a5	3.0081335e-09
196	0x2fe6f5fa	4.2011533e-10
197	0x3090336f	1.0491997e-09
198	0x2d98628f	1.7324168e-11
199	0x2ff1b931	4.396923e-10
200	0x31672e79	3.364134e-09
201	0x31674f63	3.366005e-09
202	0x00000000	0.0
203	0x315c87dd	3.2091443e-09
204	0x318dad2d	4.123328e-09
205	0x339e45ef	7.370169e-08
206	0x339e45ef	7.370169e-08
207	0x3161214e	3.276074e-09
208	0x323d5344	1.102018e-08
209	0x338b7daa	6.49555e-08
210	0x338e4e72	6.6266594e-08
211	0x315c550f	3.2062564e-09
212	0x31dfc3a9	6.512398e-09
213	0x3399cbae	7.161667e-08
214	0x339adb82	7.211112e-08
215	0x31899dc6	4.0051615e-09
216	0x33307061	4.10804e-08
217	0x330d8710	3.295196e-08
218	0x33493e8a	4.685584e-08
219	0x3170066b	3.4928245e-09
220	0x31e28d5d	6.593537e-09
221	0x33996ecc	7.1447715e-08
222	0x3399df4a	7.165234e-08
223	0x32bae29d	2.1756302e-08
224	0x32f79d8d	2.882623e-08
225	0x32dc7686	2.5665269e-08
226	0x33311579	4.1230553e-08
227	0x319b3b03	4.5178026e-09
228	0x31b1b875	5.1723483e-09
229	0x33996ecc	7.1447715e-08
230	0x3399b251	7.157053e-08
231	0x00000000	0.0
232	0x31812181	3.758203e-09
233	0x329ef73a	1.8506046e-08
234	0x345b0638	2.0398227e-07
235	0x345b0638	2.0398227e-07
236	0x3181bfcf	3.7762002e-09
237	0x3392b611	6.8317725e-08
238	0x341bdb5c	1.4515302e-07
239	0x3424a487	1.5333545e-07
240	0x3180ed7c	3.752289e-09
241	0x32adf8dc	2.0253019e-08
242	0x34598e6f	2.0261517e-07
243	0x3459e0f8	2.0291543e-07
244	0x31ae36f1	5.0703126e-09
245	0x343cfce6	1.7600868e-07
246	0x3322a866	3.787172e-08
247	0x33b2b9cc	8.322567e-08
248	0x318c2439	4.0786543e-09
249	0x32b060f5	2.0533188e-08
250	0x3459bc6e	2.027825e-07
251	0x3459c2e8	2.0280606e-07
252	0x3387452a	6.299008e-08
253	0x3406c8a9	1.2552722e-07
254	0x32e22682	2.6327374e-08
255	0x339160c9	6.769694e-08

exp_avg f4 [256]
0	0xb72e67f4	-1.0395412e-05
1	0x37123b21	8.716045e-06
2	0x36132381	2.1925373e-06
3	0xb69cfc23	-4.678515e-06
4	0x36acac37	5.146048e-06
5	0xb6afd500	-5.240203e-06
6	0x362f9d3c	2.6168555e-06
7	0xb7957b3f	-1.7819575e-05
8	0xb872a352	-5.78494e-05
9	0x37edf401	2.8366225e-05
10	0xb7afe532	-2.0968353e-05
11	0xb6c85516	-5.97037e-06
12	0x3754c70f	1.2682532e-05
13	0x37ce567f	2.4597392e-05
14	0x3882675b	6.2181345e-05
15	0x37945aa5	1.7685185e-05
16	0xb7741f0c	-1.4550762e-05
17	0xb7b50837	-2.1580707e-05
18	0x36d2d98d	6.283814e-06
19	0x36ff951a	7.61695e-06
20	0xb6b4a1e4	-5.3832646e-06
21	0x37caa400	2.4156645e-05
22	0xb48f7088	-2.6717703e-07
23	0xb7d1ecb6	-2.5024969e-05
24	0xb7474428	-1.1877193e-05
25	0x36456fc7	2.942035e-06
26	0xb7ccac73	-2.4398998e-05
27	0x35c9b4f9	1.5028337e-06
28	0x37350442	1.0789432e-05
29	0x38ab1aa6	8.158879e-05
30	0xb707d361	-8.0958425e-06
31	0xb3c265bd	-9.052335e-08
32	0xb8072d65	-3.2228785e-05
33	0xb6caa137	-6.038837e-06
34	0x361eb1fa	2.364743e-06
35	0xb74d5567	-1.22388365e-05
36	0x3709f31f	8.222442e-06
37	0x37f3d044	2.9064839e-05
38	0x36683d19	3.4606257e-06
39	0x3649728b	3.0018007e-06
40	0x37461d14	1.180849e-05
41	0xb8bc5478	-8.980272e-05
42	0x34fbe5fe	4.6919735e-07
43	0x36a2a96d	4.8477e-06
44	0x37aaeb86	2.0375253e-05
45	0xb7f6ff13	-2.9444263e-05
46	0x36fdd8e0	7.565235e-06
47	0xb555346c	-7.942497e-07
48	0x3614c3ab	2.2167612e-06
49	0xb704c796	-7.914283e-06
50	0x37858ec2	1.5921312e-05
51	0x38a04a49	7.643231e-05
52	0x37abeac5	2.0494112e-05
53	0x37c0d8b8	2.2989101e-05
54	0xb64e0b35	-3.0702915e-06
55	0xb77aa8a4	-1.4940426e-05
56	0x384cc2ab	4.881869e-05
57	0x3621f588	2.4133788e-06
58	0xb87331d1	-5.798211e-05
59	0x33972f87	7.0401306e-08
60	0xb7edc4fb	-2.8344328e-05
61	0xb6942562	-4.4150956e-06
62	0x380136ef	3.0807158e-05
63	0x37277553	9.981292e-06
64	0x36f34348	7.249797e-06
65	0xb7c395e1	-2.3315604e-05
66	0x35e6a5fa	1.7184641e-06
67	0x35137b66	5.4941336e-07
68	0x356a6ed5	8.7333075e-07
69	0x367e15d3	3.7861653e-06
70	0x36eead84	7.1131526e-06
71	0xb7c838f8	-2.3868386e-05
72	0xb5ef098d	-1.7809667e-06
73	0xb7b20efe	-2.1226235e-05
74	0xb89f940c	-7.609287e-05
75	0x3793e24e	1.7629147e-05
76	0xb5e51ed8	-1.7070806e-06
77	0xb78e3353	-1.6951619e-05
78	0xb7cad101	-2.4177602e-05
79	0xb78cbe62	-1.6777954e-05
80	0xb7154443	-8.8969855e-06
81	0xb70e5625	-8.483917e-06
82	0x3812d9e6	3.5012046e-05
83	0xb725f1c4	-9.891057e-06
84	0xb8219e76	-3.853297e-05
85	0x3684a1d5	3.9527463e-06
86	0xb71842db	-9.075472e-06
87	0x375be7da	1.3107399e-05
88	0x360eef2c	2.1298865e-06
89	0x382463a0	3.919343e-05
90	0xb706de51	-8.0387845e-06
91	0x36b63a98	5.430844e-06
92	0x37a21751	1.9322762e-05
93	0x35106e48	5.380466e-07
94	0xb81b7d82	-3.7071768e-05
95	0x37ca25f9	2.4097959e-05
96	0xb62ccf21	-2.5750562e-06
97	0xb825601d	-3.9428578e-05
98	0x37b96781	2.2101916e-05
99	0xb7df3400	-2.6607886e-05
100	0xb67d8936	-3.7779805e-06
101	0x38781e2a	5.91559e-05
102	0xb7acabcc	-2.0583997e-05
103	0x38ea8553	0.00011182823
104	0x3764e866	1.36439685e-05
105	0x37b73855	2.1841532e-05
106	0xb5b8cb39	-1.3768214e-06
107	0xb68de945	-4.2292836e-06
108	0x38308ed0	4.2094674e-05
109	0x3880e85a	6.1467945e-05
110	0x389e97ce	7.562303e-05
111	0x37a54f5a	1.9706484e-05
112	0x369343b5	4.3888235e-06
113	0xb6c2615f	-5.792986e-06
114	0x35eb55cb	1.7533833e-06
115	0xb733adf9	-1.0709738e-05
116	0x370724e4	8.055216e-06
117	0xb62533cd	-2.4617068e-06
118	0x37dd5d10	2.6388589e-05
119	0x371d9b13	9.394035e-06
120	0x36c54d9d	5.880093e-06
121	0x3823c26a	3.904329e-05
122	0x368e0297	4.2322313e-06
123	0x38bbe0a1	8.958695e-05
124	0xb7ca0355	-2.4081828e-05
125	0x376fcad1	1.4292732e-05
126	0xb7a18def	-1.9258789e-05
127	0xb704b565	-7.910047e-06
128	0xb7ad6a05	-2.0672576e-05
129	0x37eca600	2.8210692e-05
130	0x361effe3	2.369278e-06
131	0x370e033b	8.464612e-06
132	0x37efc05b	2.8580593e-05
133	0xb6ec9786	-7.0509877e-06
134	0x3703c635	7.854357e-06
135	0xb88a801a	-6.6042136e-05
136	0x3779fc19	1.4900253e-05
137	0xb7b205da	-2.1221978e-05
138	0x3745cd44	1.1789907e-05
139	0x3781c791	1.5470929e-05
140	0x3714c54a	8.867422e-06
141	0x3824693f	3.9198665e-05
142	0xb65f3473	-3.326012e-06
143	0xb89a0962	-7.34504e-05
144	0xb7b0df95	-2.1084948e-05
145	0xb623d3db	-2.4412209e-06
146	0x38383bbb	4.3924647e-05
147	0x38969833	7.180907e-05
148	0xb81b295c	-3.69934e-05
149	0x386db730	5.667581e-05
150	0xb7118083	-8.672595e-06
151	0xb78fdb42	-1.7149028e-05
152	0xb6dd5e71	-6.5973077e-06
153	0xb797f8b4	-1.8116414e-05
154	0x37a5d98e	1.977084e-05
155	0x3725f447	9.891642e-06
156	0x35beffdb	1.4230567e-06
157	0xb82127fc	-3.842263e-05
158	0xb878a14f	-5.9278038e-05
159	0x37b3a0d6	2.1413358e-05
160	0xb7264221	-9.909768e-06
161	0xb848f4e8	-4.7911803e-05
162	0xb6e8b74d	-6.935478e-06
163	0xb7b6e3ed	-2.1802227e-05
164	0x368bb1e7	4.1632334e-06
165	0x35c55e88	1.4705156e-06
166	0xb833bcc4	-4.2852727e-05
167	0x36db7424	6.540229e-06
168	0x3711ecf9	8.697848e-06
169	0xb7b0974d	-2.105129e-05
170	0xb4b83f41	-3.4318694e-07
171	0xb713087e	-8.76386e-06
172	0x37797904	1.4869733e-05
173	0x37d7e67a	2.5737321e-05
174	0x36e7c14f	6.9068406e-06
175	0xb7bf8401	-2.2830443e-05
176	0x374a99ae	1.207592e-05
177	0xb61ef468	-2.3686098e-06
178	0xb4ee9c9c	-4.4444903e-07
179	0xb820bb4d	-3.832141e-05
180	0xb79301e7	-1.7524651e-05
181	0xb634521a	-2.686988e-06
182	0xb73c350f	-1.1218027e-05
183	0x3664f41f	3.4116745e-06
184	0xb73f3222	-1.139616e-05
185	0xb80507b7	-3.1716856e-05
186	0x378dfa40	1.6925042e-05
187	0x37e633ec	2.7442315e-05
188	0xb79a98fa	-1.8429466e-05
189	0x38944f68	7.0719805e-05
190	0x3744d61e	1.1732363e-05
191	0xb718e7da	-9.113888e-06
192	0x36d78299	6.422703e-06
193	0xb4e9a01c	-4.3516127e-07
194	0xb8878201	-6.461517e-05
195	0x36415ef2	2.8814507e-06
196	0x369e2317	4.712852e-06
197	0x381871dd	3.6345667e-05
198	0xb5c34c30	-1.4550806e-06
199	0x3862f39f	5.410949e-05
200	0xb7e36145	-2.7105803e-05
201	0xb68acfbb	-4.1369035e-06
202	0xb800adbe	-3.0679388e-05
203	0xb851875e	-4.9955554e-05
204	0xb8976bca	-7.2203184e-05
205	0x37bbe03a	2.239655e-05
206	0x372db2f5	1.035327e-05
207	0xb70832cb	-8.118058e-06
208	0x375c0a0e	1.3115363e-05
209	0xb82c0462	-4.1012077e-05
210	0xb6a86075	-5.0180192e-06
211	0xb72869f6	-1.0038251e-05
212	0x360b717d	2.0778673e-06
213	0xb7878d96	-1.6159185e-05
214	0xb78fc805	-1.714007e-05
215	0x36ca873f	6.035814e-06
216	0xb754192f	-1.2642048e-05
217	0xb6663f63	-3.4309567e-06
218	0xb62782d5	-2.4961093e-06
219	0x37ab17b3	2.0395824e-05
220	0x385d66af	5.2786138e-05
221	0x37bdcad7	2.262501e-05
222	0xb88859be	-6.501701e-05
223	0xb7865464	-1.6013342e-05
224	0xb5806d9c	-9.568644e-07
225	0xb60b712f	-2.0778496e-06
226	0xb62de125	-2.591006e-06
227	0x37d7039c	2.5631678e-05
228	0xb8333195	-4.2723103e-05
229	0xb7111d10	-8.64944e-06
230	0xb65d772d	-3.3000936e-06
231	0xb80034ef	-3.0566876e-05
232	0xb62bdb05	-2.5608472e-06
233	0x3703d70e	7.85828e-06
234	0xb7a9b949	-2.023265e-05
235	0xb6b328f5	-5.3393837e-06
236	0xb74cba44	-1.2202716e-05
237	0xb792befe	-1.7493494e-05
238	0x373b19fb	1.1152118e-05
239	0x3779ee13	1.48969875e-05
240	0xb79c8f8c	-1.8663493e-05
241	0xb8945b4e	-7.074197e-05
242	0xb7df77d9	-2.663948e-05
243	0x36f0082f	7.15351e-06
244	0x3736001b	1.084807e-05
245	0x37bea521	2.272666e-05
246	0xb6d3e88d	-6.3153625e-06
247	0xb6ad8aca	-5.171959e-06
248	0xb79c01d5	-1.8597502e-05
249	0xb78b438d	-1.6601547e-05
250	0xb55f99dc	-8.329787e-07
251	0x37a357c9	1.9471992e-05
252	0xb85ad334	-5.217195e-05
253	0x36a074ca	4.7819676e-06
254	0xb75ead3a	-1.3272564e-05
255	0xb603193e	-1.9535214e-06

exp_avg_sq f4 [256]
0	0x31ee126c	6.928806e-09
1	0x34915f9a	2.7077914e-07
2	0x2f1cf3fc	1.4274798e-10
3	0x346b9b93	2.1942678e-07
4	0x312ba5b8	2.4977975e-09
5	0x3304018c	3.0735052e-08
6	0x31856f81	3.883486e-09
7	0x33ad1b49	8.0609034e-08
8	0x3474471a	2.2750137e-07
9	0x33338944	4.1801528e-08
10	0x32dcc171	2.5699338e-08
11	0x306730f8	8.41069e-10
12	0x3288d88f	1.5930963e-08
13	0x32fb366f	2.9245e-08
14	0x343bcf44	1.7491135e-07
15	0x34314897	1.6510818e-07
16	0x33806e0a	5.9804805e-08
17	0x34930030	2.738102e-07
18	0x3300a829	2.9955263e-08
19	0x32b73baa	2.1331136e-08
20	0x31421465	2.8242308e-09
21	0x322c206e	1.0019091e-08
22	0x3481d162	2.4180468e-07
23	0x32b2f96d	2.0835353e-08
24	0x33045658	3.0812174e-08
25	0x330051b1	2.987662e-08
26	0x32a03de7	1.8654601e-08
27	0x30965dbc	1.0940577e-09
28	0x30ffa831	1.8601495e-09
29	0x33c80c34	9.3154455e-08
30	0x34c4bef1	3.6646773e-07
31	0x308e94b7	1.0374127e-09
32	0x335a2026	5.078632e-08
33	0x336551d1	5.339263e-08
34	0x3258dd39	1.2623155e-08
35	0x31e125a9	6.5526433e-09
36	0x32a37352	1.9028139e-08
37	0x341c42ed	1.455298e-07
38	0x30aea339	1.2706557e-09
39	0x3276de27	1.4369596e-08
40	0x334ceaf0	4.7711126e-08
41	0x34994c6a	2.855407e-07
42	0x308b3e2e	1.0131254e-09
43	0x3234f371	1.0532731e-08
44	0x322ce647	1.0064077e-08
45	0x32416284	1.1256478e-08
46	0x32222626	9.438315e-09
47	0x30c35f8c	1.4215273e-09
48	0x2ff51144	4.4577508e-10
49	0x3199d67d	4.4772706e-09
50	0x333787fb	4.273168e-08
51	0x349e25d0	2.9457306e-07
52	0x34102fe5	1.3428469e-07
53	0x33b02c0b	8.20365e-08
54	0x328d45bb	1.644627e-08
55	0x326413e5	1.327587e-08
56	0x34724d02	2.2566022e-07
57	0x32a868fd	1.9605517e-08
58	0x333869ec	4.2937174e-08
59	0x2f23bf1d	1.4892661e-10
60	0x340c9e87	1.3096188e-07
61	0x30e1b306	1.6421786e-09
62	0x341cdf44	1.4609856e-07
63	0x32273637	9.733006e-09
64	0x300a9b8e	5.0425164e-10
65	0x345c5f82	2.0523842e-07
66	0x331e7f26	3.6902883e-08
67	0x3237b697	1.0693518e-08
68	0x3156f0b8	3.1277931e-09
69	0x30de2b56	1.6164943e-09
70	0x336a0cd7	5.449405e-08
71	0x330aeef2	3.234795e-08
72	0x3279531e	1.4512606e-08
73	0x337d79a9	5.9016802e-08
74	0x342f47a8	1.6324213e-07
75	0x33aa8988	7.941259e-08
76	0x305a53b5	7.9426893e-10
77	0x327023a9	1.3977947e-08
78	0x328787b9	1.5777788e-08
79	0x33346a27	4.200606e-08
80	0x32deeecc	2.5952794e-08
81	0x31888eff	3.9743777e-09
82	0x331ad5e6	3.605046e-08
83	0x322a2b2f	9.905121e-09
84	0x33c60120	9.220298e-08
85	0x329b1769	1.805502e-08
86	0x315eee49	3.2440701e-09
87	0x33a4fd1c	7.6828854e-08
88	0x31692108	3.3924739e-09
89	0x34a2355b	3.0213673e-07
90	0x32414c4c	1.12514265e-08
91	0x312eef52	2.545637e-09
92	0x33f9a32d	1.16246476e-07
93	0x323f672c	1.1141122e-08
94	0x33087591	3.1771894e-08
95	0x33c3bc32	9.1146276e-08
96	0x33c4eb20	9.16973e-08
97	0x3347f6f1	4.655789e-08
98	0x33429829	4.5307534e-08
99	0x3312c6f0	3.4174207e-08
100	0x3152529e	3.0605984e-09
101	0x34b22568	3.31823e-07
102	0x336da50c	5.5330972e-08
103	0x352172c6	6.014419e-07
104	0x30af0cf0	1.2736603e-09
105	0x319744fd	4.4025215e-09
106	0x327f7692	1.4869913e-08
107	0x32008d4a	7.482706e-09
108	0x3450914d	1.942437e-07
109	0x344ddde9	1.9172843e-07
110	0x3530b33c	6.582593e-07
111	0x33c74b5f	9.2803695e-08
112	0x330f9ec4	3.343918e-08
113	0x3120a166	2.3374809e-09
114	0x2fb2b543	3.2506806e-10
115	0x3231254b	1.0311235e-08
116	0x3112bd82	2.135352e-09
117	0x33746285	5.690028e-08
118	0x32867121	1.5651098e-08
119	0x33001264	2.981905e-08
120	0x3156823d	3.121513e-09
121	0x33129193	3.4125673e-08
122	0x32768622	1.4349583e-08
123	0x34a103a0	2.9991224e-07
124	0x32c3fcd1	2.2815955e-08
125	0x344e9c34	1.9242071e-07
126	0x329b2cec	1.8064803e-08
127	0x32296caf	9.8618065e-09
128	0x325ada6a	1.2738932e-08
129	0x3452eb8e	1.9643468e-07
130	0x342f5b1f	1.6331295e-07
131	0x32652acf	1.3339288e-08
132	0x34859f8d	2.488927e-07
133	0x30daac90	1.5910633e-09
134	0x3108c57a	1.9902857e-09
135	0x348792d4	2.525254e-07
136	0x34830ce2	2.4410025e-07
137	0x3291b10f	1.6960739e-08
138	0x33261a7d	3.8673978e-08
139	0x33305a82	4.106051e-08
140	0x309e5287	1.1519469e-09
141	0x3465347e	2.1346384e-07
142	0x320c71b5	8.1749265e-09
143	0x34d4f7f2	3.966848e-07
144	0x3334c966	4.2092687e-08
145	0x334a055d	4.7036668e-08
146	0x3481e48f	2.419442e-07
147	0x34ba059a	3.4649275e-07
148	0x3367a39d	5.3932684e-08
149	0x33c61600	9.224095e-08
150	0x330adef9	3.233342e-08
151	0x337fb476	5.9535942e-08
152	0x31a06060	4.6675694e-09
153	0x32f4a30f	2.8479489e-08
154	0x32b15686	2.0644858e-08
155	0x3159e8cf	3.1709992e-09
156	0x31d68943	6.2438246e-09
157	0x347d6737	2.360001e-07
158	0x3418b376	1.422139e-07
159	0x3397af89	7.063415e-08
160	0x32cb25b3	2.3649454e-08
161	0x33ea6bd3	1.0916087e-07
162	0x34d10041	3.8929468e-07
163	0x3469e131	2.178174e-07
164	0x3343969a	4.5538947e-08
165	0x32eec627	2.7796956e-08
166	0x3417dd3e	1.4143458e-07
167	0x2fcb3cad	3.6968598e-10
168	0x2fedeff5	4.3280549e-10
169	0x338e5c00	6.629125e-08
170	0x321ca446	9.117747e-09
171	0x33370be4	4.2618822e-08
172	0x32eb99f7	2.7427616e-08
173	0x33317fb1	4.132716e-08
174	0x3302e671	3.047757e-08
175	0x341183fc	1.3552193e-07
176	0x32319e21	1.033871e-08
177	0x3155eda0	3.1130654e-09
178	0x2f051301	1.2103031e-10
179	0x335acf48	5.09456e-08
180	0x3235f28c	1.0590735e-08
181	0x312af96f	2.4880042e-09
182	0x321f30e2	9.266133e-09
183	0x3283393c	1.5276434e-08
184	0x34402459	1.7894617e-07
185	0x33340a60	4.1918952e-08
186	0x347f5dff	2.3782921e-07
187	0x33d5b968	9.9523106e-08
188	0x32780c08	1.44382355e-08
189	0x341e74ac	1.4757342e-07
190	0x32c5eb35	2.3040778e-08
191	0x33030c46	3.0511977e-08
192	0x32c98423	2.3459569e-08
193	0x32baa9a1	2.1730388e-08
194	0x34c1cd77	3.6098547e-07
195	0x3031a59b	6.4627564e-10
196	0x33844316	6.158932e-08
197	0x3444228a	1.8266488e-07
198	0x31a3d9b6	4.7686752e-09
199	0x33ce330e	9.601909e-08
200	0x32ef00e6	2.782367e-08
201	0x31c992dc	5.866566e-09
202	0x331b9501	3.6224268e-08
203	0x343f740f	1.7830483e-07
204	0x3437929e	1.7096542e-07
205	0x33e182f3	1.05011985e-07
206	0x346d18f7	2.2081427e-07
207	0x33322cd8	4.148464e-08
208	0x3242c336	1.1336672e-08
209	0x33b969a9	8.633953e-08
210	0x3296f838	1.7575175e-08
211	0x331dd076	3.6744005e-08
212	0x330dbff3	3.3003698e-08
213	0x32c41a76	2.2829436e-08
214	0x33d01e2f	9.691245e-08
215	0x338b88bf	6.497566e-08
216	0x32709a0a	1.4004863e-08
217	0x323cc0ff	1.09869225e-08
218	0x31175dfd	2.2026818e-09
219	0x32cef2d5	2.4091984e-08
220	0x338323f1	6.1067006e-08
221	0x34b92310	3.4484447e-07
222	0x345780fa	2.0070357e-07
223	0x319b2fa0	4.516508e-09
224	0x30ab8af4	1.248138e-09
225	0x314a7802	2.9463085e-09
226	0x2eae4e0f	7.92647e-11
227	0x331c1523	3.6340804e-08
228	0x343caff2	1.7572873e-07
229	0x33298509	3.9469374e-08
230	0x311a081e	2.2414564e-09
231	0x335f47de	5.1986596e-08
232	0x32231922	9.493563e-09
233	0x33363c60	4.2430088e-08
234	0x34524e06	1.9586159e-07
235	0x31811896	3.7571892e-09
236	0x323c4abb	1.0960032e-08
237	0x32102059	8.389258e-09
238	0x3385a810	6.2238655e-08
239	0x32e7b591	2.6974506e-08
240	0x33d73ee4	1.00231574e-07
241	0x3498c02a	2.8452024e-07
242	0x3346b252	4.626265e-08
243	0x329c1c48	1.8173651e-08
244	0x33625a51	5.2701868e-08
245	0x342a9ffa	1.5890683e-07
246	0x3148c87c	2.9217793e-09
247	0x31147010	2.1600535e-09
248	0x321612fc	8.735466e-09
249	0x32986217	1.7739735e-08
250	0x3047ebbd	7.273078e-10
251	0x34845c28	2.4653968e-07
252	0x33d9620e	1.0122686e-07
253	0x34264b4f	1.5487352e-07
254	0x3210ef2d	8.4362854e-09
255	0x32ca59b0	2.355668e-08
