ml-agents-release_20/Result/Dino/Dino04/Dino04.onnx (onnx, 34598 bytes, 4 tensors)

action_model._discrete_distribution.branches.0.bias f4 [2]
000000 64 5e bb 3b 6a 5e bb bb
       0.0057180393 -0.005718042

action_model._discrete_distribution.branches.0.weight f4 [2, 256]
000000 be d0 a4 bd 6c 9c 78 3d 75 dd d5 bc 30 a9 f2 bb
       -0.08047627 0.06069605 -0.026106576 -0.0074054226
000010 64 bf af 3d 60 4f 81 3d 4c de 49 3c d1 4e 80 bd
       0.08581427 0.06313968 0.012321066 -0.06265033
000020 8d 0c 83 bd b0 29 ae bd ab 18 bc 3c 20 c6 43 bd
       -0.06398878 -0.08504045 0.022960981 -0.04779637
000030 0b 11 35 bc 64 f6 c9 3d 2a aa a0 bd 9e a1 78 bb
       -0.011051427 0.098614484 -0.07844956 -0.0037938128
000040 27 d7 0b 3d 40 87 57 3c 99 6b 91 39 a9 34 96 bb
       0.034140732 0.013154805 0.00027736722 -0.0045839143
000050 9f 9f c1 3d 66 17 b2 3d 5a cd 53 3d 03 fa 6c bc
       0.094542734 0.08695869 0.05170951 -0.014463904
000060 5c 6d 05 bd 47 53 5d 3d 8e 98 92 bc 86 73 4c bb
       -0.032574996 0.054034498 -0.01789501 -0.0031196787
000070 8f 9d 3c 3d a9 ca ab 3d 39 9d 22 3d b6 6e 7d bd
       0.046048697 0.08388264 0.03970072 -0.06187316
000080 ca 5f 7f bd 87 da 18 3d 92 4a a2 bd c3 ec 99 3c
       -0.06234721 0.03731778 -0.079243794 0.018789655
000090 a7 f9 b9 bd 10 04 54 bd 43 c5 4b bd 45 b7 48 3c
       -0.090808205 -0.051761687 -0.04974867 0.012250726
0000a0 2d 4b fd bc 78 43 19 3b 96 bb e7 bd 32 7f 31 3d
       -0.030919636 0.0023386162 -0.11315076 0.043334194
0000b0 b8 54 2b 3c d3 f3 86 bc d5 af f7 3c 29 43 ad 3c
       0.01045721 -0.016473686 0.03023521 0.021150189
0000c0 8d 38 e0 ba b4 a7 9e 3a d3 55 96 bd 80 96 f9 3c
       -0.0017106697 0.0012104423 -0.073405884 0.030467272
0000d0 a4 bc af 3b 05 5d f7 bc bc 6e a3 3d c4 78 17 bd
       0.005363064 -0.030195722 0.07980105 -0.036980405
0000e0 55 8c b0 3c d6 9b db b9 61 4b 93 bd 56 84 7e 3d
       0.02155129 -0.00041887042 -0.07192112 0.062137924
0000f0 9b bd 13 bd cf cd bf 3b cb 82 3d 3c 26 89 5b bc
       -0.036069494 0.0058533917 0.011566828 -0.013399398
000100 1b 76 86 3d 78 61 3a 3d 7d 8c bf 3b 17 45 7b 3d
       0.065654956 0.04550311 0.005845605 0.061345186
000110 f0 c1 93 bd a0 b5 67 3d 88 0d a0 bd cf e4 ab bd
       -0.07214725 0.056569695 -0.07815081 -0.08393251
000120 4f 19 91 bc 1d 41 65 bd a7 5e 02 bd d8 35 01 3d
       -0.017712263 -0.0559703 -0.03182855 0.03154549
000130 f0 25 a6 3c f0 1f a0 3b 32 da bc bc 64 d1 65 3d
       0.020281762 0.0048866197 -0.023053262 0.056107894
000140 66 e6 cc 3d 31 4f 6f bd ca 65 0d 3d ec b2 49 bd
       0.100048825 -0.058425132 0.0345209 -0.0492429
000150 1d 2e 1a 3d dc ad 02 bc eb f5 f5 3c aa e7 55 bb
       0.037641633 -0.007976022 0.03002449 -0.0032639303
000160 6c 6f cc bd 01 fa e8 3c a1 34 cb 3c 15 cc 65 3d
       -0.099821895 0.028439524 0.024805369 0.05610283
000170 54 4d 54 3b 50 cd c9 3c f6 96 f7 3c 7b 71 a6 bd
       0.0032394724 0.024634033 0.030223351 -0.081271134
000180 3c a5 22 bd e4 60 c1 bc 89 ec bd 3d b5 e3 d3 bc
       -0.03970836 -0.023605771 0.09273631 -0.025865415
000190 5f 90 02 3d 69 13 50 3d 7e 74 67 3d 9c e5 ca 3c
       0.031875964 0.05079976 0.05650758 0.02476769
0001a0 ff b7 41 bd 5d 51 f3 ba 35 2b 0e 3d 3e 06 f3 3c
       -0.047294613 -0.0018563677 0.034709174 0.029666062
0001b0 9e b9 38 3d 6c 3a 81 3c b2 bf b3 bd e2 d6 3f bd
       0.045098893 0.015774928 -0.08776797 -0.046835788
0001c0 fe 82 91 bd 90 c3 4c 3d 07 69 72 3d e7 d9 22 3d
       -0.07105063 0.04999119 0.059182193 0.03975859
0001d0 79 fd 12 3c fd 6a c5 bd 5b 49 4a bc b9 b5 b4 39
       0.008971565 -0.09639547 -0.012346591 0.0003446767
0001e0 16 cb ae bc 13 db 80 bd 32 a6 10 3d 77 dd ab 3a
       -0.021337073 -0.06291785 0.035314746 0.0013112266
0001f0 31 c6 9c 3a b6 c8 94 3d f7 c4 55 bc 86 0c 89 bd
       0.0011960921 0.07264845 -0.013047448 -0.06691842
000200 3d 47 73 bd f6 89 cd 3c 2a e1 9d bc 35 51 93 3d
       -0.05939411 0.025090199 -0.019272406 0.071932234
000210 0f 25 cc bc 93 b5 cf bc cf c4 66 3b 76 22 42 3c
       -0.024920015 -0.025355136 0.0035212522 0.011849036
000220 19 41 6a bd 23 df 5e bd 62 f6 cd bd b0 9e d4 3d
       -0.05719099 -0.05441202 -0.100567594 0.1038183
000230 ac ca 09 bd 25 70 1e 3d 78 00 e2 bc 84 2b 07 bc
       -0.03364055 0.038681168 -0.027588114 -0.008250121
000240 d8 a6 2b 3b 58 fd 67 3d 41 b0 01 3c 89 61 39 3b
       0.0026191976 0.05663809 0.007915557 0.0028286895
000250 34 7f f6 3c d8 57 77 bd 17 1d 5e bd bf c7 aa 3d
       0.030089952 -0.06038651 -0.05422696 0.0833888
000260 86 c9 7a 3c ba 9f 66 3d 32 14 da 3d 09 5d 9b 3d
       0.015306836 0.05630467 0.10648383 0.075861044
000270 db 4f 45 3d 8d 4d f3 bc ab f7 a9 3d ab 50 6f bd
       0.04817186 -0.029700065 0.08299192 -0.05842654
000280 d5 41 25 3d b6 ad 44 3d d0 70 8c bb 76 6e 1c 3d
       0.040345985 0.048017226 -0.0042859092 0.03819128
000290 f0 de 32 bd 61 7a 65 bd bd 43 b4 bc f5 0d a0 3c
       -0.04366964 -0.056024913 -0.022004956 0.019537905
0002a0 79 fe 25 bd 58 0c 2c bc f2 1a 22 3d de df 1a 3d
       -0.040525887 -0.01050099 0.03957648 0.037811153
0002b0 d6 0e b1 bb 3f 36 a5 3c c6 e0 99 bb a4 72 85 bd
       -0.00540338 0.020167468 -0.0046959845 -0.065160066
0002c0 8f 01 b2 3d 60 12 0b bc 7d 20 2c 3d 4a 8e 44 3b
       0.086917035 -0.008488268 0.04202317 0.0029992037
0002d0 5b 67 36 bd 3d 51 62 3c ad 66 6d bd cf d2 c4 3b
       -0.04453216 0.013813314 -0.057959247 0.0060065757
0002e0 f6 be 21 bd 8b 6c 00 bc 3d cf 89 3d 0b 0e c2 bd
       -0.039488755 -0.007838379 0.06728981 -0.09475335
0002f0 64 ad 0e 3c 91 be 6b bd 37 6b 22 3b 4e 43 4a 3c
       0.008708332 -0.057554785 0.0024783143 0.012345148
000300 53 d3 bb 3d 30 09 24 bc 51 4c 74 3d 9e f9 82 3d
       0.09171166 -0.010011956 0.059643093 0.06395267
000310 93 b2 b6 3c 9c 6c 34 bb f9 a7 1a 3d 0b 75 82 3d
       0.022301948 -0.0027530557 0.037757847 0.063699804
000320 99 6b 8e bd f9 e9 9b 3d c5 83 dd bc 66 1d a6 3d
       -0.069541164 0.07612986 -0.027040372 0.08111076
000330 85 da 90 3d 0b 22 0a bb ec 59 51 bb 5c 38 c8 bd
       0.07072929 -0.002107742 -0.0031944467 -0.09776375
000340 8a 5d a9 bc d0 69 cf 3c d0 d9 29 bc 1a fa c7 3c
       -0.020674486 0.02531901 -0.010366872 0.02441125
000350 a0 38 97 3d 02 09 81 3d 3e fc 06 bc d4 6e 80 bb
       0.07383847 0.06300546 -0.00823885 -0.0039194617
000360 f0 cc ae 3d 3c e1 7d 3d 8e 91 51 3d f6 7c 55 3d
       0.085351825 0.06198238 0.051164202 0.052121125
000370 82 a7 ae 3c 01 b2 65 bd b4 50 82 3d 7d b9 28 3d
       0.021320108 -0.05607796 0.06363049 0.04119252
000380 c1 57 14 3d 7e 15 40 bd ea 83 8e 3d e1 69 1a bd
       0.0362165 -0.046895497 0.06958754 -0.03769863
000390 cd 7a 55 3d db 2a 06 bd b1 ed 9e bd 63 65 81 3d
       0.052119065 -0.032755714 -0.0776018 0.06318166
0003a0 b1 9c ce bd e3 94 93 ba ba 97 0e bb 94 8d 03 3d
       -0.1008848 -0.0011259582 -0.0021757917 0.03211744
0003b0 57 a9 cc bd ae 2d 23 3d f8 22 ae 3d d4 af 85 3c
       -0.099932365 0.039838485 0.085027635 0.016319193
0003c0 cd cf 1f bc 64 75 76 3d 25 96 f0 bb 27 3d 7d 3c
       -0.009754133 0.060170546 -0.0073421174 0.015456474
0003d0 a2 3c 69 3d ea 2a 17 3d d7 b4 85 3d 44 21 f8 bc
       0.05694259 0.03690616 0.06528633 -0.0302893
0003e0 71 0a 51 bd 52 08 01 3c 1b 3e 17 3b 4c 3e 69 bd
       -0.05103535 0.007875519 0.002307779 -0.056944177
0003f0 8e 48 3d 3d 34 3c 86 bd 50 ff 90 bb 42 47 0c 3c
       0.04621177 -0.065544516 -0.004424967 0.008561911

network_body._body_endoder.seq_layers.0.bias f4 [256]
000000 1d 57 82 3c ab ee 11 3d 6e 41 a8 bb e2 53 12 bb
       0.01591068 0.035628002 -0.005134753 -0.002232783
000010 e5 69 10 3d 0d b2 7d 3d a9 4c 5c 3c 9d b6 78 3d
       0.03525724 0.06193738 0.013446012 0.06072103
000020 31 6d 8d 3c f2 40 66 3c d1 2f 61 3d 20 e3 c1 3b
       0.01726398 0.01405357 0.054977242 0.005916968
000030 3a 07 8c bb f4 4f 47 3d 24 36 aa bb 0e 9a 75 bc
       -0.0042733224 0.048660234 -0.0051944423 -0.014990343
000040 f5 07 40 3c c9 86 14 3d c7 55 56 ba d2 42 53 bb
       0.011720647 0.036261354 -0.0008176234 -0.0032235873
000050 23 4d 83 3d 9c 07 5a 3d 9e 09 cf 3c 2f 04 26 ba
       0.06411197 0.053229913 0.02527314 -0.0006333021
000060 e5 d4 e4 3c ef f2 cc 3c 41 39 89 bb 95 db cf bb
       0.027933547 0.025018184 -0.0041877334 -0.006343315
000070 d7 e0 cd 3c 03 fd 1b 3d 69 04 f8 3c 59 b5 08 3d
       0.025131626 0.038083088 0.03027554 0.03337607
000080 26 27 fc 3b 94 c4 9f 3c 4f fc 16 3d 9c 4a f5 3c
       0.0076950965 0.019502915 0.036861714 0.029942803
000090 6f 8d dc 3c 02 60 98 3b db 3e 8f 3a 2e 87 4b 3c
       0.02692291 0.004650117 0.0010928767 0.012422366
0000a0 97 f6 72 3a 26 76 5c bb 58 4c 26 3d 00 81 b7 3c
       0.0009268312 -0.0033639758 0.04060015 0.02240038
0000b0 59 19 af 3b 97 a0 80 bb 92 44 47 3c 1a 4d 9a 3c
       0.005343598 -0.003925394 0.0121623445 0.018835593
0000c0 92 b0 7d bc 43 84 de bb c1 0c 2f 3d 16 67 db 3c
       -0.015483992 -0.006790669 0.042736772 0.026782554
0000d0 5f c8 d0 ba 27 96 c3 39 a2 39 1c 3d df cd e1 3b
       -0.0015928856 0.0003730517 0.0381409 0.006890997
0000e0 d8 cc 6e 3c e2 1a e2 39 e7 2d 60 3c cd e8 1f 3d
       0.014575206 0.00043126108 0.013682819 0.039040376
0000f0 be 50 17 3c 51 ed 69 bc 67 97 cc 3b d5 b2 13 bc
       0.009235559 -0.014277772 0.0062436345 -0.009014805
000100 77 69 2b 3d 48 12 9b 3c a4 d6 54 bc 12 eb d9 3c
       0.041848626 0.018929616 -0.012990627 0.026601348
000110 1d 68 24 3c 36 cb 29 3d fb a5 41 3d 78 3c 03 3d
       0.010034588 0.041453563 0.047277432 0.03204009
000120 e9 5d 82 39 aa fe 22 3c 5c 17 0e 3c 79 50 da 3c
       0.000248655 0.009948412 0.0086725615 0.0266497
000130 d3 c7 2b 3d 66 e0 25 3d 4c 33 06 bc 7c 0b 17 3d
       0.041938614 0.040497206 -0.008190941 0.036876187
000140 bd 4c 5c 3d e8 e8 96 3c f5 0f 79 3c 7e 37 96 3c
       0.05378412 0.018421605 0.015201558 0.018337008
000150 c3 e8 d7 3c e4 ec a5 bb f3 b9 76 3c 9a 5f c4 3b
       0.026356107 -0.00506364 0.015058982 0.005992842
000160 1b 3a ab 3c 7e ed f0 3b 8f d1 9d 3c 97 51 d8 3c
       0.02090173 0.00735253 0.019264964 0.026406093
000170 1a cc aa 3a 9e 80 cb 3c cb 83 48 3c 21 83 5d 3c
       0.0013030798 0.024841603 0.012238453 0.013520033
000180 dd 3d ed 3b a1 e8 c4 ba 9d 91 25 3d ee a3 c8 3c
       0.0072400407 -0.0015022942 0.04042207 0.02449223
000190 a9 07 df 3c 72 ab f6 3c 99 04 d3 3c fb 36 24 3d
       0.027225332 0.030111048 0.025759028 0.040091496
0001a0 d3 06 ff 3b 0f c7 a3 bc bc 03 ea 3c 2e de e6 3c
       0.007782796 -0.01999238 0.028566234 0.028182115
0001b0 9d a0 9a 3c 71 52 28 3d 17 45 1b 3d 7a be 79 3c
       0.018875415 0.041094247 0.037907686 0.015243167
0001c0 92 d9 da 3c e5 9f d0 3c 09 1c d6 3c 36 d3 ac 3c
       0.026715074 0.025466869 0.026136415 0.021096807
0001d0 15 d2 a9 3b 9d c3 cb 3c fc 54 22 bc 94 9e d5 bb
       0.0051825144 0.02487355 -0.009907957 -0.006519148
0001e0 e2 9d 26 bb 92 ff 22 3d 1e fc b8 3c 55 a5 1e bb
       -0.0025423695 0.039794512 0.022581156 -0.0024207432
0001f0 b7 47 78 bc 6e e5 80 3d 0a 2a 7a bb 35 84 89 3c
       -0.015153817 0.0629376 -0.003817203 0.016786674
000200 f0 05 f0 3c 00 d2 2a 3d bf 97 1f ba d2 75 1a 3d
       0.029299706 0.041704178 -0.00060879806 0.03771002
000210 0e 3f ef 39 db 9c 4e 3c 93 17 74 ba f2 c9 ab 3b
       0.00045632612 0.012610639 -0.0009311374 0.0052425796
000220 9f d4 2d 3c 51 2c 81 3c 22 a1 bd 3c f3 6e 59 3d
       0.010609775 0.015768202 0.023148123 0.053084325
000230 49 6f be bb 36 d7 b7 3c 74 7e 4d 3a 05 e3 33 bc
       -0.005811606 0.022441488 0.00078389724 -0.010979419
000240 62 9d d5 bc e8 36 ff 3c c8 bd bc 3b a5 98 7d 3a
       -0.026076023 0.031154111 0.0057599284 0.000967393
000250 a3 1a 93 3c 09 82 2a 3d 78 84 dd 3b 85 54 0f 3d
       0.017957037 0.041627917 0.0067601763 0.034992713
000260 4e 32 fb 3c ec e7 f3 3c 14 22 22 3d f6 e2 2d 3d
       0.030663636 0.029773675 0.03958328 0.042452775
000270 fb fd b7 3c 74 75 f5 bb 35 15 2c 3d 24 b9 8b 3c
       0.022459975 -0.007490808 0.042012412 0.017056055
000280 e2 4c b6 3c 77 9d c6 3c 9c 21 85 bc 41 8f ef 3c
       0.022253457 0.024245007 -0.016251378 0.029243113
000290 6b 79 f9 3b 6c 77 c1 3c 3a 2a 9b bb e2 6e 2b 3d
       0.007613351 0.023616515 -0.0047352584 0.041853793
0002a0 c5 3a 8c 3a 0d ec df ba e5 2e 92 3c 21 23 83 3c
       0.0010698667 -0.0017083898 0.017844627 0.016007962
0002b0 20 16 89 bc 76 7e fb 3b 06 dd 2d bc a7 36 a3 3b
       -0.016734183 0.0076749874 -0.010611778 0.0049808803
0002c0 d7 77 13 3d f8 b2 0d bc 13 0c 1d 3d 51 48 74 bc
       0.03600296 -0.0086486265 0.038341593 -0.01490982
0002d0 47 41 b3 3b 85 17 ce 3a b2 07 86 3c 40 cf cb 3b
       0.005470428 0.0015723562 0.016361091 0.0062197745
0002e0 d4 6e 22 3c 1c 3f 1c 3b ef 66 27 3d 28 c1 6e 3d
       0.009914119 0.0023841327 0.04086965 0.058289677
0002f0 b3 a3 71 3c 7b 4c 3c 3d 2e 4b 0b bd af 4b 06 3d
       0.014748502 0.045971375 -0.034007244 0.03278702
000300 d1 c3 1d 3d ca ff 3e bb b0 5d f0 3c 08 67 e7 3c
       0.038516823 -0.0029144161 0.029341549 0.028247371
000310 a3 95 aa 3c 7e 19 24 3c 86 5d 54 3d dc 42 fe 3c
       0.020823305 0.010015843 0.051847003 0.03103774
000320 8f cb 08 3d 1b fb 5a 3d 73 b4 81 3c 33 38 de 3c
       0.033397254 0.05346213 0.015833115 0.027126407
000330 fa 49 63 3d 76 84 50 bb 5b 2e 4f bb 69 07 da 3c
       0.05549047 -0.0031817234 -0.0031613323 0.026614862
000340 c5 61 92 ba 05 d6 cb 3c eb 91 5a bc 65 d7 28 3c
       -0.0011168054 0.024882326 -0.013340454 0.01030526
000350 ce a2 15 3d b1 62 3a 3d 57 20 ee bb d1 c0 99 3a
       0.036532216 0.045504276 -0.007267039 0.0011730437
000360 2f c6 30 3d 7f 1d d1 3c 11 ae d6 3c de 8b c0 3c
       0.043157753 0.02552676 0.026206048 0.023504194
000370 eb fa 50 3c ac 3d d1 3b 9c 7b 82 3d e4 5d d4 3c
       0.012755136 0.0063855257 0.06371233 0.025923677
000380 1b ea 6e 3d af 7a dc 3b 49 a9 24 3d d0 6c 00 3b
       0.05832873 0.006728492 0.040200505 0.0019596107
000390 e9 68 09 3d 40 d9 35 3c d2 05 8d 3c bf 91 10 3d
       0.033547316 0.01109916 0.01721469 0.035295244
0003a0 da 80 36 3d b3 f0 cb 3b 34 10 61 bc d3 a7 6a 3c
       0.044556476 0.006223762 -0.013736773 0.014322239
0003b0 f0 59 9a 3c 5e 49 0a 3d 86 8a f0 3c a2 41 c2 3c
       0.018841714 0.033761375 0.029362928 0.023712937
0003c0 7d 8f e0 bc 4f ca 15 3d 85 8a 94 bc d3 f7 45 3c
       -0.02741217 0.03656989 -0.018132458 0.012083012
0003d0 5f 12 68 3d 1a f6 9a 3c 46 54 1f 3d 6b 94 91 bb
       0.056658145 0.018916178 0.03889873 -0.0044427416
0003e0 b4 f1 ba 3c 2d 5d 4b 3b 50 9e f5 bb 70 95 b6 3c
       0.022820331 0.003103088 -0.007495679 0.022288054
0003f0 41 5c a5 3c e0 91 02 3d b5 87 fa 39 58 35 95 3c
       0.020185592 0.0318774 0.00047784825 0.018213913

network_body._body_endoder.seq_layers.0.weight f4 [256, 29]
000000 c1 bb c6 bd c8 b5 62 be c8 2d 5f 3c 50 fb 8b 3e
       -0.0970378 -0.22139657 0.013621755 0.27340174
000010 b7 d6 66 be 13 f1 a2 3e 80 7d 83 be 78 94 c9 bd
       -0.22542845 0.3182455 -0.25681686 -0.09842771
000020 09 99 87 bd f6 de 9d 3e 4c 20 b9 bc c5 1b 63 bc
       -0.06620986 0.30834168 -0.022598408 -0.013861601
000030 7f a0 0c 3d 26 a0 06 3e 20 d8 a3 3c 89 af d3 3d
       0.03433275 0.1314703 0.020000517 0.10336215
000040 f8 3f 2d be 0c 4a af 3c cc 40 4c 3e 81 8b 8f 3d
       -0.16918933 0.021397613 0.19946593 0.0700903
000050 6c 54 45 3e a3 29 93 be 3a 7d fe be 8a 98 49 bd
       0.19270486 -0.28742704 -0.49704915 -0.04921774
000060 4d d0 79 be a8 4b e2 3d 96 06 35 bd f0 24 54 3d
       -0.24395867 0.110495865 -0.044195734 0.05179304
000070 06 48 46 bd bd b8 87 bd 28 72 1d 3e 55 3b 4d 3c
       -0.04840853 -0.06627033 0.15375578 0.012526353
000080 87 d0 27 3d c3 fc 19 3e 23 eb f1 be f5 6c 15 bd
       0.04097035 0.15037827 -0.47249708 -0.036480863
000090 7c 85 c7 3d 90 64 20 bd 26 27 cc bd b3 da 33 be
       0.09742257 -0.039158404 -0.099684045 -0.17563896
0000a0 a1 e7 b6 3c bb 5b c4 bc 69 17 90 be b8 a9 d2 3d
       0.022327246 -0.023969522 -0.2814286 0.102862775
0000b0 3f ff c8 3e 22 b0 fa 3d 86 93 cc 3e 2e f8 74 bd
       0.39257237 0.12240626 0.399563 -0.059806995
0000c0 0a 0d 7a 3e 3d 58 c6 bd 31 d3 b5 be f0 5b 9c 3d
       0.24419037 -0.09684799 -0.3551269 0.07634723
0000d0 d9 db ae 3e de 5f 69 bc b9 d0 1e be 59 5f a3 3e
       0.34152105 -0.014244048 -0.15509309 0.31908682
0000e0 71 ea 30 3e 7f 02 8b 3c 9c d0 11 3e e8 73 8e be
       0.17276932 0.016968964 0.14239734 -0.27822804
0000f0 b1 21 65 3e c8 f4 0d be 4d 87 35 3e 07 4c 36 3d
       0.22376134 -0.13862908 0.17727394 0.0445061
000100 46 ef 7a be 6d c8 8c bd 69 c6 2e 3e 5f e7 75 3d
       -0.24505338 -0.06874166 0.17067875 0.060035106
000110 21 8c 94 3e 11 b1 08 be 69 47 8f be 3c 68 5e 3e
       0.2901316 -0.13348795 -0.2798417 0.2171945
000120 6c c9 f4 bd 16 15 10 3e 3c 01 f3 3d db 27 7c bd
       -0.11952481 0.14070544 0.1186547 -0.061561447
000130 58 aa ae bd f2 8b 74 bd 6c ca b6 3c d3 e4 b7 be
       -0.08528584 -0.059703775 0.02231332 -0.35916767
000140 70 20 4e be 65 59 b6 3e 08 a2 ff 3d 84 9a 6f 3c
       -0.20129561 0.35615078 0.12482077 0.014624242
000150 f6 9f dd 3c 45 82 38 3d 5d 88 0a 3e 87 5d 66 3e
       0.027053814 0.04504611 0.13528581 0.22496615
000160 4a 44 11 be fb 1e c4 bd 73 87 4a 3e 22 fd 04 be
       -0.14186206 -0.095762216 0.19778232 -0.12987188
000170 e8 f7 a3 bc 1e bc 18 3d df 02 60 3e d8 76 f7 3d
       -0.020015672 0.037288778 0.21876095 0.120832145
000180 7b 24 1f 3e da c2 35 3e 89 dc d7 3e 08 c1 16 3e
       0.1554126 0.17750111 0.42160442 0.14722073
000190 99 f1 b1 bd e4 8c aa 3d 93 3c 61 3e 91 f1 28 bc
       -0.08688659 0.08327654 0.21995763 -0.0103115
0001a0 10 ff ee 3d 9e 92 02 3e 6b 17 12 3d b0 8c da 3d
       0.11669743 0.12751243 0.035666864 0.10671365
0001b0 28 fb d6 bc 30 e8 1f be 66 c7 37 bb de 1e 0e bf
       -0.026242808 -0.15615916 -0.0028042435 -0.5551585
0001c0 9e 0b fc 3d 86 1e 5f 3e d4 62 aa 3e ba 54 bb be
       0.12306903 0.21788988 0.33278525 -0.3658808
0001d0 1a ae e5 3d 93 42 9a bd 12 0c 6e be 30 28 9d 3d
       0.11214848 -0.07532229 -0.23246792 0.07673681
0001e0 65 fc 20 3d e2 03 fb bc 5b 97 84 bd c2 e1 f7 bd
       0.039303202 -0.0306415 -0.06474181 -0.12103607
0001f0 66 62 99 3e 31 92 97 bd 01 3f 82 3e 08 2b c6 bd
       0.29957885 -0.07400931 0.25438693 -0.09676176
000200 0f 31 a0 bd 73 c2 e8 bd 28 62 4a 3e 3e 29 7d 3e
       -0.07821857 -0.11365213 0.19764006 0.24722764
000210 1d 10 8b 3d 95 f0 5d 3e 79 76 43 bd a6 bf 8d 3e
       0.06790183 0.21673806 -0.047720406 0.2768528
000220 a2 31 9f be d5 a4 4c 3e a8 11 1d 3e 35 03 e5 3d
       -0.31092554 0.19984753 0.15338767 0.11182252
000230 f7 53 35 bd f1 23 fd bc 4d 9e 0a 3e c4 ea bd 3d
       -0.04426953 -0.030900927 0.1353695 0.092732936
000240 dc df 54 bc eb c1 81 be 74 22 17 bd cf d0 30 3e
       -0.012992825 -0.2534326 -0.03689809 0.17267154
000250 11 2d b1 3e 89 89 a8 3e 9d fb 83 be 83 62 5b 3e
       0.34604695 0.3291743 -0.25777903 0.21424298
000260 bf 35 a0 3d bd a3 09 be 27 8a dc 3d 66 ae 92 bd
       0.07822751 -0.13441367 0.10768538 -0.0716217
000270 c8 c6 0f 3e e0 58 48 ba 6d 1f 97 be 86 8f 82 bd
       0.14040673 -0.0007642638 -0.29516163 -0.06375031
000280 8f 2a 52 3e 76 20 a7 bd 15 09 13 bc 3a 85 ec bd
       0.20524047 -0.08160488 -0.008974333 -0.115488485
000290 fd 19 84 3d 99 f3 50 be aa 5d 2a 3d d0 08 69 3e
       0.06450269 -0.20405425 0.04159323 0.22757268
0002a0 29 7e e4 3c 73 64 72 3e 7d 64 df bd e1 a9 ba be
       0.02789219 0.23671131 -0.109078385 -0.36457732
0002b0 72 a5 6e be 17 12 b1 be cb a4 4f 3c a1 a1 3c bd
       -0.233053 -0.34584114 0.012673567 -0.04605258
0002c0 81 b3 b2 bd 7e cc 87 3e f9 ee 65 3d 4e 25 c8 3d
       -0.08725644 0.26523203 0.056136105 0.0977274
0002d0 d5 81 5d 3e 44 6c 41 3e 9d 07 b8 bd 20 66 43 3e
       0.21631558 0.18888956 -0.08985827 0.19081926
0002e0 42 1d 7e 3e d4 c1 0a 3d c6 5f 07 3e 74 8d 4d bb
       0.24815848 0.033876255 0.13220128 -0.003136483
0002f0 5a da 8a 3e 03 0a 12 be de b1 82 3e 6b 47 f0 3d
       0.27119714 -0.14261632 0.25526327 0.11732372
000300 2b 73 e9 3b cc 36 09 3c 5e ab 48 be 58 f1 3e bd
       0.007124325 0.008374881 -0.19596621 -0.046616882
000310 7a 5f 7f 3b 08 1d e0 bc 03 09 95 3e 3b 5c 97 bd
       0.003896682 -0.027357593 0.29108438 -0.073906384
000320 2a db a0 bc 0c 5a 41 3e bf 42 33 3e fc e9 e4 bd
       -0.019635756 0.18882006 0.1750593 -0.111774415
000330 a3 72 39 3e b2 13 bb 3d 34 fe 40 3e 8b 15 3b be
       0.18110137 0.09134616 0.18846971 -0.18269937
000340 12 90 56 be 03 12 61 be 68 cd f6 be fe b2 25 3e
       -0.20953396 -0.21979527 -0.48203588 0.16181561
000350 24 6f a4 3c 32 0c b5 be 1c 6b 9b 3e b0 53 60 be
       0.020072527 -0.35360867 0.30355155 -0.21906924
000360 b7 a9 a8 3e d2 00 d1 be 5e 49 65 be 5e 97 66 bd
       0.32941982 -0.40820938 -0.22391269 -0.0562967
000370 75 40 0b be 43 99 02 3e dd 2d 34 bd 71 27 99 3e
       -0.13598807 0.12753777 -0.04398905 0.29912904
000380 af cd 40 be 4c 22 66 bd 62 5d 98 3e a0 29 37 3e
       -0.18828462 -0.05618505 0.29758745 0.17886972
000390 8b be 83 3a c6 05 d3 bc a6 ce 0b 3e 7d 62 6c be
       0.0010051293 -0.025759589 0.13653049 -0.23084445
0003a0 19 e5 a6 3e af c0 24 be c0 be 75 3b 85 3c 31 3e
       0.32596663 -0.16089128 0.003749773 0.17308243
0003b0 a2 8b 84 bd bf 9b dd 3e ad 7e 92 be 0e 61 d2 bd
       -0.06471945 0.43282887 -0.2861227 -0.10272418
0003c0 f2 91 aa 3e 49 b4 06 bd 30 31 53 3e 14 e8 54 be
       0.33314472 -0.032886777 0.20624232 -0.20791656
0003d0 f3 6a 24 bb 4e 9d 36 be 77 fc 03 be 18 a4 40 3d
       -0.002508816 -0.17833444 -0.12889276 0.047031492
0003e0 d6 23 6c 3d 7e cc 01 bd a0 30 b0 bd 6d a2 40 3e
       0.057651363 -0.03168916 -0.086030245 0.1881196
0003f0 f5 8b da 3e a1 8a d7 3d 22 44 e2 3c 05 13 74 bd
       0.42684904 0.10524488 0.027620379 -0.05958845
