ml-agents-release_20/Result/Dino/Dino02/Dino/checkpoint.pt (torch, 205607 bytes, 21 tensors)

network_body._body_endoder.seq_layers.0.weight f4 [256, 29]
0	0x3cdc4172	0.026886676
1	0x3e0c33ba	0.13691607
2	0x3ea19f60	0.31566906
3	0x3cb0e118	0.021591708
4	0xbdfb4f48	-0.12270981
5	0xbdfc5d0d	-0.123224355
6	0x3dbd9c0d	0.0925828
7	0xbe4bee9e	-0.19915244
8	0x3e296148	0.16541016
9	0xbd6eccc2	-0.05830074
10	0xbd9cfb35	-0.076651014
11	0xbe0888fb	-0.13333504
12	0xbdfa33b4	-0.12216893
13	0x3db122db	0.08649226
14	0xbecc3616	-0.39885014
15	0xbbc53f59	-0.0060195145
16	0x3d46ea7e	0.048563473
17	0xbd2cf038	-0.042221278
18	0xbdecbb2d	-0.115591384
19	0x3de30dcf	0.11086618
20	0x3e4313a0	0.19050455
21	0xbe2c037c	-0.16798204
22	0x3ebd825e	0.37013525
23	0xbea2ef50	-0.31823206
24	0x3dfc184e	0.12309323
25	0xbd77a414	-0.06045921
26	0xbd8f1b3b	-0.06987616
27	0xbd47b9c2	-0.048761137
28	0xbe533a83	-0.20627789
29	0x3ea15e5d	0.31517306
30	0x3e010c86	0.12602434
31	0x3e354204	0.17700964
32	0x3d083700	0.033255577
33	0xbe3f7322	-0.18696263
34	0x3dd95a47	0.10612922
35	0xbe9975da	-0.29972726
36	0xbdd302ae	-0.103032455
37	0xbe31b2cd	-0.17353363
38	0xbd167cee	-0.036740236
39	0xbe46792d	-0.19382162
40	0x3e8c4ad1	0.2740083
41	0xbd720102	-0.059082992
42	0xbe13047b	-0.14357178
43	0x3ca9f307	0.020745767
44	0xbdd9f62b	-0.10642656
45	0x3dfd5dfb	0.12371441
46	0xbdb2a358	-0.087225616
47	0xbdb26480	-0.08710575
48	0x3c1f88e9	0.009737232
49	0x3e5438e6	0.2072483
50	0x3d1a4d6b	0.037671488
51	0x3d607a02	0.054803856
52	0xbbf38a87	-0.007432285
53	0xbe1c0ef0	-0.15240073
54	0xbd8090e0	-0.06277633
55	0xbd722ec5	-0.059126634
56	0x3db74c45	0.08950094
57	0xbea7309b	-0.3265427
58	0xbe845bdf	-0.25851342
59	0xbdf0a0e9	-0.11749441
60	0x3e909967	0.28242037
61	0xbe124e28	-0.14287627
62	0x3e97d3fe	0.29653925
63	0x3d69b418	0.057056516
64	0x3f07ff23	0.5312368
65	0x3e6024cf	0.21889041
66	0x3e68dc5d	0.22740312
67	0x3e163193	0.14667349
68	0x3d434319	0.04767141
69	0xbdc0f18f	-0.09421074
70	0xbe73e3f8	-0.23817432
71	0x3ea33dd8	0.3188312
72	0xbe54cb9e	-0.20780799
73	0x3d85d4dc	0.0653474
74	0x3dab5bd7	0.083671264
75	0xbc8cfaa7	-0.017209364
76	0x3c3aec84	0.011408929
77	0xbd194047	-0.037414815
78	0xbe9842b5	-0.29738393
79	0xbec0d15c	-0.3765973
80	0x3f23d7f5	0.640014
81	0xbe5e0d83	-0.21684842
82	0x3e35df84	0.17761046
83	0xbbdb2a40	-0.006688386
84	0xbd4fd8b8	-0.05074379
85	0xbe4f9e0e	-0.20275137
86	0xbd20c3e4	-0.039249316
87	0x3dd923e6	0.1060255
88	0xbe8b8844	-0.272524
89	0x3e8044da	0.2505253
90	0xbe87c545	-0.26517692
91	0xbd95aa48	-0.07307869
92	0xbdee928a	-0.11649044
93	0xbd30c542	-0.04315687
94	0xbd74c3c7	-0.05975702
95	0x3ebc34be	0.3675899
96	0x3d696b91	0.05698735
97	0x3e6b2c04	0.2296601
98	0xbe3ba881	-0.18325998
99	0x3c8ac0d4	0.01693765
100	0xbe8c1157	-0.2735698
101	0x3e5945bc	0.21218008
102	0x3ebc9dac	0.36839044
103	0xbeddf823	-0.43353376
104	0xbe50f605	-0.20406349
105	0x3e426391	0.18983294
106	0x3cb61b05	0.02222968
107	0x3e844a65	0.2583801
108	0x3cf7315f	0.03017491
109	0xbe4e508c	-0.20147914
110	0x3e2cea4c	0.16886252
111	0x3d9cb3d6	0.076514885
112	0x3d54b600	0.05193138
113	0xbc1dc0d7	-0.009628496
114	0xbe39516c	-0.18097466
115	0xbe0405f3	-0.12892894
116	0x3d41ecfc	0.047345147
117	0x3e0dd13e	0.13849351
118	0x3e505e44	0.2034846
119	0xbe51376f	-0.20431302
120	0xbd13e095	-0.03610285
121	0x3e61d7f9	0.22055043
122	0x3d87f89e	0.06639217
123	0x3eaa5b29	0.33272675
124	0x3dffd6ec	0.12492165
125	0xbe86d8de	-0.26337332
126	0xbc92e2aa	-0.017930347
127	0x3d9a3a8d	0.07530699
128	0x3de5656a	0.11200984
129	0xbc27c3d7	-0.010239563
130	0xbd9bd0e9	-0.07608206
131	0x3c0e8e7c	0.008700963
132	0xbe971186	-0.29505557
133	0x3da22a69	0.07918245
134	0xbe5e45d4	-0.21706325
135	0xba33c5b3	-0.00068577676
136	0x3da507da	0.08058138
137	0x3e6d97e8	0.23202479
138	0xbef857c9	-0.48504475
139	0xbda05281	-0.07828236
140	0x3d94ce62	0.07265927
141	0xbcc38b18	-0.023870036
142	0xbdb23b58	-0.08702725
143	0x3dce754f	0.100809686
144	0x3df2ceb7	0.11855834
145	0x3e7f96e9	0.24959911
146	0xbd9af9fa	-0.075672105
147	0x3e3b016b	0.1826226
148	0xbdf6a94c	-0.120440096
149	0x3d565770	0.05232948
150	0x3e09bfe9	0.13452114
151	0x3ed479aa	0.41499072
152	0x3c7698f8	0.015051119
153	0x3e438a8c	0.1909582
154	0xbdb8deb2	-0.09026851
155	0x3e204922	0.15652898
156	0xbe43184d	-0.19052239
157	0x3ebe66c8	0.3718779
158	0x3e0d4e25	0.13799341
159	0x3e2255da	0.15853062
160	0x3e97548b	0.2955669
161	0x3e8350b0	0.25647497
162	0xbe93645e	-0.28787512
163	0x3e7cf6d4	0.24703532
164	0xbd394e91	-0.045240942
165	0xbe012d35	-0.12614901
166	0x3d4b4988	0.04963067
167	0xbe345ec3	-0.17614274
168	0xbdc3277e	-0.09529017
169	0xbd1da48e	-0.03848701
170	0xbe1eeccd	-0.1552002
171	0x3ececfd0	0.40392923
172	0x3ccd3b65	0.025052736
173	0xbe945efb	-0.28978714
174	0xbdd2ae55	-0.102871574
175	0xbe358c4c	-0.177293
176	0xbdf423ab	-0.119208656
177	0x3d1aa64e	0.037756257
178	0xbe3b9cd5	-0.18321545
179	0x3daf79b9	0.08568139
180	0xbd62ea38	-0.05539915
181	0xbe15f4dd	-0.14644189
182	0xbb77982d	-0.0037779913
183	0xbe2f63e1	-0.17127945
184	0xbe6f5c73	-0.2337511
185	0xbe054dfe	-0.13018033
186	0x3e221a74	0.15830404
187	0x3d57e73e	0.052710764
188	0xbe801ea2	-0.2502337
189	0xbe40ec6c	-0.18840188
190	0x3d712f06	0.058882736
191	0xbc8d8bc6	-0.017278563
192	0xbe21b374	-0.15791112
193	0x3e843279	0.25819758
194	0xbd8a864a	-0.06763895
195	0x3e839a5f	0.25703713
196	0xbd7a6c7b	-0.06113861
197	0xbe0176fa	-0.12643042
198	0xbdc87b8a	-0.09789188
199	0x3db46552	0.08808388
200	0xbdd09354	-0.101843506
201	0xbdc2fed2	-0.09521259
202	0x3e1d812a	0.15381303
203	0xbd8d55f8	-0.06901163
204	0xbc4001a7	-0.011719144
205	0x3cd6a133	0.026199913
206	0xbe050023	-0.12988333
207	0xbc9cbc24	-0.019132681
208	0xbe3763f9	-0.1790923
209	0x3ddaaff6	0.10678093
210	0xbde75224	-0.11294964
211	0xbe08ee55	-0.13372166
212	0x3db715b3	0.08939686
213	0x3e5575ac	0.2084567
214	0xbe0657cc	-0.1311943
215	0xbe2deb92	-0.16984394
216	0x3c804985	0.015660057
217	0x3d2adacc	0.041712567
218	0x3cacde55	0.02110211
219	0x3dfab64a	0.122418
220	0x3e39d039	0.18145837
221	0xbe20416a	-0.15649953
222	0xbe2bfbe8	-0.16795313
223	0xbdd3328d	-0.10312376
224	0xbe5b138a	-0.21394172
225	0x3e35d991	0.17758776
226	0x3de9b453	0.11411347
227	0x3e789837	0.24276815
228	0x3e3db30e	0.18525335
229	0x3e19f9c3	0.15036683
230	0xbdee30ea	-0.11630423
231	0xbb7da96f	-0.0038705727
232	0xbe311aea	-0.17295423
233	0x3d83c9b8	0.06434959
234	0xbd3c236f	-0.04593223
235	0x3e66e345	0.22547634
236	0x3d99d763	0.07511785
237	0xbdf506f2	-0.11964215
238	0x3ea640e0	0.3247137
239	0x3e1e761c	0.15474743
240	0x3e15019b	0.14551394
241	0x3e9486a1	0.29008964
242	0xbdaa0e5d	-0.08303521
243	0x3e0cb926	0.13742504
244	0xbe7e020b	-0.24805467
245	0x3decc105	0.11560253
246	0x3e01d3d5	0.12678464
247	0x3c1599cf	0.009130909
248	0x3e56a552	0.20961502
249	0x3ea312cd	0.3185028
250	0xbe952311	-0.29128316
251	0xbd741be1	-0.0595969
252	0xbe9d02b3	-0.30666122
253	0xbe8cb98f	-0.2748532
254	0x3e23ff02	0.16015247
255	0x3dd46c4b	0.10372218

network_body._body_endoder.seq_layers.0.bias f4 [256]
0	0x3c758b8a	0.014986882
1	0x3cadf12d	0.021233166
2	0x3d92e728	0.07172996
3	0x3d17614e	0.03695803
4	0x3c4ee2a6	0.012627279
5	0x3c319209	0.01083804
6	0xbc46c8e5	-0.012132858
7	0x3c7ee3ae	0.015557213
8	0x3c468b8a	0.01211823
9	0x3c73b6a2	0.014875086
10	0x3c680ae5	0.014162754
11	0x3c23f9b1	0.010008262
12	0x3cae93fa	0.021310795
13	0x3c47f96a	0.012205461
14	0x3c0cad39	0.008586221
15	0x3d38e7b8	0.04514286
16	0x3d430fd8	0.04762253
17	0x3cb65a79	0.022259938
18	0xba9e1bbb	-0.0012062708
19	0x3c93b873	0.018032288
20	0x3c468106	0.0121157225
21	0x3cb5b0ee	0.022179093
22	0x3cd0be73	0.025481438
23	0x3b4ba895	0.0031075825
24	0x3b9c15e9	0.004763354
25	0x3ce70808	0.028202072
26	0x3c4eec01	0.01262951
27	0xbc5ad5e2	-0.013356658
28	0x3ccf18ed	0.02528044
29	0x39c22a6a	0.00037034164
30	0x3c883774	0.016628005
31	0x3c914f0f	0.017737893
32	0xbc4b17ea	-0.012395838
33	0x3bffceef	0.007806651
34	0x3bff555f	0.0077921594
35	0xbc341886	-0.010992175
36	0xbb7e05f1	-0.0038760866
37	0x3c51c287	0.012802727
38	0xbbc119f4	-0.0058929864
39	0x3d204095	0.03912409
40	0x3caf2c8c	0.021383546
41	0x3c64d34e	0.013966395
42	0x3ad6d5e0	0.0016390644
43	0x3bd4788d	0.0064840973
44	0x3cffc23e	0.031220552
45	0x3c297750	0.010343388
46	0x3d1ce765	0.038306613
47	0x39e4a6d4	0.00043611845
48	0x3c8b32bc	0.016991965
49	0x3ca68ec1	0.020331742
50	0x3c0d25bd	0.008614955
51	0x3c361f45	0.011115854
52	0x3b16f7d7	0.0023035908
53	0x3b7d65ea	0.0038665482
54	0x3c090a31	0.008364246
55	0xbc067380	-0.008206248
56	0x3c63d243	0.013905111
57	0x3af8a8f3	0.0018971249
58	0x3d2dd913	0.042443346
59	0xbbd4b8e6	-0.006491768
60	0x3d0dd9fd	0.034631718
61	0x3cfe8695	0.031070033
62	0x3bf684b4	0.0075231437
63	0x3bf37f63	0.007430957
64	0x3c929d17	0.017897172
65	0x3c116fa5	0.008876716
66	0x3c2e32bb	0.010632212
67	0x3cfb6afd	0.030690664
68	0x3ccabfb3	0.024749612
69	0x3d1fe59d	0.039037336
70	0x3cc27cd6	0.023741167
71	0x3c099b77	0.008398882
72	0xbb971008	-0.0046100654
73	0x3c8e8c3c	0.017400853
74	0x3d0dc8cf	0.034615334
75	0x3c61f7e4	0.013792012
76	0x3b2f7812	0.0026774448
77	0xbc30ef68	-0.010799266
78	0x3b991320	0.0046714693
79	0xbba13971	-0.0049201776
80	0x3cbd63b4	0.023118831
81	0x3c288630	0.010285899
82	0xbacfdebb	-0.0015859226
83	0x3c67128c	0.014103543
84	0x3c0c0783	0.008546713
85	0x3cb1b352	0.021691952
86	0x3c8defb6	0.017326217
87	0x3d2efc14	0.04272087
88	0x3bfce06d	0.0077171833
89	0x3cebf9e7	0.028805686
90	0x3b4f0799	0.0031590222
91	0x3d23640f	0.039890345
92	0xbc8e777a	-0.017390955
93	0x3ce7432b	0.02823027
94	0x3cc6f3c6	0.024286162
95	0x3bffc501	0.007805467
96	0x3c857edd	0.016295845
97	0x3cc292cf	0.023751644
98	0x3ce8b18b	0.028404972
99	0x3d0f548c	0.03499274
100	0x3d0b45a8	0.034001976
101	0x3a2b476c	0.0006533775
102	0x3caa6fb5	0.02080522
103	0x3cb20e77	0.021735413
104	0x3d0eb351	0.03483898
105	0x3dce2cd5	0.10067145
106	0x3c29f464	0.010373209
107	0x3c01fa25	0.007933174
108	0xbc07db05	-0.008291964
109	0x3ca497a2	0.020091835
110	0x3c82357c	0.015894644
111	0x3c6f3cdd	0.014601913
112	0x3c18830f	0.009308591
113	0x3c9355c9	0.017985241
114	0x3d08ff20	0.03344643
115	0x3cf5bed3	0.029998219
116	0xbbd5ebe6	-0.0065283654
117	0xbc27551a	-0.010213161
118	0x3cd56558	0.026049301
119	0x3c25a45f	0.01010999
120	0x3bc27c97	0.0059352624
121	0xbbc615c5	-0.0060450756
122	0x3ced0bfc	0.028936379
123	0xbae1bc2c	-0.0017222217
124	0x3c8f1058	0.017463848
125	0xb9999c3d	-0.0002929884
126	0x3bc91f2e	0.00613775
127	0x3c95cb43	0.0182854
128	0x3d03c747	0.032172468
129	0x3c753dba	0.01496833
130	0x3bc71b4b	0.0060762516
131	0x3a878549	0.0010339405
132	0x3d030444	0.03198649
133	0x3c6f8dd2	0.014621215
134	0x3d3b0450	0.04565841
135	0x3d02d435	0.031940658
136	0x3c783a47	0.015150613
137	0x3bd86ac2	0.0066045234
138	0x3d1f0f99	0.038833234
139	0x3d8a793d	0.067614056
140	0x3c49a8f9	0.012308353
141	0x3c14e0fd	0.0090868445
142	0x3c93539e	0.017984208
143	0x3ca145b0	0.01968655
144	0x3c23c7cf	0.009996369
145	0xbc3b781c	-0.0114422105
146	0xbc1d7b86	-0.00961197
147	0x3c351708	0.011052854
148	0x3c3333ce	0.010937644
149	0x3c4e8428	0.012604751
150	0x3cd2e5e3	0.025744384
151	0xbc61c19c	-0.01377907
152	0x3da07a52	0.07835831
153	0x3c8601fe	0.016358372
154	0xbc78bd72	-0.015181886
155	0x3c0e48f7	0.008684388
156	0x3d4040aa	0.04693667
157	0xbc80dba6	-0.015729737
158	0x3bf08fd0	0.0073413625
159	0x3a3fac45	0.0007311742
160	0x3d253146	0.040330194
161	0x3c756bd0	0.014979318
162	0x3bbf68ac	0.0058413353
163	0x3c330622	0.010926755
164	0xbcdab2c8	-0.026696578
165	0x3d503b95	0.05083807
166	0x3ca3c63c	0.019991986
167	0x3c99b1e9	0.018761592
168	0x3d4fa05c	0.05069004
169	0xbbc16afa	-0.005902645
170	0x3c8e05b4	0.017336704
171	0x3ccf9ac8	0.02534236
172	0xbc87b648	-0.01656641
173	0x3bca9064	0.0061817635
174	0xbaa739f8	-0.0012758365
175	0x3d049815	0.0323716
176	0x3cc35b49	0.02384724
177	0x3ba94099	0.0051651713
178	0xb997b8bf	-0.0002893861
179	0x3bde4ed4	0.0067842994
180	0x3bddd16f	0.006769351
181	0x3c68aab6	0.014200857
182	0x3c485742	0.012227835
183	0x3d41dec0	0.04733157
184	0x3c673653	0.014112073
185	0x3c9af9ba	0.018917907
186	0x3cbead80	0.02327609
187	0x3c0f4173	0.008743632
188	0x3d518e21	0.051160935
189	0x3b7c0ebe	0.0038460935
190	0x3c0d2dc1	0.008616866
191	0x3bcad8cb	0.0061903945
192	0x3bea523b	0.007150916
193	0x3bff01a9	0.0077821803
194	0x3b626860	0.0034547076
195	0x3bd2dfad	0.0064353556
196	0xba97d503	-0.0011583868
197	0x3c2d1df4	0.010566223
198	0x3d4be765	0.049781222
199	0x3cb37842	0.02190793
200	0x3d161062	0.036636718
201	0x38314123	4.226075e-05
202	0xb9af02ec	-0.00033380778
203	0x3bf03138	0.007330086
204	0x3b2743a5	0.0025522497
205	0x3cf2deca	0.02964725
206	0x3cca12c4	0.024667151
207	0x3c41d6d3	0.011831003
208	0x3d15756f	0.036488947
209	0x3ceadbbb	0.028669229
210	0xbbe5ea76	-0.0070164753
211	0x3cc02b05	0.023458013
212	0xbc223aab	-0.009901683
213	0x3c71e91a	0.014765048
214	0x3cf1e2fa	0.029527176
215	0xbb013ef8	-0.001972137
216	0x3ca2337e	0.019799944
217	0xbb05b59d	-0.002040244
218	0xbbe54346	-0.006996545
219	0x3d5ccc54	0.0539058
220	0x3c479f73	0.012184012
221	0x3dc2ead4	0.09517446
222	0x3c430d06	0.0119049605
223	0x3d105f6e	0.03524726
224	0x3d4f661d	0.050634492
225	0x3c04503b	0.008075769
226	0x3d16ac64	0.0367855
227	0x3cce01bd	0.025147313
228	0xbbb1422f	-0.005409501
229	0x3d657785	0.056022186
230	0xbbfd5f3d	-0.0077323006
231	0xbbf67c6a	-0.0075221555
232	0xbb4c3525	-0.0031159606
233	0x3d10971c	0.03530036
234	0x3cbb71cc	0.022881411
235	0x3c1e8d68	0.009677269
236	0x3b45f573	0.0030206114
237	0xbb907627	-0.004408616
238	0x3c63f998	0.013914488
239	0x3b379709	0.0028013608
240	0x3d84fa39	0.06493039
241	0xbc341ece	-0.010993673
242	0x3c336510	0.010949388
243	0x3b88bf95	0.004173229
244	0x3d472795	0.048621733
245	0x3c813861	0.015773954
246	0x3c21fffb	0.009887691
247	0x3c1971f2	0.009365546
248	0x3c8d55ee	0.017252889
249	0x3ce9b39c	0.028528027
250	0xbad307a9	-0.0016100305
251	0x3c73e27f	0.014885544
252	0x3c23ee33	0.010005522
253	0xbb468e5e	-0.003029726
254	0x3bf05313	0.007334122
255	0x3cdc9df0	0.02693078

action_model._discrete_distribution.branches.0.weight f4 [2, 256]
0	0x3d1871b9	0.03721783
1	0xbd2226f2	-0.039587922
2	0x3e135085	0.14386185
3	0xbd7f76f1	-0.06236929
4	0xbd86307c	-0.065522164
5	0xbcd7d6bf	-0.026347516
6	0xbb825de8	-0.0039784797
7	0x3d5b9996	0.053613268
8	0x3db6ceea	0.089261845
9	0xbd05a519	-0.032628153
10	0xbc1f5f83	-0.009727362
11	0x3d17bca6	0.037045144
12	0xbcca3a7f	-0.024686096
13	0xbc6f2614	-0.014596481
14	0x3d3187a3	0.043342244
15	0xbdd0840f	-0.10181438
16	0x3dcea2f6	0.10089676
17	0x3da12d8d	0.07870016
18	0xbce27a1e	-0.02764612
19	0x3d7903e2	0.06079472
20	0xbc2cf2ec	-0.010555964
21	0xbccd2fb3	-0.025047159
22	0x3d92f85b	0.07176276
23	0x3c70b701	0.014692069
24	0x3cfd01f8	0.030884728
25	0xbd2d2838	-0.042274684
26	0xbc5c61ea	-0.013451079
27	0x3976f583	0.00023551848
28	0xbd360107	-0.044434574
29	0xbc4ae7cf	-0.012384369
30	0x3d3c566c	0.045980856
31	0xbc8fa58e	-0.017534997
32	0x3c9aeb44	0.018911012
33	0x3ccd019f	0.025025187
34	0x3d567664	0.052359
35	0x3c332a90	0.010935441
36	0xbc1ee3f8	-0.009697907
37	0x3d89e106	0.06732373
38	0x3b7dbade	0.0038716118
39	0x3d29f2f8	0.04149148
40	0x3db34fe1	0.0875547
41	0x3d18aeda	0.037276126
42	0x3c853dae	0.016264763
43	0x3cfacdac	0.03061565
44	0x3db1d194	0.08682552
45	0x3c706c84	0.01467431
46	0xbdbe525e	-0.09293054
47	0x3d4e9fbe	0.05044531
48	0x3c1a5a96	0.009421011
49	0xbd599f04	-0.053130165
50	0xbcfdc7ec	-0.03097912
51	0xbd184257	-0.03717264
52	0x3d136b75	0.03599115
53	0x3d4f9b37	0.050685134
54	0x3cf5e4f6	0.030016404
55	0x3aea8fd9	0.0017895653
56	0x3da178bb	0.07884356
57	0xbc5fad3d	-0.013652143
58	0xbd32ae26	-0.043623112
59	0x3bc3a5c3	0.005970688
60	0xbd875af2	-0.06609143
61	0xbd63473e	-0.055487864
62	0xbcb8d546	-0.022562634
63	0x3cf1442f	0.029451458
64	0x3bb726e7	0.0055893543
65	0xbc28a374	-0.0102928765
66	0x3d8427aa	0.06452878
67	0x3d1facd1	0.03898317
68	0xbd4a86ec	-0.049445078
69	0x3dbd3c81	0.09240056
70	0x3dcddd6c	0.100519985
71	0x3ca45090	0.020057946
72	0x3b603f9f	0.0034217609
73	0xbc8e1469	-0.017343717
74	0x3d4aa834	0.049476817
75	0x3d7a030b	0.06103806
76	0xbafa8693	-0.0019113593
77	0x3b3ff983	0.0029293008
78	0x3d407fce	0.046996884
79	0xbbc4a62b	-0.006001254
80	0xbcbd0480	-0.023073435
81	0xbce8ec9d	-0.028433139
82	0xbcbdae9e	-0.023154553
83	0xbce83e60	-0.028350055
84	0x3d18126f	0.037126955
85	0x3cec994e	0.028881695
86	0xbd49d60b	-0.049276393
87	0x3d28218d	0.04104762
88	0x3c961279	0.018319355
89	0xbd1e17a7	-0.038596775
90	0x3c7ab6b6	0.015302351
91	0x3dc6293c	0.096758336
92	0x3b86f3f0	0.004118435
93	0xbdcf1c92	-0.10112871
94	0x3d665ec8	0.056242734
95	0x3c40c9b4	0.01176684
96	0x3d454987	0.048165824
97	0x3e0b2c37	0.13591085
98	0xbd7530a3	-0.059860837
99	0x3df4ad89	0.11947162
100	0xbdc68d8f	-0.09694969
101	0x3c2c2f3c	0.010509308
102	0x3d8dae35	0.06917993
103	0xbd54b126	-0.051926754
104	0xbcdf974a	-0.02729382
105	0x3da89086	0.08230691
106	0x3c1d4777	0.009599558
107	0xbc50774a	-0.012723753
108	0xbc434b29	-0.011919775
109	0xbce3e501	-0.027819159
110	0xbd721a52	-0.059107132
111	0xbc8034e5	-0.015650222
112	0x3db54800	0.088516235
113	0x3d8a278f	0.067458265
114	0xbda9b878	-0.08287138
115	0xbd1d27c4	-0.038368
116	0x3b32f8f9	0.0027309044
117	0xbbd4d5fd	-0.006495236
118	0x3d9bb988	0.07603747
119	0xbc5c1b8a	-0.0134343
120	0x3c9dbfbd	0.019256467
121	0x3b1f3577	0.0024293342
122	0xbc1b8025	-0.009491001
123	0x3c8dba39	0.017300712
124	0xbcd54899	-0.026035594
125	0xbbcf340e	-0.006323344
126	0xbc4f1d48	-0.012641259
127	0x3d2a76e2	0.04161728
128	0xbd0ab6c8	-0.03386572
129	0x3b2f1590	0.0026715733
130	0x3bd2897e	0.0064250818
131	0xbc1725c8	-0.009225316
132	0x3dec2039	0.115295835
133	0xbcb9a5ba	-0.022662032
134	0x3dc9d1bb	0.09854456
135	0xbda5aefe	-0.08090018
136	0xbcf952cf	-0.030434994
137	0xbc1890a1	-0.009311826
138	0xbd863963	-0.065539144
139	0x3da62409	0.08112342
140	0xbbbe6059	-0.0058098254
141	0x3d5aa724	0.053382054
142	0xbd2e49be	-0.042550795
143	0xbce8eb0d	-0.028432393
144	0xbd0aa5b1	-0.033849422
145	0x3b89bd9d	0.004203512
146	0xbb1112ba	-0.0022136406
147	0xbd0958dc	-0.03353201
148	0x3cd5e9af	0.026112406
149	0x3d731b56	0.05935224
150	0xbd4c58ac	-0.04988925
151	0x3c62dbea	0.013846377
152	0x3d42e6a8	0.047583252
153	0xbc5806cd	-0.013185215
154	0x3c8e16ee	0.017344918
155	0x3c4bf606	0.012448793
156	0x3c95943a	0.018259156
157	0x3bc8309f	0.0061093117
158	0x3dbece73	0.09316721
159	0x3c8e9df0	0.017409295
160	0xbde061ed	-0.10956178
161	0xbcb50ed2	-0.022101793
162	0xbcf8dfad	-0.030380094
163	0xbc9c929d	-0.01911288
164	0x3c51bb3a	0.012800986
165	0x3d909155	0.0705897
166	0x3de579c9	0.11204869
167	0x3d63b081	0.05558825
168	0xbd2e1060	-0.042496085
169	0x3ca82c89	0.020529049
170	0xbc88f025	-0.016716072
171	0x3dc29431	0.095009215
172	0x3a60b9ce	0.0008572609
173	0xbc709aa6	-0.014685309
174	0x3ce8a700	0.028399944
175	0xbd539531	-0.051655952
176	0xbd08fdaf	-0.033445057
177	0x3cc2d216	0.023781817
178	0xbc1b7de4	-0.009490464
179	0xb7058477	-7.95826e-06
180	0xbaca4e59	-0.0015434726
181	0xbca3d11d	-0.019997174
182	0x3d0bf648	0.03417042
183	0x3d224fab	0.03962676
184	0x3d2f3d59	0.042783115
185	0xbd42c3ca	-0.04755
186	0x3dc71255	0.097202934
187	0xbcb20ae2	-0.021733705
188	0x3ce0902d	0.027412498
189	0xbc2151e5	-0.009846185
190	0x3d848259	0.06470174
191	0x3d3f6a17	0.046732035
192	0x3c5e4d44	0.013568226
193	0x3d18d76d	0.03731482
194	0x3ae03709	0.0017106246
195	0x3cf36c7b	0.029714813
196	0x3c8f2c4f	0.017477183
197	0xbad4a325	-0.0016222937
198	0xbdc32c42	-0.09529926
199	0x3db02594	0.086009175
200	0x3db58321	0.088629015
201	0x3d8c5f2f	0.06854092
202	0x3c13998c	0.009008776
203	0xbd03b53e	-0.032155268
204	0xbc2195f4	-0.009862412
205	0x3e02c1f5	0.12769301
206	0x3dc2f37c	0.09519097
207	0xbd51b794	-0.051200464
208	0xbd6091d5	-0.054826576
209	0xbd429078	-0.047501057
210	0x3c14b46b	0.009076218
211	0x3d7d6131	0.061860267
212	0x3c2d59c1	0.010580481
213	0xbcc25c81	-0.02372575
214	0xbd2a2e74	-0.041548207
215	0x3ad5ab75	0.0016301709
216	0xbd15b783	-0.036551964
217	0x3c76d462	0.015065284
218	0x3c1fdef3	0.009757745
219	0xbd4ba33c	-0.04971622
220	0xbcd06d51	-0.025442751
221	0x3d4d3c84	0.05010654
222	0xbbeadd9a	-0.0071675302
223	0x3d0fda2e	0.03512018
224	0x3d43d056	0.047806107
225	0xbc22422e	-0.009903474
226	0xbda6086b	-0.08107074
227	0x3d86b4b2	0.06577434
228	0x3b1749d0	0.0023084767
229	0x3db12a3c	0.08650634
230	0x3cdc8461	0.026918592
231	0xbc2b4dbc	-0.010455545
232	0x3cddce56	0.027075928
233	0x3de9eca5	0.114220895
234	0xbd2cdd54	-0.042203262
235	0xbc982eca	-0.018576998
236	0xbb927037	-0.0044689435
237	0xbbd81255	-0.006593982
238	0xbd235631	-0.03987712
239	0xbcc47f53	-0.023986494
240	0x3dfa80ec	0.12231621
241	0x3af7043c	0.0018845866
242	0x3dd64434	0.104622275
243	0xbc916faf	-0.01775345
244	0xbd650613	-0.055913996
245	0xbd2752be	-0.040850393
246	0xbc8c17d0	-0.017101198
247	0xbc804cce	-0.015661623
248	0x3cff045f	0.031130014
249	0xbd7404dd	-0.05957495
250	0xbccd635a	-0.025071789
251	0x3cda062e	0.026614275
252	0xbcc43560	-0.023951232
253	0x3c9fe135	0.019516567
254	0xbbc1f918	-0.005919587
255	0xbda76db5	-0.08175222

action_model._discrete_distribution.branches.0.bias f4 [2]
0	0xbc07c0a2	-0.008285673
1	0x3c07c09b	0.008285667

exp_avg f4 [256, 29]
0	0xb65e4bcc	-3.3124697e-06
1	0xb7cda0dc	-2.451281e-05
2	0x32cd796f	2.3920363e-08
3	0xb60fbaa6	-2.1417304e-06
4	0xb5966c9a	-1.1207478e-06
5	0xb7d692cc	-2.5579146e-05
6	0xb593d639	-1.10147e-06
7	0xb5949150	-1.1069151e-06
8	0xb588a6fe	-1.0181391e-06
9	0xb7cb2a63	-2.4219224e-05
10	0xb62c1148	-2.5640056e-06
11	0xb6280c37	-2.504106e-06
12	0xb59c2c19	-1.163574e-06
13	0xb7f92350	-2.9699557e-05
14	0x364d78cc	3.0617693e-06
15	0x377cfa2f	1.5078621e-05
16	0xb588644e	-1.0161982e-06
17	0xb7fb61af	-2.996702e-05
18	0x365587c1	3.1818493e-06
19	0x36b1a59d	5.294291e-06
20	0x37ab0344	2.038631e-05
21	0xb84713f6	-4.7463887e-05
22	0xb54249fa	-7.237828e-07
23	0x3755e20d	1.2748421e-05
24	0xb7eaff51	-2.8013865e-05
25	0xb79be9c6	-1.85863e-05
26	0x379db219	1.8798792e-05
27	0x36f0b080	7.1731047e-06
28	0x00000000	0.0
29	0x36de1924	6.6190423e-06
30	0x37e444b6	2.7211714e-05
31	0xb77c2ac4	-1.5030328e-05
32	0xb720b457	-9.578732e-06
33	0x35815a42	9.637517e-07
34	0x37ee3576	2.8396706e-05
35	0xb7312af3	-1.0560022e-05
36	0xb736694b	-1.0872561e-05
37	0x3562349c	8.426812e-07
38	0x37e26852	2.6989877e-05
39	0xb7178894	-9.032101e-06
40	0xb71852f0	-9.079216e-06
41	0x3585b961	9.963225e-07
42	0x380b50ca	3.3215423e-05
43	0xb781478d	-1.5411317e-05
44	0xb7ceb665	-2.4642048e-05
45	0x3561aa0c	8.406648e-07
46	0x37b76dff	2.1866521e-05
47	0xb68316c1	-3.906753e-06
48	0xb75be76a	-1.31072975e-05
49	0xb78a587a	-1.6492082e-05
50	0x38349e26	4.306263e-05
51	0xb7025c5e	-7.77011e-06
52	0xb7bdb627	-2.2615377e-05
53	0x37a3c547	1.9522979e-05
54	0x37818c41	1.544331e-05
55	0xb7879be4	-1.6165846e-05
56	0xb7682ab4	-1.383822e-05
57	0x00000000	0.0
58	0xb7e24f78	-2.6978305e-05
59	0xb9045f89	-0.0001262409
60	0x3815e122	3.573404e-05
61	0x37628a0d	1.3502792e-05
62	0xb67a068f	-3.725672e-06
63	0xb9015a0a	-0.00012335941
64	0x37210f44	9.599902e-06
65	0x3736f26c	1.0904489e-05
66	0xb6674bb7	-3.4465754e-06
67	0xb9014712	-0.00012328874
68	0x371b3067	9.2499895e-06
69	0x3724a358	9.813193e-06
70	0xb679634a	-3.7161685e-06
71	0xb94d2918	-0.00019565632
72	0x38abbae1	8.188724e-05
73	0x3910a10c	0.00013792905
74	0xb6662cf5	-3.429884e-06
75	0xb93b4bdf	-0.00017861974
76	0x388766bd	6.456438e-05
77	0x38ad6a00	8.269027e-05
78	0x39127087	0.00013965565
79	0xb999f6d9	-0.0002936635
80	0x38192fda	3.6522608e-05
81	0x39027f7a	0.00012445255
82	0xb9715282	-0.00023014288
83	0xb84f53ae	-4.943058e-05
84	0x3929f637	0.00016208818
85	0x38c9d1d6	9.623512e-05
86	0x00000000	0.0
87	0x37698ddd	1.3920912e-05
88	0x37a6f220	1.990149e-05
89	0xb8754218	-5.8474106e-05
90	0xb8467b3f	-4.732166e-05
91	0x361ece67	2.3663977e-06
92	0x37afc6e7	2.0954247e-05
93	0xb84935e8	-4.797234e-05
94	0xb8498997	-4.8050275e-05
95	0x360dacaf	2.1111152e-06
96	0x379f7a6e	1.9011288e-05
97	0xb83ffd79	-4.5774013e-05
98	0xb840a947	-4.593402e-05
99	0x361f20fb	2.3712043e-06
100	0x37c3da0a	2.3347344e-05
101	0xb85344a3	-5.0370243e-05
102	0xb8b28c62	-8.51385e-05
103	0x360d719d	2.107677e-06
104	0x3680abaa	3.8346816e-06
105	0xb800520c	-3.059399e-05
106	0xb881fa94	-6.197873e-05
107	0xb876abd5	-5.8811e-05
108	0x38807efe	6.12717e-05
109	0xb7e36f5f	-2.711237e-05
110	0xb8a46da9	-7.840555e-05
111	0x389f71a5	7.602879e-05
112	0xb7acdfaf	-2.0608159e-05
113	0xb8a7ec7a	-8.007228e-05
114	0xb88a5044	-6.5953034e-05
115	0x00000000	0.0
116	0x37169f76	8.977824e-06
117	0x389b75f3	7.412946e-05
118	0x35c910d7	1.4980568e-06
119	0x370bd88e	8.335466e-06
120	0x3601506b	1.9269307e-06
121	0x38990036	7.295648e-05
122	0x37231b4f	9.721915e-06
123	0x370d3e03	8.418693e-06
124	0x35e7cdd6	1.7270747e-06
125	0x389a9748	7.3714706e-05
126	0x3719bd6c	9.163614e-06
127	0x371841ae	9.075198e-06
128	0x360156fa	1.9273125e-06
129	0x38e7fbe7	0.00011061859
130	0xb7ea61db	-2.7940541e-05
131	0xb8460183	-4.7208287e-05
132	0x35e7959a	1.7254381e-06
133	0x381067ef	3.442907e-05
134	0x384b37b5	4.8450853e-05
135	0x35fa679f	1.8656609e-06
136	0xb867557b	-5.51543e-05
137	0x3909ae53	0.00013130279
138	0x370de1f6	8.4568655e-06
139	0xb82ab379	-4.0698305e-05
140	0x3868d080	5.550729e-05
141	0x37bf6252	2.2814758e-05
142	0x36d2d56a	6.2833324e-06
143	0x360937b2	2.044701e-06
144	0x00000000	0.0
145	0x36f10d66	7.1839195e-06
146	0x3751bafd	1.2500907e-05
147	0xb75004c2	-1.2398874e-05
148	0xb6d6db7d	-6.403249e-06
149	0x357d97b2	9.447059e-07
150	0x375540b6	1.2710856e-05
151	0xb6d5ba99	-6.3696175e-06
152	0xb6e5b0c3	-6.8453096e-06
153	0x355f9ee2	8.330518e-07
154	0x374dc8e4	1.2265726e-05
155	0xb6c30bca	-5.8128253e-06
156	0xb6c49356	-5.8584073e-06
157	0x3580a4dc	9.584724e-07
158	0x37ec9094	2.8200717e-05
159	0xb7b77c77	-2.1873258e-05
160	0xb802c778	-3.1180185e-05
161	0x355f206a	8.312114e-07
162	0x370100a4	7.689148e-06
163	0xb5a5ae33	-1.2344157e-06
164	0xb7370aac	-1.0910135e-05
165	0xb7d74061	-2.5659976e-05
166	0x38505f8e	4.9680057e-05
167	0xb78c604c	-1.6734142e-05
168	0xb7f60968	-2.9329865e-05
169	0x37d7e7a1	2.5737858e-05
170	0xb4c9b68d	-3.757199e-07
171	0xb797a258	-1.80762e-05
172	0xb74cd0a2	-1.2207924e-05
173	0x00000000	0.0
174	0x3223b053	9.52794e-09
175	0xb4563e91	-1.9953065e-07
176	0xb41f2e71	-1.4824924e-07
177	0xb4231c70	-1.5190903e-07
178	0x32642140	1.3278907e-08
179	0xb4945667	-2.7630014e-07
180	0xb3a18e87	-7.523072e-08
181	0xb3c83332	-9.322538e-08
182	0x32672bfa	1.3455969e-08
183	0xb4560e63	-1.9935537e-07
184	0xb4239658	-1.5235253e-07
185	0xb423920b	-1.5233688e-07
186	0x32620af2	1.315742e-08
187	0xb4c50551	-3.6697978e-07
188	0x3285bfa8	1.5570393e-08
189	0xb2c75cde	-2.320888e-08
190	0x32672d56	1.3456278e-08
191	0xb42fdcd7	-1.6378486e-07
192	0xb449c7f7	-1.879233e-07
193	0xb42b1eef	-1.593687e-07
194	0x32950281	1.7347022e-08
195	0xb4bed6e9	-3.5546626e-07
196	0xaf11e7ac	-1.326998e-10
197	0xb2a5a9b9	-1.9285709e-08
198	0x328ad235	1.6160906e-08
199	0xb4457800	-1.839071e-07
200	0xb4371443	-1.7050574e-07
201	0xb42e02c6	-1.6206022e-07
202	0x00000000	0.0
203	0xb6f4a5e1	-7.2910775e-06
204	0xb8483c31	-4.7739773e-05
205	0x37b3fbc0	2.1455693e-05
206	0x37828769	1.5560263e-05
207	0xb5963d44	-1.1193702e-06
208	0xb848fcff	-4.7919337e-05
209	0x3781b7b6	1.5463545e-05
210	0x3782e734	1.560487e-05
211	0xb58d09c8	-1.0508165e-06
212	0xb8448eb5	-4.6862948e-05
213	0x37708fbf	1.4338583e-05
214	0x3773495d	1.450101e-05
215	0xb597ace7	-1.1300698e-06
216	0xb84c0248	-4.8639515e-05
217	0x3787d939	1.6194406e-05
218	0x380b3392	3.318821e-05
219	0xb58c7483	-1.0464722e-06
220	0xb86c1d34	-5.6293982e-05
221	0x37c75b8d	2.376528e-05
222	0x3812328e	3.4856195e-05
223	0x37fe91c2	3.0347033e-05
224	0xb869963c	-5.5691446e-05
225	0xb70a16c4	-8.2307415e-06
226	0x37ebbe0a	2.8102677e-05
227	0xb8744ff9	-5.8248614e-05
228	0xb79c03c9	-1.8598412e-05
229	0x38357ed0	4.3271866e-05
230	0x381c21fb	3.7224945e-05
231	0x00000000	0.0
232	0xb78f9c89	-1.711982e-05
233	0xb8ad49b3	-8.2630104e-05
234	0x3838c307	4.4050652e-05
235	0x37f7aef4	2.9526163e-05
236	0xb5f8c145	-1.8533689e-06
237	0xb8ab140c	-8.1576494e-05
238	0x37e89efd	2.773059e-05
239	0x37ee2206	2.8387654e-05
240	0xb5eb19ed	-1.751641e-06
241	0xb8a9a293	-8.08883e-05
242	0x37e1fe68	2.6940557e-05
243	0x37e4dc64	2.7282345e-05
244	0xb5f670cf	-1.836126e-06
245	0xb8e85c8a	-0.00011079859
246	0x386ecded	5.6935405e-05
247	0x38b6d4c5	8.718068e-05
248	0xb5e9bebd	-1.7415365e-06
249	0xb8b01e0f	-8.397933e-05
250	0x37fbd6b3	3.0021509e-05
251	0x3889ee42	6.577048e-05
252	0x389fc9e7	7.619318e-05
253	0xb90c77e6	-0.00013396106
254	0x360ad1d7	2.0685745e-06
255	0x38a0ef61	7.673982e-05

exp_avg_sq f4 [256, 29]
0	0x31b1b98b	5.172472e-09
1	0x30b51aa5	1.3177056e-09
2	0x33328fac	4.1574523e-08
3	0x3334a54d	4.2059856e-08
4	0x31a7c718	4.882974e-09
5	0x32129e8c	8.534368e-09
6	0x3315a352	3.4840305e-08
7	0x33190f02	3.5636738e-08
8	0x31a67f18	4.8456847e-09
9	0x31134acd	2.1433835e-09
10	0x333081bd	4.109619e-08
11	0x33316f19	4.1312067e-08
12	0x31b26112	5.1915174e-09
13	0x331f0bfe	3.703098e-08
14	0x3180dfc0	3.7507277e-09
15	0x328e20c0	1.6545869e-08
16	0x31ad8bc0	5.0508504e-09
17	0x31d3fa81	6.1693872e-09
18	0x331a580b	3.5935994e-08
19	0x3327ec0b	3.9097397e-08
20	0x32fed290	2.9665244e-08
21	0x327e2513	1.4793176e-08
22	0x312d52b5	2.5221827e-09
23	0x325833be	1.258462e-08
24	0x3260718c	1.3064334e-08
25	0x312ab203	2.4839444e-09
26	0x3302ab6c	3.042389e-08
27	0x33201911	3.72757e-08
28	0x00000000	0.0
29	0x32236607	9.511047e-09
30	0x3186ef8d	3.927147e-09
31	0x33c410a9	9.129992e-08
32	0x33cb6375	9.471015e-08
33	0x31ec1589	6.8709523e-09
34	0x333bcaab	4.3723656e-08
35	0x336a914c	5.4614517e-08
36	0x337c457e	5.8736525e-08
37	0x31e399cf	6.6240555e-09
38	0x31e5c47b	6.6871144e-09
39	0x33c604b7	9.220951e-08
40	0x33c6d616	9.2590355e-08
41	0x32284cdc	9.796363e-09
42	0x33ac8f0a	8.035393e-08
43	0x326b540e	1.3697912e-08
44	0x3301a1ea	3.0182413e-08
45	0x31fdf723	7.3913653e-09
46	0x327e9cf0	1.4820429e-08
47	0x33ae8d24	8.12818e-08
48	0x33bb6560	8.726306e-08
49	0x3354c77c	4.9541526e-08
50	0x334ad0c9	4.722168e-08
51	0x3201280b	7.517893e-09
52	0x32cff141	2.4207681e-08
53	0x329de5eb	1.838176e-08
54	0x322acaff	9.941458e-09
55	0x339d5012	7.325447e-08
56	0x33b48e60	8.407801e-08
57	0x00000000	0.0
58	0x33785cc4	5.782637e-08
59	0x33249548	3.8319996e-08
60	0x361db17f	2.349814e-06
61	0x361eabee	2.364391e-06
62	0x335a4c21	5.082632e-08
63	0x3460ac28	2.0924256e-07
64	0x361388b4	2.1984279e-06
65	0x3614bcf3	2.2163701e-06
66	0x33593c13	5.0578887e-08
67	0x33a4b4e5	7.6697496e-08
68	0x361b7727	2.3166156e-06
69	0x361c7b3e	2.3317548e-06
70	0x3361ab43	5.2542656e-08
71	0x35e8405e	1.730408e-06
72	0x35096c66	5.119422e-07
73	0x359de8d6	1.1765176e-06
74	0x337f8246	5.9490297e-08
75	0x34ae6edc	3.2490686e-07
76	0x36056268	1.9875824e-06
77	0x3611b710	2.171324e-06
78	0x35857537	9.943386e-07
79	0x3583c555	9.817692e-07
80	0x34d3fc19	3.9485238e-07
81	0x3581f461	9.682373e-07
82	0x34f5962f	4.574408e-07
83	0x343cf268	1.7597051e-07
84	0x35e05dba	1.6716579e-06
85	0x360a633e	2.062137e-06
86	0x00000000	0.0
87	0x32959cf5	1.7417259e-08
88	0x306672b4	8.3836516e-10
89	0x349fe7a1	2.978459e-07
90	0x34a19c27	3.0102203e-07
91	0x32858fb9	1.5548595e-08
92	0x32d607d7	2.4916444e-08
93	0x34945516	2.7629056e-07
94	0x3495ff5c	2.793921e-07
95	0x3284f89b	1.5479875e-08
96	0x314fb117	3.0223128e-09
97	0x34a0d066	2.9953952e-07
98	0x34a1070a	2.9993708e-07
99	0x328a819e	1.6124257e-08
100	0x343f1d51	1.7798926e-07
101	0x33ddb8a0	1.03246975e-07
102	0x3441e646	1.8058299e-07
103	0x32889691	1.5900953e-08
104	0x336af21f	5.470258e-08
105	0x347c4e5a	2.3497833e-07
106	0x3491df1e	2.7170694e-07
107	0x3423f850	1.5270894e-07
108	0x33d74df9	1.0025901e-07
109	0x33517dcc	4.8776016e-08
110	0x341fc213	1.4878633e-07
111	0x339ea7af	7.38795e-08
112	0x33012e5c	3.0077317e-08
113	0x344d2d73	1.9108647e-07
114	0x34877b26	2.5235312e-07
115	0x00000000	0.0
116	0x321dbfed	9.182242e-09
117	0x3217cf80	8.836537e-09
118	0x347f245e	2.3761956e-07
119	0x34823501	2.4252952e-07
120	0x31de9a6b	6.4786057e-09
121	0x33505070	4.850193e-08
122	0x345b250e	2.0409445e-07
123	0x345f54a9	2.0799293e-07
124	0x31ddd592	6.4562267e-09
125	0x3223d123	9.535401e-09
126	0x34822bd7	2.4246285e-07
127	0x34822a1e	2.424503e-07
128	0x31eb503d	6.848522e-09
129	0x345b630b	2.0431996e-07
130	0x332aac46	3.973789e-08
131	0x33dc4d42	1.02586014e-07
132	0x31e0c3e3	6.5415278e-09
133	0x3343ebae	4.5616325e-08
134	0x345a6bf5	2.0342107e-07
135	0x347295b9	2.2592475e-07
136	0x33d7c0d7	1.0046795e-07
137	0x341b32cc	1.445398e-07
138	0x3210fc4c	8.439269e-09
139	0x33aa2c9e	7.924358e-08
140	0x333cc8d1	4.3954802e-08
141	0x33035bf8	3.058446e-08
142	0x343b051a	1.7417588e-07
143	0x34652ae2	2.1342888e-07
144	0x00000000	0.0
145	0x31bab82c	5.4342504e-09
146	0x30103c90	5.247296e-10
147	0x33c0145a	8.9443986e-08
148	0x33c48ad4	9.152214e-08
149	0x3191cc94	4.2433133e-09
150	0x3296bf25	1.754922e-08
151	0x33a02edb	7.4591036e-08
152	0x33a35fe7	7.6077235e-08
153	0x318c929e	4.0912047e-09
154	0x30bfde6b	1.3960294e-09
155	0x33c314ad	9.084156e-08
156	0x33c36942	9.0995414e-08
157	0x31bc0aea	5.472761e-09
158	0x339f5197	7.4188556e-08
159	0x3278410b	1.4450289e-08
160	0x331d3500	3.6602614e-08
161	0x319689cd	4.3812407e-09
162	0x31d9b167	6.3356995e-09
163	0x33b4706d	8.402353e-08
164	0x33bcc415	8.790099e-08
165	0x332be7fc	4.002503e-08
166	0x3342198d	4.5192383e-08
167	0x321c62fe	9.102903e-09
168	0x32fa9f6e	2.917633e-08
169	0x324e3ea0	1.2005017e-08
170	0x31ce8460	6.0104384e-09
171	0x33a06d7b	7.470495e-08
172	0x33b6ae66	8.506758e-08
173	0x00000000	0.0
174	0x2cd54443	6.0614027e-12
175	0x2cf62381	6.9956822e-12
176	0x2e596428	4.9429044e-11
177	0x2e61303f	5.1201928e-11
178	0x2cc27838	5.5271586e-12
179	0x2e40860b	4.37748e-11
180	0x2d688c14	1.3218777e-11
181	0x2d960a16	1.7057505e-11
182	0x2ca788fa	4.761633e-12
183	0x2d12d11c	8.345571e-12
184	0x2e5b2b11	4.9833086e-11
185	0x2e5b6050	4.9880378e-11
186	0x2da2fc1b	1.8529225e-11
187	0x2e40b22c	4.3813994e-11
188	0x2b2a8793	6.058428e-13
189	0x2cbebfbc	5.4214116e-12
190	0x2cb5dc29	5.168772e-12
191	0x2d22155d	9.2133775e-12
192	0x2e52a34c	4.789351e-11
193	0x2e56d7c2	4.8849598e-11
194	0x2df2c966	2.7601654e-11
195	0x2e1a0f79	3.502929e-11
196	0x29d209e5	9.32759e-14
197	0x2c8c5075	3.987972e-12
198	0x2cd8ca92	6.161579e-12
199	0x2d3983b6	1.0545278e-11
200	0x2e4f8ce3	4.7191483e-11
201	0x2e5466df	4.8294587e-11
202	0x00000000	0.0
203	0x31bfdd7c	5.5840115e-09
204	0x31bfcc3b	5.58205e-09
205	0x33ba2ab5	8.669068e-08
206	0x33bbefae	8.7514636e-08
207	0x31ae08d4	5.06507e-09
208	0x324162bf	1.1256531e-08
209	0x33aef262	8.1465956e-08
210	0x33b06931	8.214773e-08
211	0x31ab409d	4.9841007e-09
212	0x321aee72	9.018196e-09
213	0x33b3c62f	8.3713864e-08
214	0x33b587a6	8.4531436e-08
215	0x31bd1653	5.503162e-09
216	0x3356d6dc	5.002117e-08
217	0x331b16a7	3.6109352e-08
218	0x337463e4	5.6901527e-08
219	0x31c2292b	5.6508234e-09
220	0x3310aa19	3.3682316e-08
221	0x33668454	5.36714e-08
222	0x3396ef7d	7.028482e-08
223	0x33416c82	4.5035e-08
224	0x32fc7f97	2.9394682e-08
225	0x32bd75bd	2.2056037e-08
226	0x3350104c	4.8443596e-08
227	0x3309bfc5	3.207221e-08
228	0x326f2307	1.3919595e-08
229	0x334299e1	4.5309097e-08
230	0x33894624	6.392318e-08
231	0x00000000	0.0
232	0x32c2e0f9	2.2686878e-08
233	0x32bfc29c	2.2323825e-08
234	0x3551e9e3	7.819892e-07
235	0x3553d591	7.8914405e-07
236	0x329ed249	1.8489247e-08
237	0x339d2598	7.3177205e-08
238	0x3545dab5	7.370648e-07
239	0x35476838	7.4284935e-07
240	0x329bc334	1.8133143e-08
241	0x335fc8ea	5.2103964e-08
242	0x354b1d5e	7.566613e-07
243	0x354cf13a	7.6346953e-07
244	0x32c2eadd	2.2691376e-08
245	0x3507ecc1	5.063594e-07
246	0x348c6188	2.6147995e-07
247	0x34f666ce	4.589587e-07
248	0x32ccfb3e	2.3862977e-08
249	0x34790312	2.3191049e-07
250	0x35118391	5.4208164e-07
251	0x35326bd9	6.6467106e-07
252	0x34ca2a1c	3.765607e-07
253	0x34a1b17d	3.0117727e-07
254	0x34279276	1.5606369e-07
255	0x34cd7f38	3.827679e-07

exp_avg f4 [256]
0	0xb7e91755	-2.778663e-05
1	0x379dad60	1.8796592e-05
2	0xb8f669bc	-0.00011749889
3	0xb7cf30e7	-2.4699095e-05
4	0x38b16ff2	8.460869e-05
5	0x36f4ae96	7.292091e-06
6	0xb4b5989f	-3.3824924e-07
7	0xb80ccf09	-3.3571418e-05
8	0xb869c111	-5.5731336e-05
9	0x359b063c	1.1550214e-06
10	0x3744752b	1.1709791e-05
11	0xb797a78e	-1.8078626e-05
12	0xb725aded	-9.875262e-06
13	0x37ab7e66	2.0443647e-05
14	0xb80bc103	-3.331994e-05
15	0x3820a117	3.8297e-05
16	0xb7d01fd1	-2.4810348e-05
17	0xb878a717	-5.9283422e-05
18	0x36fa6e77	7.4634404e-06
19	0xb88008b0	-6.105134e-05
20	0x379834ec	1.8144456e-05
21	0x37a1e40a	1.9298885e-05
22	0xb8ffe2fc	-0.00012201627
23	0xb6c8099f	-5.9615845e-06
24	0xb7bf1b09	-2.2781564e-05
25	0x376c4991	1.4083825e-05
26	0x360b0536	2.0715647e-06
27	0xb7049ba5	-7.904052e-06
28	0x38836b34	6.266535e-05
29	0xb5920a4a	-1.0880842e-06
30	0xb89088e5	-6.891954e-05
31	0x378bb7f7	1.6655757e-05
32	0xb6af30b6	-5.221077e-06
33	0xb771a32e	-1.4402713e-05
34	0xb884299b	-6.302e-05
35	0xb6c80d20	-5.9619924e-06
36	0xb69baf2f	-4.639754e-06
37	0xb8838616	-6.271542e-05
38	0xb5e82313	-1.7295555e-06
39	0xb8399b83	-4.425227e-05
40	0xb87ddf3f	-6.0527815e-05
41	0xb87eb3f2	-6.0725906e-05
42	0xb6abd33d	-5.1207885e-06
43	0xb7cc354c	-2.4343513e-05
44	0xb8715dae	-5.7546124e-05
45	0xb760832d	-1.3381982e-05
46	0xb76edd2c	-1.4237401e-05
47	0xb8a82f5d	-8.019686e-05
48	0xb69d9c87	-4.697187e-06
49	0xb6ca381d	-6.0266016e-06
50	0x38161c10	3.5788922e-05
51	0xb5859666	-9.953044e-07
52	0xb7c461a7	-2.3410494e-05
53	0xb7fc8b14	-3.0105504e-05
54	0x36c62e59	5.9062554e-06
55	0xb6834606	-3.912256e-06
56	0xb8d76d91	-0.00010272407
57	0x3755efba	1.2751605e-05
58	0x38335f7f	4.2765863e-05
59	0x351e1ab0	5.889842e-07
60	0x3869f59c	5.578027e-05
61	0x37ea6ac8	2.7944698e-05
62	0x3782dec1	1.5600936e-05
63	0xb6b2a8cc	-5.324464e-06
64	0xb7122062	-8.709818e-06
65	0x366e1c5c	3.548127e-06
66	0xb8396d65	-4.420932e-05
67	0xb81381dc	-3.5168472e-05
68	0x38813664	6.1613304e-05
69	0xb860730b	-5.3512904e-05
70	0xb92596ea	-0.00015791846
71	0xb6a81b03	-5.0099347e-06
72	0xb528c4a9	-6.2871055e-07
73	0x378c32fc	1.6713042e-05
74	0xb8460603	-4.7212478e-05
75	0xb8548bb5	-5.067485e-05
76	0x34911989	2.7026934e-07
77	0xb691a7a7	-4.340854e-06
78	0xb8447fae	-4.6848952e-05
79	0x3685b68c	3.98496e-06
80	0x37c3c931	2.3339499e-05
81	0x37ba1171	2.218105e-05
82	0x38069006	3.2082222e-05
83	0x35ecd4cb	1.7645301e-06
84	0xb85be4c0	-5.242671e-05
85	0xb86b6444	-5.6121746e-05
86	0xb5c59af1	-1.4722738e-06
87	0xb89507cc	-7.106326e-05
88	0xb70df95f	-8.462316e-06
89	0x38265b91	3.9662762e-05
90	0xb688fe8c	-4.082749e-06
91	0xb8edbdc1	-0.00011336385
92	0x3533d6a9	6.699507e-07
93	0x36919d98	4.339683e-06
94	0xb8736a17	-5.803452e-05
95	0xb7eeff25	-2.8490622e-05
96	0xb753869f	-1.2607924e-05
97	0xb9106ec6	-0.00013774176
98	0x3671a835	3.6009708e-06
99	0xb90c637d	-0.00013388503
100	0x37957b8c	1.7819715e-05
101	0xb711e345	-8.695589e-06
102	0xb8a0d22a	-7.668541e-05
103	0x365b5e89	3.268857e-06
104	0x37c68c81	2.3668867e-05
105	0xb86fe654	-5.719655e-05
106	0xb678059e	-3.695815e-06
107	0x36c38c38	5.8277765e-06
108	0x36959b7d	4.4586473e-06
109	0x3795c03f	1.7851706e-05
110	0x375b5bde	1.3074807e-05
111	0x37400282	1.1444676e-05
112	0xb8b11f38	-8.445833e-05
113	0xb88453d1	-6.3098625e-05
114	0x375c13db	1.3117645e-05
115	0x38309799	4.2102856e-05
116	0x36a3de0c	4.883628e-06
117	0x36c263c3	5.7932643e-06
118	0xb897b9a9	-7.234823e-05
119	0x37752a3d	1.4612972e-05
120	0xb7998944	-1.830294e-05
121	0xb57ddc96	-9.457084e-07
122	0x37315a85	1.0571098e-05
123	0xb75f5323	-1.3311193e-05
124	0x37816895	1.5426698e-05
125	0x372ce647	1.03056145e-05
126	0x34989285	2.8418813e-07
127	0xb88ab5ea	-6.614237e-05
128	0x35850cd3	9.913005e-07
129	0xb626dcc7	-2.4864437e-06
130	0xb61e84c0	-2.3621105e-06
131	0x3773797c	1.4512214e-05
132	0xb90d55c8	-0.00013478764
133	0x37a24702	1.934497e-05
134	0xb89744e7	-7.213075e-05
135	0xb63fe051	-2.8591787e-06
136	0x379b8b68	1.8542356e-05
137	0x36be6587	5.6742606e-06
138	0xb80133da	-3.0804287e-05
139	0xb856e6b9	-5.1236453e-05
140	0xb5d585a6	-1.5908633e-06
141	0xb82c3fc8	-4.1067397e-05
142	0x364223f1	2.8929173e-06
143	0x36f2cc2e	7.2359317e-06
144	0x374bc155	1.21447565e-05
145	0xb6e7566b	-6.894397e-06
146	0xb7242564	-9.783867e-06
147	0x35e77130	1.7243783e-06
148	0xb6d88612	-6.4529095e-06
149	0xb8a6d940	-7.955963e-05
150	0x3814ed53	3.5506975e-05
151	0xb687dcfa	-4.0490386e-06
152	0xb88b69ab	-6.647719e-05
153	0x370227f2	7.757904e-06
154	0xb7917301	-1.73389e-05
155	0xb72de2e4	-1.0364431e-05
156	0xb73530f5	-1.0799839e-05
157	0xb7110183	-8.6430255e-06
158	0xb87092c3	-5.735714e-05
159	0xb7cd6763	-2.4486048e-05
160	0x38de2882	0.0001059333
161	0x3670f2d1	3.5904125e-06
162	0x37c41ce7	2.337848e-05
163	0x37806120	1.5304016e-05
164	0xb40f47e2	-1.3344064e-07
165	0xb89e48ff	-7.547624e-05
166	0xb8918fd4	-6.940929e-05
167	0xb82b8828	-4.0896382e-05
168	0x381b8dda	3.708699e-05
169	0xb72dd992	-1.0362261e-05
170	0x36154642	2.2243626e-06
171	0xb8b84c67	-8.788035e-05
172	0xb66f1345	-3.5624992e-06
173	0x367445c3	3.639944e-06
174	0xb81f3e72	-3.796671e-05
175	0x37889548	1.6281978e-05
176	0x37dc671d	2.627406e-05
177	0xb68a477a	-4.1210415e-06
178	0x356ce462	8.824919e-07
179	0x368a7089	4.1258213e-06
180	0xb407f0a3	-1.2660398e-07
181	0x37942454	1.7659891e-05
182	0xb824a308	-3.925248e-05
183	0xb7bb5186	-2.23301e-05
184	0xb8260514	-3.9582214e-05
185	0x383c41b3	4.488388e-05
186	0xb8a7845c	-7.9878344e-05
187	0x381c926b	3.732966e-05
188	0xb7c981ca	-2.4021505e-05
189	0x374fa563	1.2376669e-05
190	0xb85d5154	-5.276625e-05
191	0xb7817768	-1.5433601e-05
192	0xb6ae1e8c	-5.18916e-06
193	0xb788dba0	-1.6314734e-05
194	0x35ffa10b	1.904585e-06
195	0xb6aedd05	-5.211334e-06
196	0xb61c9d7b	-2.3337477e-06
197	0x35af824c	1.3076437e-06
198	0x387f8068	6.0916325e-05
199	0xb8b2b842	-8.522022e-05
200	0xb8633dc3	-5.4178538e-05
201	0xb7b90513	-2.2056081e-05
202	0xb6171f1e	-2.2518866e-06
203	0x37ebf042	2.8126062e-05
204	0x362427b6	2.446102e-06
205	0xb9291ae4	-0.00016127113
206	0xb87f90e3	-6.0931674e-05
207	0x37ae337b	2.0766389e-05
208	0x38c0a20a	9.1854556e-05
209	0x3884892c	6.319801e-05
210	0xb56bebc5	-8.788741e-07
211	0xb8871b0e	-6.442341e-05
212	0xb617a9c1	-2.2599563e-06
213	0x37b8d03d	2.2031478e-05
214	0x38154817	3.5591507e-05
215	0xb5d7bbe1	-1.6073428e-06
216	0x376eb3e1	1.4227787e-05
217	0xb79d415b	-1.8746292e-05
218	0xb70c848a	-8.375509e-06
219	0x3686b569	4.01463e-06
220	0xb7bd3902	-2.2557102e-05
221	0xb78b664a	-1.6617723e-05
222	0x363e7255	2.8378756e-06
223	0xb882aca2	-6.2310384e-05
224	0xb787c2d0	-1.618397e-05
225	0x36cc2e7d	6.0850857e-06
226	0x37c4cb3e	2.3459663e-05
227	0xb84bb129	-4.8563965e-05
228	0xb721aaf6	-9.636153e-06
229	0xb8d5ebce	-0.000102005535
230	0xb79ac3b5	-1.8449364e-05
231	0x36b0a688	5.2645955e-06
232	0xb6db52b5	-6.536337e-06
233	0xb845ae48	-4.7130772e-05
234	0x368e6e55	4.244774e-06
235	0x371ca0e3	9.335784e-06
236	0x37459921	1.1777768e-05
237	0x3617a82b	2.259864e-06
238	0x38067a27	3.2061853e-05
239	0x37fa5b7c	2.9844923e-05
240	0xb91688f3	-0.00014356132
241	0xb5af1190	-1.3043627e-06
242	0xb92cf6e1	-0.00016495168
243	0x374976f9	1.2008234e-05
244	0x37a32de7	1.945249e-05
245	0xb549879b	-7.5075667e-07
246	0x37d2ba98	2.512084e-05
247	0x37ad834a	2.0684343e-05
248	0xb795315e	-1.7785173e-05
249	0x37c1927d	2.3075607e-05
250	0x37b8ae16	2.2015574e-05
251	0xb83e0a72	-4.5309258e-05
252	0x37cb55ef	2.4239502e-05
253	0xb714765e	-8.849047e-06
254	0xb5e9652c	-1.7389298e-06
255	0xb818aefd	-3.6402595e-05

exp_avg_sq f4 [256]
0	0x3350db67	4.862832e-08
1	0x33e17cd9	1.05000886e-07
2	0x3625624c	2.4644132e-06
3	0x34ab3f75	3.1897403e-07
4	0x348add64	2.5865586e-07
5	0x33d042c3	9.697899e-08
6	0x2e8f7acb	6.5246995e-11
7	0x33cfb773	9.672558e-08
8	0x355d7abc	8.250752e-07
9	0x348d51e8	2.632289e-07
10	0x3365447f	5.3380514e-08
11	0x3409e986	1.2844075e-07
12	0x32afdddf	2.0473577e-08
13	0x33fef948	1.1873141e-07
14	0x34636a30	2.1179653e-07
15	0x35be6633	1.4185847e-06
16	0x356dc65d	8.8578037e-07
17	0x349fa4ba	2.9735912e-07
18	0x338c3233	6.528389e-08
19	0x34c3e543	3.648839e-07
20	0x333a9c0a	4.3448416e-08
21	0x33daef9b	1.0195e-07
22	0x34e0491e	4.177645e-07
23	0x32a7d745	1.9539252e-08
24	0x3421f8d1	1.5084812e-07
25	0x34144f74	1.3812479e-07
26	0x3215a311	8.7100185e-09
27	0x31b5b037	5.2878266e-09
28	0x34d36a43	3.9379128e-07
29	0x32f036b7	2.7964559e-08
30	0x340062a7	1.1956818e-07
31	0x33a96644	7.888278e-08
32	0x30b96a3f	1.3490719e-09
33	0x33139999	3.43658e-08
34	0x34baa773	3.4767035e-07
35	0x3281b53b	1.509999e-08
36	0x325622d9	1.2464363e-08
37	0x343ef497	1.778411e-07
38	0x3147fd8a	2.9102432e-09
39	0x33d3d2f6	9.863827e-08
40	0x34d0a4ef	3.8863024e-07
41	0x3412f72e	1.3687233e-07
42	0x2f5e1b4a	2.0200477e-10
43	0x33217f7a	3.7601673e-08
44	0x3527363f	6.2291286e-07
45	0x33204ff0	3.7325606e-08
46	0x35911618	1.0809772e-06
47	0x34cea7d3	3.8492598e-07
48	0x2fa461cc	2.9900915e-10
49	0x34b1daf4	3.3128129e-07
50	0x333bde82	4.37417e-08
51	0x34538f79	1.9703101e-07
52	0x330a7abd	3.224226e-08
53	0x3467e6ec	2.159756e-07
54	0x31f869dc	7.2297848e-09
55	0x2fa99f11	3.0853944e-10
56	0x3557d916	8.0409643e-07
57	0x3229d619	9.885775e-09
58	0x33bc0e68	8.757053e-08
59	0x3134ba01	2.6299178e-09
60	0x349db1e3	2.9372958e-07
61	0x34eecefd	4.4481558e-07
62	0x33efd19b	1.1167432e-07
63	0x342f956d	1.6352506e-07
64	0x3118f4d2	2.2258075e-09
65	0x32f3b1c1	2.8369756e-08
66	0x35031cb3	4.8843066e-07
67	0x33104136	3.358692e-08
68	0x3499b22a	2.8628102e-07
69	0x354fba35	7.7384476e-07
70	0x354222bc	7.2321177e-07
71	0x3225f8c3	9.660826e-09
72	0x316fe2ee	3.4908072e-09
73	0x3328c971	3.9298758e-08
74	0x329271dd	1.7048416e-08
75	0x33a30cf9	7.592639e-08
76	0x31c7bb2e	5.812942e-09
77	0x30326bde	6.490931e-10
78	0x34d51981	3.9692898e-07
79	0x319451bf	4.3166604e-09
80	0x3395de5a	6.978799e-08
81	0x33ebfd6a	1.0989136e-07
82	0x329afe6b	1.8043655e-08
83	0x3417404d	1.4086363e-07
84	0x34382482	1.7149617e-07
85	0x33c1f3e8	9.031629e-08
86	0x349f3ec3	2.9661723e-07
87	0x33408689	4.4825843e-08
88	0x31d5f3d3	6.2268355e-09
89	0x34be75c0	3.5475932e-07
90	0x335024ec	4.8462354e-08
91	0x35498bd0	7.508179e-07
92	0x2f300a4a	1.6010762e-10
93	0x3585ecd1	9.978195e-07
94	0x33a80db1	7.8256e-08
95	0x33967131	7.005509e-08
96	0x33894f34	6.3939666e-08
97	0x35a89311	1.2559777e-06
98	0x3527bd6b	6.248799e-07
99	0x356f9d94	8.9263744e-07
100	0x355c585b	8.208496e-07
101	0x328dcc6b	1.6507519e-08
102	0x345f9b8b	2.082508e-07
103	0x34b9a608	3.457974e-07
104	0x3258839a	1.26027775e-08
105	0x342904bc	1.5741074e-07
106	0x311c8112	2.2774356e-09
107	0x339f264e	7.410982e-08
108	0x31c19486	5.6339244e-09
109	0x34344005	1.6787097e-07
110	0x34a5cdd7	3.0883413e-07
111	0x32fcce62	2.9430513e-08
112	0x353b57a5	6.979047e-07
113	0x351bfed7	5.811284e-07
114	0x35528494	7.842402e-07
115	0x33022683	3.030301e-08
116	0x32056e10	7.766644e-09
117	0x310e8373	2.073844e-09
118	0x350aa25d	5.1645276e-07
119	0x341db638	1.4688055e-07
120	0x31d9d027	6.3391954e-09
121	0x2f9a56c9	2.80741e-10
122	0x3116d6f6	2.1950064e-09
123	0x313c8426	2.7432718e-09
124	0x33977be4	7.054021e-08
125	0x328ba147	1.625507e-08
126	0x326f800b	1.3940745e-08
127	0x33ccd537	9.538274e-08
128	0x332f69ec	4.0841698e-08
129	0x2fac0bc2	3.1294972e-10
130	0x3264aaab	1.3310152e-08
131	0x3203b9fb	7.667491e-09
132	0x357cfb16	9.4242694e-07
133	0x33b59b08	8.456669e-08
134	0x349884e5	2.84089e-07
135	0x35698b97	8.7002394e-07
136	0x3420a173	1.4959896e-07
137	0x331038f6	3.357942e-08
138	0x34af7b07	3.2685804e-07
139	0x342cc665	1.6090924e-07
140	0x305df970	8.0753804e-10
141	0x343c7284	1.7550525e-07
142	0x341c5eab	1.4563072e-07
143	0x34103d74	1.3433402e-07
144	0x33f5c453	1.1444413e-07
145	0x32a1880d	1.8804736e-08
146	0x3138cb5a	2.6891116e-09
147	0x348cc6af	2.6221593e-07
148	0x32a3a268	1.9049551e-08
149	0x350ce029	5.248026e-07
150	0x34dbf249	4.0968214e-07
151	0x2f88963c	2.4845004e-10
152	0x33b460a3	8.399481e-08
153	0x3140710e	2.8003941e-09
154	0x316a1970	3.4065941e-09
155	0x3054c666	7.740709e-10
156	0x322ab86c	9.937235e-09
157	0x3183b966	3.833679e-09
158	0x350b04ad	5.178834e-07
159	0x336c6692	5.504132e-08
160	0x359cb549	1.1675667e-06
161	0x33a022b4	7.456893e-08
162	0x342f9292	1.6351467e-07
163	0x33992004	7.130441e-08
164	0x2fe91f04	4.240449e-10
165	0x3496d6ac	2.8095872e-07
166	0x35a06748	1.1950988e-06
167	0x348cc70c	2.6221858e-07
168	0x3409caad	1.2832852e-07
169	0x3248e4d1	1.1693559e-08
170	0x326d7809	1.38225085e-08
171	0x358a3561	1.0297337e-06
172	0x31ad925a	5.051601e-09
173	0x3201f0a0	7.5635e-09
174	0x34039107	1.2253086e-07
175	0x34fc5021	4.699696e-07
176	0x33aff30d	8.193283e-08
177	0x33a8e2c8	7.864361e-08
178	0x325f2153	1.2987885e-08
179	0x3295ef66	1.7454749e-08
180	0x32464a22	1.1541973e-08
181	0x338054a7	5.975863e-08
182	0x337cfd21	5.890354e-08
183	0x330e1a88	3.308608e-08
184	0x34b1ab6c	3.3093545e-07
185	0x34a11169	3.0001254e-07
186	0x351c37e6	5.819587e-07
187	0x3369d069	5.4439088e-08
188	0x32f47ac1	2.846116e-08
189	0x324a4fb6	1.1776072e-08
190	0x34a1996f	3.0100225e-07
191	0x3333a00f	4.1822258e-08
192	0x2fee8060	4.3383164e-10
193	0x339b71b1	7.23843e-08
194	0x3204ae46	7.723036e-09
195	0x33a046a8	7.463433e-08
196	0x32e05d9c	2.61196e-08
197	0x321e9565	9.230779e-09
198	0x3586718e	1.0016827e-06
199	0x3564b79d	8.520381e-07
200	0x3484073e	2.4592185e-07
201	0x34abcb19	3.1999005e-07
202	0x328f8fd0	1.671279e-08
203	0x342be755	1.6009774e-07
204	0x32f6c623	2.8728271e-08
205	0x359a2bce	1.1486643e-06
206	0x34988fc4	2.841681e-07
207	0x3400e606	1.2004611e-07
208	0x34ef75c5	4.4602908e-07
209	0x3479aeac	2.3253477e-07
210	0x30deb838	1.6204984e-09
211	0x354e3653	7.682003e-07
212	0x329e4fb1	1.842986e-08
213	0x33dcd3b5	1.02830576e-07
214	0x343d1825	1.761078e-07
215	0x31152e01	2.1708504e-09
216	0x34dcb4d4	4.1109763e-07
217	0x31a3ec62	4.770798e-09
218	0x3288a345	1.590673e-08
219	0x3408a5c7	1.2726296e-07
220	0x33cf3bb1	9.6500465e-08
221	0x32f00793	2.7943122e-08
222	0x2f75a71c	2.234199e-10
223	0x33ad3970	8.066388e-08
224	0x33238b2e	3.8077978e-08
225	0x330340da	3.0559796e-08
226	0x353ec48c	7.106653e-07
227	0x33e345b8	1.0583193e-07
228	0x32f68b73	2.8701583e-08
229	0x34ab1eaa	3.1873543e-07
230	0x3104b867	1.9313349e-09
231	0x3297b383	1.7660346e-08
232	0x33e9253d	1.08566816e-07
233	0x35943838	1.1043221e-06
234	0x348a3b96	2.5747858e-07
235	0x334f8688	4.83183e-08
236	0x30ff8d29	1.8593812e-09
237	0x3100e3d9	1.8755968e-09
238	0x33bce3de	8.795881e-08
239	0x329ba667	1.8120046e-08
240	0x35c4e6e3	1.4670335e-06
241	0x32099b79	8.0098e-09
242	0x35758c9c	9.1474226e-07
243	0x336faa65	5.5801497e-08
244	0x345360f4	1.9686178e-07
245	0x34adb15c	3.2352807e-07
246	0x32b6841b	2.1247663e-08
247	0x33a0ef08	7.49406e-08
248	0x31c7e92a	5.81817e-09
249	0x34db976e	4.0902108e-07
250	0x3286e9f0	1.5706036e-08
251	0x33925f96	6.816042e-08
252	0x33db39c0	1.0208487e-07
253	0x33e04fc2	1.0445321e-07
254	0x32f4311c	2.842767e-08
255	0x35282d33	6.265065e-07
