ml-agents-release_20/Result/Dino/Dino02/Dino/Dino-499984.onnx (onnx, 34598 bytes, 4 tensors)

action_model._discrete_distribution.branches.0.bias f4 [2]
00000000: 1c2e f8bb 0b2e f83b
-0.007573856 0.007573848

action_model._discrete_distribution.branches.0.weight f4 [2, 256]
00000000: d568 113d 5751 2bbd 5f0b 113e 1bc6 70bd
00000010: cfed 75bd b079 cabc 3f0b aebb 7456 4e3d
00000020: a6fc b33d e13f 00bd 80d4 1cbc adbd 103d
00000030: 6075 b1bc eb4e 5cbc 2059 293d 613b c9bd
00000040: 28ec c83d 8c14 9b3d b21d d0bc 86c8 7a3d
00000050: 3c24 4cbc f9fa c0bc cbe6 893d 2df8 7e3c
00000060: a4fb f43c 4fa1 22bd f683 26bc 20a3 22b9
00000070: c708 2dbd 3027 36bc 03ea 243d 3564 86bc
00000080: 52dc 973c 152b b23c 40fb 583d 2bb0 373c
00000090: 5685 1fbc d40b 813d 1203 903b 86b3 1d3d
000000a0: 471e ad3d 778a 0f3d d385 7a3c 1278 e33c
000000b0: c70a b23d 7061 713c 59c9 b8bd a695 513d
000000c0: a8ce 013c cda7 58bd bfe8 f7bc 1842 15bd
000000d0: 1d1e 0a3d 4b9f 453d 1a82 ef3c 1806 3139
000000e0: 53c9 a03d 3e88 3ebc 75f0 2cbd 5584 8f3b
000000f0: e297 84bd 62c1 62bd 0b06 aabc cd30 063d
00000100: fd8f 303b ae2d 1ebc 7948 813d 0af1 173d
00000110: 7159 40bd 61a4 bb3d 280d c83d d930 a43c
00000120: 278f 3a3b b06b 74bc 7c57 3f3d 124e 633d
00000130: 15eb daba 5147 9b3a 2df3 3d3d f35a a5bb
00000140: be9e bdbc d813 d8bc 0209 babc bd02 e6bc
00000150: 512d 203d b5ed e13c 6355 3fbd b8c0 173d
00000160: a43d 823c 4ddc 1dbd f5ae 863c 062f bf3d
00000170: 42cc 6a3b cdb4 cabd 6df7 543d 574c 573c
00000180: 7b5a 323d 73df 073e 1e06 6ebd 87cf ec3d
00000190: b0a8 c7bd c364 483c 77d4 893d 924f 5ebd
000001a0: 92f5 d4bc 251c 9e3d 9f2b 003c cba9 4fbc
000001b0: 4248 4abc 16ea cabc 3982 68bd ed32 a5bc
000001c0: c32b af3d 3f85 893d 0cd6 a4bd 5a16 16bd
000001d0: 0b72 813b a3f8 e1bb 9871 983d 235e 48bc
000001e0: aa5f 823c a8d9 773a 5eae 02bc 860f 7e3c
000001f0: c7ec bebc 966d f4bb 587a 41bc 1369 1a3d
00000200: a178 0bbd bbf3 e03a 9190 fa3a 26d7 d2bb
00000210: 6ff9 e63d 8d23 a2bc 3b57 be3d 56e7 a0bd
00000220: 8d2b f1bc d1fe 0ebc b553 86bd ef59 9f3d
00000230: c3ae bebb 6ecc 593d 6b95 35bd 9d51 dcbc
00000240: b388 00bd b05d a43b 6cb8 66bb 9c55 04bd
00000250: ba38 cd3c 18d3 7a3d b626 43bd 95b2 513c
00000260: 9f60 3a3d 7b40 5abc 9e23 603c 3719 2f3c
00000270: 63e9 843c 88c1 953b d4a2 ba3d 8803 933c
00000280: 1357 d9bd 1447 a4bc 1fbb e4bc 3cbf 8dbc
00000290: 873c 473c 8136 8e3d b603 e13d edd9 6f3d
000002a0: 0d61 2cbd 7198 a03c cd6a 80bc bf13 c23d
000002b0: 97c9 4d3a 766e 36bc c9d0 de3c b5b6 4abd
000002c0: 6214 0cbd 4ba3 c53c ea6d 17bc 5d85 ee3a
000002d0: 4007 cfba aef5 90bc e14e 0a3d efa5 093d
000002e0: 8111 2c3d 96ec 35bd d848 be3d eed7 a5bc
000002f0: ec25 c63c 88f4 11bc 4d81 833d 32de 303d
00000300: 7fdb 493c 62e0 073d 661d 243b bf4b fb3c
00000310: 3424 693c e6eb fbba abc3 bdbd be78 af3d
00000320: c24e ac3d 5dca 873d 9011 1e3c 5ca8 f0bc
00000330: 1859 08bc 1790 fc3d 35b8 b73d cd18 3cbd
00000340: 0f13 5cbd 9676 3abd db36 273c b87b 803d
00000350: 0b5f 4c3c 793d b7bc 2a88 30bd 6db9 763a
00000360: 151e 0bbd be28 5c3c 3f8e ff3b 998e 49bd
00000370: 35e6 c8bc 6570 3a3d 19f9 e0bb d3e6 003d
00000380: c3d8 303d fb01 28bc 9a80 a5bd d93f 823d
00000390: de38 073b a8cd a83d 07bd d03c ecbf 13bc
000003a0: 2d53 de3c 06dc e63d 10dd 24bd 199f 84bc
000003b0: b422 d7bb e1ad 92bb fb4d 1abd 31de bfbc
000003c0: 22a2 f63d 1431 453b 315f d33d 7aa5 81bc
000003d0: aadd 59bd 40a4 1dbd 790c 74bc 6f11 8abc
000003e0: c3b5 ee3c 7969 6fbd 6ce3 a7bc 4cff db3c
000003f0: 0278 b9bc 21d7 a93c 0d22 a9bb 2095 a6bd
0.035500366 -0.04182562 0.14164494 -0.058782678 -0.060041245 -0.024716228 -0.005311399 0.050375417
0.08788423 -0.03131092 -0.009572148 0.03533714 -0.021662414 -0.01344655 0.04134476 -0.09825779
0.09810668 0.075722784 -0.025404785 0.06122639 -0.012459811 -0.023557173 0.067334734 0.015562099
0.029905148 -0.039704617 -0.010163298 -0.00015510293 -0.0422447 -0.011117741 0.040262233 -0.016405204
0.018537674 0.021749059 0.052973986 0.011211435 -0.00973638 0.06301084 0.0043948973 0.038501285
0.084530406 0.03504416 0.015290695 0.027767215 0.08693462 0.014732704 -0.09022779 0.051168106
0.007922806 -0.052894402 -0.03026235 -0.036439985 0.033720125 0.048247617 0.029236842 0.00016882305
0.078508995 -0.011629162 -0.042221505 0.004379789 -0.06474282 -0.055360205 -0.020754835 0.032761384
0.0026941292 -0.009654446 0.06312651 0.037095107 -0.046960298 0.09162212 0.09768134 0.020042824
0.0028466673 -0.014918253 0.04671429 0.055494376 -0.001670214 0.0011846815 0.04637449 -0.0050462424
-0.023146983 -0.02637665 -0.022709373 -0.028077478 0.039105717 0.027579168 -0.04671229 0.037049025
0.015898533 -0.038540173 0.016440848 0.09335141 0.0035827314 -0.09897766 0.051993776 0.013140759
0.04354332 0.13268833 -0.058111303 0.1156302 -0.097489715 0.012231055 0.067299776 -0.054275103
-0.025996003 0.07720212 0.0078229 -0.012674759 -0.012346329 -0.024769824 -0.056764815 -0.020165885
0.08553269 0.06714868 -0.08048639 -0.03664241 0.0039503626 -0.006896095 0.07443541 -0.012229475
0.015914757 0.00094547356 -0.007976143 0.015506631 -0.023306264 -0.0074593527 -0.011808954 0.037697863
-0.034050588 0.0017162481 0.001911657 -0.006434339 0.112780444 -0.019792343 0.09293982 -0.07856624
-0.029439712 -0.008727745 -0.065589346 0.07780825 -0.005819173 0.053173475 -0.04433195 -0.026894385
-0.031380367 0.005016051 -0.003520514 -0.032308206 0.025051463 0.06123647 -0.04764434 0.012798925
0.0455023 -0.013321037 0.013680367 0.010687164 0.016224569 0.00457019 0.09113088 0.01794602
-0.10612311 -0.020053424 -0.027921258 -0.017303102 0.012160427 0.069439895 0.10987036 0.05855744
-0.042084742 0.01960394 -0.015675927 0.094764225 0.00078501686 -0.011134734 0.027199166 -0.04949065
-0.034199126 0.024125716 -0.009242514 0.0018197704 -0.0015795007 -0.017695274 0.03376663 0.033605512
0.04200888 -0.04441508 0.092912376 -0.020244565 0.024188004 -0.008908398 0.064211465 0.043180652
0.012320398 0.033172973 0.0025041937 0.030675767 0.014229823 -0.0019220083 -0.09265836 0.085679516
0.08413459 0.066303946 0.009647742 -0.029377155 -0.008322023 0.123321705 0.089706816 -0.04592209
-0.053729113 -0.04552325 0.01020595 0.062735975 0.012473832 -0.02236818 -0.043098606 0.0009411786
-0.033964235 0.013437448 0.0077989395 -0.049208257 -0.024523834 0.045517344 -0.0068656323 0.03147013
0.04317547 -0.010254378 -0.080811694 0.06359834 0.002063326 0.08242351 0.02548076 -0.009017926
0.02713927 0.11272435 -0.040249884 -0.016189145 -0.006565416 -0.0044762944 -0.037672024 -0.023421379
0.12042643 0.0030089067 0.10320891 -0.015825976 -0.05318991 -0.03848672 -0.014895552 -0.016854016
0.029139405 -0.058450196 -0.020494185 0.026855133 -0.022640232 0.020732464 -0.00516153 -0.08133912

network_body._body_endoder.seq_layers.0.bias f4 [256]
00000000: 4e04 733c ff01 ac3c c1a6 933d c82e 0e3d
00000010: 6e1e 243c 1acf 1b3c ad29 54bc 3930 7e3c
00000020: 5e0b 553c b5b5 5f3c f491 5d3c 6c77 343c
00000030: af19 993c 3fdd 363c 7b5a 123c b487 313d
00000040: 5b76 453d 42fd b63c 5bc5 32bb dcc4 9b3c
00000050: aee0 4a3c 4af2 aa3c e877 cc3c 5d91 883b
00000060: 6063 b13b f9b2 d93c 7c56 313c 2bda 4ebc
00000070: 54b8 c33c 82ee 9eba 2726 833c 80b0 873c
00000080: ea55 47bc ebe1 013c b998 0d3c c124 1ebc
00000090: b7ca 91bb a5cc 423c 9eee 9abb f265 203d
000000a0: 4dbe b23c 8d5e 6a3c 2680 293a 84fc cd3b
000000b0: aeec 043d 118a 333c 8572 163d 0f60 dd3a
000000c0: 82fa 843c 227b 9f3c 87e1 f63b 306c 243c
000000d0: ce9a 1f3b 45b7 7f3b 4076 103c a570 0dbc
000000e0: a612 723c e5a5 6c3a 8964 273d 17c2 ddbb
000000f0: cf8c 083d bd24 f93c 2f1e c53b c5f6 113c
00000100: 0498 8f3c 97e3 053c 7494 3c3c f645 fa3c
00000110: b239 bd3c 6fd0 233d 7ae0 c23c 730d 173c
00000120: 9fdf 81bb 90fd 7f3c ef9c 093d 321c 3e3c
00000130: f297 413b bf43 41bc 67af ae3b d263 abbb
00000140: 8135 b63c 7b52 143c 241b 4dbb a410 5a3c
00000150: ebbd 223c 452c b73c aa65 803c 56f9 2c3d
00000160: 9d7a ca3b 2b0b e63c 8111 9a3b b145 233d
00000170: 1ecb 89bc 551f dc3c d958 c33c 02a3 123c
00000180: 1a09 793c cc80 c83c 7c86 dd3c d0bc 103d
00000190: ecdb 083d 255c dd3a 7ed3 ae3c acf2 b03c
000001a0: a95f 053d f5b5 cb3d b8b7 2a3c 74a5 f63b
000001b0: 6d70 0dbc ec6e 943c c052 6d3c d856 723c
000001c0: d8e4 1c3c a3bb 973c 0f99 023d 0d79 e13c
000001d0: 68d3 dfbb 8c2a 14bc 88e7 d83c 2299 153c
000001e0: 1382 b23b 982f d8bb f217 d43c 0b0c 0abb
000001f0: 709b 803c 0359 30ba b47c af3b ca58 943c
00000200: 4a9f 013d 6321 6c3c 32fa c53b 55a2 91ba
00000210: eca7 063d 366f 533c de9b 353d 4702 f93c
00000220: 0eac 693c c5ac c53b 10b3 1d3d 4298 8b3d
00000230: 9352 293c ad4b 223c 72fd 913c d012 963c
00000240: 7a97 0d3c d919 32bc f21a 15bc 44b7 213c
00000250: 289b 3c3c c131 643c 9a87 c63c 62b7 8bbc
00000260: 0ced a03d 29d3 7d3c 5636 83bc a0d7 a23b
00000270: eb32 3b3d ebac 7bbc 0d37 063c fc82 d13a
00000280: 042f 1e3d 0421 5f3c 5af9 8c3b b943 1c3c
00000290: 9020 d9bc 7da6 543d 8726 a73c 8d72 a73c
000002a0: 1d21 4a3d 9591 c2bb a847 823c eb43 d63c
000002b0: 3fb9 7bbc 2efd 6d3b 436c 77ba 5351 fc3c
000002c0: 9957 bf3c eed0 d63b f5ae 31ba 491d dc3b
000002d0: d279 de3b 4df9 483c 4d3a 503c 6588 353d
000002e0: a465 703c 4417 8e3c c8e1 be3c 75a1 f33b
000002f0: fda1 4a3d 4132 4b3b dcd4 1e3c 2789 b43b
00000300: ccd9 eb3b 4e13 013c 1d4a 443b 82c2 013c
00000310: 0594 02bb 8e9b 283c 965f 453d 0647 bd3c
00000320: 0075 153d e226 0c3a 6d9d 6639 a949 b83b
00000330: c686 8a3a 60fd f23c c312 c13c 3e2b 1b3c
00000340: 5fd4 103d 9c17 dc3c 4369 bebb dd8d c83c
00000350: bd58 10bc dd3c 5e3c 4427 f03c 6309 03bb
00000360: cceb 943c 333c 08bb 685f d6bb edff 573d
00000370: 1ae9 2d3c de16 be3d ec13 1b3c 9bf7 0f3d
00000380: f54d 443d 2486 fe3b b776 133d 7cf8 d43c
00000390: f61a a5bb 258e 663d 5470 19bc b68a 0fbc
000003a0: 395a eeba a9d9 133d 9424 b13c 266d 053c
000003b0: 8721 1f3b bb1c 94bb 5e3c 4a3c 13b1 dc3a
000003c0: d8d8 853d 2809 1abc cac6 443c 0566 223b
000003d0: b22b 3e3d 93c9 643c 02a2 ff3b 5d87 173c
000003e0: dac8 7d3c ce09 e23c 426b 96bb 5493 7f3c
000003f0: a7cc 113c 3e3a c8ba 62ea d43b aaa6 d43c
0.014832569 0.020997046 0.0720954 0.034712583 0.010017021 0.009509826 -0.012949389 0.015514427
0.013003198 0.013654162 0.0135235675 0.0110148005 0.018689005 0.011161148 0.008932705 0.043342307
0.048208576 0.02233756 -0.0027278278 0.019014768 0.012382669 0.020867486 0.02495952 0.0041677193
0.0054134578 0.026574599 0.010823842 -0.0126252575 0.023891605 -0.0012125524 0.016009403 0.016563654
-0.01216648 0.007927398 0.008642369 -0.0096523175 -0.0044492143 0.011889611 -0.0047281524 0.039159723
0.021819258 0.014304769 0.0006465934 0.0062862057 0.032452278 0.010958211 0.036730308 0.001688959
0.016232733 0.019467894 0.007534209 0.01003556 0.0024353745 0.003901915 0.0088172555 -0.008632814
0.014774954 0.0009027406 0.040867362 -0.006767522 0.03333741 0.030413026 0.006015561 0.008908932
0.017528541 0.008171937 0.011510003 0.030550938 0.0230988 0.0399937 0.02378868 0.009219515
-0.0039634253 0.015624419 0.03359693 0.011603402 0.002954003 -0.011795937 0.005330968 -0.0052304054
0.02224231 0.009052868 -0.0031296695 0.0133096315 0.009932975 0.022359977 0.015673477 0.042229973
0.0061791674 0.028081497 0.0047017937 0.039861385 -0.016820487 0.026870409 0.023846077 0.008949997
0.015199924 0.024475478 0.027041666 0.035336316 0.03341286 0.0016888423 0.021341082 0.02160009
0.03256193 0.09946815 0.0104197785 0.007527048 -0.008632761 0.018119298 0.014485061 0.014791213
0.009576045 0.01852209 0.03188425 0.027523542 -0.0068306215 -0.009043347 0.02647759 0.009130748
0.005447635 -0.0065974705 0.025890324 -0.0021064307 0.015699118 -0.0006727131 0.005355442 0.018108744
0.03164605 0.014412257 0.0060417885 -0.0011111001 0.032874987 0.012904933 0.0443381 0.030396594
0.014262212 0.0060325586 0.038500845 0.0681615 0.010334629 0.009905738 0.017821047 0.018319517
0.008642072 -0.01087042 -0.009100663 0.009870354 0.0115116015 0.013927878 0.024234582 -0.017055217
0.07857713 0.015492239 -0.01601712 0.004969552 0.045702856 -0.015361051 0.008191836 0.0015984471
0.038619056 0.013618711 0.004302186 0.009537631 -0.026504785 0.051916588 0.020404113 0.020440364
0.049347986 -0.005937765 0.015903309 0.026155433 -0.01536399 0.0036314237 -0.00094384345 0.030800497
0.0233572 0.006555668 -0.0006778085 0.0067173583 0.0067894245 0.012266469 0.0127092125 0.04431953
0.0146726705 0.017345078 0.02330102 0.0074350187 0.04947089 0.0031005295 0.009694304 0.005509514
0.0071975943 0.007878138 0.0029951402 0.007919909 -0.0019924652 0.010290993 0.04818686 0.023105156
0.036488533 0.000534637 0.00021993155 0.0056240153 0.001056873 0.029661834 0.023568517 0.009470759
0.035358783 0.026866727 -0.005810888 0.024481708 -0.008810219 0.013564316 0.029315598 -0.0019994609
0.018178843 -0.0020787835 -0.006542135 0.052734304 0.010614658 0.09281705 0.009465199 0.035148244
0.047925908 0.0077674557 0.036001887 0.025997393 -0.0050386144 0.056287903 -0.00936516 -0.008761099
-0.0018184847 0.03609625 0.021623887 0.008143699 0.0024281458 -0.0045200265 0.012343494 0.001683744
0.065355 -0.009401597 0.012010286 0.0024780047 0.04642839 0.013964075 0.0078012953 0.009248582
0.015489781 0.027592566 -0.004590423 0.015599091 0.008898891 -0.0015276147 0.006497667 0.025958378

network_body._body_endoder.seq_layers.0.weight f4 [256, 29]
00000000: ee21 ef3c 82fd 053e f69f a13e a833 af3c
00000010: 5832 f5bd 3d24 02be 53c7 be3d a34c 4bbe
00000020: 4181 2c3e 8204 80bd 0097 9dbd 9dd3 08be
00000030: 0437 f4bd 4686 b03d 30d6 cdbe 9631 9ebb
00000040: 992a 533d 99fb 38bd a0fb ecbd 4fff e33d
00000050: dbf9 433e 52ea 29be 72ef b83e 7884 a2be
00000060: f7ac fc3d a40d 7cbd 9161 8fbd a611 46bd
00000070: 833a 53be 2317 a13e 8d10 053e 325f 343e
00000080: cc2a 063d a67a 41be a5e1 dd3d 7649 9abe
00000090: 9249 d6bd 13d3 33be a307 0bbd 7aec 46be
000000a0: 7210 8c3e b2fa 78bd ef64 12be 4e72 a43c
000000b0: 8770 debd 8256 f93d d0c0 b1bd a616 b2bd
000000c0: 70d4 133c e48b 533e d28c 143d 3993 723d
000000d0: 7ac4 18bc 0885 1cbe d728 83bd f378 70bd
000000e0: c72d b63d 9b30 a7be f6cf 83be 95b7 fcbd
000000f0: 5010 913e d49e 11be 3c4c 993e 182a 5b3d
00000100: 4f42 083f 5338 613e f4da 6b3e 88bc 123e
00000110: 4683 453d a6ca bfbd 01f7 70be bfd0 a33e
00000120: b61a 57be 233d 883d 4ae2 b03d ecf6 a6bc
00000130: 8ca0 4e3c 0f95 12bd a3d7 97be 0cc9 bebe
00000140: 0217 223f 5165 5dbe ea09 333e a2ca 80bb
00000150: 09c8 4bbd 3604 4ebe e4c3 20bd 6b98 d63d
00000160: 7452 88be a92a 7e3e 61c5 88be 51aa 9bbd
00000170: 3a6a e9bd 94dd 3abd eefd 7ebd 08aa ba3e
00000180: f45a 723d 9549 693e a58d 3dbe 6e2b 653c
00000190: 3ac2 8cbe c452 583e 6a0f bb3e 367e dfbe
000001a0: daba 52be 906d 413e 297d a13c e75d 833e
000001b0: 9f34 c73c 38ff 47be 324c 2a3e 1c99 9d3d
000001c0: 0adb 383d ac0f 24bc 409b 3bbe f305 04be
000001d0: d6f0 3b3d e084 153e 6488 4c3e 1fb4 54be
000001e0: bdd1 22bd 07c2 663e 3e2c 7d3d 3404 a83e
000001f0: f92a f83d 1d52 83be 0a46 aebc 225e 933d
00000200: 37e9 dd3d 9755 35bc 7436 a2bd 8e68 353b
00000210: 60f9 98be 8a59 9e3d 6eaf 5fbe c375 90bb
00000220: a036 a13d 8cf7 683e 458a f2be 189f abbd
00000230: f31c 933d c446 e7bc 6c1b b4bd 6b9f c73d
00000240: b7ce f23d 0d29 7f3e ed77 91bd 8f5a 393e
00000250: 6e2c f9bd 7b1a 4d3d 6ae9 0b3e d672 d33e
00000260: 94cc 553c 621f 413e 85f5 b3bd e018 1f3e
00000270: e949 44be 5c5d bd3e 8c70 0c3e d121 223e
00000280: d801 963e 2a25 823e 7b9d 93be 5e2f 7c3e
00000290: 4893 3fbd 3291 01be 451a 3d3d ace3 2fbe
000002a0: afce c7bd 3a24 1cbd d729 23be 8b94 ce3e
000002b0: e316 c23c fb5e 94be 9e0b d5bd 1231 34be
000002c0: 5340 f6bd f499 163d 75eb 3cbe 6e67 b03d
000002d0: f754 6abd f1bc 17be 0801 a9bb 0227 2ebe
000002e0: f962 70be 6f54 06be 8860 213e 0d9f 563d
000002f0: 7e12 81be 22e7 42be 14c2 6b3d c324 87bc
00000300: c494 22be 4db1 833e 6396 8bbd d146 833e
00000310: bb98 7bbd ae76 03be d578 cbbd 9264 b63d
00000320: 0967 d2bd 73f7 c4bd 2a81 1d3e e3dd 8abd
00000330: 93fb 8dbc cab0 de3c 1754 04be dd80 86bc
00000340: e23a 3cbe 4fb2 dc3d 3c47 e5bd 6d17 06be
00000350: 0e67 af3d 79f4 553e 03d4 05be ee3d 2bbe
00000360: 9025 823c ae17 253d adf1 b53c b506 003e
00000370: b863 373e a54d 1fbe 1cd7 29be bac7 cdbd
00000380: 152a 57be b129 2d3e 7187 ea3d abf2 753e
00000390: f58e 403e 9e94 1a3e 2d23 eabd 6fa9 7dbb
000003a0: 50a1 30be 6f8d 733d 9c81 35bd e444 683e
000003b0: 3eb4 9e3d eaec fbbd 4e14 a73e 8a1f 203e
000003c0: cb7d 173e 4e29 933e 6b7f a7bd 0c03 0e3e
000003d0: 97cd 7bbe b6e4 ee3d cb40 013e 1816 333c
000003e0: 81d0 583e 4eae a23e 728f 94be 5abf 6abd
000003f0: 4314 9cbe 36a3 8abe c933 1d3e b1fb d63d
0.029190984 0.13084987 0.31567353 0.021386936 -0.11972493 -0.12709136 0.09315362 -0.19853453
0.16846181 -0.0625086 -0.076948166 -0.13361974 -0.11924556 0.086193606 -0.40202475 -0.0048276884
0.051554296 -0.045161817 -0.11571431 0.111326806 0.19138281 -0.16593292 0.36120182 -0.3174169
0.12337678 -0.061536446 -0.07001031 -0.048356675 -0.20627789 0.31462964 0.12994595 0.17614439
0.032755658 -0.18894443 0.10834054 -0.3013417 -0.10463251 -0.17560987 -0.03394283 -0.19426146
0.27356297 -0.060785957 -0.14296316 0.020074036 -0.10861307 0.12174703 -0.08679354 -0.08695726
0.009022817 0.20658833 0.03626711 0.059222434 -0.009324187 -0.15285122 -0.06404274 -0.058709096
0.0889545 -0.3265427 -0.257446 -0.12339703 0.28332758 -0.14220744 0.29940975 0.05350694
0.5322618 0.21994142 0.23032743 0.14329731 0.048220895 -0.09364824 -0.23531725 0.31995198
-0.21006283 0.06652286 0.08636911 -0.020381413 0.01261152 -0.035786685 -0.29656705 -0.37262762
0.6331636 -0.2162068 0.1748425 -0.0039304057 -0.049751315 -0.20118794 -0.039249316 0.1047829
-0.26625407 0.24820961 -0.26713088 -0.07600845 -0.11397214 -0.04562147 -0.062253885 0.3645785
0.05916877 0.22781976 -0.18511064 0.013987405 -0.27491933 0.21125323 0.36535197 -0.4365098
-0.2057909 0.18889451 0.019713001 0.2565758 0.024317084 -0.19530952 0.16630629 0.07695219
0.045130767 -0.010013502 -0.18320942 -0.12892894 0.045883976 0.14601469 0.19973904 -0.20771836
-0.039750803 0.22534953 0.06180977 0.32815707 0.121175714 -0.25648585 -0.021273632 0.07195689
0.10835498 -0.0110677695 -0.07920542 0.0027680728 -0.29877758 0.07731922 -0.21844265 -0.0044085695
0.07871747 0.22750682 -0.47371116 -0.08379954 0.07183256 -0.028231986 -0.08794293 0.097472034
0.11855834 0.24918003 -0.07102952 0.18100952 -0.121666774 0.050074082 0.13663259 0.4129855
0.0130492635 0.18859628 -0.087870635 0.15536833 -0.1916882 0.3698529 0.13714808 0.15833212
0.29298282 0.2541898 -0.28831086 0.24627444 -0.046771318 -0.12653044 0.04616763 -0.17176694
-0.09756219 -0.038120486 -0.1593393 0.40347704 0.023692554 -0.28978714 -0.104026064 -0.17596844
-0.120239876 0.036767915 -0.18449195 0.08613478 -0.057209935 -0.14818169 -0.0051575936 -0.17007068
-0.23475255 -0.13118146 0.1575948 0.052397776 -0.2520942 -0.19033483 0.057558134 -0.016497022
-0.15877062 0.25721207 -0.06815793 0.25639966 -0.061424952 -0.12838241 -0.09935156 0.08905901
-0.10273559 -0.0961751 0.15381303 -0.06780603 -0.017331874 0.027183909 -0.12922703 -0.016418869
-0.18381837 0.10776197 -0.111952275 -0.13094874 0.08564578 0.2089404 -0.13069157 -0.16722843
0.015887052 0.040305786 0.022209967 0.12502559 0.17909133 -0.15556963 -0.16585964 -0.100478604
-0.21012147 0.16910435 0.11451615 0.24018352 0.18804534 0.15095755 -0.114324905 -0.0038705727
-0.17249036 0.059461053 -0.04431306 0.2268253 0.07749222 -0.12301047 0.3263268 0.15637031
0.1479408 0.2874245 -0.081786 0.1386835 -0.24590145 0.11664717 0.12622373 0.0109305605
0.21173288 0.3177361 -0.2901569 -0.057311393 -0.30484208 -0.27077645 0.15351786 0.10497225
