Assets/06.Onnx/Dino02.onnx (onnx, 34598 bytes, 4 tensors)

action_model._discrete_distribution.branches.0.bias f4 [2]
-0.008285673 0.008285667
00000000: a2c0 07bc 9bc0 073c

action_model._discrete_distribution.branches.0.weight f4 [2, 256]
0.03721783 -0.039587922 0.14386185 -0.06236929 -0.065522164 -0.026347516 -0.0039784797 0.053613268
0.089261845 -0.032628153 -0.009727362 0.037045144 -0.024686096 -0.014596481 0.043342244 -0.10181438
0.10089676 0.07870016 -0.02764612 0.06079472 -0.010555964 -0.025047159 0.07176276 0.014692069
0.030884728 -0.042274684 -0.013451079 0.00023551848 -0.044434574 -0.012384369 0.045980856 -0.017534997
0.018911012 0.025025187 0.052359 0.010935441 -0.009697907 0.06732373 0.0038716118 0.04149148
0.0875547 0.037276126 0.016264763 0.03061565 0.08682552 0.01467431 -0.09293054 0.05044531
0.009421011 -0.053130165 -0.03097912 -0.03717264 0.03599115 0.050685134 0.030016404 0.0017895653
0.07884356 -0.013652143 -0.043623112 0.005970688 -0.06609143 -0.055487864 -0.022562634 0.029451458
0.0055893543 -0.0102928765 0.06452878 0.03898317 -0.049445078 0.09240056 0.100519985 0.020057946
0.0034217609 -0.017343717 0.049476817 0.06103806 -0.0019113593 0.0029293008 0.046996884 -0.006001254
-0.023073435 -0.028433139 -0.023154553 -0.028350055 0.037126955 0.028881695 -0.049276393 0.04104762
0.018319355 -0.038596775 0.015302351 0.096758336 0.004118435 -0.10112871 0.056242734 0.01176684
0.048165824 0.13591085 -0.059860837 0.11947162 -0.09694969 0.010509308 0.06917993 -0.051926754
-0.02729382 0.08230691 0.009599558 -0.012723753 -0.011919775 -0.027819159 -0.059107132 -0.015650222
0.088516235 0.067458265 -0.08287138 -0.038368 0.0027309044 -0.006495236 0.07603747 -0.0134343
0.019256467 0.0024293342 -0.009491001 0.017300712 -0.026035594 -0.006323344 -0.012641259 0.04161728
-0.03386572 0.0026715733 0.0064250818 -0.009225316 0.115295835 -0.022662032 0.09854456 -0.08090018
-0.030434994 -0.009311826 -0.065539144 0.08112342 -0.0058098254 0.053382054 -0.042550795 -0.028432393
-0.033849422 0.004203512 -0.0022136406 -0.03353201 0.026112406 0.05935224 -0.04988925 0.013846377
0.047583252 -0.013185215 0.017344918 0.012448793 0.018259156 0.0061093117 0.09316721 0.017409295
-0.10956178 -0.022101793 -0.030380094 -0.01911288 0.012800986 0.0705897 0.11204869 0.05558825
-0.042496085 0.020529049 -0.016716072 0.095009215 0.0008572609 -0.014685309 0.028399944 -0.051655952
-0.033445057 0.023781817 -0.009490464 -7.95826e-06 -0.0015434726 -0.019997174 0.03417042 0.03962676
0.042783115 -0.04755 0.097202934 -0.021733705 0.027412498 -0.009846185 0.06470174 0.046732035
0.013568226 0.03731482 0.0017106246 0.029714813 0.017477183 -0.0016222937 -0.09529926 0.086009175
0.088629015 0.06854092 0.009008776 -0.032155268 -0.009862412 0.12769301 0.09519097 -0.051200464
-0.054826576 -0.047501057 0.009076218 0.061860267 0.010580481 -0.02372575 -0.041548207 0.0016301709
-0.036551964 0.015065284 0.009757745 -0.04971622 -0.025442751 0.05010654 -0.0071675302 0.03512018
0.047806107 -0.009903474 -0.08107074 0.06577434 0.0023084767 0.08650634 0.026918592 -0.010455545
0.027075928 0.114220895 -0.042203262 -0.018576998 -0.0044689435 -0.006593982 -0.03987712 -0.023986494
0.12231621 0.0018845866 0.104622275 -0.01775345 -0.055913996 -0.040850393 -0.017101198 -0.015661623
0.031130014 -0.05957495 -0.025071789 0.026614275 -0.023951232 0.019516567 -0.005919587 -0.08175222
00000000: b971 183d f226 22bd 8550 133e f176 7fbd
00000010: 7c30 86bd bfd6 d7bc e85d 82bb 9699 5b3d
00000020: eace b63d 19a5 05bd 835f 1fbc a6bc 173d
00000030: 7f3a cabc 1426 6fbc a387 313d 0f84 d0bd
00000040: f6a2 ce3d 8d2d a13d 1e7a e2bc e203 793d
00000050: ecf2 2cbc b32f cdbc 5bf8 923d 01b7 703c
00000060: f801 fd3c 3828 2dbd ea61 5cbc 83f5 7639
00000070: 0701 36bd cfe7 4abc 6c56 3c3d 8ea5 8fbc
00000080: 44eb 9a3c 9f01 cd3c 6476 563d 902a 333c
00000090: f8e3 1ebc 06e1 893d deba 7d3b f8f2 293d
000000a0: e14f b33d daae 183d ae3d 853c accd fa3c
000000b0: 94d1 b13d 846c 703c 5e52 bebd be9f 4e3d
000000c0: 965a 1a3c 049f 59bd ecc7 fdbc 5742 18bd
000000d0: 756b 133d 379b 4f3d f6e4 f53c d98f ea3a
000000e0: bb78 a13d 3dad 5fbc 26ae 32bd c3a5 c33b
000000f0: f25a 87bd 3e47 63bd 46d5 b8bc 2f44 f13c
00000100: e726 b73b 74a3 28bc aa27 843d d1ac 1f3d
00000110: ec86 4abd 813c bd3d 6cdd cd3d 9050 a43c
00000120: 9f3f 603b 6914 8ebc 34a8 4a3d 0b03 7a3d
00000130: 9386 faba 83f9 3f3b ce7f 403d 2ba6 c4bb
00000140: 8004 bdbc 9dec e8bc 9eae bdbc 603e e8bc
00000150: 6f12 183d 4e99 ec3c 0bd6 49bd 8d21 283d
00000160: 7912 963c a717 1ebd b6b6 7a3c 3c29 c63d
00000170: f0f3 863b 921c cfbd c85e 663d b4c9 403c
00000180: 8749 453d 372c 0b3e a330 75bd 89ad f43d
00000190: 8f8d c6bd 3c2f 2c3c 35ae 8d3d 26b1 54bd
000001a0: 4a97 dfbc 8690 a83d 7747 1d3c 4a77 50bc
000001b0: 294b 43bc 01e5 e3bc 521a 72bd e534 80bc
000001c0: 0048 b53d 8f27 8a3d 78b8 a9bd c427 1dbd
000001d0: f9f8 323b fdd5 d4bb 88b9 9b3d 8a1b 5cbc
000001e0: bdbf 9d3c 7735 1f3b 2580 1bbc 39ba 8d3c
000001f0: 9948 d5bc 0e34 cfbb 481d 4fbc e276 2a3d
00000200: c8b6 0abd 9015 2f3b 7e89 d23b c825 17bc
00000210: 3920 ec3d baa5 b9bc bbd1 c93d feae a5bd
00000220: cf52 f9bc a190 18bc 6339 86bd 0924 a63d
00000230: 5960 bebb 24a7 5a3d be49 2ebd 0deb e8bc
00000240: b1a5 0abd 9dbd 893b ba12 11bb dc58 09bd
00000250: afe9 d53c 561b 733d ac58 4cbd eadb 623c
00000260: a8e6 423d cd06 58bc ee16 8e3c 06f6 4b3c
00000270: 3a94 953c 9f30 c83b 73ce be3d f09d 8e3c
00000280: ed61 e0bd d20e b5bc addf f8bc 9d92 9cbc
00000290: 3abb 513c 5591 903d c979 e53d 81b0 633d
000002a0: 6010 2ebd 892c a83c 25f0 88bc 3194 c23d
000002b0: ceb9 603a a69a 70bc 00a7 e83c 3195 53bd
000002c0: affd 08bd 16d2 c23c e47d 1bbc 7784 05b7
000002d0: 594e caba 1dd1 a3bc 48f6 0b3d ab4f 223d
000002e0: 593d 2f3d cac3 42bd 5512 c73d e20a b2bc
000002f0: 2d90 e03c e551 21bc 5982 843d 176a 3f3d
00000300: 444d 5e3c 6dd7 183d 0937 e03a 7b6c f33c
00000310: 4f2c 8f3c 25a3 d4ba 422c c3bd 9425 b03d
00000320: 2183 b53d 2f5f 8c3d 8c99 133c 3eb5 03bd
00000330: f495 21bc f5c1 023e 7cf3 c23d 94b7 51bd
00000340: d591 60bd 7890 42bd 6bb4 143c 3161 7d3d
00000350: c159 2d3c 815c c2bc 742e 2abd 75ab d53a
00000360: 83b7 15bd 62d4 763c f3de 1f3c 3ca3 4bbd
00000370: 516d d0bc 843c 4d3d 9add eabb 2eda 0f3d
00000380: 56d0 433d 2e42 22bc 6b08 a6bd b2b4 863d
00000390: d049 173b 3c2a b13d 6184 dc3c bc4d 2bbc
000003a0: 56ce dd3c a5ec e93d 54dd 2cbd ca2e 98bc
000003b0: 3770 92bb 5512 d8bb 3156 23bd 537f c4bc
000003c0: ec80 fa3d 3c04 f73a 3444 d63d af6f 91bc
000003d0: 1306 65bd be52 27bd d017 8cbc ce4c 80bc
000003e0: 5f04 ff3c dd04 74bd 5a63 cdbc 2e06 da3c
000003f0: 6035 c4bc 35e1 9f3c 18f9 c1bb b56d a7bd

network_body._body_endoder.seq_layers.0.bias f4 [256]
0.014986882 0.021233166 0.07172996 0.03695803 0.012627279 0.01083804 -0.012132858 0.015557213
0.01211823 0.014875086 0.014162754 0.010008262 0.021310795 0.012205461 0.008586221 0.04514286
0.04762253 0.022259938 -0.0012062708 0.018032288 0.0121157225 0.022179093 0.025481438 0.0031075825
0.004763354 0.028202072 0.01262951 -0.013356658 0.02528044 0.00037034164 0.016628005 0.017737893
-0.012395838 0.007806651 0.0077921594 -0.010992175 -0.0038760866 0.012802727 -0.0058929864 0.03912409
0.021383546 0.013966395 0.0016390644 0.0064840973 0.031220552 0.010343388 0.038306613 0.00043611845
0.016991965 0.020331742 0.008614955 0.011115854 0.0023035908 0.0038665482 0.008364246 -0.008206248
0.013905111 0.0018971249 0.042443346 -0.006491768 0.034631718 0.031070033 0.0075231437 0.007430957
0.017897172 0.008876716 0.010632212 0.030690664 0.024749612 0.039037336 0.023741167 0.008398882
-0.0046100654 0.017400853 0.034615334 0.013792012 0.0026774448 -0.010799266 0.0046714693 -0.0049201776
0.023118831 0.010285899 -0.0015859226 0.014103543 0.008546713 0.021691952 0.017326217 0.04272087
0.0077171833 0.028805686 0.0031590222 0.039890345 -0.017390955 0.02823027 0.024286162 0.007805467
0.016295845 0.023751644 0.028404972 0.03499274 0.034001976 0.0006533775 0.02080522 0.021735413
0.03483898 0.10067145 0.010373209 0.007933174 -0.008291964 0.020091835 0.015894644 0.014601913
0.009308591 0.017985241 0.03344643 0.029998219 -0.0065283654 -0.010213161 0.026049301 0.01010999
0.0059352624 -0.0060450756 0.028936379 -0.0017222217 0.017463848 -0.0002929884 0.00613775 0.0182854
0.032172468 0.01496833 0.0060762516 0.0010339405 0.03198649 0.014621215 0.04565841 0.031940658
0.015150613 0.0066045234 0.038833234 0.067614056 0.012308353 0.0090868445 0.017984208 0.01968655
0.009996369 -0.0114422105 -0.00961197 0.011052854 0.010937644 0.012604751 0.025744384 -0.01377907
0.07835831 0.016358372 -0.015181886 0.008684388 0.04693667 -0.015729737 0.0073413625 0.0007311742
0.040330194 0.014979318 0.0058413353 0.010926755 -0.026696578 0.05083807 0.019991986 0.018761592
0.05069004 -0.005902645 0.017336704 0.02534236 -0.01656641 0.0061817635 -0.0012758365 0.0323716
0.02384724 0.0051651713 -0.0002893861 0.0067842994 0.006769351 0.014200857 0.012227835 0.04733157
0.014112073 0.018917907 0.02327609 0.008743632 0.051160935 0.0038460935 0.008616866 0.0061903945
0.007150916 0.0077821803 0.0034547076 0.0064353556 -0.0011583868 0.010566223 0.049781222 0.02190793
0.036636718 4.226075e-05 -0.00033380778 0.007330086 0.0025522497 0.02964725 0.024667151 0.011831003
0.036488947 0.028669229 -0.0070164753 0.023458013 -0.009901683 0.014765048 0.029527176 -0.001972137
0.019799944 -0.002040244 -0.006996545 0.0539058 0.012184012 0.09517446 0.0119049605 0.03524726
0.050634492 0.008075769 0.0367855 0.025147313 -0.005409501 0.056022186 -0.0077323006 -0.0075221555
-0.0031159606 0.03530036 0.022881411 0.009677269 0.0030206114 -0.004408616 0.013914488 0.0028013608
0.06493039 -0.010993673 0.010949388 0.004173229 0.048621733 0.015773954 0.009887691 0.009365546
0.017252889 0.028528027 -0.0016100305 0.014885544 0.010005522 -0.003029726 0.007334122 0.02693078
00000000: 8a8b 753c 2df1 ad3c 28e7 923d 4e61 173d
00000010: a6e2 4e3c 0992 313c e5c8 46bc aee3 7e3c
00000020: 8a8b 463c a2b6 733c e50a 683c b1f9 233c
00000030: fa93 ae3c 6af9 473c 39ad 0c3c b8e7 383d
00000040: d80f 433d 795a b63c bb1b 9eba 73b8 933c
00000050: 0681 463c eeb0 b53c 73be d03c 95a8 4b3b
00000060: e915 9c3b 0808 e73c 01ec 4e3c e2d5 5abc
00000070: ed18 cf3c 6a2a c239 7437 883c 0f4f 913c
00000080: ea17 4bbc efce ff3b 5f55 ff3b 8618 34bc
00000090: f105 7ebb 87c2 513c f419 c1bb 9540 203d
000000a0: 8c2c af3c 4ed3 643c e0d5 d63a 8d78 d43b
000000b0: 3ec2 ff3c 5077 293c 65e7 1c3d d4a6 e439
000000c0: bc32 8b3c c18e a63c bd25 0d3c 451f 363c
000000d0: d7f7 163b ea65 7d3b 310a 093c 8073 06bc
000000e0: 43d2 633c f3a8 f83a 13d9 2d3d e6b8 d4bb
000000f0: fdd9 0d3d 9586 fe3c b484 f63b 637f f33b
00000100: 179d 923c a56f 113c bb32 2e3c fd6a fb3c
00000110: b3bf ca3c 9de5 1f3d d67c c23c 779b 093c
00000120: 0810 97bb 3c8c 8e3c cfc8 0d3d e4f7 613c
00000130: 1278 2f3b 68ef 30bc 2013 993b 7139 a1bb
00000140: b463 bd3c 3086 283c bbde cfba 8c12 673c
00000150: 8307 0c3c 52b3 b13c b6ef 8d3c 14fc 2e3d
00000160: 6de0 fc3b e7f9 eb3c 9907 4f3b 0f64 233d
00000170: 7a77 8ebc 2b43 e73c c6f3 c63c 01c5 ff3b
00000180: dd7e 853c cf92 c23c 8bb1 e83c 8c54 0f3d
00000190: a845 0b3d 6c47 2b3a b56f aa3c 770e b23c
000001a0: 51b3 0e3d d52c ce3d 64f4 293c 25fa 013c
000001b0: 05db 07bc a297 a43c 7c35 823c dd3c 6f3c
000001c0: 0f83 183c c955 933c 20ff 083d d3be f53c
000001d0: e6eb d5bb 1a55 27bc 5865 d53c 5fa4 253c
000001e0: 977c c23b c515 c6bb fc0b ed3c 2cbc e1ba
000001f0: 5810 8f3c 3d9c 99b9 2e1f c93b 43cb 953c
00000200: 47c7 033d ba3d 753c 4b1b c73b 4985 873a
00000210: 4404 033d d28d 6f3c 5004 3b3d 35d4 023d
00000220: 473a 783c c26a d83b 990f 1f3d 3d79 8a3d
00000230: f9a8 493c fde0 143c 9e53 933c b045 a13c
00000240: cfc7 233c 1c78 3bbc 867b 1dbc 0817 353c
00000250: ce33 333c 2884 4e3c e3e5 d23c 9cc1 61bc
00000260: 527a a03d fe01 863c 72bd 78bc f748 0e3c
00000270: aa40 403d a6db 80bc d08f f03b 45ac 3f3a
00000280: 4631 253d d06b 753c ac68 bf3b 2206 333c
00000290: c8b2 dabc 953b 503d 3cc6 a33c e9b1 993c
000002a0: 5ca0 4f3d fa6a c1bb b405 8e3c c89a cf3c
000002b0: 48b6 87bc 6490 ca3b f839 a7ba 1598 043d
000002c0: 495b c33c 9940 a93b bfb8 97b9 d44e de3b
000002d0: 6fd1 dd3b b6aa 683c 4257 483c c0de 413d
000002e0: 5336 673c baf9 9a3c 80ad be3c 7341 0f3c
000002f0: 218e 513d be0e 7c3b c12d 0d3c cbd8 ca3b
00000300: 3b52 ea3b a901 ff3b 6068 623b addf d23b
00000310: 03d5 97ba f41d 2d3c 65e7 4b3d 4278 b33c
00000320: 6210 163d 2341 3138 ec02 afb9 3831 f03b
00000330: a543 273b cade f23c c412 ca3c d3d6 413c
00000340: 6f75 153d bbdb ea3c 76ea e5bb 052b c03c
00000350: ab3a 22bc 1ae9 713c fae2 f13c f83e 01bb
00000360: 7e33 a23c 9db5 05bb 4643 e5bb 54cc 5c3d
00000370: 739f 473c d4ea c23d 060d 433c 6e5f 103d
00000380: 1d66 4f3d 3b50 043c 64ac 163d bd01 ce3c
00000390: 2f42 b1bb 8577 653d 3d5f fdbb 6a7c f6bb
000003a0: 2535 4cbb 1c97 103d cc71 bb3c 688d 1e3c
000003b0: 73f5 453b 2776 90bb 98f9 633c 0997 373b
000003c0: 39fa 843d ce1e 34bc 1065 333c 95bf 883b
000003d0: 9527 473d 6138 813c fbff 213c f271 193c
000003e0: ee55 8d3c 9cb3 e93c a907 d3ba 7fe2 733c
000003f0: 33ee 233c 5e8e 46bb 1353 f03b f09d dc3c

network_body._body_endoder.seq_layers.0.weight f4 [256, 29]
0.026886676 0.13691607 0.31566906 0.021591708 -0.12270981 -0.123224355 0.0925828 -0.19915244
0.16541016 -0.05830074 -0.076651014 -0.13333504 -0.12216893 0.08649226 -0.39885014 -0.0060195145
0.048563473 -0.042221278 -0.115591384 0.11086618 0.19050455 -0.16798204 0.37013525 -0.31823206
0.12309323 -0.06045921 -0.06987616 -0.048761137 -0.20627789 0.31517306 0.12602434 0.17700964
0.033255577 -0.18696263 0.10612922 -0.29972726 -0.103032455 -0.17353363 -0.036740236 -0.19382162
0.2740083 -0.059082992 -0.14357178 0.020745767 -0.10642656 0.12371441 -0.087225616 -0.08710575
0.009737232 0.2072483 0.037671488 0.054803856 -0.007432285 -0.15240073 -0.06277633 -0.059126634
0.08950094 -0.3265427 -0.25851342 -0.11749441 0.28242037 -0.14287627 0.29653925 0.057056516
0.5312368 0.21889041 0.22740312 0.14667349 0.04767141 -0.09421074 -0.23817432 0.3188312
-0.20780799 0.0653474 0.083671264 -0.017209364 0.011408929 -0.037414815 -0.29738393 -0.3765973
0.640014 -0.21684842 0.17761046 -0.006688386 -0.05074379 -0.20275137 -0.039249316 0.1060255
-0.272524 0.2505253 -0.26517692 -0.07307869 -0.11649044 -0.04315687 -0.05975702 0.3675899
0.05698735 0.2296601 -0.18325998 0.01693765 -0.2735698 0.21218008 0.36839044 -0.43353376
-0.20406349 0.18983294 0.02222968 0.2583801 0.03017491 -0.20147914 0.16886252 0.076514885
0.05193138 -0.009628496 -0.18097466 -0.12892894 0.047345147 0.13849351 0.2034846 -0.20431302
-0.03610285 0.22055043 0.06639217 0.33272675 0.12492165 -0.26337332 -0.017930347 0.07530699
0.11200984 -0.010239563 -0.07608206 0.008700963 -0.29505557 0.07918245 -0.21706325 -0.00068577676
0.08058138 0.23202479 -0.48504475 -0.07828236 0.07265927 -0.023870036 -0.08702725 0.100809686
0.11855834 0.24959911 -0.075672105 0.1826226 -0.120440096 0.05232948 0.13452114 0.41499072
0.015051119 0.1909582 -0.09026851 0.15652898 -0.19052239 0.3718779 0.13799341 0.15853062
0.2955669 0.25647497 -0.28787512 0.24703532 -0.045240942 -0.12614901 0.04963067 -0.17614274
-0.09529017 -0.03848701 -0.1552002 0.40392923 0.025052736 -0.28978714 -0.102871574 -0.177293
-0.119208656 0.037756257 -0.18321545 0.08568139 -0.05539915 -0.14644189 -0.0037779913 -0.17127945
-0.2337511 -0.13018033 0.15830404 0.052710764 -0.2502337 -0.18840188 0.058882736 -0.017278563
-0.15791112 0.25819758 -0.06763895 0.25703713 -0.06113861 -0.12643042 -0.09789188 0.08808388
-0.101843506 -0.09521259 0.15381303 -0.06901163 -0.011719144 0.026199913 -0.12988333 -0.019132681
-0.1790923 0.10678093 -0.11294964 -0.13372166 0.08939686 0.2084567 -0.1311943 -0.16984394
0.015660057 0.041712567 0.02110211 0.122418 0.18145837 -0.15649953 -0.16795313 -0.10312376
-0.21394172 0.17758776 0.11411347 0.24276815 0.18525335 0.15036683 -0.11630423 -0.0038705727
-0.17295423 0.06434959 -0.04593223 0.22547634 0.07511785 -0.11964215 0.3247137 0.15474743
0.14551394 0.29008964 -0.08303521 0.13742504 -0.24805467 0.11560253 0.12678464 0.009130909
0.20961502 0.3185028 -0.29128316 -0.0595969 -0.30666122 -0.2748532 0.16015247 0.10372218
00000000: 7241 dc3c ba33 0c3e 609f a13e 18e1 b03c
00000010: 484f fbbd 0d5d fcbd 0d9c bd3d 9eee 4bbe
00000020: 4861 293e c2cc 6ebd 35fb 9cbd fb88 08be
00000030: b433 fabd db22 b13d 1636 ccbe 593f c5bb
00000040: 7eea 463d 38f0 2cbd 2dbb ecbd cf0d e33d
00000050: a013 433e 7c03 2cbe 5e82 bd3e 50ef a2be
00000060: 4e18 fc3d 14a4 77bd 3b1b 8fbd c2b9 47bd
00000070: 833a 53be 5d5e a13e 860c 013e 0442 353e
00000080: 0037 083d 2273 3fbe 475a d93d da75 99be
00000090: ae02 d3bd cdb2 31be ee7c 16bd 2d79 46be
000000a0: d14a 8c3e 0201 72bd 7b04 13be 07f3 a93c
000000b0: 2bf6 d9bd fb5d fd3d 58a3 b2bd 8064 b2bd
000000c0: e988 1f3c e638 543e 6b4d 1a3d 027a 603d
000000d0: 878a f3bb f00e 1cbe e090 80bd c52e 72bd
000000e0: 454c b73d 9b30 a7be df5b 84be e9a0 f0bd
000000f0: 6799 903e 284e 12be fed3 973e 18b4 693d
00000100: 23ff 073f cf24 603e 5ddc 683e 9331 163e
00000110: 1943 433d 8ff1 c0bd f8e3 73be d83d a33e
00000120: 9ecb 54be dcd4 853d d75b ab3d a7fa 8cbc
00000130: 84ec 3a3c 4740 19bd b542 98be 5cd1 c0be
00000140: f5d7 233f 830d 5ebe 84df 353e 402a dbbb
00000150: b8d8 4fbd 0e9e 4fbe e4c3 20bd e623 d93d
00000160: 4488 8bbe da44 803e 45c5 87be 48aa 95bd
00000170: 8a92 eebd 42c5 30bd c7c3 74bd be34 bc3e
00000180: 916b 693d 042c 6b3e 81a8 3bbe d4c0 8a3c
00000190: 5711 8cbe bc45 593e ac9d bc3e 23f8 ddbe
000001a0: 05f6 50be 9163 423e 051b b63c 654a 843e
000001b0: 5f31 f73c 8c50 4ebe 4cea 2c3e d6b3 9c3d
000001c0: 00b6 543d d7c0 1dbc 6c51 39be f305 04be
000001d0: fcec 413d 3ed1 0d3e 445e 503e 6f37 51be
000001e0: 95e0 13bd f9d7 613e 9ef8 873d 295b aa3e
000001f0: ecd6 ff3d ded8 86be aae2 92bc 8d3a 9a3d
00000200: 6a65 e53d d7c3 27bc e9d0 9bbd 7c8e 0e3c
00000210: 8611 97be 692a a23d d445 5ebe b3c5 33ba
00000220: da07 a53d e897 6d3e c957 f8be 8152 a0bd
00000230: 62ce 943d 188b c3bc 583b b2bd 4f75 ce3d
00000240: b7ce f23d e996 7f3e faf9 9abd 6b01 3b3e
00000250: 4ca9 f6bd 7057 563d e9bf 093e aa79 d43e
00000260: f898 763c 8c8a 433e b2de b8bd 2249 203e
00000270: 4d18 43be c866 be3e 254e 0d3e da55 223e
00000280: 8b54 973e b050 833e 5e64 93be d4f6 7c3e
00000290: 914e 39bd 352d 01be 8849 4b3d c35e 34be
000002a0: 7e27 c3bd 8ea4 1dbd cdec 1ebe d0cf ce3e
000002b0: 653b cd3c fb5e 94be 55ae d2bd 4c8c 35be
000002c0: ab23 f4bd 4ea6 1a3d d59c 3bbe b979 af3d
000002d0: 38ea 62bd ddf4 15be 2d98 77bb e163 2fbe
000002e0: 735c 6fbe fe4d 05be 741a 223e 3ee7 573d
000002f0: a21e 80be 6cec 40be 062f 713d c68b 8dbc
00000300: 74b3 21be 7932 843e 4a86 8abd 5f9a 833e
00000310: 7b6c 7abd fa76 01be 8a7b c8bd 5265 b43d
00000320: 5493 d0bd d2fe c2bd 2a81 1d3e f855 8dbd
00000330: a701 40bc 33a1 d63c 2300 05be 24bc 9cbc
00000340: f963 37be f6af da3d 2452 e7bd 55ee 08be
00000350: b315 b73d ac75 553e cc57 06be 92eb 2dbe
00000360: 8549 803c ccda 2a3d 55de ac3c 4ab6 fa3d
00000370: 39d0 393e 6a41 20be e8fb 2bbe 8d32 d3bd
00000380: 8a13 5bbe 91d9 353e 53b4 e93d 3798 783e
00000390: 0eb3 3d3e c3f9 193e ea30 eebd 6fa9 7dbb
000003a0: ea1a 31be b8c9 833d 6f23 3cbd 45e3 663e
000003b0: 63d7 993d f206 f5bd e040 a63e 1c76 1e3e
000003c0: 9b01 153e a186 943e 5d0e aabd 26b9 0c3e
000003d0: 0b02 7ebe 05c1 ec3d d5d3 013e cf99 153c
000003e0: 52a5 563e cd12 a33e 1123 95be e11b 74bd
000003f0: b302 9dbe 8fb9 8cbe 02ff 233e 4b6c d43d
