ml-agents-release_20/Result/Dino/Dino04/Dino/Dino-499963.pt (torch, 205607 bytes, 21 tensors)

network_body._body_endoder.seq_layers.0.weight f4 [256, 29]
000000 25 03 d1 bd a7 2e 61 be de 03 cb 3b bf 2e 88 3e
       -0.10205678 -0.21990453 0.0061955294 0.26598164
000010 1f 6e 5b be 94 7d a0 3e 17 11 88 be 14 39 dd bd
       -0.21428727 0.31345809 -0.2657554 -0.108019024
000020 66 42 92 bd 42 b0 9e 3e eb 28 f6 bc 79 97 ae bc
       -0.07141571 0.3099385 -0.030048808 -0.021312462
000030 01 39 23 3d e9 77 e9 3d 16 44 25 3d 2e 9a cb 3d
       0.039849285 0.11399824 0.040348135 0.09941517
000040 d5 a7 32 be b2 83 bc 3c b3 9f 44 3e 3e 49 80 3d
       -0.17446835 0.023012016 0.19201545 0.0626397
000050 ab 94 2d 3e 2c 41 92 be d9 56 f6 be 86 69 4c bd
       0.16951244 -0.28565347 -0.48113135 -0.049905322
000060 bf 86 7f be 9f b5 e5 3d e0 8a 53 bd 01 a1 35 3d
       -0.24953745 0.11216282 -0.051646113 0.044343
000070 06 48 46 bd 44 7b 79 bd 03 f6 1b 3e 8a 59 0c 3c
       -0.04840853 -0.06090857 0.15230565 0.00856627
000080 f5 91 17 3d e3 e0 10 3e 75 7f ee be 2e 6c 23 bd
       0.03700443 0.14148287 -0.46581617 -0.03989809
000090 e9 32 c0 3d 3d f6 09 bd f5 55 cf bd b3 eb 37 be
       0.0938471 -0.033682097 -0.10123817 -0.17961006
0000a0 f5 99 96 3c c3 bb e4 bc bc d7 84 be e1 53 a0 3d
       0.01838396 -0.027921563 -0.25945842 0.07828499
0000b0 03 34 c4 3e 57 1a 03 3e 13 a5 cb 3e 45 9e 82 bd
       0.38320932 0.12803017 0.3977438 -0.06377844
0000c0 26 00 76 3e 07 de 8c bd ba 16 b8 be df 9f 62 3d
       0.24023494 -0.06878286 -0.3595484 0.055328246
0000d0 fd ad a8 3e 3a c5 03 bc 5a 80 21 be d9 56 a1 3e
       0.32945243 -0.008042628 -0.15771618 0.31511572
0000e0 69 dc 2c 3e 7f 02 8b 3c 0f 66 0c 3e 19 74 8d be
       0.16880955 0.016968964 0.13710807 -0.27627638
0000f0 28 56 61 3e ca bd 11 be e9 d5 3a 3e 56 d4 1f 3d
       0.22005522 -0.14232555 0.18245663 0.03902086
000100 5b de 7e be fd 11 95 bd 67 49 29 3e bf 4b 7e 3d
       -0.2488951 -0.072788216 0.16531907 0.062083956
000110 63 a4 92 3e 09 82 0c be e6 ae 8f be 96 e2 4b 3e
       0.28641042 -0.1372148 -0.28063124 0.19910654
000120 e6 11 d4 bd 49 3f 11 3e bd e7 e7 3d 6a 50 73 bd
       -0.10354976 0.14184298 0.113234974 -0.05940286
000130 ea 48 b6 bd 73 e6 81 bd 1c 78 2e bb 3d cc b6 be
       -0.08900626 -0.06342783 -0.0026621884 -0.35702696
000140 fc 67 40 be 01 33 b8 3e 9b 43 f4 3d a8 83 8a 3c
       -0.18789667 0.35976413 0.11926957 0.016908482
000150 60 25 bf 3c 4e 42 29 3d 5d 88 0a 3e ce d1 68 3e
       0.023333251 0.041323 0.13528581 0.22736284
000160 21 2a 12 be fc 25 c3 bd 00 03 4b 3e 06 e1 09 be
       -0.14273883 -0.09528729 0.19825363 -0.13464746
000170 10 e8 93 bc 5f 80 1a 3d 18 92 60 3e ca d1 fd 3d
       -0.018054992 0.03772008 0.2193073 0.1239353
000180 b2 68 1e 3e 0e 40 36 3e 94 1b d8 3e 86 9c 15 3e
       0.15469626 0.17797872 0.4220854 0.1461049
000190 12 e7 a3 bd 14 0d a0 3d 57 44 60 3e 54 7e ed bb
       -0.080030575 0.078149945 0.2190107 -0.0072477255
0001a0 7a 79 ed 3d d0 0f 03 3e ff 0d 14 3d a1 24 f0 3d
       0.115954354 0.12799 0.03614616 0.117257364
0001b0 04 ea df bc 78 71 24 be 7a 7a 93 bb c1 59 0d bf
       -0.027333267 -0.1605891 -0.0045006843 -0.5521508
0001c0 a1 67 fa 3d b8 9b 5f 3e 97 a1 aa 3e ba 54 bb be
       0.12226797 0.21836746 0.33326408 -0.3658808
0001d0 40 91 f0 3d 19 8d 9d bd 7d 85 74 be 59 33 90 3d
       0.11746454 -0.07692928 -0.23879047 0.07041044
0001e0 91 e0 02 3d 37 b8 d6 bc 2d 1e 94 bd d2 1d 03 be
       0.031952444 -0.026210887 -0.07232318 -0.12804344
0001f0 6c 29 9c 3e 33 2d 9b bd 87 03 7e 3e 58 15 d3 bd
       0.30500352 -0.075769804 0.24806033 -0.10306805
000200 ce 0b a2 bd 46 00 cf bd 97 ce 31 3e 7a 91 71 3e
       -0.07912408 -0.10107474 0.17363964 0.23590651
000210 a6 5f 96 3d 74 11 5c 3e 61 60 5d bd e8 83 8a 3e
       0.07342462 0.21491033 -0.054046992 0.2705376
000220 43 23 92 be e5 64 49 3e c6 af 07 3e 97 4f c9 3d
       -0.28542528 0.19667394 0.13250646 0.09829634
000230 3b 14 1d bd b5 b1 06 bd e4 23 04 3e 3b fa b0 3d
       -0.03834937 -0.03288432 0.12904316 0.08641478
000240 dc df 54 bc 39 97 7d be 7b f3 1e bd c8 b6 25 3e
       -0.012992825 -0.24764718 -0.03880642 0.16183007
000250 02 9f ab 3e bd 1d a4 3e c0 2c 81 be bf 56 51 3e
       0.3351975 0.32053939 -0.25229454 0.20443247
000260 c6 ad 8a 3d 88 91 03 be 60 3d d8 3d b3 f9 a8 bd
       0.06771426 -0.12848485 0.10558581 -0.08250751
000270 a6 b0 04 3e 9b 60 61 bb 25 be 8d be 24 dc c1 bd
       0.12958011 -0.0034389857 -0.2768413 -0.094658166
000280 22 e2 41 3e e1 9a 9a bd 44 2a 39 bc 45 68 01 be
       0.18933919 -0.07549072 -0.011301581 -0.12637432
000290 7b bf 5b 3d 7a 12 31 be 3d 65 12 3d fa 39 4d 3e
       0.053649407 -0.17292204 0.03574108 0.20041648
0002a0 3f 01 18 3c 56 5c 79 3e bb 2d e5 bd bb 3c c0 be
       0.009277641 0.2435163 -0.11190363 -0.37546334
0002b0 a3 c4 79 be 17 12 b1 be 38 7d 97 3c 59 1d 44 bd
       -0.24391417 -0.34584114 0.018492326 -0.04787955
0002c0 43 82 b6 bd 03 d8 86 3e ae e9 43 3d 98 2c d3 3d
       -0.08911564 0.2633668 0.047830276 0.1031124
0002d0 8b f1 5a 3e c3 94 3f 3e 15 01 ac bd 1a 6e 41 3e
       0.21381204 0.18709092 -0.08398644 0.18889657
0002e0 87 32 7c 3e 12 33 03 3d 86 d0 05 3e 7a 69 7e 3c
       0.2462865 0.032031126 0.13067827 0.015528077
0002f0 c6 69 75 3e b0 d1 1a be 35 c5 85 3e d6 1f ec 3d
       0.2396613 -0.15119052 0.2612702 0.1152951
000300 fa 1b ac 3b 72 92 d5 3b 46 cc 29 be de d6 4e bd
       0.0052523585 0.006517702 -0.1658183 -0.050497882
000310 f8 61 be bc ec 97 22 bd dc 68 98 3e ec 06 9c bd
       -0.023240075 -0.039695665 0.297675 -0.07618508
000320 fe 30 b0 bc 17 72 3f 3e bf 42 33 3e 50 85 f0 bd
       -0.021507736 0.18695866 0.1750593 -0.11744177
000330 f8 63 3b 3e 1e 18 9c 3d a1 80 31 3e 7d f6 32 be
       0.18299854 0.076217875 0.17334224 -0.1747684
000340 2d 26 5c be 1a f6 76 be dd 99 00 bf 5f e4 1f 3e
       -0.21498938 -0.24117318 -0.50234777 0.1561446
000350 27 c0 b3 3c ed ca bc be 89 ab 93 3e 54 60 5e be
       0.021942211 -0.3687357 0.28841808 -0.21716434
000360 1d 0c 9d 3e e1 86 c0 be 20 81 75 be 73 fc 7d bd
       0.30673304 -0.37602904 -0.23975039 -0.062008332
000370 69 4e 09 be cf 37 e6 3d 26 27 72 bd e3 65 89 3e
       -0.13408817 0.112411134 -0.059119366 0.26835546
000380 18 41 3e be 13 43 f9 bc 9b 1e 92 3e 49 2a 31 3e
       -0.18579519 -0.030427491 0.28538975 0.17301287
000390 5a b1 41 3b 4e 78 27 bd 37 a1 f8 3d 7d 62 6c be
       0.0029555173 -0.040886216 0.12140124 -0.23084445
0003a0 ee 5d a4 3e 32 4d 23 be bb 03 ac b9 7c 11 2d 3e
       0.32102913 -0.15947416 -0.00032809176 0.16901201
0003b0 77 23 7a bd 6b 5c db 3e 12 df 94 be 15 13 de bd
       -0.06106898 0.42843947 -0.2907644 -0.10843483
0003c0 d6 06 a8 3e 13 a8 00 bd 10 02 4f 3e 76 18 59 be
       0.32817715 -0.031410288 0.2021563 -0.21200737
0003d0 10 9d 4f bb 91 e5 44 be e2 d8 e5 bd a5 2b 3e 3d
       -0.003167931 -0.19228198 -0.11223008 0.04642834
0003e0 7a ad 57 3d ff 3a f7 bc eb 8e b8 bd 98 72 3c 3e
       0.052655675 -0.030179499 -0.090116344 0.18403089
0003f0 75 ce d0 3e 49 66 da 3d b0 e4 27 3d be 8e 6b bd
       0.40782514 0.106640406 0.040989578 -0.057509176

network_body._body_endoder.seq_layers.0.bias f4 [256]
000000 9a 38 0c 3c 1c e2 03 3d 1d b7 1b bc 8a 5a de ba
       0.008558417 0.032198057 -0.009504107 -0.0016964239
000010 cf 13 f1 3c d9 df 54 3d 41 a5 47 3c 10 c9 38 3d
       0.02942839 0.05197129 0.012185396 0.045113623
000020 15 f3 49 3c c0 d5 09 3c 0e 30 36 3d 94 99 aa 3a
       0.012326022 0.008412778 0.044479422 0.001301574
000030 26 d6 8b bb 38 0a 29 3d 6f 6f 2b bc b5 8d 7c bc
       -0.004267472 0.04126951 -0.01046358 -0.015414645
000040 1b ca 25 3c 13 ef e5 3c 82 5f c4 b9 03 3b 9b bb
       0.0101189865 0.028068101 -0.00037455192 -0.0047372594
000050 3c 19 61 3d 4c 0a 33 3d 0b 73 ab 3c b2 0e f8 bb
       0.054955706 0.04371099 0.02092888 -0.007570111
000060 f8 49 89 3c 87 c4 b0 3c 64 2a 99 bb 5a 7f 08 bc
       0.016758904 0.021578087 -0.004674243 -0.008331144
000070 8a f7 a7 3c 6d 83 03 3d f8 e6 d3 3c 95 c7 b7 3c
       0.020503778 0.03210776 0.02586697 0.022434035
000080 28 44 df 39 6b 47 76 3c ce b1 cb 3c aa 40 d8 3c
       0.00042584655 0.015031676 0.024865057 0.026398022
000090 52 2f 92 3c 7c d8 16 bb 41 2f 0d ba 20 a9 4e 3c
       0.01784483 -0.0023017218 -0.00053857645 0.012613565
0000a0 32 01 1c bb 37 af 8d bb 27 8b f1 3c 7b f3 a5 3c
       -0.0023804423 -0.0043238658 0.029485298 0.020257702
0000b0 4e 3d bc 3b c8 70 ad bb 1f ec 30 3c 57 3f 94 3c
       0.005744613 -0.0052929856 0.010798483 0.018096609
0000c0 96 91 82 bc e7 68 ce bb f8 20 0c 3d e3 3d bd 3c
       -0.015938561 -0.0062991264 0.03421113 0.023100799
0000d0 52 c0 65 b9 b0 a2 9c bb f5 89 0a 3d 59 5e 1d 3b
       -0.00021910787 -0.004780136 0.033822972 0.0024012534
0000e0 1e 0d 5d 3c fb f4 19 3b c0 8b 0c 3c 6d 1a 12 3d
       0.013491897 0.0023491967 0.008578241 0.035669733
0000f0 a5 57 99 3b 8d 77 52 bc 33 ab c5 3b 2d 97 42 bc
       0.0046796375 -0.012845886 0.0060323714 -0.011876863
000100 df bb 16 3d ec b3 81 3c 16 6b 3c bc 73 10 bd 3c
       0.03680026 0.015832864 -0.011500141 0.023079133
000110 9a 16 a3 3a 1c 03 1d 3d d1 c9 fc 3c 86 34 cb 3c
       0.0012442649 0.038333043 0.030857952 0.024805319
000120 63 1b 5f bb 16 46 9e 3b be 28 a1 bb d3 a3 b5 3c
       -0.0034043423 0.0048301322 -0.004918187 0.022172844
000130 dd f3 11 3d f9 00 0e 3d a5 c2 85 bc 68 8c 07 3d
       0.035632957 0.034668896 -0.016328165 0.033092886
000140 66 68 3b 3d 76 f6 42 3c 8d f9 5c 3c 73 cd 6a 3c
       0.04575386 0.011899581 0.013487232 0.0143312095
000150 6b 5f bb 3c 37 86 38 bc 8c cc 56 3c f5 a6 f7 3b
       0.022872647 -0.011262468 0.013110291 0.0075577446
000160 0e 6f 2c 3c 7f 8e a0 3b 4e 9f 71 3c 67 99 ab 3c
       0.010524524 0.0048997994 0.014747454 0.020947171
000170 e5 32 0c 3b a7 00 88 3c 3c f2 3d 3c a7 a2 9b 3b
       0.002139264 0.016601874 0.011593398 0.0047496143
000180 53 db 2a 3b 97 06 6b bb 57 05 0d 3d 1c 17 4a 3c
       0.0026070669 -0.0035862082 0.03442892 0.012334611
000190 d9 c5 c7 3c 31 e7 da 3c 98 50 b0 3c f6 df ff 3c
       0.024386333 0.026721569 0.021522805 0.031234723
0001a0 0f 36 18 3b 38 ba 9e bc d3 18 cf 3c 52 6b c3 3c
       0.002322558 -0.019375905 0.025280392 0.023854885
0001b0 dc ba 8c 3c c0 15 07 3d ae 1c d5 3c 32 b7 97 3b
       0.017178945 0.032979727 0.026014652 0.004629993
0001c0 45 5a a0 3c 2b c2 bb 3c 34 a2 b6 3c c4 a9 96 3c
       0.019574294 0.022919735 0.022294141 0.018391497
0001d0 68 5a a6 3b e5 21 8d 3c 9f 9a 1c bc 46 22 bb bb
       0.0050766952 0.017228076 -0.009558349 -0.005710873
0001e0 64 ea d4 bb ad ad cb 3c 85 06 a8 3c d5 ad a2 ba
       -0.006497668 0.024863089 0.020510921 -0.0012411425
0001f0 c4 9c 83 bc d0 53 57 3d 2e 67 21 bc a0 81 09 3c
       -0.016065963 0.052570164 -0.00985126 0.008392721
000200 81 d5 81 3c a6 b0 f5 3c 48 c7 a4 bb fa 1c 04 3d
       0.015848877 0.02999146 -0.005028639 0.032254197
000210 cc e4 a2 bb 9c c9 dd 3b d8 58 aa b8 00 8e a8 3b
       -0.0049711224 0.0067684185 -8.12278e-05 0.005143881
000220 f8 61 9f 3b 9b f1 12 3c e4 ab 5b 3c ae cb 39 3d
       0.0048639737 0.008968736 0.013407681 0.04536026
000230 cd 2e 62 bc 13 23 a8 3c 6b be 49 bb 71 9a 21 bc
       -0.0138051035 0.020524537 -0.0030783664 -0.009863482
000240 7b e4 dc bc d8 ba df 3c d5 b0 c6 3b 1f 00 13 3b
       -0.026964417 0.027310774 0.0060635605 0.0022430492
000250 63 f7 86 3c 1f 6b 04 3d bc 0d 44 3b de 39 f4 3c
       0.016475385 0.03232872 0.0029915413 0.02981275
000260 7d f7 ca 3c 00 73 d4 3c a1 21 09 3d 84 cf 1d 3d
       0.024776215 0.025933743 0.033479337 0.03852798
000270 1a 6c a3 3c 83 b1 6c bc 55 53 07 3d b2 74 37 3c
       0.019949008 -0.014446619 0.033038456 0.011197256
000280 cc 24 a7 3c b8 55 a2 3c 32 52 84 bc 86 28 d5 3c
       0.020403288 0.019816265 -0.016152475 0.0260203
000290 5d 2e 80 bb 54 80 8b 3c 64 02 0b bc 70 e5 13 3d
       -0.003911777 0.017028965 -0.008484457 0.03610748
0002a0 36 13 9c bb 85 34 27 bc f3 fe 82 3c 55 27 61 3c
       -0.0047630323 -0.010205393 0.01599071 0.013742288
0002b0 9f db 8a bc 0b 6e eb 3b b2 86 6b bc 49 ad 67 bb
       -0.016950427 0.007184749 -0.014375376 -0.0035351089
0002c0 4c e5 eb 3c e3 22 a0 bc be 34 0e 3d bd a9 5b bc
       0.02879586 -0.019547885 0.034718268 -0.013407168
0002d0 9e bf 0d 3b d4 9e 08 3b 3b df 20 3c 3a 6b c0 3b
       0.0021629105 0.0020846622 0.009818847 0.0058721574
0002e0 b6 54 fd 3a cd 71 26 3b 14 fb 10 3d 83 75 36 3d
       0.0019327614 0.002539742 0.035395697 0.04454566
0002f0 4d 2f 65 3c 5b 81 03 3d 47 b9 02 bd c6 14 e0 3c
       0.013988328 0.032105785 -0.031914975 0.027353656
000300 4d 6a 03 3d c9 69 13 bb 0b 12 d7 3c 8b c6 c7 3c
       0.0320838 -0.0022493473 0.02625372 0.024386665
000310 02 4c 9f 3c 3e 0b 0c 3c 4f 3f 2c 3d e6 98 d6 3c
       0.019445423 0.008547602 0.042052563 0.026195955
000320 75 8a b6 3c 10 e7 3a 3d 79 05 d1 3b df a9 bb 3c
       0.022282818 0.045630515 0.006378826 0.02290815
000330 b7 97 40 3d 77 26 59 bb 3f a5 05 bb 04 75 9b 3c
       0.047019687 -0.00331345 -0.0020392684 0.018976696
000340 b1 82 d5 bb 23 9a a0 3c 8e 50 41 bc 8f ad 19 3c
       -0.006515824 0.019604748 -0.011798991 0.0093797585
000350 28 3a fe 3c bf c4 1e 3d 99 63 e9 bb 0e 5c a4 bb
       0.03103359 0.03876185 -0.0071224687 -0.0050158566
000360 95 5d 1b 3d 65 64 bc 3c 0d 6d af 3c 66 38 aa 3c
       0.037931044 0.02299709 0.021414304 0.020778846
000370 f3 59 56 3c a5 62 32 38 f1 91 52 3d f6 da a8 3c
       0.013082969 4.2530377e-05 0.05140871 0.020612221
000380 8c 3b 3b 3d 01 35 19 3b fc fe 0d 3d 2e 25 2c bb
       0.045711085 0.002337754 0.034667 -0.0026267278
000390 ae f4 f0 3c 5a 41 16 bb 93 b5 fd 3b d4 fb ff 3c
       0.029413547 -0.0022927136 0.0077425926 0.03124801
0003a0 cb 31 07 3d 36 9c d9 3b 02 81 4c bc 90 1d 61 3c
       0.03300647 0.0066409362 -0.01248193 0.013739958
0003b0 a2 c9 4c 3c 0f 29 f0 3c 0f c0 d2 3c 5e 23 ba 3c
       0.012499245 0.029316453 0.025726346 0.022721943
0003c0 45 32 db bc 1a c5 fd 3c fa 4b a1 bc e8 e9 12 3c
       -0.026757369 0.030977774 -0.019689549 0.0089669
0003d0 96 9b 4a 3d d7 56 89 3c 1d e2 00 3d 21 a7 c6 bb
       0.049464785 0.016765041 0.03146564 -0.006062404
0003e0 e1 95 73 3c ea 63 5a 3b 81 80 cd bb fb 86 77 3c
       0.014867277 0.0033323714 -0.0062714224 0.015107865
0003f0 e3 3e 89 3c 1b 33 b8 3c 28 70 59 3a af f0 77 3c
       0.01675362 0.022485306 0.00082946057 0.015133067

action_model._discrete_distribution.branches.0.weight f4 [2, 256]
000000 4e 8c 87 bd ee fe 4f 3d 71 4f 59 bc c4 51 eb bb
       -0.06618558 0.05078023 -0.013263569 -0.007181378
000010 04 cc 8f 3d 2f 09 29 3d 77 68 06 3c ba 25 3d bd
       0.07021335 0.041268524 0.008203617 -0.046178557
000020 6e 01 60 bd 4d 2f 92 bd 16 0c 43 3c 3f b0 0b bd
       -0.054688863 -0.07137928 0.011904737 -0.03410363
000030 31 5d 35 bc b3 23 9b 3d b5 78 85 bd f5 f5 92 bb
       -0.011069582 0.075751685 -0.06517164 -0.004484887
000040 11 26 d4 3c 75 35 ec 3b 19 39 03 bb 07 a2 32 3a
       0.025897058 0.007208521 -0.0020023047 0.0006814305
000050 b0 f5 95 3d 5f 86 81 3d 9a 36 26 3d 60 37 1f bc
       0.07322252 0.063244574 0.040579416 -0.009717792
000060 11 59 e7 bc 5c dc 35 3d 9d 04 7b bc 50 89 3c bb
       -0.028240712 0.044399604 -0.015320924 -0.0028768368
000070 45 33 0f 3d 68 e8 88 3d 0b a0 eb 3c bf 10 3d bd
       0.034961004 0.06684953 0.028762838 -0.04615855
000080 0e 1c 31 bd 03 cb c4 3c 81 12 76 bd 7d b6 63 3c
       -0.043239646 0.024022585 -0.06007624 0.013898489
000090 b5 9a 8d bd bb 0e 02 bd c8 7a 3d bd c8 f2 10 3c
       -0.06914274 -0.03175233 -0.04625967 0.008846946
0000a0 d1 e6 bb bc 61 ee c0 3b 45 2c b8 bd 5e 9c 13 3d
       -0.02293721 0.005887792 -0.08992819 0.036037795
0000b0 19 b4 1f 3c 5b 51 59 bc 38 34 d2 3c 1b 6f 7c 3c
       0.0097475285 -0.013264026 0.025659665 0.015407349
0000c0 86 00 fc ba d1 85 39 39 71 80 7b bd e9 91 b5 3c
       -0.001922623 0.00017692825 -0.06140179 0.022164302
0000d0 15 c1 cc 3b 71 87 9b bc 89 8d 89 3d 62 22 e6 bc
       0.006248603 -0.018985482 0.06716449 -0.028092567
0000e0 dc 55 8c 3c 1c 33 44 3b 1a 86 77 bd 48 37 55 3d
       0.017130785 0.002993769 -0.060430624 0.052054673
0000f0 ed dc ec bc 63 44 fb 3b e8 c1 1d 3c 1c d6 0a bc
       -0.02891394 0.0076680644 0.00962875 -0.008473899
000100 d2 18 41 3d 3f 24 0a 3d 92 73 94 3b 81 06 51 3d
       0.04714281 0.033725973 0.0045303786 0.051031593
000110 a8 f0 4e bd ae 8f 41 3d fb 4a 6a bd bf a9 92 bd
       -0.050522476 0.047256164 -0.057200413 -0.07161283
000120 21 44 4d bc 72 7e 3c bd 75 2b 67 bc e6 0f 78 3c
       -0.01252845 -0.046019025 -0.014109482 0.015140509
000130 16 ad 31 3c 22 c3 3a 3b 67 42 9a bc a9 81 2e 3d
       0.01084449 0.0028497656 -0.018830491 0.042604122
000140 93 fd 9d 3d 76 fa 32 bd 4a b1 eb 3c 8b 4f 38 bd
       0.07714381 -0.04369589 0.028771061 -0.044997733
000150 a7 29 cd 3c 59 b1 02 bc cf e8 c5 3c 45 18 59 bb
       0.025044275 -0.007976853 0.024158863 -0.0033126038
000160 67 39 a3 bd 86 28 57 3c 41 4f 2b 3c e9 ee 33 3d
       -0.07969933 0.01313222 0.010455907 0.043929014
000170 8a 4b 7b 3b f2 d8 d0 3b 39 67 d5 3c ac 94 7c bd
       0.0038344585 0.006373518 0.026050197 -0.061665222
000180 0b 77 03 bd 84 ff 97 bc 7d c3 95 3d 34 6b b9 bc
       -0.03209595 -0.018554457 0.07312677 -0.022634126
000190 44 1b a2 3c 2f a7 2a 3d 50 3a 3d 3d 27 59 52 3c
       0.019788392 0.041663345 0.04619819 0.012838638
0001a0 df 48 0d bd 7b d2 12 3a 48 77 d4 3c c5 7e a6 3c
       -0.034493323 0.0005600822 0.025935784 0.02032412
0001b0 2c be 1c 3d 58 bf ba 3b 61 e6 8a bd 7b 00 04 bd
       0.0382673 0.0056990795 -0.067822225 -0.03222702
0001c0 e0 de 73 bd 8e d7 2b 3d e5 f5 46 3d 0d 36 04 3d
       -0.059538722 0.041953616 0.048574347 0.03227811
0001d0 d0 6d fe 3b 73 83 a1 bd 68 1d 52 bc db 0b 94 ba
       0.0077645555 -0.078864 -0.012824394 -0.0011295037
0001e0 7c 99 65 bc 8b e0 30 bd bb 37 ec 3c 3a c5 34 3b
       -0.014013644 -0.04318289 0.028835168 0.0027583377
0001f0 71 6a 81 3b 48 dd 43 3d 54 42 25 bc d9 ad 53 bd
       0.0039494564 0.047818452 -0.010086615 -0.051679466
000200 5d 7f 33 bd 5e d4 4f 3c 72 94 0c bc 7c 6e 6f 3d
       -0.043822635 0.01268491 -0.008580314 0.058454975
000210 df bb 53 bc 6b f6 9d bc 5b 30 82 3b a3 5c 2b 3c
       -0.01292321 -0.01928254 0.0039730496 0.010459098
000220 42 ac 37 bd ac 6a 24 bd 91 8f 9c bd 4e c6 a4 3d
       -0.044842012 -0.040140793 -0.076445706 0.08045636
000230 f5 ef c4 bc c1 7f 05 3d 82 dc 98 bc d5 1c dd bb
       -0.024040202 0.03259254 -0.018659834 -0.006747822
000240 da 4f f5 3a 54 91 3e 3d 8b 13 ea 3b 5b 7e 8f ba
       0.0018715814 0.046525314 0.007143443 -0.0010947691
000250 07 86 d1 3c 80 a1 47 bd fe d9 30 bd 61 f3 89 3d
       0.025576605 -0.048738003 -0.043176644 0.06735874
000260 5d 3c 11 3c 4d 4c 2b 3d be c8 b1 3d e5 4c 7c 3d
       0.008864489 0.041820813 0.08680867 0.06159677
000270 df 2c 25 3d cb d5 91 bc 0b 3d 5f 3d 02 35 42 bd
       0.040325996 -0.01780214 0.054501574 -0.047413833
000280 02 c2 0b 3d ed d3 06 3d e1 71 b6 ba d5 f1 e5 3c
       0.034120567 0.032916952 -0.0013919437 0.028069416
000290 61 a8 d2 bc c3 7f 3a bd 58 a8 ac bc 15 57 23 3b
       -0.025715055 -0.045532 -0.021076366 0.002492373
0002a0 f1 97 e1 bc 4c b9 1c bc 91 11 08 3d f3 e3 e6 3c
       -0.027538272 -0.009565663 0.033219878 0.028184867
0002b0 74 2e b6 bb d3 21 91 3c e8 2b a3 bb 51 c5 1f bd
       -0.005559737 0.017716324 -0.0049795993 -0.039006535
0002c0 f4 e0 8a 3d 37 ee 00 bc 35 16 0a 3d 3f ae 30 3b
       0.06781188 -0.007869295 0.033712585 0.0026959328
0002d0 38 94 1b bd 8e 89 54 3c 7e d0 4a bd 9f e1 93 3b
       -0.03798315 0.012972249 -0.04951524 0.00451298
0002e0 67 4e 04 bd 6d 97 11 bc 6b ca 42 3d 2c 5a 96 bd
       -0.032301333 -0.0088862 0.047556322 -0.07341418
0002f0 66 0e 48 3b 0d a0 27 bd b4 e2 95 3a 6e 73 b3 3b
       0.003052616 -0.04092412 0.0011435361 0.005476407
000300 de 1a 99 3d 29 98 37 bc 93 51 4d 3d 9c eb 5a 3d
       0.07475828 -0.011205711 0.050126623 0.05344735
000310 37 8f 90 3c 71 28 29 bb 82 20 bb 3c 2e ea 52 3d
       0.017646415 -0.0025811458 0.02284265 0.051492862
000320 15 a7 5d bd e4 33 5b 3d d9 8c ad bc 60 a5 84 3d
       -0.05411442 0.053516284 -0.021185325 0.06476855
000330 b9 d8 46 3d 8c 7e d2 b7 da 8a 8d bb 82 8c a5 bd
       0.048546527 -2.5092879e-05 -0.004319531 -0.0808344
000340 f3 19 74 bc 47 91 8d 3c 8b ca 29 bc 54 24 a7 3c
       -0.014898765 0.017281188 -0.010363231 0.020403065
000350 9c 2e 6f 3d 8f 97 46 3d d1 cc 02 bc 1d 8c 06 bb
       0.05839406 0.04848438 -0.007983402 -0.0020530291
000360 1e 0c 8d 3d 78 8b 52 3d 2f bb 21 3d 5e 35 2f 3d
       0.06887077 0.05140254 0.039485153 0.042775504
000370 d9 ad 9e 3c d1 8e 32 bd fa 2f 20 3d cb 10 dd 3c
       0.019370006 -0.04359323 0.039108254 0.026985547
000380 3a 37 91 3c a8 53 19 bd 59 56 5f 3d fd 67 d0 bc
       0.01772653 -0.037433296 0.054525707 -0.02544021
000390 af 87 24 3d 6e 3f c4 bc a8 7d 61 bd 0a 79 58 3d
       0.04016846 -0.023956027 -0.055051476 0.052849807
0003a0 65 ec a0 bd a1 43 23 bb 38 56 5b ba 4b cb ea 3c
       -0.07857589 -0.0024912136 -0.00083670346 0.02866139
0003b0 86 63 ac bd 9c 17 f9 3c 6c 46 92 3d bb 67 3f 3c
       -0.0841742 0.030406766 0.07142338 0.011682446
0003c0 e9 ff 2b bc 4b f3 2f 3d c6 f7 6d bb 1e 2e 14 3c
       -0.010498025 0.04295663 -0.0036311015 0.009044198
0003d0 b1 3f 1c 3d cc 14 ef 3c 45 46 32 3d 12 cb ea bc
       0.03814668 0.029184721 0.043524045 -0.028661285
0003e0 1a 3a 29 bd 37 f7 c4 3b 65 8c 68 3b aa bf 41 bd
       -0.041315176 0.0060109156 0.0035484072 -0.047301926
0003f0 a7 95 16 3d e1 b9 4e bd 52 24 9f bb b7 fe a9 3b
       0.036763813 -0.050470237 -0.0048566246 0.005187835

action_model._discrete_distribution.branches.0.bias f4 [2]
000000 46 73 c8 3b 4c 73 c8 bb
       0.0061172573 -0.00611726

exp_avg f4 [256, 29]
000000 dd dd 51 36 9a 6d 1c b9 22 46 91 39 6a d8 90 39
       3.1272568e-06 -0.00014918149 0.00027708808 0.0002762706
000010 34 88 85 b8 8d 32 14 38 97 1d 27 39 3f 36 07 39
       -6.367304e-05 3.533303e-05 0.00015937384 0.00012894812
000020 6b fc 87 36 da 97 1f b9 0a 5f 92 39 96 b7 91 39
       4.052699e-06 -0.00015219991 0.000279181 0.00027793337
000030 cc da 2b 38 82 3f d4 38 3d 05 3b b7 a1 3c fa 38
       4.0973347e-05 0.00010120777 -1.1147288e-05 0.00011932222
000040 25 93 82 36 8f 6c 1f b9 0a 5f 92 39 5b ff 91 39
       3.891432e-06 -0.00015203863 0.000279181 0.0002784681
000050 b4 23 66 38 ad d5 95 38 a0 4b 9e 36 71 49 d5 38
       5.4869524e-05 7.144674e-05 4.717571e-06 0.00010170311
000060 9b 41 48 36 fd 78 1e b9 0a 5f 92 39 c6 11 92 39
       2.984051e-06 -0.00015113126 0.000279181 0.00027860532
000070 00 00 00 00 f5 0d b4 b6 cc 57 c4 37 a3 72 0a b9
       0.0 -5.366043e-06 2.3405904e-05 -0.00013203411
000080 67 04 09 b9 23 94 7b 38 97 4d de b7 6e a3 1a b9
       -0.00013066978 5.9981026e-05 -2.6500593e-05 -0.00014747467
000090 d7 11 be b8 af a9 e7 b6 2c eb f1 37 31 88 0e b9
       -9.063229e-05 -6.9040902e-06 2.883895e-05 -0.0001359291
0000a0 e3 1a 0c b9 63 02 bf b7 fd 19 cd b8 5d a6 dc 36
       -0.00013361457 -2.2770086e-05 -9.7800024e-05 6.575878e-06
0000b0 76 a1 c7 b8 cf ab d7 b6 b5 eb ed 37 31 88 0e b9
       -9.519134e-05 -6.4275005e-06 2.8362361e-05 -0.0001359291
0000c0 44 27 0d b9 86 21 9b b8 06 a3 fd b7 49 2f 24 b7
       -0.00013461435 -7.39722e-05 -3.0235864e-05 -9.786171e-06
0000d0 7c 61 a7 b8 4d d4 92 b6 d3 b5 dc 37 31 88 0e b9
       -7.9813384e-05 -4.375854e-06 2.6310712e-05 -0.0001359291
0000e0 1d 70 0d b9 00 00 00 00 a7 fa 54 36 fe 67 96 b7
       -0.00013488573 0.0 3.173636e-06 -1.7929819e-05
0000f0 76 fc 4f 38 f0 f4 4e 38 90 27 a0 b7 52 61 46 37
       4.958777e-05 4.9342343e-05 -1.9091909e-05 1.1824379e-05
000100 96 93 30 38 3f 3c d5 37 94 8f 67 36 cf ca 9e b7
       4.209912e-05 2.5419633e-05 3.4505256e-06 -1.8929508e-05
000110 90 04 53 38 05 3c 51 38 83 19 0c 37 2f 6d ec 37
       5.031057e-05 4.988538e-05 8.35059e-06 2.8184235e-05
000120 9f 9a e4 b5 3b d7 e8 37 99 d4 5f 36 6f d3 9d b7
       -1.7032324e-06 2.775678e-05 3.3353338e-06 -1.8814315e-05
000130 90 04 53 38 8a 02 52 38 ba 08 8e 37 5e 40 86 37
       5.031057e-05 5.0070266e-05 1.6931783e-05 1.6004018e-05
000140 03 73 fe 35 ee 65 c5 37 1f b5 46 36 81 af 9a b7
       1.8957948e-06 2.3531695e-05 2.9609726e-06 -1.8439956e-05
000150 90 04 53 38 fe 37 52 38 00 00 00 00 98 0d 2a b4
       5.031057e-05 5.012005e-05 0.0 -1.5837429e-07
000160 a4 95 86 36 ce 34 55 b7 98 18 54 b7 aa 0e 80 36
       4.0109317e-06 -1.2708084e-05 -1.2641911e-05 3.8164044e-06
000170 6d 4a 83 b6 53 f4 12 b7 fd 33 db b6 66 0b 7a b4
       -3.9127685e-06 -8.759164e-06 -6.532761e-06 -2.3287211e-07
000180 89 e7 8d 36 cb 9d 57 b7 ec 24 56 b7 87 41 dc b5
       4.2290817e-06 -1.2851738e-05 -1.27639905e-05 -1.6410348e-06
000190 77 3a 00 b7 55 0e e6 34 a6 e4 c7 b6 6e 82 6a b4
       -7.643007e-06 4.2851266e-07 -5.9572803e-06 -2.1840398e-07
0001a0 41 6b 8d 36 cb 9d 57 b7 0a c7 56 b7 df cc 52 b6
       4.2146135e-06 -1.2851738e-05 -1.2801736e-05 -3.141169e-06
0001b0 de a7 b1 b6 a5 61 e1 b4 18 db a9 b6 18 04 20 b4
       -5.2945534e-06 -4.1980562e-07 -5.0620984e-06 -1.490265e-07
0001c0 4f 17 8b 36 cb 9d 57 b7 93 f1 56 b7 00 00 00 00
       4.1452363e-06 -1.2851738e-05 -1.281164e-05 0.0
0001d0 d0 6b fb b6 a7 46 e7 38 db 8b 7b b9 68 e2 79 b9
       -7.492934e-06 0.000110280984 -0.00023989326 -0.00023830833
0001e0 8d 55 9b 38 84 ea 85 b8 70 79 1a b9 a5 fd e5 b8
       7.406911e-05 -6.385616e-05 -0.00014731823 -0.00010966816
0001f0 9c a8 1b b7 e3 4e f2 38 d2 30 7f b9 c5 f6 7c b9
       -9.277977e-06 0.00011554153 -0.00024336882 -0.00024124522
000200 2d 34 ec b7 df c2 eb b8 fe 01 69 36 a2 78 cf b8
       -2.8157689e-05 -0.00011241971 3.4720865e-06 -9.892999e-05
000210 48 c2 14 b7 19 72 f1 38 d2 30 7f b9 b3 ec 7d b9
       -8.866722e-06 0.00011513028 -0.00024336882 -0.00024216138
000220 1e ff 5d b8 84 aa 98 b8 3c ee 3e b7 b4 67 b1 b8
       -5.2928102e-05 -7.279686e-05 -1.1380351e-05 -8.459334e-05
000230 d0 89 eb b6 6e 92 ed 38 d2 30 7f b9 1d 2f 7e b9
       -7.0195892e-06 0.00011328315 -0.00024336882 -0.00024240879
000240 00 00 00 00 f2 31 89 b6 5b 02 09 38 53 2d 92 b8
       0.0 -4.0887326e-06 3.266554e-05 -6.970265e-05
000250 52 47 90 b8 41 f0 10 38 31 3b bb b6 b3 03 93 b8
       -6.8797395e-05 3.455603e-05 -5.579925e-06 -7.010195e-05
000260 5c a7 2c b8 f7 9f ab b6 2e 24 1b 38 5d 17 99 b8
       -4.116386e-05 -5.1148195e-06 3.6988575e-05 -7.29996e-05
000270 95 1a 95 b8 60 da 40 b7 72 ff 07 b8 12 78 3b 36
       -7.109825e-05 -1.1494936e-05 -3.242441e-05 2.7935062e-06
000280 3b f6 2d b8 71 53 9d b6 9e 5a 19 38 5d 17 99 b8
       -4.1475734e-05 -4.6886785e-06 3.6562436e-05 -7.29996e-05
000290 55 d4 96 b8 f7 2b 17 b8 e3 c7 1b b5 88 1b 97 b6
       -7.192107e-05 -3.604215e-05 -5.8032873e-07 -4.5033557e-06
0002a0 a4 89 11 b8 d0 d6 47 b6 9d 2d 12 38 5d 17 99 b8
       -3.469888e-05 -2.9778348e-06 3.4851593e-05 -7.29996e-05
0002b0 ab 4c 97 b8 00 00 00 00 a0 56 18 b6 22 a1 ec 37
       -7.2145216e-05 0.0 -2.2700187e-06 2.8208426e-05
0002c0 22 4b 8b b8 a3 7d 8a b8 a4 09 99 37 2c ec 6f b7
       -6.642031e-05 -6.6037544e-05 1.824351e-05 -1.4300498e-05
0002d0 e8 54 3a b8 7d ad 0c b8 0a 4b 35 b6 90 6f f9 37
       -4.442493e-05 -3.3540175e-05 -2.701478e-06 2.9735063e-05
0002e0 1a 97 8d b8 e9 3a 8c b8 5b 73 21 b7 54 3c 09 b8
       -6.751549e-05 -6.686693e-05 -9.623206e-06 -3.271953e-05
0002f0 4b c1 f9 35 8a 04 fc b7 25 28 2b b6 33 2b f8 37
       1.8608201e-06 -3.0042855e-05 -2.5504353e-06 2.958402e-05
000300 1a 97 8d b8 ba d1 8c b8 74 ec 91 b7 90 0a ad b7
       -6.751549e-05 -6.714785e-05 -1.7395454e-05 -2.0628126e-05
000310 d1 f9 24 b6 2e 72 d6 b7 bb dc 03 b6 c3 41 f3 37
       -2.4583317e-06 -2.5563957e-05 -1.9649003e-06 2.899848e-05
000320 1a 97 8d b8 d3 fa 8c b8 00 00 00 00 57 16 b3 36
       -6.751549e-05 -6.72244e-05 0.0 5.3372164e-06
000330 1c 7c 80 b8 5d f3 e5 38 c0 d7 e5 38 15 46 d1 b7
       -6.126633e-05 0.00010964901 0.000109597575 -2.4947376e-05
000340 c2 04 b5 36 e1 a9 99 38 d5 ee 65 38 72 02 b5 36
       5.3947742e-06 7.327251e-05 5.4820284e-05 5.394505e-06
000350 a1 f3 81 b8 22 4c e7 38 73 8f e6 38 7e f7 8f 37
       -6.196579e-05 0.00011029119 0.00010993974 1.7162176e-05
000360 15 f2 22 38 3b c8 19 b6 a7 78 5f 38 bd f3 b1 36
       3.8849266e-05 -2.2915326e-06 5.327971e-05 5.303386e-06
000370 b5 c2 81 b8 22 4c e7 38 68 e1 e6 38 24 f1 fa 37
       -6.187466e-05 0.00011029119 0.0001100924 2.9914612e-05
000380 db d4 bd 37 2d ca 9d 35 f7 30 3e 38 6a 98 a5 36
       2.2629674e-05 1.1756252e-06 4.5345132e-05 4.9351265e-06
000390 00 fd 80 b8 22 4c e7 38 e2 f8 e6 38 00 00 00 00
       -6.1506405e-05 0.00011029119 0.00011013613 0.0
0003a0 0c be 5d 37 2c 08 ce b8 0a 86 3d 39 88 b8 3c 39
       1.3216875e-05 -9.8243676e-05 0.00018074378 0.0001799782
0003b0 b9 38 09 b8 0c c0 30 38 01 f8 b4 38 58 52 8f 38
       -3.2716172e-05 4.2140528e-05 8.629263e-05 6.834109e-05
0003c0 ae 39 6c 37 9e b1 d2 b8 09 f3 3e 39 fa 10 3e 39
       1.4080126e-05 -0.00010046664 0.0001821035 0.00018126136
0003d0 f0 6f 36 38 15 cb 74 38 60 1d ce b6 58 c2 84 38
       4.349643e-05 5.8363268e-05 -6.142698e-06 6.33045e-05
0003e0 6b bd 68 37 16 42 d2 b8 09 f3 3e 39 0a 73 3e 39
       1.387238e-05 -0.0001002589 0.0001821035 0.00018162667
0003f0 92 16 0c 38 5d 99 76 38 7a 76 6c 36 ba 95 65 38
       3.339962e-05 5.87938e-05 3.5235703e-06 5.47373e-05

exp_avg_sq f4 [256, 29]
000000 72 d5 5d 30 8f 92 a4 32 df e5 e6 34 b9 11 e7 34
       8.0702656e-10 1.915876e-08 4.3008092e-07 4.3039998e-07
000010 69 18 3b 32 fd 70 5f 34 d3 b3 69 34 5e 09 93 34
       1.0890383e-08 2.0809598e-07 2.1765236e-07 2.73877e-07
000020 c3 f7 49 30 73 25 a8 32 fd a0 e5 34 6c 26 e6 34
       7.3475465e-10 1.9574804e-08 4.2771708e-07 4.2868794e-07
000030 59 d3 d6 31 27 55 c1 34 4e 5f c4 33 1a ff 35 34
       6.252247e-09 3.6011008e-07 9.144297e-08 1.6949744e-07
000040 74 e0 4a 30 b3 f0 a7 32 ff a0 e5 34 d9 eb e5 34
       7.380614e-10 1.9550816e-08 4.2771714e-07 4.2826176e-07
000050 82 42 1b 34 1e eb 6c 34 51 c9 a9 33 58 5d 1b 34
       1.4459695e-07 2.2064748e-07 7.906295e-08 1.4469458e-07
000060 44 29 63 30 6e 9f a6 32 ff a0 e5 34 eb dd e5 34
       8.264076e-10 1.9397444e-08 4.2771714e-07 4.281604e-07
000070 00 00 00 00 df 4e e1 30 98 e4 f6 2f 6f 93 91 34
       0.0 1.6393321e-09 4.4909565e-10 2.7115627e-07
000080 06 e1 91 34 d3 c1 17 32 68 90 85 32 b9 65 84 34
       2.717208e-07 8.833427e-09 1.5548906e-08 2.466093e-07
000090 95 00 8a 34 62 d8 d6 30 b4 fe 81 30 c1 8f 90 34
       2.5704927e-07 1.5632049e-09 9.458376e-10 2.6926685e-07
0000a0 e4 0c 91 34 88 c8 3b 31 4e 15 e6 33 91 8f 37 34
       2.7017734e-07 2.732607e-09 1.0714085e-07 1.7095432e-07
0000b0 d7 7f 63 34 32 6e d8 30 72 c0 7c 30 c1 8f 90 34
       2.118753e-07 1.5747388e-09 9.1950547e-10 2.6926685e-07
0000c0 da d5 90 34 5d a9 29 33 02 0a 97 33 9e 07 2e 34
       2.6977688e-07 3.9502414e-08 7.033306e-08 1.6207784e-07
0000d0 59 b6 55 34 7d 4f f4 30 fe 66 42 30 c1 8f 90 34
       1.9903509e-07 1.7775929e-09 7.072315e-10 2.6926685e-07
0000e0 5d c7 90 34 00 00 00 00 89 c2 45 30 b5 1a b6 2f
       2.6967146e-07 0.0 7.1944634e-10 3.3124584e-10
0000f0 54 b3 53 33 79 fd 53 33 30 79 1d 31 f0 fc 36 32
       4.9290364e-08 4.9357798e-08 2.2915394e-09 1.0651306e-08
000100 41 51 1f 33 3d f0 30 33 c5 67 41 30 b2 e3 e3 2f
       3.7093972e-08 4.119669e-08 7.0360456e-10 4.1452847e-10
000110 17 4a 52 33 c6 f0 52 33 90 21 7c 30 b5 91 e0 32
       4.896182e-08 4.9113417e-08 9.172476e-10 2.6143292e-08
000120 a3 01 d1 32 0e ff 0a 33 6d b4 41 30 15 3f df 2f
       2.4331547e-08 3.23626e-08 7.046939e-10 4.0608286e-10
000130 17 4a 52 33 bf a7 52 33 1b 42 35 32 8e eb 8e 32
       4.896182e-08 4.9047e-08 1.0550617e-08 1.6638094e-08
000140 c8 92 c1 32 0e 80 00 33 26 ba 49 30 58 ab d0 2f
       2.2534905e-08 2.9918787e-08 7.3387907e-10 3.7956727e-10
000150 17 4a 52 33 89 95 52 33 00 00 00 00 25 35 6f 2e
       4.896182e-08 4.9030437e-08 0.0 5.438951e-11
000160 b4 8d bf 2e fc 4e eb 32 4e c7 eb 32 30 3f f4 2f
       8.710846e-11 2.7393519e-08 2.7448234e-08 4.442824e-10
000170 59 08 97 31 ea ee c8 32 b3 94 d1 32 5e 7b 0a 2e
       4.3956274e-09 2.339171e-08 2.4398423e-08 3.148714e-11
000180 c4 a5 3b 2f 6b a6 ea 32 b6 29 eb 32 6f 75 f9 2f
       1.7066443e-10 2.7316863e-08 2.7376569e-08 4.5376278e-10
000190 1e 00 48 32 68 ab 8a 32 53 82 ac 32 2f 00 15 2e
       1.1641559e-08 1.6143261e-08 2.00827e-08 3.387884e-11
0001a0 db 6c 39 2f 17 a7 ea 32 34 ef ea 32 80 3f 96 31
       1.6864325e-10 2.7317169e-08 2.7349962e-08 4.3727937e-09
0001b0 d7 08 1d 32 17 20 79 32 16 1c a2 32 5a 86 2d 2e
       9.140613e-09 1.4501004e-08 1.8872054e-08 3.9454974e-11
0001c0 0c 1c 34 2f 17 a7 ea 32 17 e4 ea 32 00 00 00 00
       1.6380869e-10 2.7317169e-08 2.7344909e-08 0.0
0001d0 03 52 5f 31 60 0c 24 32 a0 4e f6 34 76 d2 f6 34
       3.249739e-09 9.54887e-09 4.5878278e-07 4.59742e-07
0001e0 52 5e 8c 32 e1 76 bd 33 e8 c7 be 34 67 1b d1 34
       1.6341037e-08 8.822622e-08 3.553571e-07 3.8949221e-07
0001f0 79 c8 56 31 4c a4 2c 32 2e 5e f5 34 fa e6 f5 34
       3.1255054e-09 1.00490745e-08 4.570333e-07 4.5802864e-07
000200 d2 ad 97 31 a5 69 83 34 f2 62 74 34 c6 ab a0 34
       4.4144395e-09 2.4477518e-07 2.2760267e-07 2.9927304e-07
000210 7d d6 56 31 7d 1e 2c 32 2e 5e f5 34 fa aa f5 34
       3.126302e-09 1.001865e-08 4.570333e-07 4.5759208e-07
000220 f2 15 2b 33 85 da 5e 34 ef 39 68 34 ab df 95 34
       3.9834e-08 2.0754858e-07 2.162776e-07 2.7916153e-07
000230 b7 4e 63 31 32 ef 27 32 2e 5e f5 34 4c 9c f5 34
       3.3077592e-09 9.775066e-09 4.570333e-07 4.5748527e-07
000240 00 00 00 00 67 2e 57 30 c9 42 53 30 c9 a1 87 33
       0.0 7.8282486e-10 7.685626e-10 6.315856e-08
000250 1d fc 87 33 27 6d 4b 31 61 4f 53 31 73 ff 77 33
       6.3322865e-08 2.9602434e-09 3.0749663e-09 5.77415e-08
000260 8d 80 81 33 2b ef 4e 30 14 57 97 30 2c 20 86 33
       6.030414e-08 7.528224e-10 1.1011445e-09 6.245713e-08
000270 42 c8 86 33 51 09 88 30 a0 ad df 32 34 a1 25 33
       6.276288e-08 9.89795e-10 2.6039572e-08 3.856367e-08
000280 4e 07 4f 33 22 da 52 30 58 de 93 30 2c 20 86 33
       4.8202587e-08 7.670754e-10 1.0758852e-09 6.245713e-08
000290 f5 7b 86 33 50 2b b3 31 38 8f ba 32 64 39 1f 33
       6.262409e-08 5.2145097e-09 2.1718378e-08 3.707227e-08
0002a0 32 05 43 33 39 63 75 30 37 a0 80 30 2c 20 86 33
       4.54067e-08 8.9271485e-10 9.358762e-10 6.245713e-08
0002b0 e6 69 86 33 00 00 00 00 f9 0b 5a 2f b3 e9 06 30
       6.259124e-08 0.0 1.9831238e-10 4.908102e-10
0002c0 f4 ee ab 32 29 35 ac 32 1c f0 58 30 af 0c a7 31
       2.0015683e-08 2.004761e-08 7.892156e-10 4.8617816e-09
0002d0 cb 96 74 32 ce 8a 89 32 fa 5c 57 2f 20 1e 0e 30
       1.4236956e-08 1.601202e-08 1.9587168e-10 5.170211e-10
0002e0 a9 0c ab 32 13 79 ab 32 1c 2a b9 2f 3d 74 70 32
       1.9912777e-08 1.9962078e-08 3.3681224e-10 1.3996268e-08
0002f0 68 96 ec 31 54 16 36 32 3d ee 57 2f 8a b5 0d 30
       6.885603e-09 1.0598871e-08 1.9638775e-10 5.1553484e-10
000300 ae 0c ab 32 83 48 ab 32 c7 f4 7e 31 d1 4b 2e 32
       1.9912786e-08 1.9939995e-08 3.7101004e-09 1.0145372e-08
000310 82 95 e1 31 fc 04 23 32 43 68 62 2f 0a 6e 09 30
       6.565359e-09 9.488982e-09 2.0591621e-10 4.9996685e-10
000320 ae 0c ab 32 e2 3b ab 32 00 00 00 00 78 db 88 30
       1.9912786e-08 1.9934252e-08 0.0 9.957679e-10
000330 84 4a 36 31 95 b5 2b 33 75 b9 2b 33 42 89 22 31
       2.6526843e-09 3.9979188e-08 3.9982712e-08 2.3652125e-09
000340 27 ea bd 32 c0 dd 91 32 d0 af c6 32 f6 e5 88 30
       2.2108976e-08 1.6981062e-08 2.3130184e-08 9.960661e-10
000350 ae a5 37 31 65 2e 2b 33 c5 66 2b 33 ff 28 cd 30
       2.6724183e-09 3.9856236e-08 3.990751e-08 1.4927365e-09
000360 40 df 2d 33 e6 93 0f 31 7d b7 3b 32 47 c4 88 30
       4.0482746e-08 2.089331e-09 1.0926553e-08 9.951088e-10
000370 56 71 37 31 68 2e 2b 33 61 4d 2b 33 81 91 99 32
       2.6694429e-09 3.9856246e-08 3.9884416e-08 1.7877712e-08
000380 82 dd ba 32 46 9e 02 31 e1 a5 0b 32 df 15 8a 30
       2.175398e-08 1.9007458e-09 8.128581e-09 1.0047038e-09
000390 74 5a 36 31 68 2e 2b 33 a0 46 2b 33 00 00 00 00
       2.6535902e-09 3.9856246e-08 3.9878273e-08 0.0
0003a0 c0 ba 30 32 bd 59 22 32 3c 59 86 34 c2 83 86 34
       1.028701e-08 9.450045e-09 2.5024372e-07 2.5055311e-07
0003b0 17 b4 94 32 58 84 0f 34 45 fc f7 33 12 ab 20 34
       1.7311363e-08 1.3366059e-07 1.15477214e-07 1.4963396e-07
0003c0 60 5f 2f 32 6d 77 27 32 eb a3 85 34 ba f4 85 34
       1.0208026e-08 9.747834e-09 2.4892447e-07 2.4951242e-07
0003d0 f4 a9 7f 32 56 d8 4f 34 01 2c 91 33 75 14 d9 33
       1.4881596e-08 1.935708e-07 6.760093e-08 1.0108571e-07
0003e0 c5 2a 2f 32 ea de 26 32 eb a3 85 34 fd d0 85 34
       1.0196065e-08 9.7131565e-09 2.4892447e-07 2.492524e-07
0003f0 06 af b2 33 0a 4e 02 34 c5 b1 81 33 a2 b2 c1 33
       8.3206075e-08 1.2135584e-07 6.039367e-08 9.019756e-08

exp_avg f4 [256]
000000 bf 75 09 39 3f 0e ef b8 a6 1c 12 38 67 94 14 b7
       0.00013109202 -0.000113990616 3.4835793e-05 -8.85604e-06
000010 9d bc 0f b9 7d 7a 2c b8 1a d1 29 b8 d5 36 61 38
       -0.00013707807 -4.112207e-05 -4.048748e-05 5.3695247e-05
000020 df c7 c8 38 97 2d c4 38 fe c6 0e 36 46 51 ff 38
       9.573972e-05 9.3545e-05 2.1275478e-06 0.00012174486
000030 e4 e7 cb 37 12 fc c0 b8 07 ea d2 38 26 b7 c3 36
       2.4307468e-05 -9.202225e-05 0.00010057171 5.832774e-06
000040 1c 72 48 b8 d5 e8 8f 36 0e 39 82 35 c4 e3 a0 37
       -4.778999e-05 4.2888373e-06 9.70236e-07 1.9179548e-05
000050 45 f7 30 b9 a9 f5 c4 b8 73 c9 e7 b8 6a 7d ed 37
       -0.00016876783 -9.391766e-05 -0.00011052461 2.8311002e-05
000060 71 18 2e 36 44 b1 ca b8 c0 f1 42 38 a9 ef 05 b6
       2.5942247e-06 -9.665129e-05 4.647835e-05 -1.9958045e-06
000070 81 da 0d b8 75 46 92 b8 c9 2f bc b8 6f 04 ae 38
       -3.3820517e-05 -6.974946e-05 -8.973439e-05 8.2977924e-05
000080 68 98 a7 38 12 d9 95 b8 2f cc 8d 38 e4 48 1d 37
       7.9915684e-05 -7.145306e-05 6.761436e-05 9.3749e-06
000090 a4 3e 69 39 88 f9 a5 38 1e 4a 85 38 c9 ab da b6
       0.00022243947 7.914292e-05 6.3557396e-05 -6.5169047e-06
0000a0 a5 5e 05 38 50 af 12 37 91 b0 85 39 3b ce 03 b9
       3.1797816e-05 8.743096e-06 0.0002549929 -0.0001256996
0000b0 a6 43 2d b8 ba 46 50 37 b1 ea 80 b8 51 c5 e3 34
       -4.1309417e-05 1.2414233e-05 -6.14723e-05 4.2425611e-07
0000c0 76 28 1c b5 a7 55 f6 36 bb c5 24 39 8b 93 87 b8
       -5.8173407e-07 7.3413426e-06 0.00015713919 -6.464784e-05
0000d0 5d 59 2f b7 04 1d 3e 38 78 fc 2c b9 9c 1c ed 38
       -1.0451619e-05 4.5326553e-05 -0.0001649725 0.000113063696
0000e0 da 37 ae b8 eb 58 20 b7 fc 98 ce 38 c3 50 89 b8
       -8.30737e-05 -9.557446e-06 9.851341e-05 -6.547712e-05
0000f0 d4 df bd 37 c7 bc 67 b7 e3 5c 7e b8 72 22 e3 37
       2.2634784e-05 -1.3812626e-05 -6.0644827e-05 2.7076549e-05
000100 16 9c c9 b7 8d 76 96 b8 9e c6 62 37 5b 7e 10 b9
       -2.403375e-05 -7.174639e-05 1.3516894e-05 -0.00013779981
000110 1e 0d 40 39 98 78 4d b8 bf 2b 5c 38 d9 ac 4c 39
       0.00018315433 -4.898812e-05 5.249283e-05 0.00019519347
000120 30 b7 29 38 ed ab 6f 38 e2 6d f1 37 9d 7e 3f b7
       4.0463347e-05 5.714216e-05 2.8780607e-05 -1.1413967e-05
000130 47 bc 40 b7 20 1f 8c 33 15 9f bc b6 d7 ef 81 b8
       -1.14879285e-05 6.5249196e-08 -5.621356e-06 -6.195873e-05
000140 ef e2 fb b8 4f 42 55 39 c6 a0 ad b8 96 2e 28 38
       -0.00012010882 0.00020337965 -8.279229e-05 4.0097708e-05
000150 72 64 89 b8 b6 7c 89 34 e3 a8 94 b8 ae 4c 00 b6
       -6.5513785e-05 2.5608978e-07 -7.0886475e-05 -1.911812e-06
000160 be 4e 1e 39 e3 53 81 b7 af 66 70 b7 47 df b6 b8
       0.00015097388 -1.5417061e-05 -1.4329023e-05 -8.720025e-05
000170 79 dc 8a b7 4e b3 8b b7 d4 e6 b3 b8 fb 9a 8a 38
       -1.6553548e-05 -1.6653586e-05 -8.57838e-05 6.60922e-05
000180 dc cc c2 38 7c 7c 7f 38 b5 eb 2b b9 57 2d 50 b7
       9.288799e-05 6.0912673e-05 -0.00016395639 -1.2408323e-05
000190 fe 2b f3 b6 8c d3 c8 b8 b1 6a d5 b8 00 0b d7 b6
       -7.2470857e-06 -9.576147e-05 -0.00010176504 -6.40878e-06
0001a0 04 98 9b 38 ce bf a0 b5 8d 5b 98 b8 40 76 15 b8
       7.419291e-05 -1.1976751e-06 -7.2649775e-05 -3.5634497e-05
0001b0 c7 6a 86 b8 aa 29 63 b7 ec 92 c7 38 fa f5 47 38
       -6.409507e-05 -1.3539955e-05 9.516426e-05 4.767438e-05
0001c0 14 61 0e 39 e7 d1 db b8 34 60 04 b9 15 65 6c b8
       0.0001357834 -0.00010481831 -0.0001262434 -5.6360925e-05
0001d0 0a fd 58 b8 a3 60 59 39 95 04 25 37 30 82 1f 36
       -5.1734074e-05 0.00020730733 9.835833e-06 2.3768625e-06
0001e0 53 06 94 38 c4 1c 8e 38 dc 56 86 b8 78 70 ab b7
       7.058368e-05 6.776446e-05 -6.405797e-05 -2.043716e-05
0001f0 0e be 83 36 4d 3a 6f b8 ab d6 2e 37 fd 01 af 38
       3.9262295e-06 -5.7036337e-05 1.04211895e-05 8.3450206e-05
000200 25 6d 5d 38 62 c6 17 b6 d6 b5 f1 37 34 69 4b b9
       5.2792155e-05 -2.2616227e-06 2.8814113e-05 -0.0001939878
000210 ee b8 59 37 2f 79 2e 38 60 b6 75 b7 f8 53 69 b8
       1.2977265e-05 4.1597694e-05 -1.46456005e-05 -5.562973e-05
000220 98 c8 d2 38 61 de e0 38 f3 23 fb 38 75 16 ef b8
       0.00010050944 0.00010722574 0.00011975309 -0.00011400591
000230 b7 8b 0c 38 27 23 c5 b8 e8 44 39 38 39 a9 14 b7
       3.350872e-05 -9.40024e-05 4.417161e-05 -8.860888e-06
000240 55 c6 e1 b5 fd 28 ef b8 14 56 15 b8 f2 49 86 36
       -1.6821529e-06 -0.00011404043 -3.5604535e-05 4.0021196e-06
000250 67 df b1 b8 84 df 31 38 6e 64 a8 38 12 7d 91 b8
       -8.4816296e-05 4.2408254e-05 8.029571e-05 -6.937435e-05
000260 33 30 af b6 1c be c1 b8 75 3a 48 b9 b8 e1 bb b7
       -5.2210175e-06 -9.238368e-05 -0.00019095263 -2.2397246e-05
000270 14 73 97 b8 b2 f9 28 38 4c 06 f7 b8 a6 e1 2d 39
       -7.221676e-05 4.0286868e-05 -0.00011779051 0.00016582626
000280 d4 f9 ba b8 48 0e b0 b8 c3 51 f8 b5 3a 39 84 b8
       -8.915705e-05 -8.394994e-05 -1.8501236e-06 -6.30491e-05
000290 eb a6 40 38 95 44 08 39 e9 47 c1 37 66 16 36 b7
       4.593182e-05 0.0001299552 2.3040879e-05 -1.085326e-05
0002a0 a3 12 da 38 08 6a c0 35 3b 76 f4 b8 1c 50 47 b8
       0.000103985214 1.4335974e-06 -0.00011656849 -4.7519905e-05
0002b0 3d 3b b9 36 bc 0e 27 b8 d5 4b f5 b6 33 cc 55 38
       5.520326e-06 -3.9829625e-05 -7.310397e-06 5.0973333e-05
0002c0 4a d1 80 b8 f4 70 5d b6 7c ec 6d b8 16 61 45 37
       -6.142499e-05 -3.2997314e-06 -5.6725446e-05 1.176472e-05
0002d0 ce dd c7 38 9a 63 d2 b7 0a c7 b1 38 7b bc 0d b8
       9.530374e-05 -2.5080331e-05 8.4770916e-05 -3.3792556e-05
0002e0 34 c1 ff 37 99 e0 84 b3 d4 e0 48 b8 61 b6 25 38
       3.0488336e-05 -6.187583e-08 -4.7893103e-05 3.950892e-05
0002f0 84 59 9b b7 61 51 87 38 4a fb 66 36 b7 ab bc b6
       -1.8519124e-05 6.45246e-05 3.441894e-06 -5.622827e-06
000300 9a 72 23 b9 cc 69 a4 34 a7 88 04 b9 d8 94 1c b9
       -0.00015587584 3.0624358e-07 -0.00012639408 -0.00014932768
000310 5d 62 a0 b8 32 45 a6 b4 d0 69 ab b7 52 e8 07 b9
       -7.647716e-05 -3.0970256e-07 -2.0434061e-05 -0.0001296115
000320 cd 85 a0 38 7a ba c3 b7 59 24 18 b7 59 1c 0a b9
       7.654317e-05 -2.3332646e-05 -9.068369e-06 -0.00013171266
000330 43 c4 a1 b6 a2 6a d4 36 95 9a 73 35 44 9b 28 38
       -4.821022e-06 6.330506e-06 9.07495e-07 4.0198924e-05
000340 e0 0c 3d 38 50 ec b5 36 f3 cb c6 b4 d7 c1 59 b8
       4.5073102e-05 5.4217307e-06 -3.7028767e-07 -5.191736e-05
000350 c9 04 bd b8 ff db 23 b9 47 be 1c 37 ff 6d ab 35
       -9.0131136e-05 -0.00015626846 9.342627e-06 1.2772506e-06
000360 bd 4b 18 b9 58 02 eb b8 29 0a cc b8 3f 4f 88 b8
       -0.00014524064 -0.0001120611 -9.7293705e-05 -6.499746e-05
000370 6c 10 6e b8 8a ec 41 38 d2 fe 90 b7 d1 85 96 b8
       -5.6758916e-05 4.623508e-05 -1.7284798e-05 -7.1774826e-05
000380 1b cb 96 b7 c2 38 e4 38 ba b5 2e b9 48 59 ca 38
       -1.7975972e-05 0.00010882459 -0.00016661632 9.6487405e-05
000390 92 e8 c1 b8 11 bb 69 37 1a b3 15 39 7a 45 da b8
       -9.246277e-05 1.3931437e-05 0.00014276468 -0.00010407991
0003a0 17 7c 03 39 ab 7f 31 b4 0f 5d 41 b7 de 9f c1 b8
       0.0001253936 -1.6530855e-07 -1.1525363e-05 -9.232735e-05
0003b0 41 fa db 38 99 dd 10 b8 18 4d 5f b8 49 2e d6 b6
       0.00010489347 -3.4538654e-05 -5.3239142e-05 -6.3830853e-06
0003c0 f1 93 80 35 cc 32 f2 b8 07 7c 3b 37 36 28 37 b8
       9.5798e-07 -0.00011548921 1.1174946e-05 -4.366805e-05
0003d0 b0 f7 c3 b6 49 1b 8b b8 48 cb 16 b8 e7 50 a2 37
       -5.8402875e-06 -6.633119e-05 -3.5952107e-05 1.9349578e-05
0003e0 f3 8f 04 39 b2 02 98 b7 d1 ec bc 36 1f fc e9 38
       0.00012642126 -1.8121067e-05 5.6304057e-06 0.00011157267
0003f0 14 28 9a b8 3a d1 80 38 3f 75 84 35 91 14 23 36
       -7.3507574e-05 6.142487e-05 9.86889e-07 2.4300864e-06
