ml-agents-release_20/Result/Dino/Dino04/Dino/Dino-999956.pt (torch, 205607 bytes, 21 tensors)

network_body._body_endoder.seq_layers.0.weight f4 [256, 29]
-0.0970378 -0.22139657 0.013621755 0.27340174 -0.22542845 0.3182455 -0.25681686 -0.09842771
-0.06620986 0.30834168 -0.022598408 -0.013861601 0.03433275 0.1314703 0.020000517 0.10336215
-0.16918933 0.021397613 0.19946593 0.0700903 0.19270486 -0.28742704 -0.49704915 -0.04921774
-0.24395867 0.110495865 -0.044195734 0.05179304 -0.04840853 -0.06627033 0.15375578 0.012526353
0.04097035 0.15037827 -0.47249708 -0.036480863 0.09742257 -0.039158404 -0.099684045 -0.17563896
0.022327246 -0.023969522 -0.2814286 0.102862775 0.39257237 0.12240626 0.399563 -0.059806995
0.24419037 -0.09684799 -0.3551269 0.07634723 0.34152105 -0.014244048 -0.15509309 0.31908682
0.17276932 0.016968964 0.14239734 -0.27822804 0.22376134 -0.13862908 0.17727394 0.0445061
-0.24505338 -0.06874166 0.17067875 0.060035106 0.2901316 -0.13348795 -0.2798417 0.2171945
-0.11952481 0.14070544 0.1186547 -0.061561447 -0.08528584 -0.059703775 0.02231332 -0.35916767
-0.20129561 0.35615078 0.12482077 0.014624242 0.027053814 0.04504611 0.13528581 0.22496615
-0.14186206 -0.095762216 0.19778232 -0.12987188 -0.020015672 0.037288778 0.21876095 0.120832145
0.1554126 0.17750111 0.42160442 0.14722073 -0.08688659 0.08327654 0.21995763 -0.0103115
0.11669743 0.12751243 0.035666864 0.10671365 -0.026242808 -0.15615916 -0.0028042435 -0.5551585
0.12306903 0.21788988 0.33278525 -0.3658808 0.11214848 -0.07532229 -0.23246792 0.07673681
0.039303202 -0.0306415 -0.06474181 -0.12103607 0.29957885 -0.07400931 0.25438693 -0.09676176
-0.07821857 -0.11365213 0.19764006 0.24722764 0.06790183 0.21673806 -0.047720406 0.2768528
-0.31092554 0.19984753 0.15338767 0.11182252 -0.04426953 -0.030900927 0.1353695 0.092732936
-0.012992825 -0.2534326 -0.03689809 0.17267154 0.34604695 0.3291743 -0.25777903 0.21424298
0.07822751 -0.13441367 0.10768538 -0.0716217 0.14040673 -0.0007642638 -0.29516163 -0.06375031
0.20524047 -0.08160488 -0.008974333 -0.115488485 0.06450269 -0.20405425 0.04159323 0.22757268
0.02789219 0.23671131 -0.109078385 -0.36457732 -0.233053 -0.34584114 0.012673567 -0.04605258
-0.08725644 0.26523203 0.056136105 0.0977274 0.21631558 0.18888956 -0.08985827 0.19081926
0.24815848 0.033876255 0.13220128 -0.003136483 0.27119714 -0.14261632 0.25526327 0.11732372
0.007124325 0.008374881 -0.19596621 -0.046616882 0.003896682 -0.027357593 0.29108438 -0.073906384
-0.019635756 0.18882006 0.1750593 -0.111774415 0.18110137 0.09134616 0.18846971 -0.18269937
-0.20953396 -0.21979527 -0.48203588 0.16181561 0.020072527 -0.35360867 0.30355155 -0.21906924
0.32941982 -0.40820938 -0.22391269 -0.0562967 -0.13598807 0.12753777 -0.04398905 0.29912904
-0.18828462 -0.05618505 0.29758745 0.17886972 0.0010051293 -0.025759589 0.13653049 -0.23084445
0.32596663 -0.16089128 0.003749773 0.17308243 -0.06471945 0.43282887 -0.2861227 -0.10272418
0.33314472 -0.032886777 0.20624232 -0.20791656 -0.002508816 -0.17833444 -0.12889276 0.047031492
0.057651363 -0.03168916 -0.086030245 0.1881196 0.42684904 0.10524488 0.027620379 -0.05958845
00000000: c1bb c6bd c8b5 62be c82d 5f3c 50fb 8b3e
00000010: b7d6 66be 13f1 a23e 807d 83be 7894 c9bd
00000020: 0999 87bd f6de 9d3e 4c20 b9bc c51b 63bc
00000030: 7fa0 0c3d 26a0 063e 20d8 a33c 89af d33d
00000040: f83f 2dbe 0c4a af3c cc40 4c3e 818b 8f3d
00000050: 6c54 453e a329 93be 3a7d febe 8a98 49bd
00000060: 4dd0 79be a84b e23d 9606 35bd f024 543d
00000070: 0648 46bd bdb8 87bd 2872 1d3e 553b 4d3c
00000080: 87d0 273d c3fc 193e 23eb f1be f56c 15bd
00000090: 7c85 c73d 9064 20bd 2627 ccbd b3da 33be
000000a0: a1e7 b63c bb5b c4bc 6917 90be b8a9 d23d
000000b0: 3fff c83e 22b0 fa3d 8693 cc3e 2ef8 74bd
000000c0: 0a0d 7a3e 3d58 c6bd 31d3 b5be f05b 9c3d
000000d0: d9db ae3e de5f 69bc b9d0 1ebe 595f a33e
000000e0: 71ea 303e 7f02 8b3c 9cd0 113e e873 8ebe
000000f0: b121 653e c8f4 0dbe 4d87 353e 074c 363d
00000100: 46ef 7abe 6dc8 8cbd 69c6 2e3e 5fe7 753d
00000110: 218c 943e 11b1 08be 6947 8fbe 3c68 5e3e
00000120: 6cc9 f4bd 1615 103e 3c01 f33d db27 7cbd
00000130: 58aa aebd f28b 74bd 6cca b63c d3e4 b7be
00000140: 7020 4ebe 6559 b63e 08a2 ff3d 849a 6f3c
00000150: f69f dd3c 4582 383d 5d88 0a3e 875d 663e
00000160: 4a44 11be fb1e c4bd 7387 4a3e 22fd 04be
00000170: e8f7 a3bc 1ebc 183d df02 603e d876 f73d
00000180: 7b24 1f3e dac2 353e 89dc d73e 08c1 163e
00000190: 99f1 b1bd e48c aa3d 933c 613e 91f1 28bc
000001a0: 10ff ee3d 9e92 023e 6b17 123d b08c da3d
000001b0: 28fb d6bc 30e8 1fbe 66c7 37bb de1e 0ebf
000001c0: 9e0b fc3d 861e 5f3e d462 aa3e ba54 bbbe
000001d0: 1aae e53d 9342 9abd 120c 6ebe 3028 9d3d
000001e0: 65fc 203d e203 fbbc 5b97 84bd c2e1 f7bd
000001f0: 6662 993e 3192 97bd 013f 823e 082b c6bd
00000200: 0f31 a0bd 73c2 e8bd 2862 4a3e 3e29 7d3e
00000210: 1d10 8b3d 95f0 5d3e 7976 43bd a6bf 8d3e
00000220: a231 9fbe d5a4 4c3e a811 1d3e 3503 e53d
00000230: f753 35bd f123 fdbc 4d9e 0a3e c4ea bd3d
00000240: dcdf 54bc ebc1 81be 7422 17bd cfd0 303e
00000250: 112d b13e 8989 a83e 9dfb 83be 8362 5b3e
00000260: bf35 a03d bda3 09be 278a dc3d 66ae 92bd
00000270: c8c6 0f3e e058 48ba 6d1f 97be 868f 82bd
00000280: 8f2a 523e 7620 a7bd 1509 13bc 3a85 ecbd
00000290: fd19 843d 99f3 50be aa5d 2a3d d008 693e
000002a0: 297e e43c 7364 723e 7d64 dfbd e1a9 babe
000002b0: 72a5 6ebe 1712 b1be cba4 4f3c a1a1 3cbd
000002c0: 81b3 b2bd 7ecc 873e f9ee 653d 4e25 c83d
000002d0: d581 5d3e 446c 413e 9d07 b8bd 2066 433e
000002e0: 421d 7e3e d4c1 0a3d c65f 073e 748d 4dbb
000002f0: 5ada 8a3e 030a 12be deb1 823e 6b47 f03d
00000300: 2b73 e93b cc36 093c 5eab 48be 58f1 3ebd
00000310: 7a5f 7f3b 081d e0bc 0309 953e 3b5c 97bd
00000320: 2adb a0bc 0c5a 413e bf42 333e fce9 e4bd
00000330: a372 393e b213 bb3d 34fe 403e 8b15 3bbe
00000340: 1290 56be 0312 61be 68cd f6be feb2 253e
00000350: 246f a43c 320c b5be 1c6b 9b3e b053 60be
00000360: b7a9 a83e d200 d1be 5e49 65be 5e97 66bd
00000370: 7540 0bbe 4399 023e dd2d 34bd 7127 993e
00000380: afcd 40be 4c22 66bd 625d 983e a029 373e
00000390: 8bbe 833a c605 d3bc a6ce 0b3e 7d62 6cbe
000003a0: 19e5 a63e afc0 24be c0be 753b 853c 313e
000003b0: a28b 84bd bf9b dd3e ad7e 92be 0e61 d2bd
000003c0: f291 aa3e 49b4 06bd 3031 533e 14e8 54be
000003d0: f36a 24bb 4e9d 36be 77fc 03be 18a4 403d
000003e0: d623 6c3d 7ecc 01bd a030 b0bd 6da2 403e
000003f0: f58b da3e a18a d73d 2244 e23c 0513 74bd

network_body._body_endoder.seq_layers.0.bias f4 [256]
0.01591068 0.035628002 -0.005134753 -0.002232783 0.03525724 0.06193738 0.013446012 0.06072103
0.01726398 0.01405357 0.054977242 0.005916968 -0.0042733224 0.048660234 -0.0051944423 -0.014990343
0.011720647 0.036261354 -0.0008176234 -0.0032235873 0.06411197 0.053229913 0.02527314 -0.0006333021
0.027933547 0.025018184 -0.0041877334 -0.006343315 0.025131626 0.038083088 0.03027554 0.03337607
0.0076950965 0.019502915 0.036861714 0.029942803 0.02692291 0.004650117 0.0010928767 0.012422366
0.0009268312 -0.0033639758 0.04060015 0.02240038 0.005343598 -0.003925394 0.0121623445 0.018835593
-0.015483992 -0.006790669 0.042736772 0.026782554 -0.0015928856 0.0003730517 0.0381409 0.006890997
0.014575206 0.00043126108 0.013682819 0.039040376 0.009235559 -0.014277772 0.0062436345 -0.009014805
0.041848626 0.018929616 -0.012990627 0.026601348 0.010034588 0.041453563 0.047277432 0.03204009
0.000248655 0.009948412 0.0086725615 0.0266497 0.041938614 0.040497206 -0.008190941 0.036876187
0.05378412 0.018421605 0.015201558 0.018337008 0.026356107 -0.00506364 0.015058982 0.005992842
0.02090173 0.00735253 0.019264964 0.026406093 0.0013030798 0.024841603 0.012238453 0.013520033
0.0072400407 -0.0015022942 0.04042207 0.02449223 0.027225332 0.030111048 0.025759028 0.040091496
0.007782796 -0.01999238 0.028566234 0.028182115 0.018875415 0.041094247 0.037907686 0.015243167
0.026715074 0.025466869 0.026136415 0.021096807 0.0051825144 0.02487355 -0.009907957 -0.006519148
-0.0025423695 0.039794512 0.022581156 -0.0024207432 -0.015153817 0.0629376 -0.003817203 0.016786674
0.029299706 0.041704178 -0.00060879806 0.03771002 0.00045632612 0.012610639 -0.0009311374 0.0052425796
0.010609775 0.015768202 0.023148123 0.053084325 -0.005811606 0.022441488 0.00078389724 -0.010979419
-0.026076023 0.031154111 0.0057599284 0.000967393 0.017957037 0.041627917 0.0067601763 0.034992713
0.030663636 0.029773675 0.03958328 0.042452775 0.022459975 -0.007490808 0.042012412 0.017056055
0.022253457 0.024245007 -0.016251378 0.029243113 0.007613351 0.023616515 -0.0047352584 0.041853793
0.0010698667 -0.0017083898 0.017844627 0.016007962 -0.016734183 0.0076749874 -0.010611778 0.0049808803
0.03600296 -0.0086486265 0.038341593 -0.01490982 0.005470428 0.0015723562 0.016361091 0.0062197745
0.009914119 0.0023841327 0.04086965 0.058289677 0.014748502 0.045971375 -0.034007244 0.03278702
0.038516823 -0.0029144161 0.029341549 0.028247371 0.020823305 0.010015843 0.051847003 0.03103774
0.033397254 0.05346213 0.015833115 0.027126407 0.05549047 -0.0031817234 -0.0031613323 0.026614862
-0.0011168054 0.024882326 -0.013340454 0.01030526 0.036532216 0.045504276 -0.007267039 0.0011730437
0.043157753 0.02552676 0.026206048 0.023504194 0.012755136 0.0063855257 0.06371233 0.025923677
0.05832873 0.006728492 0.040200505 0.0019596107 0.033547316 0.01109916 0.01721469 0.035295244
0.044556476 0.006223762 -0.013736773 0.014322239 0.018841714 0.033761375 0.029362928 0.023712937
-0.02741217 0.03656989 -0.018132458 0.012083012 0.056658145 0.018916178 0.03889873 -0.0044427416
0.022820331 0.003103088 -0.007495679 0.022288054 0.020185592 0.0318774 0.00047784825 0.018213913
00000000: 1d57 823c abee 113d 6e41 a8bb e253 12bb
00000010: e569 103d 0db2 7d3d a94c 5c3c 9db6 783d
00000020: 316d 8d3c f240 663c d12f 613d 20e3 c13b
00000030: 3a07 8cbb f44f 473d 2436 aabb 0e9a 75bc
00000040: f507 403c c986 143d c755 56ba d242 53bb
00000050: 234d 833d 9c07 5a3d 9e09 cf3c 2f04 26ba
00000060: e5d4 e43c eff2 cc3c 4139 89bb 95db cfbb
00000070: d7e0 cd3c 03fd 1b3d 6904 f83c 59b5 083d
00000080: 2627 fc3b 94c4 9f3c 4ffc 163d 9c4a f53c
00000090: 6f8d dc3c 0260 983b db3e 8f3a 2e87 4b3c
000000a0: 97f6 723a 2676 5cbb 584c 263d 0081 b73c
000000b0: 5919 af3b 97a0 80bb 9244 473c 1a4d 9a3c
000000c0: 92b0 7dbc 4384 debb c10c 2f3d 1667 db3c
000000d0: 5fc8 d0ba 2796 c339 a239 1c3d dfcd e13b
000000e0: d8cc 6e3c e21a e239 e72d 603c cde8 1f3d
000000f0: be50 173c 51ed 69bc 6797 cc3b d5b2 13bc
00000100: 7769 2b3d 4812 9b3c a4d6 54bc 12eb d93c
00000110: 1d68 243c 36cb 293d fba5 413d 783c 033d
00000120: e95d 8239 aafe 223c 5c17 0e3c 7950 da3c
00000130: d3c7 2b3d 66e0 253d 4c33 06bc 7c0b 173d
00000140: bd4c 5c3d e8e8 963c f50f 793c 7e37 963c
00000150: c3e8 d73c e4ec a5bb f3b9 763c 9a5f c43b
00000160: 1b3a ab3c 7eed f03b 8fd1 9d3c 9751 d83c
00000170: 1acc aa3a 9e80 cb3c cb83 483c 2183 5d3c
00000180: dd3d ed3b a1e8 c4ba 9d91 253d eea3 c83c
00000190: a907 df3c 72ab f63c 9904 d33c fb36 243d
000001a0: d306 ff3b 0fc7 a3bc bc03 ea3c 2ede e63c
000001b0: 9da0 9a3c 7152 283d 1745 1b3d 7abe 793c
000001c0: 92d9 da3c e59f d03c 091c d63c 36d3 ac3c
000001d0: 15d2 a93b 9dc3 cb3c fc54 22bc 949e d5bb
000001e0: e29d 26bb 92ff 223d 1efc b83c 55a5 1ebb
000001f0: b747 78bc 6ee5 803d 0a2a 7abb 3584 893c
00000200: f005 f03c 00d2 2a3d bf97 1fba d275 1a3d
00000210: 0e3f ef39 db9c 4e3c 9317 74ba f2c9 ab3b
00000220: 9fd4 2d3c 512c 813c 22a1 bd3c f36e 593d
00000230: 496f bebb 36d7 b73c 747e 4d3a 05e3 33bc
00000240: 629d d5bc e836 ff3c c8bd bc3b a598 7d3a
00000250: a31a 933c 0982 2a3d 7884 dd3b 8554 0f3d
00000260: 4e32 fb3c ece7 f33c 1422 223d f6e2 2d3d
00000270: fbfd b73c 7475 f5bb 3515 2c3d 24b9 8b3c
00000280: e24c b63c 779d c63c 9c21 85bc 418f ef3c
00000290: 6b79 f93b 6c77 c13c 3a2a 9bbb e26e 2b3d
000002a0: c53a 8c3a 0dec dfba e52e 923c 2123 833c
000002b0: 2016 89bc 767e fb3b 06dd 2dbc a736 a33b
000002c0: d777 133d f8b2 0dbc 130c 1d3d 5148 74bc
000002d0: 4741 b33b 8517 ce3a b207 863c 40cf cb3b
000002e0: d46e 223c 1c3f 1c3b ef66 273d 28c1 6e3d
000002f0: b3a3 713c 7b4c 3c3d 2e4b 0bbd af4b 063d
00000300: d1c3 1d3d caff 3ebb b05d f03c 0867 e73c
00000310: a395 aa3c 7e19 243c 865d 543d dc42 fe3c
00000320: 8fcb 083d 1bfb 5a3d 73b4 813c 3338 de3c
00000330: fa49 633d 7684 50bb 5b2e 4fbb 6907 da3c
00000340: c561 92ba 05d6 cb3c eb91 5abc 65d7 283c
00000350: cea2 153d b162 3a3d 5720 eebb d1c0 993a
00000360: 2fc6 303d 7f1d d13c 11ae d63c de8b c03c
00000370: ebfa 503c ac3d d13b 9c7b 823d e45d d43c
00000380: 1bea 6e3d af7a dc3b 49a9 243d d06c 003b
00000390: e968 093d 40d9 353c d205 8d3c bf91 103d
000003a0: da80 363d b3f0 cb3b 3410 61bc d3a7 6a3c
000003b0: f059 9a3c 5e49 0a3d 868a f03c a241 c23c
000003c0: 7d8f e0bc 4fca 153d 858a 94bc d3f7 453c
000003d0: 5f12 683d 1af6 9a3c 4654 1f3d 6b94 91bb
000003e0: b4f1 ba3c 2d5d 4b3b 509e f5bb 7095 b63c
000003f0: 415c a53c e091 023d b587 fa39 5835 953c

action_model._discrete_distribution.branches.0.weight f4 [2, 256]
-0.08047627 0.06069605 -0.026106576 -0.0074054226 0.08581427 0.06313968 0.012321066 -0.06265033
-0.06398878 -0.08504045 0.022960981 -0.04779637 -0.011051427 0.098614484 -0.07844956 -0.0037938128
0.034140732 0.013154805 0.00027736722 -0.0045839143 0.094542734 0.08695869 0.05170951 -0.014463904
-0.032574996 0.054034498 -0.01789501 -0.0031196787 0.046048697 0.08388264 0.03970072 -0.06187316
-0.06234721 0.03731778 -0.079243794 0.018789655 -0.090808205 -0.051761687 -0.04974867 0.012250726
-0.030919636 0.0023386162 -0.11315076 0.043334194 0.01045721 -0.016473686 0.03023521 0.021150189
-0.0017106697 0.0012104423 -0.073405884 0.030467272 0.005363064 -0.030195722 0.07980105 -0.036980405
0.02155129 -0.00041887042 -0.07192112 0.062137924 -0.036069494 0.0058533917 0.011566828 -0.013399398
0.065654956 0.04550311 0.005845605 0.061345186 -0.07214725 0.056569695 -0.07815081 -0.08393251
-0.017712263 -0.0559703 -0.03182855 0.03154549 0.020281762 0.0048866197 -0.023053262 0.056107894
0.100048825 -0.058425132 0.0345209 -0.0492429 0.037641633 -0.007976022 0.03002449 -0.0032639303
-0.099821895 0.028439524 0.024805369 0.05610283 0.0032394724 0.024634033 0.030223351 -0.081271134
-0.03970836 -0.023605771 0.09273631 -0.025865415 0.031875964 0.05079976 0.05650758 0.02476769
-0.047294613 -0.0018563677 0.034709174 0.029666062 0.045098893 0.015774928 -0.08776797 -0.046835788
-0.07105063 0.04999119 0.059182193 0.03975859 0.008971565 -0.09639547 -0.012346591 0.0003446767
-0.021337073 -0.06291785 0.035314746 0.0013112266 0.0011960921 0.07264845 -0.013047448 -0.06691842
-0.05939411 0.025090199 -0.019272406 0.071932234 -0.024920015 -0.025355136 0.0035212522 0.011849036
-0.05719099 -0.05441202 -0.100567594 0.1038183 -0.03364055 0.038681168 -0.027588114 -0.008250121
0.0026191976 0.05663809 0.007915557 0.0028286895 0.030089952 -0.06038651 -0.05422696 0.0833888
0.015306836 0.05630467 0.10648383 0.075861044 0.04817186 -0.029700065 0.08299192 -0.05842654
0.040345985 0.048017226 -0.0042859092 0.03819128 -0.04366964 -0.056024913 -0.022004956 0.019537905
-0.040525887 -0.01050099 0.03957648 0.037811153 -0.00540338 0.020167468 -0.0046959845 -0.065160066
0.086917035 -0.008488268 0.04202317 0.0029992037 -0.04453216 0.013813314 -0.057959247 0.0060065757
-0.039488755 -0.007838379 0.06728981 -0.09475335 0.008708332 -0.057554785 0.0024783143 0.012345148
0.09171166 -0.010011956 0.059643093 0.06395267 0.022301948 -0.0027530557 0.037757847 0.063699804
-0.069541164 0.07612986 -0.027040372 0.08111076 0.07072929 -0.002107742 -0.0031944467 -0.09776375
-0.020674486 0.02531901 -0.010366872 0.02441125 0.07383847 0.06300546 -0.00823885 -0.0039194617
0.085351825 0.06198238 0.051164202 0.052121125 0.021320108 -0.05607796 0.06363049 0.04119252
0.0362165 -0.046895497 0.06958754 -0.03769863 0.052119065 -0.032755714 -0.0776018 0.06318166
-0.1008848 -0.0011259582 -0.0021757917 0.03211744 -0.099932365 0.039838485 0.085027635 0.016319193
-0.009754133 0.060170546 -0.0073421174 0.015456474 0.05694259 0.03690616 0.06528633 -0.0302893
-0.05103535 0.007875519 0.002307779 -0.056944177 0.04621177 -0.065544516 -0.004424967 0.008561911
00000000: bed0 a4bd 6c9c 783d 75dd d5bc 30a9 f2bb
00000010: 64bf af3d 604f 813d 4cde 493c d14e 80bd
00000020: 8d0c 83bd b029 aebd ab18 bc3c 20c6 43bd
00000030: 0b11 35bc 64f6 c93d 2aaa a0bd 9ea1 78bb
00000040: 27d7 0b3d 4087 573c 996b 9139 a934 96bb
00000050: 9f9f c13d 6617 b23d 5acd 533d 03fa 6cbc
00000060: 5c6d 05bd 4753 5d3d 8e98 92bc 8673 4cbb
00000070: 8f9d 3c3d a9ca ab3d 399d 223d b66e 7dbd
00000080: ca5f 7fbd 87da 183d 924a a2bd c3ec 993c
00000090: a7f9 b9bd 1004 54bd 43c5 4bbd 45b7 483c
000000a0: 2d4b fdbc 7843 193b 96bb e7bd 327f 313d
000000b0: b854 2b3c d3f3 86bc d5af f73c 2943 ad3c
000000c0: 8d38 e0ba b4a7 9e3a d355 96bd 8096 f93c
000000d0: a4bc af3b 055d f7bc bc6e a33d c478 17bd
000000e0: 558c b03c d69b dbb9 614b 93bd 5684 7e3d
000000f0: 9bbd 13bd cfcd bf3b cb82 3d3c 2689 5bbc
00000100: 1b76 863d 7861 3a3d 7d8c bf3b 1745 7b3d
00000110: f0c1 93bd a0b5 673d 880d a0bd cfe4 abbd
00000120: 4f19 91bc 1d41 65bd a75e 02bd d835 013d
00000130: f025 a63c f01f a03b 32da bcbc 64d1 653d
00000140: 66e6 cc3d 314f 6fbd ca65 0d3d ecb2 49bd
00000150: 1d2e 1a3d dcad 02bc ebf5 f53c aae7 55bb
00000160: 6c6f ccbd 01fa e83c a134 cb3c 15cc 653d
00000170: 544d 543b 50cd c93c f696 f73c 7b71 a6bd
00000180: 3ca5 22bd e460 c1bc 89ec bd3d b5e3 d3bc
00000190: 5f90 023d 6913 503d 7e74 673d 9ce5 ca3c
000001a0: ffb7 41bd 5d51 f3ba 352b 0e3d 3e06 f33c
000001b0: 9eb9 383d 6c3a 813c b2bf b3bd e2d6 3fbd
000001c0: fe82 91bd 90c3 4c3d 0769 723d e7d9 223d
000001d0: 79fd 123c fd6a c5bd 5b49 4abc b9b5 b439
000001e0: 16cb aebc 13db 80bd 32a6 103d 77dd ab3a
000001f0: 31c6 9c3a b6c8 943d f7c4 55bc 860c 89bd
00000200: 3d47 73bd f689 cd3c 2ae1 9dbc 3551 933d
00000210: 0f25 ccbc 93b5 cfbc cfc4 663b 7622 423c
00000220: 1941 6abd 23df 5ebd 62f6 cdbd b09e d43d
00000230: acca 09bd 2570 1e3d 7800 e2bc 842b 07bc
00000240: d8a6 2b3b 58fd 673d 41b0 013c 8961 393b
00000250: 347f f63c d857 77bd 171d 5ebd bfc7 aa3d
00000260: 86c9 7a3c ba9f 663d 3214 da3d 095d 9b3d
00000270: db4f 453d 8d4d f3bc abf7 a93d ab50 6fbd
00000280: d541 253d b6ad 443d d070 8cbb 766e 1c3d
00000290: f0de 32bd 617a 65bd bd43 b4bc f50d a03c
000002a0: 79fe 25bd 580c 2cbc f21a 223d dedf 1a3d
000002b0: d60e b1bb 3f36 a53c c6e0 99bb a472 85bd
000002c0: 8f01 b23d 6012 0bbc 7d20 2c3d 4a8e 443b
000002d0: 5b67 36bd 3d51 623c ad66 6dbd cfd2 c43b
000002e0: f6be 21bd 8b6c 00bc 3dcf 893d 0b0e c2bd
000002f0: 64ad 0e3c 91be 6bbd 376b 223b 4e43 4a3c
00000300: 53d3 bb3d 3009 24bc 514c 743d 9ef9 823d
00000310: 93b2 b63c 9c6c 34bb f9a7 1a3d 0b75 823d
00000320: 996b 8ebd f9e9 9b3d c583 ddbc 661d a63d
00000330: 85da 903d 0b22 0abb ec59 51bb 5c38 c8bd
00000340: 8a5d a9bc d069 cf3c d0d9 29bc 1afa c73c
00000350: a038 973d 0209 813d 3efc 06bc d46e 80bb
00000360: f0cc ae3d 3ce1 7d3d 8e91 513d f67c 553d
00000370: 82a7 ae3c 01b2 65bd b450 823d 7db9 283d
00000380: c157 143d 7e15 40bd ea83 8e3d e169 1abd
00000390: cd7a 553d db2a 06bd b1ed 9ebd 6365 813d
000003a0: b19c cebd e394 93ba ba97 0ebb 948d 033d
000003b0: 57a9 ccbd ae2d 233d f822 ae3d d4af 853c
000003c0: cdcf 1fbc 6475 763d 2596 f0bb 273d 7d3c
000003d0: a23c 693d ea2a 173d d7b4 853d 4421 f8bc
000003e0: 710a 51bd 5208 013c 1b3e 173b 4c3e 69bd
000003f0: 8e48 3d3d 343c 86bd 50ff 90bb 4247 0c3c

action_model._discrete_distribution.branches.0.bias f4 [2]
0.0057180393 -0.005718042
00000000: 645e bb3b 6a5e bbbb

exp_avg f4 [256, 29]
-1.4656186e-05 5.644721e-06 -0.0001432873 -0.00014333175 -4.3278607e-05 -2.9547915e-05 -7.947231e-05 -0.00012407752
-1.4610959e-05 5.576579e-06 -0.00014326443 -0.00014336627 -1.3597617e-05 -0.0001325364 -6.1648607e-06 -0.00010909302
-1.4634693e-05 5.6003146e-06 -0.00014326443 -0.00014332208 -0.00015213834 -2.9182702e-06 2.7577462e-06 -8.8800894e-05
-1.4642894e-05 5.608516e-06 -0.00014326443 -0.00014331349 0.0 2.3295794e-05 -8.433759e-07 9.7632335e-05
9.7702956e-05 5.0117775e-05 1.0648866e-05 5.9318118e-05 9.129419e-05 2.3224131e-05 -7.0054944e-07 9.756119e-05
9.7761156e-05 2.2567816e-05 9.398097e-05 3.5359965e-06 8.280693e-05 2.3293318e-05 -7.697354e-07 9.756119e-05
9.7673525e-05 0.0001296434 -4.2819916e-06 -5.2766286e-06 6.7076966e-05 2.330827e-05 -7.8468776e-07 9.756119e-05
9.765656e-05 0.0 -1.6816293e-05 9.672149e-07 -5.0337072e-05 -5.0353916e-05 -2.9629764e-05 -8.596805e-06
-2.7959597e-05 -4.501759e-05 -1.6799228e-05 9.351682e-07 -5.0322087e-05 -5.0371877e-05 -1.6551181e-05 -4.8212023e-05
-1.42296e-06 -3.8771417e-05 -1.682159e-05 9.575323e-07 -5.0322087e-05 -5.0349834e-05 -6.414358e-05 -3.4106147e-06
1.3680465e-06 -3.1542215e-05 -1.6820492e-05 9.564293e-07 -5.0322087e-05 -5.0345807e-05 0.0 7.3092514e-07
-1.17833366e-07 4.686308e-06 4.688998e-06 2.0636567e-06 9.678764e-07 2.2678678e-06 4.0758487e-06 7.2819427e-07
-1.1223363e-07 4.68344e-06 4.6896025e-06 6.936957e-07 4.456883e-06 1.4882322e-07 3.7051216e-06 7.299467e-07
-1.1398604e-07 4.68344e-06 4.6869186e-06 5.648486e-06 -1.4775863e-07 -2.0132475e-07 2.9948258e-06 7.3124966e-07
-1.15289076e-07 4.68344e-06 4.686364e-06 0.0 3.2548516e-05 -4.27046e-06 9.381599e-05 9.390195e-05
6.8417314e-05 2.167846e-05 3.1998283e-05 7.8546516e-05 3.2461267e-05 -4.1141498e-06 9.374692e-05 9.39455e-05
3.180174e-05 8.7794164e-05 2.4981616e-06 7.245043e-05 3.252645e-05 -4.179331e-06 9.374692e-05 9.385863e-05
0.00013023028 -1.9024006e-06 -6.233807e-06 5.8361242e-05 3.2543132e-05 -4.1960107e-06 9.374692e-05 9.3841736e-05
0.0 2.1877773e-05 -1.5619079e-06 5.445132e-05 5.4518085e-05 4.4104803e-05 6.11702e-06 2.4545367e-05
4.982814e-05 2.180994e-05 -1.4190832e-06 5.4376327e-05 5.4589716e-05 2.1351623e-05 5.2017636e-05 1.3979469e-06
4.6431847e-05 2.1888638e-05 -1.4977818e-06 5.4376327e-05 5.4496e-05 8.409875e-05 -5.042478e-06 -4.289071e-06
3.7384343e-05 2.1900996e-05 -1.5101415e-06 5.4376327e-05 5.447804e-05 0.0 1.00517855e-05 -1.1211237e-06
2.9907957e-05 2.9929635e-05 1.921345e-05 6.2018853e-06 1.3423289e-05 2.5750032e-05 1.0029776e-05 -1.0755053e-06
2.9884346e-05 2.994594e-05 9.804234e-06 2.8067585e-05 9.668067e-07 2.3701192e-05 1.0053177e-05 -1.0989066e-06
2.9884346e-05 2.991886e-05 4.2264863e-05 -1.8857022e-06 -1.5405305e-06 1.9115529e-05 1.005733e-05 -1.1030598e-06
2.9884346e-05 2.991365e-05 0.0 -2.2962455e-05 2.8131592e-06 -8.168989e-05 -8.169376e-05 -4.0021347e-05
-1.5150871e-05 -4.6667014e-05 -7.18432e-05 -2.2958491e-05 2.7697977e-06 -8.1650505e-05 -8.169699e-05 -2.2426339e-05
-7.746879e-05 -1.9441109e-06 -6.310865e-05 -2.2976807e-05 2.7881154e-06 -8.1650505e-05 -8.1676546e-05 -0.00010212553
-6.959821e-07 9.822643e-07 -5.1256706e-05 -2.2992861e-05 2.8041698e-06 -8.1650505e-05 -8.167206e-05 0.0
-4.6683865e-05 3.591011e-06 -8.489179e-05 -8.492936e-05 -6.5431435e-05 -2.0975354e-05 -4.157788e-05 -7.1543545e-05
-4.664568e-05 3.5324845e-06 -8.4871455e-05 -8.493892e-05 -4.586532e-05 -7.882638e-05 -3.292996e-06 -6.0604518e-05
-4.6673606e-05 3.5604164e-06 -8.4871455e-05 -8.490916e-05 -0.000121834906 -8.036229e-06 1.8864314e-06 -4.9354025e-05
00000000: d7e3 75b7 c967 bd36 643f 16b9 534b 16b9
00000010: 0d86 35b8 aadd f7b7 5faa a6b8 ce1a 02b9
00000020: 9721 75b7 731e bb36 4139 16b9 9754 16b9
00000030: 5221 64b7 78f9 0ab9 c0db ceb6 dec8 e4b8
00000040: 8787 75b7 56ea bb36 4139 16b9 ba48 16b9
00000050: 5387 1fb9 80d7 43b6 b811 3936 9e3a bab8
00000060: c0aa 75b7 c930 bc36 4139 16b9 6c46 16b9
00000070: 0000 0000 566b c337 5a64 62b5 f6bf cc38
00000080: e0e5 cc38 8d35 5238 88a8 3237 58cc 7838
00000090: 3275 bf38 71d1 c237 640d 3cb5 c499 cc38
000000a0: 1f05 cd38 0450 bd37 a617 c538 f54b 6d36
000000b0: a2a8 ad38 0566 c337 d09f 4eb5 c499 cc38
000000c0: 13d6 cc38 e3f0 0739 07ae 8fb6 e50d b1b6
000000d0: acab 8c38 2186 c337 55a3 52b5 c499 cc38
000000e0: f7cc cc38 0000 0000 b710 8db7 40d1 8135
000000f0: 0521 53b8 1b33 53b8 6f8d f8b7 ff3a 10b7
00000100: c78a eab7 45d1 3cb8 11ec 8cb7 4508 7b35
00000110: ee10 53b8 6446 53b8 64d7 8ab7 4437 4ab8
00000120: 89fc beb5 7e9e 22b8 171c 8db7 8f84 8035
00000130: ee10 53b8 b92e 53b8 d384 86b8 eae1 64b6
00000140: b89d b735 324c 04b8 bb19 8db7 a95e 8035
00000150: ee10 53b8 662a 53b8 0000 0000 cb34 4435
00000160: 940b fdb3 143f 9d36 3056 9d36 5a7d 0a36
00000170: fbe7 8135 ac31 1836 46c3 8836 2179 4335
00000180: 1705 f1b3 7126 9d36 615b 9d36 6836 3a35
00000190: 558c 9536 37cc 1f34 81a5 7836 8ef1 4335
000001a0: 7dc8 f4b3 7126 9d36 5344 9d36 2088 bd36
000001b0: 95a7 1eb4 ba2b 58b4 b7fa 4836 184b 4435
000001c0: d794 f7b3 7126 9d36 8f3f 9d36 0000 0000
000001d0: b484 0838 f94a 8fb6 13bf c438 3aed c438
000001e0: 447b 8f38 23da b537 e535 0638 57b9 a438
000001f0: 0527 0838 470c 8ab6 ff99 c438 9b04 c538
00000200: dc62 0538 221e b838 17a6 2736 87f0 9738
00000210: 026d 0838 2e3c 8cb6 ff99 c438 f8d5 c438
00000220: 6d8e 0839 fd55 ffb5 ff2b d1b6 e8c8 7438
00000230: ec7e 0838 75cb 8cb6 ff99 c438 e6cc c438
00000240: 0000 0000 2986 b737 bfa2 d1b5 a962 6438
00000250: 59aa 6438 2cfd 3838 cd40 cd36 c6e6 cd37
00000260: 8ffe 5038 7df4 b637 5477 beb5 2312 6438
00000270: 43f7 6438 431c b337 832d 5a38 17a1 bb35
00000280: d1bf 4238 7e9d b737 6407 c9b5 2312 6438
00000290: a292 6438 2c5e b038 8e32 a9b6 d7ea 8fb6
000002a0: 22cd 1c38 08b8 b737 11b0 cab5 2312 6438
000002b0: 5a7f 6438 0000 0000 17a4 2837 8479 96b5
000002c0: d9e2 fa37 6711 fb37 922c a137 ca19 d036
000002d0: 9634 6137 c601 d837 8f45 2837 155a 90b5
000002e0: 25b0 fa37 6b34 fb37 dd7c 2437 ae72 eb37
000002f0: 3ac3 8135 ecd1 c637 11aa 2837 257e 93b5
00000300: 25b0 fa37 43fa fa37 8d45 3138 3c18 fdb5
00000310: 3ac4 ceb5 495a a037 e7bb 2837 d90c 94b5
00000320: 25b0 fa37 13ef fa37 0000 0000 7f9f c0b7
00000330: b5c9 3c36 ed50 abb8 0153 abb8 98dc 27b8
00000340: 7f30 7eb7 53bc 43b8 86aa 96b8 fc96 c0b7
00000350: c3e0 3936 c83b abb8 bd54 abb8 3220 bcb7
00000360: bd76 a2b8 9277 02b6 3359 84b8 51be c0b7
00000370: 751b 3b36 c83b abb8 c349 abb8 3a2c d6b8
00000380: 87d3 3ab5 58d6 8335 78fc 56b8 cbe0 c0b7
00000390: 452f 3c36 c83b abb8 5a47 abb8 0000 0000
000003a0: 6bce 43b8 19fd 7036 ef07 b2b8 1a1c b2b8
000003b0: 3c38 89b8 3bf4 afb7 e963 2eb8 a609 96b8
000003c0: 6ba5 43b8 9f0f 6d36 04fd b1b8 3c21 b2b8
000003d0: 835f 40b8 974f a5b8 3efd 5cb6 9b31 7eb8
000003e0: 67c3 43b8 7def 6e36 04fd b1b8 4211 b2b8
000003f0: 9e81 ffb8 57d3 06b7 4a31 fd35 7b01 4fb8

exp_avg_sq f4 [256, 29]
1.8131066e-09 2.325441e-08 3.6358674e-07 3.6367263e-07 1.503982e-08 1.613027e-07 2.0191499e-07 2.4485703e-07
1.7962559e-09 2.3378657e-08 3.6308518e-07 3.6330331e-07 5.3707416e-09 3.6008802e-07 4.088175e-08 1.379947e-07
1.7970446e-09 2.337317e-08 3.6308518e-07 3.6320702e-07 1.8032787e-07 1.9064636e-07 3.521395e-08 1.04813545e-07
1.8191583e-09 2.3318027e-08 3.6308518e-07 3.6318738e-07 0.0 4.696526e-09 5.3278143e-10 2.3802905e-07
2.381787e-07 1.6538703e-08 1.4390328e-08 2.0651026e-07 2.2213348e-07 4.6780944e-09 6.9300166e-10 2.3766498e-07
2.3786002e-07 5.8665224e-09 1.4631591e-07 1.09699066e-07 1.6574337e-07 4.6809365e-09 6.869612e-10 2.3766498e-07
2.3777261e-07 9.85191e-08 5.923183e-08 1.0372313e-07 1.456398e-07 4.7412785e-09 6.088864e-10 2.3766498e-07
2.3775684e-07 0.0 2.1440876e-09 6.069036e-10 3.5791e-08 3.5807602e-08 4.2076462e-09 8.328197e-09
2.5332646e-08 2.9106758e-08 2.141258e-09 6.3011085e-10 3.5726135e-08 3.5757804e-08 2.2734625e-09 2.8949389e-08
9.661287e-09 1.9604244e-08 2.1415263e-09 6.2816785e-10 3.5726135e-08 3.5743756e-08 1.8535552e-08 1.3080199e-08
9.018663e-09 1.6195406e-08 2.1480202e-09 6.1920835e-10 3.5726135e-08 3.57408e-08 0.0 1.9360905e-11
3.0791814e-11 7.1011206e-09 7.1137487e-09 1.6179921e-10 1.2205574e-09 5.898503e-09 6.228204e-09 1.4092181e-11
5.011346e-11 7.0835573e-09 7.097292e-09 1.1682737e-10 3.3593686e-09 3.8768033e-09 4.987019e-09 1.4642077e-11
4.9649226e-11 7.0836275e-09 7.091177e-09 1.350219e-09 2.4921776e-09 3.4878618e-09 4.638769e-09 1.5937777e-11
4.847114e-11 7.0836275e-09 7.0900255e-09 0.0 9.069368e-09 1.3093814e-08 3.8104952e-07 3.8129454e-07
2.9413354e-08 1.0018099e-07 2.6073317e-07 3.0230288e-07 9.041293e-09 1.3286461e-08 3.8065932e-07 3.8090207e-07
1.0197401e-08 2.6950173e-07 1.472243e-07 2.1232213e-07 9.041689e-09 1.327947e-08 3.8065932e-07 3.807949e-07
8.678425e-08 1.9956853e-07 1.4012342e-07 1.9084538e-07 9.091948e-09 1.317438e-08 3.8065932e-07 3.8077496e-07
0.0 3.673464e-09 1.5980304e-09 9.7451775e-08 9.7499104e-08 1.0205799e-08 7.379325e-09 8.2387125e-08
9.058021e-08 3.6661396e-09 1.7243653e-09 9.73065e-08 9.7376166e-08 4.069233e-09 5.8906767e-08 4.9361084e-08
6.7254405e-08 3.6695424e-09 1.7185481e-09 9.73065e-08 9.734306e-08 3.1121868e-08 3.3322003e-08 4.768955e-08
6.081187e-08 3.7146846e-09 1.651116e-09 9.73065e-08 9.733876e-08 0.0 8.6117163e-10 8.775712e-10
2.723335e-08 2.724252e-08 2.190443e-09 6.9400183e-09 1.8881641e-08 2.1633781e-08 8.6085516e-10 8.9028596e-10
2.7215735e-08 2.7226319e-08 1.0028757e-09 2.2437797e-08 7.653664e-09 1.359131e-08 8.609987e-10 8.8994595e-10
2.7215735e-08 2.7221398e-08 1.0524548e-08 1.339965e-08 7.2547235e-09 1.1535104e-08 8.6414004e-10 8.816602e-10
2.7215735e-08 2.7220779e-08 0.0 4.0181782e-09 5.148637e-09 7.9433356e-08 7.943453e-08 7.516863e-09
2.9053544e-08 5.0037258e-08 5.8051633e-08 4.018557e-09 5.157728e-09 7.942096e-08 7.942767e-08 4.576711e-09
8.541058e-08 2.5958458e-09 3.018355e-08 4.0183648e-09 5.157033e-09 7.942096e-08 7.94245e-08 5.2961433e-08
3.662454e-08 2.3535067e-09 2.0803293e-08 4.01969e-09 5.1485873e-09 7.942096e-08 7.942421e-08 0.0
1.9661973e-08 9.905866e-09 1.5885227e-07 1.589301e-07 2.6075192e-08 8.650955e-08 7.184139e-08 9.435445e-08
1.9649795e-08 9.992235e-09 1.5857016e-07 1.5870124e-07 2.1946018e-08 1.4832999e-07 2.4986383e-08 5.612738e-08
1.9647167e-08 9.984286e-09 1.5857016e-07 1.5864316e-07 8.23521e-08 9.026679e-08 2.2293145e-08 4.5480093e-08
00000000: 0431 f930 fdc0 c732 fb32 c334 c93e c334
00000010: ea30 8132 8c32 2d34 f8cd 5834 e574 8334
00000020: 23e0 f630 36d2 c832 0cee c234 070c c334
00000030: 8b89 b831 1f52 c134 f695 2f33 b22b 1434
00000040: e3fb f630 25c6 c832 0cee c234 cbfe c234
00000050: 26a0 4134 79b4 4c34 263e 1733 db15 e133
00000060: f105 fa30 e24c c832 0cee c234 18fc c234
00000070: 0000 0000 145f a131 2973 1230 ed94 7f34
00000080: 10be 7f34 fe10 8e32 5539 7732 1cbd 5d34
00000090: 9683 6e34 f4bc a031 a87d 3e30 da30 7f34
000000a0: 7766 7f34 7a92 c931 031b 1d34 b393 eb33
000000b0: 31f7 3134 f4d5 a031 99d4 3c30 da30 7f34
000000c0: 704e 7f34 7391 d333 1666 7e33 65be de33
000000d0: 2a61 1c34 bae8 a231 925e 2730 da30 7f34
000000e0: 1a4a 7f34 0000 0000 3057 1331 0bd3 2630
000000f0: 9fb8 1933 e0ca 1933 d992 9031 cc13 0f32
00000100: 149b d932 7006 fa32 6925 1331 1c34 2d30
00000110: 4d71 1933 1f94 1933 2d3b 1c31 61ac f832
00000120: cafa 2532 3066 a832 212a 1331 62ab 2c30
00000130: 4d71 1933 ad84 1933 1c38 9f32 53b7 6032
00000140: 80f0 1a32 131e 8b32 5f9c 1331 ea34 2a30
00000150: 4d71 1933 6d81 1933 0000 0000 e24c aa2d
00000160: 806c 072e 1efe f331 326d f431 6ee6 312f
00000170: 8cc0 a730 c8ab ca31 ddff d531 8be9 772d
00000180: bd66 5c2e a163 f331 71dc f331 fb73 002f
00000190: a3da 6631 b934 8531 485a ab31 07cb 802d
000001a0: 0f5c 5a2e 3f64 f331 a7a6 f331 9c92 b930
000001b0: da42 2b31 1daf 6f31 0b63 9f31 af30 8c2d
000001c0: a72d 552e 3f64 f331 869c f331 0000 0000
000001d0: 81cf 1b32 34f3 6032 0c93 cc34 b9b4 cc34
000001e0: a6a8 fc32 1523 d733 e5fa 8b34 314c a234
000001f0: 0754 1b32 7942 6432 6b5d cc34 c87e cc34
00000200: a530 2f32 09b0 9034 b514 1e34 aafa 6334
00000210: c555 1b32 ba23 6432 6b5d cc34 0d70 cc34
00000220: 255e ba33 fb48 5634 d574 1634 2eeb 4c34
00000230: cf32 1c32 8955 6232 6b5d cc34 506d cc34
00000240: 0000 0000 4370 7c31 b2a1 db30 ae46 d133
00000250: b360 d133 9455 2f32 3b8d fd31 cdec b033
00000260: ff84 c233 69ef 7b31 b6fe ec30 d0f6 d033
00000270: 1d1d d133 5ad1 8b31 ad00 7d33 1601 5433
00000280: 806d 9033 462b 7c31 0932 ec30 d0f6 d033
00000290: ea0a d133 dbaa 0533 ee1d 0f33 37d3 4c33
000002a0: ae97 8233 6c45 7f31 7bed e230 d0f6 d033
000002b0: 8d08 d133 0000 0000 91b7 6c30 9539 7130
000002c0: c5ee e932 ef02 ea32 ae86 1631 0c75 ee31
000002d0: 2b31 a232 30d5 b932 4ca1 6c30 4eb8 7430
000002e0: 09c8 e932 4fdf e932 8dd5 8930 3dbd c032
000002f0: 2c7d 0332 377f 6932 66ab 6c30 61a0 7430
00000300: 09c8 e932 7dd4 e932 74cf 3432 4934 6632
00000310: 3945 f931 ed2b 4632 7388 6d30 5259 7230
00000320: 09c8 e932 20d3 e932 0000 0000 4510 8a31
00000330: e4e7 b031 f394 aa33 9895 aa33 8323 0132
00000340: 6b91 f932 8ce8 5633 7254 7933 9a13 8a31
00000350: db37 b131 228e aa33 d391 aa33 2d41 9d31
00000360: f76a b733 9a62 3231 2aa3 0133 e911 8a31
00000370: be31 b131 228e aa33 1590 aa33 b677 6333
00000380: 1c4d 1d33 54bb 2131 edb2 b232 911d 8a31
00000390: 74e7 b031 228e aa33 ec8f aa33 0000 0000
000003a0: 23e5 a832 762e 2a32 fb90 2a34 60a6 2a34
000003b0: f4fb df32 21c7 b933 3947 9a33 e89f ca33
000003c0: 5bca a832 50aa 2b32 6f43 2a34 7767 2a34
000003d0: ce83 bc32 a344 1f34 a3a1 d632 b510 7133
000003e0: 94c4 a832 5b87 2b32 6f43 2a34 8057 2a34
000003f0: 8cd9 b033 b1d8 c133 257f bf32 e455 4333

exp_avg f4 [256]
-0.00015227032 0.000120084835 -6.6191875e-05 5.299153e-06 0.00012209504 7.477754e-05 3.8836748e-05 -0.00010184733
-0.00012799348 -0.00016119516 2.3037503e-05 -0.00011332689 -1.6580185e-05 9.570696e-05 -9.852005e-05 -6.1291535e-06
2.8169054e-05 1.4938934e-05 1.6726464e-07 -2.5551537e-05 7.404887e-05 0.0001316797 9.878267e-05 -1.8776138e-05
-3.8594233e-05 8.623415e-05 -3.0014982e-05 -1.5824231e-06 4.4069733e-05 0.00013188926 7.850971e-05 -0.00010125847
-0.000118499884 5.78524e-05 -0.0001689484 1.2908493e-05 -0.00023320838 -0.00010470451 -7.057019e-05 1.5226239e-05
-6.327678e-05 -1.3490978e-05 -0.00021085246 9.66808e-05 2.468797e-05 -1.5958523e-05 4.464948e-05 2.250002e-05
-1.3983609e-07 -5.8005963e-07 -0.00014349923 7.041731e-05 6.7513647e-06 -8.085111e-05 0.00015332199 -8.925798e-05
6.718062e-05 9.704238e-06 -0.00016527495 9.5555646e-05 -5.8643396e-05 4.0056566e-06 3.7661448e-05 -3.3655248e-05
6.98353e-05 5.6769775e-05 6.8497434e-07 0.000103143815 -0.00013882744 0.00010933954 -0.00013696225 -0.00020948562
-4.3906035e-05 -7.457794e-05 -4.9044836e-05 4.7894773e-05 2.1770287e-05 3.0957674e-06 -2.191762e-05 5.938124e-05
0.00013677414 -0.00015863188 6.284572e-05 -6.26607e-05 6.424631e-05 -8.402052e-06 5.7174922e-05 -1.1322893e-06
-0.00018604168 3.7163893e-05 3.293347e-05 9.4954936e-05 1.09657685e-05 2.8580655e-05 7.3443916e-05 -0.00013440393
-8.094361e-05 -5.3546108e-05 7.959781e-05 -1.7039525e-05 3.159967e-05 8.770419e-05 7.018959e-05 2.6641152e-05
-8.393952e-05 -3.61493e-06 7.740585e-05 4.626487e-05 8.0433616e-05 1.734145e-05 -0.00014810286 -0.0001076494
-0.00012950019 0.00010537249 0.00010584605 5.0223738e-05 3.550053e-05 -0.00016503624 -1.8607607e-05 2.0614882e-06
-6.150228e-05 -0.0001364439 6.21821e-05 1.138623e-05 -8.118431e-06 8.385944e-05 -1.4348437e-05 -9.2536895e-05
-0.00012367238 2.1090389e-05 -3.69335e-05 0.00010375193 -3.6901693e-05 -2.619118e-05 9.183855e-06 3.3526132e-05
-0.00010133379 -0.00014449979 -0.00020030115 0.000117811185 -4.61291e-05 7.783153e-05 -5.2988587e-05 2.8799109e-06
-1.5894221e-07 6.735872e-05 3.085228e-05 6.775694e-07 5.5746794e-05 -0.000103666134 -0.0001179079 0.00014827591
1.1885785e-05 7.63884e-05 0.00015798879 0.000112460286 9.5405245e-05 -5.2739146e-05 7.956422e-05 -0.00013579869
9.043839e-05 5.757168e-05 -8.867589e-07 5.7368517e-05 -9.0209156e-05 -0.00010301954 -1.540754e-05 4.098658e-05
-9.6505006e-05 -5.0395183e-06 8.2896506e-05 4.6780286e-05 -6.8683853e-06 2.4006884e-05 -1.854854e-06 -0.00011912573
0.00013635939 -4.5666984e-06 7.3795316e-05 1.6403534e-06 -7.170566e-05 1.6345366e-05 -9.2518225e-05 2.1298609e-05
-4.7264424e-05 -1.0022345e-07 7.0269016e-05 -0.00017764438 1.7893402e-05 -9.713e-05 6.0584296e-07 6.9218468e-06
0.000106258536 -3.7895444e-07 8.3338826e-05 8.514822e-05 5.417898e-05 -9.577469e-07 3.98379e-05 9.481433e-05
-0.00016258932 0.0001010077 -3.0877287e-05 8.797615e-05 7.95344e-05 -8.222368e-06 -3.3602469e-06 -0.00020619835
-3.4274555e-05 1.2210657e-05 -1.8076505e-06 4.3652395e-05 9.01312e-05 0.000114039496 -5.954257e-06 -1.0098692e-05
0.00011073831 0.00010024937 6.882489e-05 9.495778e-05 4.357352e-05 -6.704221e-05 6.163028e-05 5.3249532e-05
5.2614927e-05 -8.283728e-05 8.8399196e-05 -8.4331834e-05 9.349242e-05 -4.6460114e-05 -0.00013322021 9.081571e-05
-0.00021843231 1.5297328e-06 4.1077537e-06 5.4992142e-05 -0.00017640794 4.6735873e-05 0.000104111394 1.3556832e-05
4.739296e-07 7.9076985e-05 -1.3782339e-05 3.230042e-05 6.6419016e-05 8.3530045e-05 7.218887e-05 -2.7376682e-05
-8.523245e-05 2.2538563e-05 1.2477503e-06 -0.00010838383 7.635191e-05 -9.277674e-05 1.6867978e-07 4.689157e-06
00000000: c1aa 1fb9 0ed6 fb38 7ed0 8ab8 61cf b136
00000010: a306 0039 e3d1 9c38 a4e4 2238 de96 d5b8
00000020: fd35 06b9 7f06 29b9 a940 c137 e9a9 edb8
00000030: ad15 8bb7 48b6 c838 8d9c ceb8 07a9 cdb6
00000040: 954c ec37 3ca2 7a37 5b99 3334 8257 d6b7
00000050: af4a 9b38 8013 0a39 8b29 cf38 7381 9db7
00000060: 3ee0 21b8 9bd8 b438 afc8 fbb7 a563 d4b5
00000070: 84d7 3838 c14b 0a39 94a5 a438 ba5a d4b8
00000080: 2483 f8b8 8ba6 7238 be27 31b9 8e91 5837
00000090: 6689 74b9 ce94 dbb8 15ff 93b8 3374 7f37
000000a0: 76b3 84b8 4f57 62b7 4718 5db9 1cc1 ca38
000000b0: 0319 cf37 abde 85b7 0446 3b38 6dbe bc37
000000c0: da25 16b4 65b5 1bb5 4878 16b9 01ad 9338
000000d0: c889 e236 9c8e a9b8 0fc5 2039 0330 bbb8
000000e0: 52e3 8c38 63cf 2237 a84d 2db9 0c65 c838
000000f0: def7 75b8 5468 8636 acf6 1d38 0c29 0db8
00000100: 8b74 9238 151c 6e38 14df 3735 ea4e d838
00000110: 3592 11b9 384d e538 869d 0fb9 5ea9 5bb9
00000120: bf27 38b8 ba66 9cb8 7eb5 4db8 9fe2 4838
00000130: 569f b637 e1c0 4f36 bbdb b7b7 1f10 7938
00000140: 076b 0f39 6c56 26b9 0acc 8338 b568 83b8
00000150: fabb 8638 8af6 0cb7 1bcf 6f38 2af9 97b5
00000160: 2f14 43b9 6de0 1b38 0b22 0a38 8b22 c738
00000170: 9ef9 3737 7dc0 ef37 e705 9a38 c8ee 0cb9
00000180: 45c0 a9b8 b296 60b8 c0ed a638 1af0 8eb7
00000190: e389 0438 d4ed b738 c032 9338 707b df37
000001a0: b008 b0b8 0698 72b6 f354 a238 870c 4238
000001b0: 78ae a838 7b78 9137 0f4c 1bb9 d5c1 e1b8
000001c0: 71ca 07b9 6dfb dc38 aaf9 dd38 54a7 5238
000001d0: 67e6 1438 940d 2db9 8817 9cb7 1958 0a36
000001e0: c9fa 80b8 6112 0fb9 c367 8238 7c07 3f37
000001f0: 6534 08b7 b2dd af38 11ba 70b7 5e10 c2b8
00000200: 0dae 01b9 44eb b037 0be9 1ab8 6595 d938
00000210: e4c6 1ab8 21b5 dbb7 5b14 1a37 699e 0c38
00000220: 2a83 d4b8 de84 17b9 ee07 52b9 6611 f738
00000230: be7a 41b8 7c39 a338 1040 5eb8 7e44 4136
00000240: b4a9 2ab4 f042 8d38 6267 0138 37e2 3535
00000250: aad1 6938 5567 d9b8 5245 f7b8 837a 1b39
00000260: 0f69 4737 b632 a038 cba9 2539 a8d8 eb38
00000270: 4d14 c838 3a34 5db8 b7db a638 2f65 0eb9
00000280: bea9 bd38 1f79 7138 9c09 6eb5 fa9e 7038
00000290: ac2e bdb8 320c d8b8 713f 81b7 01e9 2b38
000002a0: bb62 cab8 2219 a9b6 b9d8 ad38 f335 4438
000002b0: fb76 e6b6 6462 c937 4cf4 f8b5 24d3 f9b8
000002c0: b2fb 0e39 a43b 99b6 8fc2 9a38 1d2a dc35
000002d0: af60 96b8 681d 8937 5806 c2b8 6aaa b237
000002e0: ca3d 46b8 6d3a d7b3 645d 9338 0d46 3ab9
000002f0: ca19 9637 46b2 cbb8 36a1 2235 3642 e836
00000300: 1ed7 de38 1a73 cbb4 31c6 ae38 9a91 b238
00000310: 3d3e 6338 ef8b 80b5 9f17 2738 0ed7 c638
00000320: bd7c 2ab9 19d4 d338 3c82 01b8 d67f b838
00000330: b5cb a638 cdf2 09b7 9a80 61b6 f336 58b9
00000340: 06c2 0fb8 5fdc 4c37 669e f2b5 6717 3738
00000350: d204 bd38 7d28 ef38 aeca c7b6 8d6d 29b7
00000360: 2d3c e838 f83c d238 1556 9038 1224 c738
00000370: b6c2 3638 0399 8cb8 813f 8138 4058 5f38
00000380: d9ae 5c38 edb8 adb8 f562 b938 4fdb b0b8
00000390: 5c11 c438 2bde 42b8 07b1 0bb9 5074 be38
000003a0: fa0a 65b9 3851 cd35 56d5 8936 5da7 6638
000003b0: 25fa 38b9 4306 4438 6156 da38 2672 6337
000003c0: 6370 fe34 22d6 a538 b23a 67b7 507a 0738
000003d0: 704a 8b38 da2c af38 1b64 9738 faa6 e5b7
000003e0: d3be b2b8 3211 bd37 6078 a735 204c e3b8
000003f0: 1f1f a038 2291 c2b8 581e 3534 8d57 9d36

exp_avg_sq f4 [256]
3.8462113e-07 2.4104204e-07 3.7781213e-08 7.1589974e-09 3.9227191e-07 1.00028814e-07 2.815815e-08 8.70899e-08
1.8116351e-07 3.453916e-07 4.9973496e-09 1.5719534e-07 2.2872959e-08 3.4466262e-07 1.4778975e-07 8.274584e-10
2.4419261e-08 1.8837973e-09 3.6133577e-10 1.9461275e-08 3.5966443e-07 3.6265348e-07 1.6333036e-07 7.6847355e-09
1.321902e-08 1.7639027e-07 3.80721e-08 2.3688143e-10 1.156525e-07 5.483412e-07 1.2174084e-07 1.2865227e-07
1.5385437e-07 7.3811556e-08 2.346185e-07 4.8499413e-09 4.978218e-07 1.11627955e-07 1.2412475e-07 6.1878227e-09
7.1405125e-08 7.2444295e-09 7.1416116e-07 2.3726224e-07 1.2211676e-08 7.640269e-09 5.364676e-08 1.9910132e-08
4.1404723e-11 2.4764316e-10 2.321662e-07 7.068922e-08 1.0448786e-09 8.5992895e-08 3.8222947e-07 1.2486355e-07
7.6056644e-08 3.1595904e-09 3.8401672e-07 2.5443538e-07 6.097953e-08 1.3588439e-09 3.5694857e-08 1.9180876e-08
1.2494746e-07 1.0966588e-07 4.0562692e-10 3.6875798e-07 2.5679995e-07 1.4638569e-07 1.3623182e-07 4.709833e-07
3.271445e-08 9.0385015e-08 2.1220245e-08 3.351276e-08 8.32772e-09 5.0579196e-10 5.177597e-09 1.3847334e-07
4.666214e-07 4.1380278e-07 7.919742e-08 8.436935e-08 4.4807095e-08 4.5960155e-10 8.2073456e-08 3.6600785e-11
3.7719752e-07 2.0873642e-08 1.3434055e-08 1.9143286e-07 4.517248e-09 2.0493717e-08 1.0956889e-07 2.4474187e-07
9.280404e-08 6.917391e-08 4.232035e-07 4.546025e-09 3.5639573e-08 1.8559956e-07 1.708726e-07 2.2645386e-08
1.3489763e-07 6.131424e-10 1.045854e-07 2.2551127e-08 9.4349936e-08 8.220587e-09 2.4529263e-07 1.2755451e-07
3.5359926e-07 2.2118341e-07 2.1015833e-07 1.09803004e-07 2.8218048e-08 4.0886744e-07 1.5310562e-08 1.6430957e-10
5.3851625e-08 2.426884e-07 7.824973e-08 5.4073155e-09 9.522009e-10 1.320945e-07 2.3866173e-09 1.09340036e-07
8.879502e-08 4.0486476e-09 1.8294422e-08 3.579228e-07 1.4484434e-08 3.41488e-08 4.4144275e-09 2.6205523e-08
1.8484923e-07 2.67685e-07 5.4446053e-07 4.970868e-07 2.195572e-08 1.7180113e-07 5.1369597e-08 1.3895953e-09
3.8058813e-11 1.4025295e-07 1.8704652e-08 1.9639837e-10 1.0389274e-07 1.5374528e-07 1.7512107e-07 4.4524987e-07
3.142173e-09 1.496133e-07 5.598003e-07 3.1597042e-07 1.6124508e-07 4.5215153e-08 2.323417e-07 3.5080535e-07
1.5928354e-07 1.01575644e-07 2.2645695e-10 1.0775138e-07 6.854337e-08 2.1533613e-07 4.8954822e-09 2.587044e-08
1.16372796e-07 5.131433e-10 1.5943448e-07 7.528666e-08 6.4263617e-10 4.7771927e-08 1.12392665e-10 1.2377765e-07
4.48099e-07 3.4334435e-10 2.2048107e-07 3.7359932e-10 1.230628e-07 6.4438237e-09 8.5813994e-08 1.2809563e-08
2.0333195e-08 2.7528363e-11 1.7570518e-07 2.748246e-07 8.955119e-09 9.608269e-08 8.602983e-11 1.5805082e-09
5.1369545e-07 1.2837789e-10 1.8960318e-07 2.9629706e-07 6.017294e-08 1.1303614e-10 2.4663478e-08 3.6641958e-07
3.5062743e-07 2.2587392e-07 1.5163936e-08 3.494608e-07 1.6031507e-07 9.543836e-09 3.3015193e-10 5.0302896e-07
1.2075843e-08 5.0980193e-09 1.5114325e-10 4.1791633e-08 2.4487832e-07 2.6367627e-07 1.7990934e-09 1.1905533e-09
2.6089035e-07 2.1778439e-07 1.9953708e-07 1.700049e-07 2.5949932e-08 8.229706e-08 1.10696796e-07 7.302029e-08
3.827426e-08 1.2794538e-07 3.5624043e-07 8.987632e-08 1.4766894e-07 1.758091e-08 2.0585256e-07 3.3121202e-07
4.28692e-07 2.0204232e-09 1.3739495e-09 6.185896e-08 4.5291495e-07 3.1803346e-08 4.072727e-07 8.386467e-09
5.140528e-11 1.7850887e-07 2.8662803e-09 1.9106666e-08 9.8529384e-08 8.386062e-08 8.746936e-08 1.5519683e-08
1.4514987e-07 9.779849e-09 3.4091113e-10 2.3475306e-07 1.2815578e-07 1.1993782e-07 3.454422e-11 4.3778003e-10
00000000: ed7d ce34 9168 8134 e244 2233 35fb f531
00000010: 7199 d234 6ccf d633 6de0 f132 2e06 bb33
00000020: d985 4234 436e b934 27b5 ab31 87c9 2834
00000030: 2b7a c432 120a b934 23b0 1e34 3573 6330
00000040: 86c2 d132 1d74 0131 7da5 c62f cc2b a732
00000050: e717 c134 b7b2 c234 e85f 2f34 d305 0432
00000060: dd19 6332 ca65 3d34 b784 2333 193a 822f
00000070: a25c f833 b831 1335 deb7 0234 ab23 0a34
00000080: 2b33 2534 5582 9e33 71eb 7b34 89a4 a631
00000090: 0ea2 0535 1eb8 ef33 2747 0534 aa9c d431
000000a0: 6257 9933 adea f831 c8b4 3f35 26c2 7e34
000000b0: 85cb 5132 4242 0332 3d69 6633 d806 ab32
000000c0: 9319 362e ad24 882f 5c49 7934 cfcd 9733
000000d0: 669b 8f30 18ab b833 3835 cd34 3b12 0634
000000e0: 9554 a333 1a20 5931 db2a ce34 5599 8834
000000f0: daf3 8233 12c2 ba30 e94e 1933 31c3 a432
00000100: 4c29 0634 7581 eb33 eafe de2f b6f9 c534
00000110: 51de 8934 312e 1d34 1e47 1234 74db fc34
00000120: eb81 0c33 b019 c233 d047 b632 abef 0f33
00000130: b311 0f32 f207 0b30 a0e6 b131 43af 1434
00000140: f583 fa34 9f28 de34 3e13 aa33 8a2e b533
00000150: ec71 4033 2bab fc2f 5c40 b033 d2f8 202e
00000160: a281 ca34 a04d b332 99cb 6632 aa8c 4d34
00000170: 2236 9b31 290a b032 224c eb33 1165 8334
00000180: 8f4b c733 c28c 9433 a534 e334 4233 9c31
00000190: 2012 1933 3849 4734 1a79 3734 bb85 c232
000001a0: 61d8 1034 108a 2830 6f98 e033 74b6 c132
000001b0: 6d9d ca33 863a 0d32 c3b0 8334 ebf5 0834
000001c0: 50d6 bd34 6f7e 6d34 e2a7 6134 d7cc eb33
000001d0: 2564 f232 5082 db34 4884 8332 08a9 342f
000001e0: 7d4a 6733 d74a 8234 3e0a a833 40cb b931
000001f0: 97de 8230 dcd5 0d34 d101 2431 52ce ea33
00000200: 94af be33 481c 8b31 dc25 9d32 8928 c034
00000210: 37d7 7832 01ab 1233 b7ad 9731 8e1a e132
00000220: f87a 4634 59b6 8f34 0b27 1235 8b6f 0535
00000230: 2499 bc32 5678 3834 78a1 5c33 0afc be30
00000240: 6a62 272e 7098 1634 f7ab a032 3af1 572f
00000250: a31b df33 2e15 2534 ea08 3c34 ad0a ef34
00000260: b1ed 5731 64a5 2034 2f45 1635 a5a2 a934
00000270: b622 2d34 9632 4233 9a79 7934 5256 bc34
00000280: 8707 2b34 cd21 da33 f7fd 782f f364 e733
00000290: 1e32 9333 2537 6734 1e35 a831 b339 de32
000002a0: 9fe8 f933 400d 0d30 0431 2b34 47ad a133
000002b0: 80a5 3030 ca2d 4d33 7227 f72e bee7 0434
000002c0: 4292 f034 6cc1 bc2f 60bd 6c34 6e63 cd2f
000002d0: 3f23 0434 7968 dd31 be48 b833 0e11 5c32
000002e0: 2ba9 ae32 5d24 f22d 79a9 3c34 9b8b 9334
000002f0: 08d9 1932 0456 ce33 7d2e bd2e 3039 d930
00000300: e2e4 0935 2a27 0d2f ba95 4b34 c212 9f34
00000310: 6c38 8133 b191 f82e 90db d332 53b8 c434
00000320: de3d bc34 c087 7234 d941 8232 879d bb34
00000330: 1223 2c34 3cf6 2332 c180 b52f e307 0735
00000340: 1f76 4f32 a72a af31 0b2f 262f 637e 3333
00000350: d277 8334 648f 8d34 f943 f730 dfa0 a330
00000360: 7f10 8c34 1ed8 6934 5640 5634 978a 3634
00000370: 81e8 de32 4abb b033 35b8 ed33 54cf 9c33
00000380: fe62 2433 5c61 0934 5041 bf34 0802 c133
00000390: ee8e 1e34 d404 9732 5208 5d34 6fd1 b134
000003a0: fb26 e634 a9d7 0a31 8dd5 bc30 53d7 8433
000003b0: 2828 f334 2698 0833 22a7 da34 1214 1032
000003c0: 3315 622e 25ac 3f34 23f8 4431 0120 a432
000003d0: 1a97 d333 dd16 b433 cad6 bb33 2550 8532
000003e0: 7eda 1b34 3b04 2832 fa6a bb2f 6e10 7c34
000003f0: 319b 0934 42c8 0034 56ed 172e 10ac f02f
