ml-agents-release_20/Result/Dino/Dino04/Dino/Dino-499963.onnx (onnx, 34598 bytes, 4 tensors)

action_model._discrete_distribution.branches.0.bias f4 [2]
000000 46 73 c8 3b 4c 73 c8 bb
       0.0061172573 -0.00611726

action_model._discrete_distribution.branches.0.weight f4 [2, 256]
000000 4e 8c 87 bd ee fe 4f 3d 71 4f 59 bc c4 51 eb bb
       -0.06618558 0.05078023 -0.013263569 -0.007181378
000010 04 cc 8f 3d 2f 09 29 3d 77 68 06 3c ba 25 3d bd
       0.07021335 0.041268524 0.008203617 -0.046178557
000020 6e 01 60 bd 4d 2f 92 bd 16 0c 43 3c 3f b0 0b bd
       -0.054688863 -0.07137928 0.011904737 -0.03410363
000030 31 5d 35 bc b3 23 9b 3d b5 78 85 bd f5 f5 92 bb
       -0.011069582 0.075751685 -0.06517164 -0.004484887
000040 11 26 d4 3c 75 35 ec 3b 19 39 03 bb 07 a2 32 3a
       0.025897058 0.007208521 -0.0020023047 0.0006814305
000050 b0 f5 95 3d 5f 86 81 3d 9a 36 26 3d 60 37 1f bc
       0.07322252 0.063244574 0.040579416 -0.009717792
000060 11 59 e7 bc 5c dc 35 3d 9d 04 7b bc 50 89 3c bb
       -0.028240712 0.044399604 -0.015320924 -0.0028768368
000070 45 33 0f 3d 68 e8 88 3d 0b a0 eb 3c bf 10 3d bd
       0.034961004 0.06684953 0.028762838 -0.04615855
000080 0e 1c 31 bd 03 cb c4 3c 81 12 76 bd 7d b6 63 3c
       -0.043239646 0.024022585 -0.06007624 0.013898489
000090 b5 9a 8d bd bb 0e 02 bd c8 7a 3d bd c8 f2 10 3c
       -0.06914274 -0.03175233 -0.04625967 0.008846946
0000a0 d1 e6 bb bc 61 ee c0 3b 45 2c b8 bd 5e 9c 13 3d
       -0.02293721 0.005887792 -0.08992819 0.036037795
0000b0 19 b4 1f 3c 5b 51 59 bc 38 34 d2 3c 1b 6f 7c 3c
       0.0097475285 -0.013264026 0.025659665 0.015407349
0000c0 86 00 fc ba d1 85 39 39 71 80 7b bd e9 91 b5 3c
       -0.001922623 0.00017692825 -0.06140179 0.022164302
0000d0 15 c1 cc 3b 71 87 9b bc 89 8d 89 3d 62 22 e6 bc
       0.006248603 -0.018985482 0.06716449 -0.028092567
0000e0 dc 55 8c 3c 1c 33 44 3b 1a 86 77 bd 48 37 55 3d
       0.017130785 0.002993769 -0.060430624 0.052054673
0000f0 ed dc ec bc 63 44 fb 3b e8 c1 1d 3c 1c d6 0a bc
       -0.02891394 0.0076680644 0.00962875 -0.008473899
000100 d2 18 41 3d 3f 24 0a 3d 92 73 94 3b 81 06 51 3d
       0.04714281 0.033725973 0.0045303786 0.051031593
000110 a8 f0 4e bd ae 8f 41 3d fb 4a 6a bd bf a9 92 bd
       -0.050522476 0.047256164 -0.057200413 -0.07161283
000120 21 44 4d bc 72 7e 3c bd 75 2b 67 bc e6 0f 78 3c
       -0.01252845 -0.046019025 -0.014109482 0.015140509
000130 16 ad 31 3c 22 c3 3a 3b 67 42 9a bc a9 81 2e 3d
       0.01084449 0.0028497656 -0.018830491 0.042604122
000140 93 fd 9d 3d 76 fa 32 bd 4a b1 eb 3c 8b 4f 38 bd
       0.07714381 -0.04369589 0.028771061 -0.044997733
000150 a7 29 cd 3c 59 b1 02 bc cf e8 c5 3c 45 18 59 bb
       0.025044275 -0.007976853 0.024158863 -0.0033126038
000160 67 39 a3 bd 86 28 57 3c 41 4f 2b 3c e9 ee 33 3d
       -0.07969933 0.01313222 0.010455907 0.043929014
000170 8a 4b 7b 3b f2 d8 d0 3b 39 67 d5 3c ac 94 7c bd
       0.0038344585 0.006373518 0.026050197 -0.061665222
000180 0b 77 03 bd 84 ff 97 bc 7d c3 95 3d 34 6b b9 bc
       -0.03209595 -0.018554457 0.07312677 -0.022634126
000190 44 1b a2 3c 2f a7 2a 3d 50 3a 3d 3d 27 59 52 3c
       0.019788392 0.041663345 0.04619819 0.012838638
0001a0 df 48 0d bd 7b d2 12 3a 48 77 d4 3c c5 7e a6 3c
       -0.034493323 0.0005600822 0.025935784 0.02032412
0001b0 2c be 1c 3d 58 bf ba 3b 61 e6 8a bd 7b 00 04 bd
       0.0382673 0.0056990795 -0.067822225 -0.03222702
0001c0 e0 de 73 bd 8e d7 2b 3d e5 f5 46 3d 0d 36 04 3d
       -0.059538722 0.041953616 0.048574347 0.03227811
0001d0 d0 6d fe 3b 73 83 a1 bd 68 1d 52 bc db 0b 94 ba
       0.0077645555 -0.078864 -0.012824394 -0.0011295037
0001e0 7c 99 65 bc 8b e0 30 bd bb 37 ec 3c 3a c5 34 3b
       -0.014013644 -0.04318289 0.028835168 0.0027583377
0001f0 71 6a 81 3b 48 dd 43 3d 54 42 25 bc d9 ad 53 bd
       0.0039494564 0.047818452 -0.010086615 -0.051679466
000200 5d 7f 33 bd 5e d4 4f 3c 72 94 0c bc 7c 6e 6f 3d
       -0.043822635 0.01268491 -0.008580314 0.058454975
000210 df bb 53 bc 6b f6 9d bc 5b 30 82 3b a3 5c 2b 3c
       -0.01292321 -0.01928254 0.0039730496 0.010459098
000220 42 ac 37 bd ac 6a 24 bd 91 8f 9c bd 4e c6 a4 3d
       -0.044842012 -0.040140793 -0.076445706 0.08045636
000230 f5 ef c4 bc c1 7f 05 3d 82 dc 98 bc d5 1c dd bb
       -0.024040202 0.03259254 -0.018659834 -0.006747822
000240 da 4f f5 3a 54 91 3e 3d 8b 13 ea 3b 5b 7e 8f ba
       0.0018715814 0.046525314 0.007143443 -0.0010947691
000250 07 86 d1 3c 80 a1 47 bd fe d9 30 bd 61 f3 89 3d
       0.025576605 -0.048738003 -0.043176644 0.06735874
000260 5d 3c 11 3c 4d 4c 2b 3d be c8 b1 3d e5 4c 7c 3d
       0.008864489 0.041820813 0.08680867 0.06159677
000270 df 2c 25 3d cb d5 91 bc 0b 3d 5f 3d 02 35 42 bd
       0.040325996 -0.01780214 0.054501574 -0.047413833
000280 02 c2 0b 3d ed d3 06 3d e1 71 b6 ba d5 f1 e5 3c
       0.034120567 0.032916952 -0.0013919437 0.028069416
000290 61 a8 d2 bc c3 7f 3a bd 58 a8 ac bc 15 57 23 3b
       -0.025715055 -0.045532 -0.021076366 0.002492373
0002a0 f1 97 e1 bc 4c b9 1c bc 91 11 08 3d f3 e3 e6 3c
       -0.027538272 -0.009565663 0.033219878 0.028184867
0002b0 74 2e b6 bb d3 21 91 3c e8 2b a3 bb 51 c5 1f bd
       -0.005559737 0.017716324 -0.0049795993 -0.039006535
0002c0 f4 e0 8a 3d 37 ee 00 bc 35 16 0a 3d 3f ae 30 3b
       0.06781188 -0.007869295 0.033712585 0.0026959328
0002d0 38 94 1b bd 8e 89 54 3c 7e d0 4a bd 9f e1 93 3b
       -0.03798315 0.012972249 -0.04951524 0.00451298
0002e0 67 4e 04 bd 6d 97 11 bc 6b ca 42 3d 2c 5a 96 bd
       -0.032301333 -0.0088862 0.047556322 -0.07341418
0002f0 66 0e 48 3b 0d a0 27 bd b4 e2 95 3a 6e 73 b3 3b
       0.003052616 -0.04092412 0.0011435361 0.005476407
000300 de 1a 99 3d 29 98 37 bc 93 51 4d 3d 9c eb 5a 3d
       0.07475828 -0.011205711 0.050126623 0.05344735
000310 37 8f 90 3c 71 28 29 bb 82 20 bb 3c 2e ea 52 3d
       0.017646415 -0.0025811458 0.02284265 0.051492862
000320 15 a7 5d bd e4 33 5b 3d d9 8c ad bc 60 a5 84 3d
       -0.05411442 0.053516284 -0.021185325 0.06476855
000330 b9 d8 46 3d 8c 7e d2 b7 da 8a 8d bb 82 8c a5 bd
       0.048546527 -2.5092879e-05 -0.004319531 -0.0808344
000340 f3 19 74 bc 47 91 8d 3c 8b ca 29 bc 54 24 a7 3c
       -0.014898765 0.017281188 -0.010363231 0.020403065
000350 9c 2e 6f 3d 8f 97 46 3d d1 cc 02 bc 1d 8c 06 bb
       0.05839406 0.04848438 -0.007983402 -0.0020530291
000360 1e 0c 8d 3d 78 8b 52 3d 2f bb 21 3d 5e 35 2f 3d
       0.06887077 0.05140254 0.039485153 0.042775504
000370 d9 ad 9e 3c d1 8e 32 bd fa 2f 20 3d cb 10 dd 3c
       0.019370006 -0.04359323 0.039108254 0.026985547
000380 3a 37 91 3c a8 53 19 bd 59 56 5f 3d fd 67 d0 bc
       0.01772653 -0.037433296 0.054525707 -0.02544021
000390 af 87 24 3d 6e 3f c4 bc a8 7d 61 bd 0a 79 58 3d
       0.04016846 -0.023956027 -0.055051476 0.052849807
0003a0 65 ec a0 bd a1 43 23 bb 38 56 5b ba 4b cb ea 3c
       -0.07857589 -0.0024912136 -0.00083670346 0.02866139
0003b0 86 63 ac bd 9c 17 f9 3c 6c 46 92 3d bb 67 3f 3c
       -0.0841742 0.030406766 0.07142338 0.011682446
0003c0 e9 ff 2b bc 4b f3 2f 3d c6 f7 6d bb 1e 2e 14 3c
       -0.010498025 0.04295663 -0.0036311015 0.009044198
0003d0 b1 3f 1c 3d cc 14 ef 3c 45 46 32 3d 12 cb ea bc
       0.03814668 0.029184721 0.043524045 -0.028661285
0003e0 1a 3a 29 bd 37 f7 c4 3b 65 8c 68 3b aa bf 41 bd
       -0.041315176 0.0060109156 0.0035484072 -0.047301926
0003f0 a7 95 16 3d e1 b9 4e bd 52 24 9f bb b7 fe a9 3b
       0.036763813 -0.050470237 -0.0048566246 0.005187835

network_body._body_endoder.seq_layers.0.bias f4 [256]
000000 9a 38 0c 3c 1c e2 03 3d 1d b7 1b bc 8a 5a de ba
       0.008558417 0.032198057 -0.009504107 -0.0016964239
000010 cf 13 f1 3c d9 df 54 3d 41 a5 47 3c 10 c9 38 3d
       0.02942839 0.05197129 0.012185396 0.045113623
000020 15 f3 49 3c c0 d5 09 3c 0e 30 36 3d 94 99 aa 3a
       0.012326022 0.008412778 0.044479422 0.001301574
000030 26 d6 8b bb 38 0a 29 3d 6f 6f 2b bc b5 8d 7c bc
       -0.004267472 0.04126951 -0.01046358 -0.015414645
000040 1b ca 25 3c 13 ef e5 3c 82 5f c4 b9 03 3b 9b bb
       0.0101189865 0.028068101 -0.00037455192 -0.0047372594
000050 3c 19 61 3d 4c 0a 33 3d 0b 73 ab 3c b2 0e f8 bb
       0.054955706 0.04371099 0.02092888 -0.007570111
000060 f8 49 89 3c 87 c4 b0 3c 64 2a 99 bb 5a 7f 08 bc
       0.016758904 0.021578087 -0.004674243 -0.008331144
000070 8a f7 a7 3c 6d 83 03 3d f8 e6 d3 3c 95 c7 b7 3c
       0.020503778 0.03210776 0.02586697 0.022434035
000080 28 44 df 39 6b 47 76 3c ce b1 cb 3c aa 40 d8 3c
       0.00042584655 0.015031676 0.024865057 0.026398022
000090 52 2f 92 3c 7c d8 16 bb 41 2f 0d ba 20 a9 4e 3c
       0.01784483 -0.0023017218 -0.00053857645 0.012613565
0000a0 32 01 1c bb 37 af 8d bb 27 8b f1 3c 7b f3 a5 3c
       -0.0023804423 -0.0043238658 0.029485298 0.020257702
0000b0 4e 3d bc 3b c8 70 ad bb 1f ec 30 3c 57 3f 94 3c
       0.005744613 -0.0052929856 0.010798483 0.018096609
0000c0 96 91 82 bc e7 68 ce bb f8 20 0c 3d e3 3d bd 3c
       -0.015938561 -0.0062991264 0.03421113 0.023100799
0000d0 52 c0 65 b9 b0 a2 9c bb f5 89 0a 3d 59 5e 1d 3b
       -0.00021910787 -0.004780136 0.033822972 0.0024012534
0000e0 1e 0d 5d 3c fb f4 19 3b c0 8b 0c 3c 6d 1a 12 3d
       0.013491897 0.0023491967 0.008578241 0.035669733
0000f0 a5 57 99 3b 8d 77 52 bc 33 ab c5 3b 2d 97 42 bc
       0.0046796375 -0.012845886 0.0060323714 -0.011876863
000100 df bb 16 3d ec b3 81 3c 16 6b 3c bc 73 10 bd 3c
       0.03680026 0.015832864 -0.011500141 0.023079133
000110 9a 16 a3 3a 1c 03 1d 3d d1 c9 fc 3c 86 34 cb 3c
       0.0012442649 0.038333043 0.030857952 0.024805319
000120 63 1b 5f bb 16 46 9e 3b be 28 a1 bb d3 a3 b5 3c
       -0.0034043423 0.0048301322 -0.004918187 0.022172844
000130 dd f3 11 3d f9 00 0e 3d a5 c2 85 bc 68 8c 07 3d
       0.035632957 0.034668896 -0.016328165 0.033092886
000140 66 68 3b 3d 76 f6 42 3c 8d f9 5c 3c 73 cd 6a 3c
       0.04575386 0.011899581 0.013487232 0.0143312095
000150 6b 5f bb 3c 37 86 38 bc 8c cc 56 3c f5 a6 f7 3b
       0.022872647 -0.011262468 0.013110291 0.0075577446
000160 0e 6f 2c 3c 7f 8e a0 3b 4e 9f 71 3c 67 99 ab 3c
       0.010524524 0.0048997994 0.014747454 0.020947171
000170 e5 32 0c 3b a7 00 88 3c 3c f2 3d 3c a7 a2 9b 3b
       0.002139264 0.016601874 0.011593398 0.0047496143
000180 53 db 2a 3b 97 06 6b bb 57 05 0d 3d 1c 17 4a 3c
       0.0026070669 -0.0035862082 0.03442892 0.012334611
000190 d9 c5 c7 3c 31 e7 da 3c 98 50 b0 3c f6 df ff 3c
       0.024386333 0.026721569 0.021522805 0.031234723
0001a0 0f 36 18 3b 38 ba 9e bc d3 18 cf 3c 52 6b c3 3c
       0.002322558 -0.019375905 0.025280392 0.023854885
0001b0 dc ba 8c 3c c0 15 07 3d ae 1c d5 3c 32 b7 97 3b
       0.017178945 0.032979727 0.026014652 0.004629993
0001c0 45 5a a0 3c 2b c2 bb 3c 34 a2 b6 3c c4 a9 96 3c
       0.019574294 0.022919735 0.022294141 0.018391497
0001d0 68 5a a6 3b e5 21 8d 3c 9f 9a 1c bc 46 22 bb bb
       0.0050766952 0.017228076 -0.009558349 -0.005710873
0001e0 64 ea d4 bb ad ad cb 3c 85 06 a8 3c d5 ad a2 ba
       -0.006497668 0.024863089 0.020510921 -0.0012411425
0001f0 c4 9c 83 bc d0 53 57 3d 2e 67 21 bc a0 81 09 3c
       -0.016065963 0.052570164 -0.00985126 0.008392721
000200 81 d5 81 3c a6 b0 f5 3c 48 c7 a4 bb fa 1c 04 3d
       0.015848877 0.02999146 -0.005028639 0.032254197
000210 cc e4 a2 bb 9c c9 dd 3b d8 58 aa b8 00 8e a8 3b
       -0.0049711224 0.0067684185 -8.12278e-05 0.005143881
000220 f8 61 9f 3b 9b f1 12 3c e4 ab 5b 3c ae cb 39 3d
       0.0048639737 0.008968736 0.013407681 0.04536026
000230 cd 2e 62 bc 13 23 a8 3c 6b be 49 bb 71 9a 21 bc
       -0.0138051035 0.020524537 -0.0030783664 -0.009863482
000240 7b e4 dc bc d8 ba df 3c d5 b0 c6 3b 1f 00 13 3b
       -0.026964417 0.027310774 0.0060635605 0.0022430492
000250 63 f7 86 3c 1f 6b 04 3d bc 0d 44 3b de 39 f4 3c
       0.016475385 0.03232872 0.0029915413 0.02981275
000260 7d f7 ca 3c 00 73 d4 3c a1 21 09 3d 84 cf 1d 3d
       0.024776215 0.025933743 0.033479337 0.03852798
000270 1a 6c a3 3c 83 b1 6c bc 55 53 07 3d b2 74 37 3c
       0.019949008 -0.014446619 0.033038456 0.011197256
000280 cc 24 a7 3c b8 55 a2 3c 32 52 84 bc 86 28 d5 3c
       0.020403288 0.019816265 -0.016152475 0.0260203
000290 5d 2e 80 bb 54 80 8b 3c 64 02 0b bc 70 e5 13 3d
       -0.003911777 0.017028965 -0.008484457 0.03610748
0002a0 36 13 9c bb 85 34 27 bc f3 fe 82 3c 55 27 61 3c
       -0.0047630323 -0.010205393 0.01599071 0.013742288
0002b0 9f db 8a bc 0b 6e eb 3b b2 86 6b bc 49 ad 67 bb
       -0.016950427 0.007184749 -0.014375376 -0.0035351089
0002c0 4c e5 eb 3c e3 22 a0 bc be 34 0e 3d bd a9 5b bc
       0.02879586 -0.019547885 0.034718268 -0.013407168
0002d0 9e bf 0d 3b d4 9e 08 3b 3b df 20 3c 3a 6b c0 3b
       0.0021629105 0.0020846622 0.009818847 0.0058721574
0002e0 b6 54 fd 3a cd 71 26 3b 14 fb 10 3d 83 75 36 3d
       0.0019327614 0.002539742 0.035395697 0.04454566
0002f0 4d 2f 65 3c 5b 81 03 3d 47 b9 02 bd c6 14 e0 3c
       0.013988328 0.032105785 -0.031914975 0.027353656
000300 4d 6a 03 3d c9 69 13 bb 0b 12 d7 3c 8b c6 c7 3c
       0.0320838 -0.0022493473 0.02625372 0.024386665
000310 02 4c 9f 3c 3e 0b 0c 3c 4f 3f 2c 3d e6 98 d6 3c
       0.019445423 0.008547602 0.042052563 0.026195955
000320 75 8a b6 3c 10 e7 3a 3d 79 05 d1 3b df a9 bb 3c
       0.022282818 0.045630515 0.006378826 0.02290815
000330 b7 97 40 3d 77 26 59 bb 3f a5 05 bb 04 75 9b 3c
       0.047019687 -0.00331345 -0.0020392684 0.018976696
000340 b1 82 d5 bb 23 9a a0 3c 8e 50 41 bc 8f ad 19 3c
       -0.006515824 0.019604748 -0.011798991 0.0093797585
000350 28 3a fe 3c bf c4 1e 3d 99 63 e9 bb 0e 5c a4 bb
       0.03103359 0.03876185 -0.0071224687 -0.0050158566
000360 95 5d 1b 3d 65 64 bc 3c 0d 6d af 3c 66 38 aa 3c
       0.037931044 0.02299709 0.021414304 0.020778846
000370 f3 59 56 3c a5 62 32 38 f1 91 52 3d f6 da a8 3c
       0.013082969 4.2530377e-05 0.05140871 0.020612221
000380 8c 3b 3b 3d 01 35 19 3b fc fe 0d 3d 2e 25 2c bb
       0.045711085 0.002337754 0.034667 -0.0026267278
000390 ae f4 f0 3c 5a 41 16 bb 93 b5 fd 3b d4 fb ff 3c
       0.029413547 -0.0022927136 0.0077425926 0.03124801
0003a0 cb 31 07 3d 36 9c d9 3b 02 81 4c bc 90 1d 61 3c
       0.03300647 0.0066409362 -0.01248193 0.013739958
0003b0 a2 c9 4c 3c 0f 29 f0 3c 0f c0 d2 3c 5e 23 ba 3c
       0.012499245 0.029316453 0.025726346 0.022721943
0003c0 45 32 db bc 1a c5 fd 3c fa 4b a1 bc e8 e9 12 3c
       -0.026757369 0.030977774 -0.019689549 0.0089669
0003d0 96 9b 4a 3d d7 56 89 3c 1d e2 00 3d 21 a7 c6 bb
       0.049464785 0.016765041 0.03146564 -0.006062404
0003e0 e1 95 73 3c ea 63 5a 3b 81 80 cd bb fb 86 77 3c
       0.014867277 0.0033323714 -0.0062714224 0.015107865
0003f0 e3 3e 89 3c 1b 33 b8 3c 28 70 59 3a af f0 77 3c
       0.01675362 0.022485306 0.00082946057 0.015133067

network_body._body_endoder.seq_layers.0.weight f4 [256, 29]
000000 25 03 d1 bd a7 2e 61 be de 03 cb 3b bf 2e 88 3e
       -0.10205678 -0.21990453 0.0061955294 0.26598164
000010 1f 6e 5b be 94 7d a0 3e 17 11 88 be 14 39 dd bd
       -0.21428727 0.31345809 -0.2657554 -0.108019024
000020 66 42 92 bd 42 b0 9e 3e eb 28 f6 bc 79 97 ae bc
       -0.07141571 0.3099385 -0.030048808 -0.021312462
000030 01 39 23 3d e9 77 e9 3d 16 44 25 3d 2e 9a cb 3d
       0.039849285 0.11399824 0.040348135 0.09941517
000040 d5 a7 32 be b2 83 bc 3c b3 9f 44 3e 3e 49 80 3d
       -0.17446835 0.023012016 0.19201545 0.0626397
000050 ab 94 2d 3e 2c 41 92 be d9 56 f6 be 86 69 4c bd
       0.16951244 -0.28565347 -0.48113135 -0.049905322
000060 bf 86 7f be 9f b5 e5 3d e0 8a 53 bd 01 a1 35 3d
       -0.24953745 0.11216282 -0.051646113 0.044343
000070 06 48 46 bd 44 7b 79 bd 03 f6 1b 3e 8a 59 0c 3c
       -0.04840853 -0.06090857 0.15230565 0.00856627
000080 f5 91 17 3d e3 e0 10 3e 75 7f ee be 2e 6c 23 bd
       0.03700443 0.14148287 -0.46581617 -0.03989809
000090 e9 32 c0 3d 3d f6 09 bd f5 55 cf bd b3 eb 37 be
       0.0938471 -0.033682097 -0.10123817 -0.17961006
0000a0 f5 99 96 3c c3 bb e4 bc bc d7 84 be e1 53 a0 3d
       0.01838396 -0.027921563 -0.25945842 0.07828499
0000b0 03 34 c4 3e 57 1a 03 3e 13 a5 cb 3e 45 9e 82 bd
       0.38320932 0.12803017 0.3977438 -0.06377844
0000c0 26 00 76 3e 07 de 8c bd ba 16 b8 be df 9f 62 3d
       0.24023494 -0.06878286 -0.3595484 0.055328246
0000d0 fd ad a8 3e 3a c5 03 bc 5a 80 21 be d9 56 a1 3e
       0.32945243 -0.008042628 -0.15771618 0.31511572
0000e0 69 dc 2c 3e 7f 02 8b 3c 0f 66 0c 3e 19 74 8d be
       0.16880955 0.016968964 0.13710807 -0.27627638
0000f0 28 56 61 3e ca bd 11 be e9 d5 3a 3e 56 d4 1f 3d
       0.22005522 -0.14232555 0.18245663 0.03902086
000100 5b de 7e be fd 11 95 bd 67 49 29 3e bf 4b 7e 3d
       -0.2488951 -0.072788216 0.16531907 0.062083956
000110 63 a4 92 3e 09 82 0c be e6 ae 8f be 96 e2 4b 3e
       0.28641042 -0.1372148 -0.28063124 0.19910654
000120 e6 11 d4 bd 49 3f 11 3e bd e7 e7 3d 6a 50 73 bd
       -0.10354976 0.14184298 0.113234974 -0.05940286
000130 ea 48 b6 bd 73 e6 81 bd 1c 78 2e bb 3d cc b6 be
       -0.08900626 -0.06342783 -0.0026621884 -0.35702696
000140 fc 67 40 be 01 33 b8 3e 9b 43 f4 3d a8 83 8a 3c
       -0.18789667 0.35976413 0.11926957 0.016908482
000150 60 25 bf 3c 4e 42 29 3d 5d 88 0a 3e ce d1 68 3e
       0.023333251 0.041323 0.13528581 0.22736284
000160 21 2a 12 be fc 25 c3 bd 00 03 4b 3e 06 e1 09 be
       -0.14273883 -0.09528729 0.19825363 -0.13464746
000170 10 e8 93 bc 5f 80 1a 3d 18 92 60 3e ca d1 fd 3d
       -0.018054992 0.03772008 0.2193073 0.1239353
000180 b2 68 1e 3e 0e 40 36 3e 94 1b d8 3e 86 9c 15 3e
       0.15469626 0.17797872 0.4220854 0.1461049
000190 12 e7 a3 bd 14 0d a0 3d 57 44 60 3e 54 7e ed bb
       -0.080030575 0.078149945 0.2190107 -0.0072477255
0001a0 7a 79 ed 3d d0 0f 03 3e ff 0d 14 3d a1 24 f0 3d
       0.115954354 0.12799 0.03614616 0.117257364
0001b0 04 ea df bc 78 71 24 be 7a 7a 93 bb c1 59 0d bf
       -0.027333267 -0.1605891 -0.0045006843 -0.5521508
0001c0 a1 67 fa 3d b8 9b 5f 3e 97 a1 aa 3e ba 54 bb be
       0.12226797 0.21836746 0.33326408 -0.3658808
0001d0 40 91 f0 3d 19 8d 9d bd 7d 85 74 be 59 33 90 3d
       0.11746454 -0.07692928 -0.23879047 0.07041044
0001e0 91 e0 02 3d 37 b8 d6 bc 2d 1e 94 bd d2 1d 03 be
       0.031952444 -0.026210887 -0.07232318 -0.12804344
0001f0 6c 29 9c 3e 33 2d 9b bd 87 03 7e 3e 58 15 d3 bd
       0.30500352 -0.075769804 0.24806033 -0.10306805
000200 ce 0b a2 bd 46 00 cf bd 97 ce 31 3e 7a 91 71 3e
       -0.07912408 -0.10107474 0.17363964 0.23590651
000210 a6 5f 96 3d 74 11 5c 3e 61 60 5d bd e8 83 8a 3e
       0.07342462 0.21491033 -0.054046992 0.2705376
000220 43 23 92 be e5 64 49 3e c6 af 07 3e 97 4f c9 3d
       -0.28542528 0.19667394 0.13250646 0.09829634
000230 3b 14 1d bd b5 b1 06 bd e4 23 04 3e 3b fa b0 3d
       -0.03834937 -0.03288432 0.12904316 0.08641478
000240 dc df 54 bc 39 97 7d be 7b f3 1e bd c8 b6 25 3e
       -0.012992825 -0.24764718 -0.03880642 0.16183007
000250 02 9f ab 3e bd 1d a4 3e c0 2c 81 be bf 56 51 3e
       0.3351975 0.32053939 -0.25229454 0.20443247
000260 c6 ad 8a 3d 88 91 03 be 60 3d d8 3d b3 f9 a8 bd
       0.06771426 -0.12848485 0.10558581 -0.08250751
000270 a6 b0 04 3e 9b 60 61 bb 25 be 8d be 24 dc c1 bd
       0.12958011 -0.0034389857 -0.2768413 -0.094658166
000280 22 e2 41 3e e1 9a 9a bd 44 2a 39 bc 45 68 01 be
       0.18933919 -0.07549072 -0.011301581 -0.12637432
000290 7b bf 5b 3d 7a 12 31 be 3d 65 12 3d fa 39 4d 3e
       0.053649407 -0.17292204 0.03574108 0.20041648
0002a0 3f 01 18 3c 56 5c 79 3e bb 2d e5 bd bb 3c c0 be
       0.009277641 0.2435163 -0.11190363 -0.37546334
0002b0 a3 c4 79 be 17 12 b1 be 38 7d 97 3c 59 1d 44 bd
       -0.24391417 -0.34584114 0.018492326 -0.04787955
0002c0 43 82 b6 bd 03 d8 86 3e ae e9 43 3d 98 2c d3 3d
       -0.08911564 0.2633668 0.047830276 0.1031124
0002d0 8b f1 5a 3e c3 94 3f 3e 15 01 ac bd 1a 6e 41 3e
       0.21381204 0.18709092 -0.08398644 0.18889657
0002e0 87 32 7c 3e 12 33 03 3d 86 d0 05 3e 7a 69 7e 3c
       0.2462865 0.032031126 0.13067827 0.015528077
0002f0 c6 69 75 3e b0 d1 1a be 35 c5 85 3e d6 1f ec 3d
       0.2396613 -0.15119052 0.2612702 0.1152951
000300 fa 1b ac 3b 72 92 d5 3b 46 cc 29 be de d6 4e bd
       0.0052523585 0.006517702 -0.1658183 -0.050497882
000310 f8 61 be bc ec 97 22 bd dc 68 98 3e ec 06 9c bd
       -0.023240075 -0.039695665 0.297675 -0.07618508
000320 fe 30 b0 bc 17 72 3f 3e bf 42 33 3e 50 85 f0 bd
       -0.021507736 0.18695866 0.1750593 -0.11744177
000330 f8 63 3b 3e 1e 18 9c 3d a1 80 31 3e 7d f6 32 be
       0.18299854 0.076217875 0.17334224 -0.1747684
000340 2d 26 5c be 1a f6 76 be dd 99 00 bf 5f e4 1f 3e
       -0.21498938 -0.24117318 -0.50234777 0.1561446
000350 27 c0 b3 3c ed ca bc be 89 ab 93 3e 54 60 5e be
       0.021942211 -0.3687357 0.28841808 -0.21716434
000360 1d 0c 9d 3e e1 86 c0 be 20 81 75 be 73 fc 7d bd
       0.30673304 -0.37602904 -0.23975039 -0.062008332
000370 69 4e 09 be cf 37 e6 3d 26 27 72 bd e3 65 89 3e
       -0.13408817 0.112411134 -0.059119366 0.26835546
000380 18 41 3e be 13 43 f9 bc 9b 1e 92 3e 49 2a 31 3e
       -0.18579519 -0.030427491 0.28538975 0.17301287
000390 5a b1 41 3b 4e 78 27 bd 37 a1 f8 3d 7d 62 6c be
       0.0029555173 -0.040886216 0.12140124 -0.23084445
0003a0 ee 5d a4 3e 32 4d 23 be bb 03 ac b9 7c 11 2d 3e
       0.32102913 -0.15947416 -0.00032809176 0.16901201
0003b0 77 23 7a bd 6b 5c db 3e 12 df 94 be 15 13 de bd
       -0.06106898 0.42843947 -0.2907644 -0.10843483
0003c0 d6 06 a8 3e 13 a8 00 bd 10 02 4f 3e 76 18 59 be
       0.32817715 -0.031410288 0.2021563 -0.21200737
0003d0 10 9d 4f bb 91 e5 44 be e2 d8 e5 bd a5 2b 3e 3d
       -0.003167931 -0.19228198 -0.11223008 0.04642834
0003e0 7a ad 57 3d ff 3a f7 bc eb 8e b8 bd 98 72 3c 3e
       0.052655675 -0.030179499 -0.090116344 0.18403089
0003f0 75 ce d0 3e 49 66 da 3d b0 e4 27 3d be 8e 6b bd
       0.40782514 0.106640406 0.040989578 -0.057509176
