ml-agents-release_20/Result/Dino/Dino03/Dino/Dino-999997.onnx (onnx, 34598 bytes, 4 tensors)

action_model._discrete_distribution.branches.0.bias f4 [2]
0	0x3aaffddc	0.0013427096
1	0xbaaffdb3	-0.0013427049

action_model._discrete_distribution.branches.0.weight f4 [2, 256]
0	0xbdad69b7	-0.08467429
1	0x3c8350d2	0.016029749
2	0xbdf735f4	-0.120708376
3	0x3d48dc25	0.04903807
4	0xbc109f49	-0.008827039
5	0x3d417f95	0.047240812
6	0x3dae092f	0.084978454
7	0xbc98e65d	-0.018664533
8	0xbd7bf522	-0.061513074
9	0xbba09dd1	-0.0049016257
10	0x3d031d56	0.0320104
11	0xbc142cf4	-0.009043921
12	0x3d3ddd16	0.046353422
13	0x3c536611	0.0129027525
14	0x3ac521f7	0.001504003
15	0x3927322c	0.00015945052
16	0x3d8141b4	0.0631136
17	0xbdc01480	-0.0937891
18	0x3d6bf448	0.05760601
19	0xbc64a702	-0.013955833
20	0xbd6c0aca	-0.057627477
21	0x3d0002a0	0.031252503
22	0xbcb14a3f	-0.021641849
23	0x3d28818f	0.04113918
24	0xbde1f341	-0.11032725
25	0xbd984bf0	-0.07436359
26	0x3d5c7cb0	0.05382985
27	0xbd21e6bb	-0.039526682
28	0x3b68752a	0.0035470226
29	0xbd80272b	-0.06257471
30	0x3e0fca2d	0.14041968
31	0x3dc7c9ab	0.09755262
32	0x3df06529	0.11738045
33	0xbc899dfd	-0.016798967
34	0xbd6fde1a	-0.058561422
35	0x3b8e7e7a	0.0043485733
36	0xbcc7a98b	-0.024372837
37	0xbdef6068	-0.1168831
38	0xbd9a85d6	-0.075450584
39	0x3e1bca34	0.15213853
40	0xbd032fc0	-0.03202796
41	0x3dd651d9	0.1046483
42	0x3d2e472f	0.042548355
43	0x3cbffb87	0.023435367
44	0x3ddd83ee	0.10816179
45	0xbca42cf4	-0.020040967
46	0x3dc6aede	0.09701322
47	0xbd5c4dfe	-0.053785317
48	0x3e0f064f	0.1396725
49	0xbc840c1c	-0.016119055
50	0xbde95b03	-0.11394312
51	0xbd4ddf56	-0.050261818
52	0x3d4c4cb5	0.04987784
53	0xbd80fb27	-0.062979035
54	0xbd3f5609	-0.04671291
55	0xbd34e3a1	-0.044162396
56	0x3d0a48d8	0.033760875
57	0xbd0822d0	-0.033236325
58	0x3a6bfd39	0.00090022717
59	0x3d1f4196	0.038880907
60	0xbd8a7965	-0.067614354
61	0x3e24c428	0.16090453
62	0xbd1d943c	-0.038471445
63	0xbd2081b0	-0.03918618
64	0xbd870490	-0.06592667
65	0xbde41593	-0.111369275
66	0x3d1b3b96	0.037898622
67	0xbd38d42d	-0.04512422
68	0x3e14055a	0.14455166
69	0xbccb63aa	-0.024827797
70	0xbd4b8e1d	-0.049696077
71	0xbcfcf33e	-0.030877706
72	0x3dde97c7	0.10868793
73	0xbc61ba15	-0.013777276
74	0xbd7d497a	-0.06183765
75	0x3df8ef74	0.12155047
76	0xbdec6698	-0.11543006
77	0x3d8e9b99	0.06963272
78	0x3e108591	0.14113452
79	0x3dc17817	0.094467334
80	0x3b6c2149	0.0036030582
81	0xbce78936	-0.02826367
82	0xbd46b74f	-0.04851466
83	0xbd0f6f2e	-0.03501814
84	0x3db39cec	0.08770165
85	0x3d848d03	0.06472208
86	0x3d16f295	0.036852438
87	0xbd249a5c	-0.04018627
88	0x3de8831a	0.11353131
89	0x3d0d2281	0.034456734
90	0xbb3a5071	-0.0028429294
91	0x3cc22fc3	0.023704415
92	0xbd76ba88	-0.060236484
93	0x3baad4d0	0.0052133575
94	0xbd20d8e6	-0.03926935
95	0x3d4489a0	0.047982812
96	0x3ce8f28b	0.028435966
97	0xbcec2328	-0.028825358
98	0xbbe06e15	-0.0068490603
99	0x3dcd0388	0.10010439
100	0x3dd32ce6	0.10311298
101	0x3b278c0b	0.002556565
102	0x3d1cba11	0.038263384
103	0x3db56f73	0.08859148
104	0x3e0026dc	0.12514824
105	0xbd03a9c7	-0.032144334
106	0x3d033cc5	0.032040376
107	0xbcaa80c6	-0.020813357
108	0xbdc14646	-0.09437232
109	0x3c24d434	0.010060359
110	0xbb41814b	-0.0029526528
111	0xbd67bf93	-0.056579184
112	0xbb48e1ae	-0.0030652094
113	0xbd0d0549	-0.03442887
114	0x3e1d5106	0.15362939
115	0xbce7f762	-0.028316204
116	0xbcd53cea	-0.026030023
117	0xbdd07264	-0.10178068
118	0x3a8fb2db	0.0010963337
119	0x3d4ca707	0.049963977
120	0xbd2ad5a4	-0.04170765
121	0xbd9e3ed8	-0.0772683
122	0xbbcd0523	-0.006256716
123	0xbce03c3d	-0.027372474
124	0xbc666eff	-0.0140645495
125	0xbdabe688	-0.0839358
126	0x3ddfbdc0	0.10924864
127	0xbd5a9dc1	-0.053373102
128	0xbcdf2547	-0.027239455
129	0x3cda202b	0.026626667
130	0x3d41ae99	0.04728565
131	0xbdfbe193	-0.12298884
132	0x3dd9b9db	0.10631152
133	0xbd4052c6	-0.04695394
134	0xbdaeac90	-0.085290074
135	0xbce975b2	-0.028498504
136	0xbd2718cc	-0.040795133
137	0xbcc2dbbb	-0.023786416
138	0x3cfbf20a	0.030755062
139	0x3db622c4	0.0889335
140	0xbbdc43c8	-0.0067219473
141	0x3c70e5f1	0.01470326
142	0xbccba697	-0.02485971
143	0xbadfd209	-0.0017076145
144	0x3d11fdf2	0.03564257
145	0x3d5a5f8f	0.053313788
146	0xbde8315e	-0.11337541
147	0xbdb3d4ec	-0.08780846
148	0x3dad92da	0.08475275
149	0x3c9fceb6	0.019507747
150	0xbdd88cc6	-0.105737254
151	0x3d59ae90	0.05314499
152	0xbd560595	-0.052251417
153	0xbe1438b5	-0.14474757
154	0x3c4e1171	0.012577401
155	0x3db49628	0.088177025
156	0x3de3cdbb	0.11123224
157	0x3ca141ae	0.019684639
158	0x3becfc41	0.0072322194
159	0xbcf4c290	-0.02987793
160	0x3cde0cc1	0.02710569
161	0x3e12864d	0.14309044
162	0x3d254c8e	0.04035621
163	0x3e1414bf	0.14461039
164	0x3ccec43e	0.02524006
165	0x3dbd4f1c	0.092436045
166	0xbc2c2766	-0.01050744
167	0x3de8fea0	0.11376691
168	0xbc526d20	-0.0128434
169	0x3d0a27ee	0.033729486
170	0xbd150883	-0.03638507
171	0xbceedc04	-0.029157646
172	0x3ddf3aae	0.10899864
173	0xbd88250d	-0.06647692
174	0x3e0fc133	0.14038543
175	0xbcab6cd4	-0.020925917
176	0xbdf638da	-0.12022562
177	0x3d922601	0.07136155
178	0xbda71bcb	-0.08159598
179	0x3d3d16cd	0.046164323
180	0xbbe5000a	-0.00698853
181	0xbca5df83	-0.02024818
182	0x3c0419e9	0.008062818
183	0xbb27a4d7	-0.002558043
184	0x3ca8eaec	0.020619832
185	0xbd6b1a8b	-0.05739836
186	0xbd918888	-0.071061194
187	0xbd3ceca2	-0.046124108
188	0xbd19f507	-0.037587192
189	0x3d8fbae5	0.07018069
190	0xbda28bac	-0.079367965
191	0xbcc3df3a	-0.023910154
192	0xbd794755	-0.060859043
193	0xbd367689	-0.044546638
194	0x3c92df5f	0.017928777
195	0xbd83221c	-0.0640299
196	0xbdc0b056	-0.094086334
197	0xbcb27d8c	-0.021788381
198	0xbd3e21b2	-0.046418853
199	0xbd26dbdc	-0.040737018
200	0x3e0c6a74	0.13712484
201	0x3e0a554b	0.13509099
202	0x3db4e94b	0.088335596
203	0x3e169dfe	0.14708707
204	0xbd03371b	-0.032034975
205	0x3d38dc2b	0.045131844
206	0xbcb08142	-0.02154601
207	0x3da424a5	0.08014802
208	0xbd81aa59	-0.06331319
209	0xbcbc462a	-0.022982676
210	0xbcfda7d1	-0.03096381
211	0xbdde6684	-0.10859397
212	0x3de7bd1e	0.11315368
213	0x3d0400c9	0.03222731
214	0xbcea4c9b	-0.028600981
215	0x3db8e6b1	0.09028376
216	0x3cfc8de0	0.03082937
217	0xbc029cb1	-0.007971928
218	0x3cc4287a	0.023945082
219	0xbd8b92ee	-0.06815134
220	0xbbec6f45	-0.007215413
221	0x3d5d4215	0.0540181
222	0x3d987b1e	0.07445358
223	0xbd157a65	-0.036493678
224	0xbc582799	-0.013193035
225	0xbd84249b	-0.064522944
226	0x3acfb99a	0.001584816
227	0xbdaf224a	-0.08551462
228	0x3e0c4cc7	0.13701163
229	0xbd5d2052	-0.0539859
230	0xbbbcf689	-0.005766694
231	0x3d831cba	0.064019635
232	0xbd2a0a58	-0.04151377
233	0xbd3e8119	-0.046509836
234	0x3d0cc627	0.03436866
235	0xbbd087f1	-0.0063638617
236	0x3e21b689	0.15792288
237	0xbd88f1ab	-0.066867195
238	0x3c548fa8	0.012973703
239	0x3d3a2506	0.045445465
240	0x3d7ccaac	0.06171672
241	0xbc9757e2	-0.018474523
242	0xbd0e295b	-0.03470741
243	0x3dd0b6be	0.10191105
244	0x3d9c7ef8	0.07641405
245	0xba9cf5b6	-0.0011975083
246	0xbd02527b	-0.03181694
247	0x3e0677d4	0.13131648
248	0xbc1fa81c	-0.00974467
249	0x3c317311	0.010830657
250	0xbd583179	-0.052781556
251	0xbe10da4e	-0.14145777
252	0xbcad27f8	-0.021137223
253	0xbcd8ea3e	-0.026478883
254	0xbd5bb24c	-0.053636834
255	0x3d717f53	0.058959316

network_body._body_endoder.seq_layers.0.bias f4 [256]
0	0x3d2b35b0	0.041799247
1	0xbbdd1ce5	-0.0067478293
2	0x3cd029be	0.02541053
3	0x3ca37b93	0.019956386
4	0xbc03271c	-0.00800493
5	0x3ccf4427	0.025301052
6	0x3d1d923b	0.038469534
7	0xbb875634	-0.0041301493
8	0x38084a9e	3.249442e-05
9	0x3d0f6fa7	0.03501859
10	0x3db141a5	0.08655099
11	0xbc77eb10	-0.015131727
12	0x3c1718cf	0.009222223
13	0xbb0ccd54	-0.002148469
14	0x3d2d495a	0.04230628
15	0x3d00b9c8	0.031427175
16	0x3ca72187	0.02040173
17	0x3d9fb760	0.07798648
18	0x3c9c7774	0.019099928
19	0xbc01606c	-0.007896524
20	0x3b81a060	0.003955886
21	0x3d8bea85	0.068318404
22	0xbc02a342	-0.007973494
23	0x3c7cd870	0.015432462
24	0x3d00d0ca	0.031449117
25	0x3cc86135	0.024460414
26	0x3ccb78bc	0.024837844
27	0x3c1c9c0a	0.009558687
28	0xbc273f97	-0.010208032
29	0x3c0afe54	0.008483488
30	0x3d6e6a85	0.058207054
31	0x3d01e72c	0.031714603
32	0x3d69dbd1	0.0570944
33	0xbd3ae628	-0.04562965
34	0x3ba6e6f0	0.005093448
35	0xbbd7b465	-0.006582784
36	0x3c70e7de	0.014703719
37	0x3c8d998d	0.017285133
38	0x3d458a85	0.048227806
39	0x3d4e0b0c	0.050303504
40	0xba60f8fb	-0.0008582023
41	0x3d3d71ac	0.046250984
42	0x3cef50d7	0.029213352
43	0x3d607ba6	0.05480542
44	0x3d040b45	0.03223731
45	0xbb9bbfbe	-0.004753082
46	0x3d11ed32	0.035626598
47	0x3b812925	0.0039416724
48	0x3d6b3167	0.05742016
49	0xbb354c43	-0.0027663864
50	0x3d02090f	0.03174692
51	0x3c946ddd	0.018118793
52	0x3d3aea77	0.04563376
53	0x3cc083e7	0.023500396
54	0x3c6f6b47	0.014612979
55	0x3c496586	0.0122922715
56	0x3c794722	0.015214713
57	0x3af53861	0.0018708819
58	0x3c19a353	0.009377318
59	0x3c570b47	0.013125247
60	0x3cea4376	0.028596621
61	0x3d9b1dd4	0.07574049
62	0xbaa0e4f1	-0.0012275261
63	0x3ca20cd7	0.019781513
64	0x3c319a9f	0.010840087
65	0x3cb7d4af	0.022440283
66	0x3bc264d5	0.0059324303
67	0x3c3a53ed	0.0113725485
68	0x3d500cd1	0.050793473
69	0x3a2777d0	0.0006388398
70	0x3ccfd6f5	0.025371054
71	0x3af01ddb	0.0018319444
72	0x3d353957	0.044244137
73	0xba913159	-0.0011077329
74	0x3c8b28c6	0.016987216
75	0x3d45aa6a	0.048258223
76	0x3d414288	0.04718259
77	0x3d7136b9	0.05889008
78	0x3d67bc0e	0.056575827
79	0x3ce1845d	0.027528936
80	0x3bad6d76	0.00529259
81	0x3b8779d1	0.0041343947
82	0x3d02b889	0.031914268
83	0xbb895102	-0.004190565
84	0x3d1b14b0	0.037861526
85	0x3d6bf3cb	0.057605546
86	0x3c29dc5d	0.01036748
87	0x3c139784	0.009008292
88	0x3e01e8ee	0.12686512
89	0x3c159ae6	0.009131169
90	0xbc1d0b2f	-0.009585186
91	0x3c49a047	0.0123062795
92	0x3cb4883f	0.022037623
93	0x3c863bcb	0.016385933
94	0x3ab9c44f	0.0014172884
95	0x3cb24b73	0.021764493
96	0x3bd707bf	0.0065622027
97	0x3c72126f	0.014774903
98	0xbc10a92b	-0.008829395
99	0x3d15d653	0.03658135
100	0x3d276942	0.040871866
101	0x3c4abce8	0.01237414
102	0x3ce910ed	0.028450454
103	0x3d0af7c1	0.033927683
104	0x3dc74303	0.09729578
105	0x3b421231	0.0029612894
106	0x3d08ae85	0.03336956
107	0x3d08fb94	0.03344305
108	0x3d3d9915	0.04628857
109	0xba151c47	-0.00056881126
110	0x3cd1cccf	0.025610356
111	0x3bd5ec9f	0.0065284516
112	0x3c035508	0.0080158785
113	0xb9b3c1d1	-0.00034285945
114	0x3d882d4d	0.066492654
115	0x3bd972d1	0.0066360016
116	0xbc3ff338	-0.011715703
117	0x3ccba9be	0.024861213
118	0xbc43feee	-0.011962635
119	0x3cae0e98	0.021247193
120	0x3ac8b2dc	0.0015312093
121	0x3c9fdb47	0.01951374
122	0xbc6d431b	-0.014481331
123	0x3d2a1ee7	0.041533377
124	0xbc0de56a	-0.008660654
125	0x3cfb6679	0.030688511
126	0x3d112027	0.035431053
127	0x3c2a65ba	0.01040023
128	0x3ac053e6	0.0014673441
129	0x3bc66ad3	0.006055215
130	0x3c2b124f	0.010441377
131	0x3cd55666	0.026042175
132	0x3d2c91b8	0.042131156
133	0x3ca34a19	0.019932793
134	0x3d3e722e	0.04649561
135	0x3cf73cd9	0.030180382
136	0x3d556ddd	0.052106727
137	0x3c8563f3	0.016283011
138	0x3d4fb4ca	0.050709523
139	0x3d525ada	0.051356174
140	0x3ad1eaf9	0.0016015462
141	0x3c400ebf	0.011722266
142	0x3d394bf7	0.04523846
143	0xbc805444	-0.015665181
144	0x3c9f9ecc	0.0194849
145	0x3d2a85a0	0.04163134
146	0x3d2ab0bb	0.04167245
147	0x3d160e05	0.036634464
148	0x3d33cc06	0.043895744
149	0xbb9ad9c0	-0.004725665
150	0x3cb091d1	0.021553906
151	0x3d8207a7	0.06349116
152	0x3c8fc471	0.017549725
153	0x3d78d5d2	0.06075079
154	0xbae2a9b7	-0.0017293011
155	0x3d29212c	0.0412914
156	0x3d438637	0.04773542
157	0x3b3ed79d	0.0029120215
158	0xbc66d83a	-0.014089638
159	0x3a3638e5	0.0006951227
160	0xbae34a11	-0.0017340799
161	0x3d4ae2b9	0.049532626
162	0x3cb17a8d	0.021664882
163	0x3d54d79b	0.05196343
164	0x3c0988ba	0.008394415
165	0x3d11092a	0.03540913
166	0x3c21c92f	0.009874626
167	0x3dae7290	0.08517945
168	0xbb22986c	-0.0024810089
169	0x3baf259f	0.005345061
170	0x3d046a9a	0.032328226
171	0xbba4466a	-0.005013277
172	0x3d049ee8	0.032378107
173	0x3caf75a3	0.021418398
174	0x3d3ebd2d	0.04656713
175	0x3c889951	0.01667467
176	0x3d1c9bb2	0.03823442
177	0x3d31c7a9	0.0434033
178	0x3d59f7fc	0.053215012
179	0x3c8ba910	0.017048389
180	0x3c9baab2	0.019002292
181	0x3d20b124	0.039231434
182	0xbbf67dd3	-0.0075223236
183	0xbc2d039f	-0.010559945
184	0xbb816b82	-0.0039495835
185	0x3d86d2e7	0.06583195
186	0x3c42bdc0	0.01188606
187	0x3c138256	0.0090032425
188	0x3aa68f85	0.0012707567
189	0x3cf9d0e5	0.030495116
190	0x3ca4cef8	0.020118222
191	0x3a90d4cd	0.0011049748
192	0x3bc2ffea	0.0059509175
193	0x3c3304a4	0.010926399
194	0x3b1f036d	0.0024263517
195	0x3b94c583	0.004540147
196	0x3ce2a7fb	0.02766799
197	0x3c14fbe4	0.0090932585
198	0x3cd96c97	0.026541037
199	0x3b9a212d	0.004703662
200	0x3d331bc8	0.043727666
201	0x3d4722b0	0.048617065
202	0x3dd0cd03	0.10195353
203	0x3d8e053b	0.069345914
204	0x3c44c765	0.01201043
205	0x3c8f8b2c	0.017522417
206	0x3b09ebf7	0.0021045187
207	0x3d083840	0.03325677
208	0x3cbd32af	0.023095457
209	0xbb03963a	-0.0020078556
210	0x3d2e5cad	0.04256885
211	0x3cf80430	0.030275434
212	0x3d28e2b5	0.04123183
213	0x3b03a689	0.0020088276
214	0x3b4963bc	0.0030729612
215	0x3cfb602b	0.030685505
216	0x3cf953d3	0.030435478
217	0xbd16265e	-0.036657684
218	0x3b116548	0.0022185612
219	0x3d8ebd93	0.06969752
220	0x3ccf0680	0.025271654
221	0x3ca7a6a8	0.02046521
222	0x3d1067d2	0.03525526
223	0xbbd61c49	-0.0065341336
224	0x3b8bee5b	0.0042703575
225	0x3cd4931a	0.02594905
226	0xbcf4db48	-0.029889718
227	0x3d2171aa	0.03941504
228	0x3deb5906	0.11491589
229	0x3bfb80c8	0.007675264
230	0x3b26aad8	0.002543142
231	0x3d24f3bf	0.040271517
232	0x3c08d5b5	0.008351733
233	0x3b8a13ff	0.0042138095
234	0x3c278af0	0.010225996
235	0xbc53b983	-0.012922647
236	0x3deaebb6	0.114707395
237	0x3c94c359	0.018159555
238	0x3cd14863	0.025547212
239	0x3d426516	0.047459684
240	0x3cd0c48d	0.025484348
241	0xbb2ffd93	-0.0026854023
242	0x3bd04f23	0.00635709
243	0x3d745689	0.05965284
244	0x3cc590f2	0.024116967
245	0x3c572d03	0.01313329
246	0x389c0072	7.4387426e-05
247	0x3daa0cb0	0.08303201
248	0xbc4042c9	-0.011734673
249	0x3cb6897b	0.022282353
250	0x3c9fc165	0.019501397
251	0x3cf0531a	0.0293365
252	0xbc1a50eb	-0.009418706
253	0xbc195a9e	-0.009359984
254	0x3c0ab4d0	0.008465961
255	0x3d2af3ab	0.041736286

network_body._body_endoder.seq_layers.0.weight f4 [256, 29]
0	0x3dafbc21	0.085808046
1	0x3e90ac72	0.28256565
2	0x3d3d2468	0.046177298
3	0x3e8ee77b	0.2791098
4	0x3e1025e9	0.14076962
5	0x3ee9b248	0.4564383
6	0x3d13a0a9	0.03604189
7	0x3c81d54d	0.01584878
8	0xbe9774c0	-0.2958126
9	0x3e83227b	0.25612244
10	0xbc171e92	-0.009223597
11	0xbd0f859e	-0.035039537
12	0x3ecb3f86	0.39696902
13	0xbda8a84c	-0.08235225
14	0x3e4a28a8	0.19742072
15	0x3ca6f05d	0.020378286
16	0x3e1891e5	0.14899404
17	0x3d23f473	0.040028047
18	0xbdd9c35c	-0.10632965
19	0x3daf9914	0.08574119
20	0xbe948d74	-0.2901417
21	0xbd036c86	-0.032085918
22	0x3e3eb012	0.18621853
23	0xbe247353	-0.16059618
24	0xbe873002	-0.26403815
25	0x3d38aa10	0.04508406
26	0xbe632bc2	-0.22184661
27	0x3d9b5597	0.07584684
28	0x3ca9512e	0.020668592
29	0x3e70c64e	0.23513147
30	0xbe839669	-0.2570069
31	0x3d829185	0.06375412
32	0x3e8f9946	0.28046626
33	0x3e3ddb9e	0.18540809
34	0xbd0f42ad	-0.034975696
35	0x3cb7b6e0	0.022426069
36	0x3d4369a0	0.047708154
37	0xbe56d0d4	-0.20978099
38	0x3e2b3a5a	0.16721478
39	0x3e9458fa	0.28974134
40	0x3c186d6b	0.009303431
41	0xbdb1df33	-0.0868515
42	0x3e83d631	0.25749353
43	0x3c9dd396	0.019265931
44	0xbea0c481	-0.3139992
45	0xbd4caf90	-0.049972117
46	0x3e4559be	0.19272515
47	0xbd97cc8e	-0.074120626
48	0x3d2b4426	0.04181304
49	0x3d6c148e	0.05763679
50	0x3d8462cb	0.06464156
51	0x3cfb28a0	0.03065902
52	0xbd998105	-0.07495312
53	0x3daf85b9	0.085704274
54	0xbda3ce51	-0.07998336
55	0x3e21ffc5	0.15820225
56	0x3e23bead	0.15990706
57	0xbd68b430	-0.056812465
58	0x3e396619	0.18105353
59	0x3e9c5d17	0.30539772
60	0x3e53d17a	0.20685378
61	0xbe88020d	-0.26564065
62	0x3e2600a2	0.16211179
63	0x3e92446d	0.2856783
64	0xbedccde8	-0.43125844
65	0x3de2f406	0.110817
66	0xbd0911ce	-0.033464245
67	0xbea4ce66	-0.3218872
68	0xbd9425ac	-0.07233748
69	0x3e04849d	0.12941213
70	0x3e89772c	0.26848733
71	0x3dd69ccf	0.104791276
72	0x3ea9f8b5	0.3319756
73	0x3e90aba1	0.28255942
74	0xbeab02e3	-0.3340064
75	0x3baf8fc8	0.005357716
76	0x3d21d567	0.039510157
77	0xbdec55fe	-0.11539839
78	0x3e93907b	0.28821167
79	0x3cdbe28e	0.026841428
80	0xbd85cf44	-0.065336734
81	0x3c5c6a89	0.013453134
82	0xbe22d8ac	-0.15902966
83	0x3ca13ead	0.019683206
84	0x3c072a43	0.008249822
85	0xbe5e6786	-0.21719179
86	0x3e7ec9d3	0.24881677
87	0xbe335eba	-0.17516604
88	0x3e83ea9e	0.25764936
89	0x3ba5eab3	0.0050633787
90	0x3e524b58	0.20536554
91	0xbd24bd8d	-0.040219832
92	0xbe27e46f	-0.16395734
93	0xbe144bba	-0.14482012
94	0xbdd359fb	-0.10319897
95	0xbcc055ac	-0.023478352
96	0x3c2dc5c7	0.010606236
97	0x3e1d6be4	0.15373188
98	0x3d90b013	0.070648335
99	0xbe4a8cf7	-0.19780336
100	0x3e2908d1	0.1650727
101	0xbde39530	-0.1111244
102	0x3d64a0a5	0.055817265
103	0xbd9f5290	-0.077794194
104	0x3c60af97	0.013713739
105	0x3efa53bc	0.4889201
106	0xbd5ef31d	-0.05443107
107	0x3d964c18	0.073387325
108	0xbee5187e	-0.4474525
109	0x3e23588a	0.15951744
110	0xbda0ba33	-0.07848015
111	0x3e379a46	0.17929944
112	0x3e133d4e	0.14378855
113	0xbdc233fe	-0.09482573
114	0xbe484706	-0.19558343
115	0x3e8d0aa7	0.2754719
116	0x3cd3ba58	0.025845692
117	0x3e60c68b	0.21950738
118	0x3e1897d0	0.14901662
119	0x3e1223ea	0.14271513
120	0xbd8ef699	-0.069806285
121	0x3daebd5a	0.0853221
122	0xbe030602	-0.1279526
123	0x3e983c06	0.29733294
124	0xbe3fbe3c	-0.18724912
125	0xbe867c05	-0.26266494
126	0x3eb031b5	0.34412923
127	0x3dc6f960	0.09715533
128	0x3d8fbcca	0.070184305
129	0x3d62aafe	0.055338852
130	0x3de663e8	0.11249524
131	0xbd06b430	-0.032886684
132	0xbe8acb7f	-0.2710838
133	0xbe239fca	-0.15978923
134	0x3dba9e6f	0.0911225
135	0x3e509ccb	0.20372312
136	0xbe1f3986	-0.15549287
137	0xbe097b5b	-0.13425963
138	0xbe21d639	-0.15804376
139	0x3e82eedc	0.2557286
140	0xbe7c6d57	-0.24651085
141	0xbd53bebb	-0.051695567
142	0xbe191dc0	-0.14952755
143	0x3d6761aa	0.056489624
144	0xbe1ae9dd	-0.15128274
145	0x3d9f99a1	0.07792974
146	0xbdde207b	-0.10846039
147	0xbd283e29	-0.041074906
148	0x3e111537	0.14168249
149	0x3e652306	0.22376642
150	0x3d957e31	0.0729946
151	0xbd82a724	-0.06379536
152	0x3dcc4d2f	0.09975659
153	0x3d8e437d	0.06946466
154	0xbe8c5e2f	-0.27415606
155	0xbe04085f	-0.12893818
156	0x3ceb4086	0.02871729
157	0xbe6a2102	-0.22864154
158	0x3ec803d8	0.39065433
159	0x3e8ac7df	0.27105615
160	0x3e9133b2	0.28359753
161	0xbe1e479d	-0.15457006
162	0xbd788b71	-0.060679857
163	0xbe949865	-0.29022518
164	0xbe3ab44c	-0.1823284
165	0x3e5cdc97	0.21568523
166	0xbe1a81a5	-0.15088518
167	0xbe697f36	-0.22802433
168	0xbe2a7b74	-0.16648656
169	0xbe44766a	-0.19185796
170	0x3e40a65d	0.18813463
171	0xbe977092	-0.29578072
172	0x3e8f8ad0	0.28035593
173	0xbe335c1c	-0.17515606
174	0x3c4f9f0d	0.012672198
175	0xbe856b18	-0.2605827
176	0x3e5b3b9e	0.21409461
177	0xbe17d243	-0.14826302
178	0x3dc90fb3	0.098174475
179	0xbe80b3c7	-0.2513716
180	0x3e94c99d	0.2906007
181	0x3bb83755	0.0056218305
182	0x3dcef1c9	0.101047106
183	0xbe0ce580	-0.13759422
184	0x3d019edc	0.03164564
185	0xbe1bc526	-0.15211925
186	0x3dfee5e0	0.12446189
187	0x3e8dd67c	0.277027
188	0xbe0f1992	-0.13974598
189	0x3cfef880	0.031124353
190	0x3d339a9e	0.043848626
191	0xbe112b5d	-0.14176698
192	0xba2ea4e0	-0.00066621415
193	0x3df178bd	0.11790607
194	0x3ebdfff3	0.37109336
195	0xbe6f28e6	-0.23355445
196	0x3dca2929	0.09871132
197	0x3e6e3f45	0.23266323
198	0x3e91cb6d	0.28475514
199	0x3e8784d7	0.26468536
200	0x3d79e912	0.06101329
201	0x3e2782bc	0.16358465
202	0x3c2e0d98	0.010623358
203	0x3cf11de8	0.029433206
204	0x3e22bab3	0.15891533
205	0x3e298806	0.16555795
206	0x3e008e45	0.12554272
207	0x3daadda3	0.08343055
208	0x3e1c1211	0.15241267
209	0x3e6aa3a3	0.22913985
210	0xbe972035	-0.2951676
211	0x3deec413	0.11658492
212	0x3ee30251	0.44337705
213	0x3e97ccfa	0.29648572
214	0xbda49d5b	-0.08037826
215	0x3e1bc567	0.15212022
216	0xbdaf7536	-0.08567278
217	0x3e46a9bb	0.19400685
218	0x3e5ccc7d	0.21562381
219	0xbe758ca9	-0.23979439
220	0xbdd55127	-0.10415869
221	0x3dfda32f	0.123846404
222	0x3e2f0c08	0.17094433
223	0xbe154ab7	-0.14579283
224	0x3e92fa2d	0.28706494
225	0xbe595464	-0.21223599
226	0x3dd83cc9	0.10558469
227	0x3e607b31	0.21921994
228	0xbd54c9de	-0.051950328
229	0xbd12b23f	-0.03581452
230	0xbdd56b65	-0.104208745
231	0xbde0ef1c	-0.109831065
232	0x3d90a5d2	0.07062878
233	0x3d919c7d	0.07109926
234	0x3ddd3be8	0.10802442
235	0xbda94ccf	-0.08266603
236	0xbccbb265	-0.024865339
237	0xbd87679f	-0.06611561
238	0xbe834da1	-0.25645164
239	0xbd03358e	-0.032033496
240	0xbdc838be	-0.09776448
241	0xbe0da21b	-0.1383137
242	0x3e88f320	0.2674799
243	0x3deb6816	0.11494462
244	0x3e2a192e	0.16611168
245	0xbe2f3ef4	-0.17113858
246	0x3c786fd1	0.015163378
247	0xbea43bf6	-0.32076997
248	0xbe68999d	-0.22714849
249	0x3e74b190	0.2389586
250	0x3be1541f	0.006876483
251	0xbe241ac8	-0.16025841
252	0xbb54e08e	-0.0032482478
253	0x3d49ecea	0.049298204
254	0xbdaf6d42	-0.08565761
255	0xbdf52e92	-0.11971773
