ml-agents-release_20/Result/Dino/Dino03/Dino/Dino-1499975.pt (torch, 205607 bytes, 21 tensors)

network_body._body_endoder.seq_layers.0.weight f4 [256, 29]
0	0x3da7adc8	0.08187443
1	0x3e817e01	0.25291446
2	0x3d323fe0	0.043517947
3	0x3e8d8baf	0.27645633
4	0x3e002f4c	0.12518042
5	0x3ee74241	0.45167735
6	0x3d44eaeb	0.048075598
7	0x3ce48b68	0.027898505
8	0xbe983d01	-0.29734042
9	0x3e7e51cc	0.2483589
10	0xbc45525b	-0.012043561
11	0xbd1a5197	-0.037675466
12	0x3ed5874a	0.4170478
13	0xbdbf0b07	-0.09328275
14	0x3e570bb1	0.21000554
15	0x3d0540c8	0.032532483
16	0x3e173150	0.14764905
17	0x3d07c6f9	0.03314874
18	0xbddfb891	-0.10923875
19	0x3da9f084	0.08297828
20	0xbe953595	-0.29142442
21	0xbd24b3d5	-0.040210564
22	0x3e562d6b	0.20915763
23	0xbe16a206	-0.14710245
24	0xbe80d257	-0.25160477
25	0x3d02de73	0.031950425
26	0xbe662671	-0.22475602
27	0x3d959935	0.073046125
28	0x3ca9512e	0.020668592
29	0x3e70da50	0.2352078
30	0xbe7529db	-0.23941748
31	0x3d88dfc7	0.06683307
32	0x3e911877	0.28338978
33	0x3e496444	0.19667155
34	0xbcfc9815	-0.030834237
35	0x3c62f602	0.013852598
36	0x3d25cbd0	0.040477574
37	0xbe55d7c9	-0.20883097
38	0x3e31c492	0.17360142
39	0x3e95e863	0.2927886
40	0x3c486570	0.012231216
41	0xbdd64be2	-0.10463692
42	0x3e8837db	0.26605114
43	0x3c1188ee	0.008882744
44	0xbea4f4cd	-0.32218018
45	0xbd49181d	-0.04909526
46	0x3e4a911b	0.19781916
47	0xbd916915	-0.07100121
48	0x3d37a0ce	0.04483109
49	0x3d83111f	0.0639975
50	0x3d8ef9af	0.06981217
51	0x3bd9f44f	0.0066514383
52	0xbdade8a5	-0.08491639
53	0x3da2f749	0.07957322
54	0xbd8b3811	-0.06797803
55	0x3e253173	0.16132145
56	0x3e26dc65	0.16295011
57	0xbd68b430	-0.056812465
58	0x3e38b439	0.180375
59	0x3e93b0de	0.28845876
60	0x3e4f7b9c	0.20261997
61	0xbe8a1ec9	-0.26976612
62	0x3e1c1be2	0.15245011
63	0x3e90043f	0.2812824
64	0xbedad999	-0.4274414
65	0x3deba78e	0.11506568
66	0xbd0cf5e9	-0.034414206
67	0xbeaa4706	-0.33257312
68	0xbd9ca732	-0.076490775
69	0x3e0055c3	0.12532715
70	0x3e922f23	0.28551587
71	0x3dc03b0f	0.093862645
72	0x3eac2c61	0.33627608
73	0x3e929c5b	0.28634915
74	0xbeab7cf9	-0.33493784
75	0xbb8ec7db	-0.0043573207
76	0x3d108ff7	0.035293546
77	0xbdf4d51a	-0.119547084
78	0x3e91b5ac	0.28458917
79	0x3ca1940d	0.019723916
80	0xbd3a89cb	-0.045541566
81	0x3c9a4069	0.018829541
82	0xbe20dc53	-0.15709047
83	0x3bbb9fef	0.0057258527
84	0x3b842925	0.004033225
85	0xbe62abb2	-0.22135809
86	0x3e7ec9d3	0.24881677
87	0xbe318ed1	-0.17339636
88	0x3e8ed014	0.27893126
89	0x3c14871b	0.009065415
90	0x3e564e99	0.2092842
91	0xbcc941a9	-0.024567442
92	0xbe21c647	-0.15798293
93	0xbe1fcba8	-0.15605032
94	0xbde5ab86	-0.11214356
95	0xbcb59f4a	-0.022170682
96	0x3c81e025	0.01585395
97	0x3e21b2a6	0.15790805
98	0x3d98ec60	0.0746696
99	0xbe5df616	-0.21675906
100	0x3e354412	0.17701748
101	0xbdfe7744	-0.12425092
102	0x3d3a9dc2	0.045560606
103	0xbd9ce639	-0.07661099
104	0x3c90968f	0.017649917
105	0x3efc83ef	0.49319407
106	0xbd4dfd06	-0.05029013
107	0x3da88cc5	0.08229975
108	0xbee18e54	-0.440539
109	0x3e0917a9	0.13387932
110	0xbdb9fc83	-0.09081366
111	0x3e2d45c7	0.16921149
112	0x3e1e7ab0	0.15476489
113	0xbdb972fc	-0.09055135
114	0xbe4400b3	-0.19140892
115	0x3e8d0aa7	0.2754719
116	0x3cd40d8f	0.025885371
117	0x3e5c4369	0.2151009
118	0x3e1007d0	0.1406548
119	0x3e099b94	0.13438255
120	0xbdaa7111	-0.08322347
121	0x3d9c0920	0.07618928
122	0xbe02f6bf	-0.12789439
123	0x3e97fba5	0.29684177
124	0xbe402112	-0.18762615
125	0xbe87b442	-0.26504713
126	0x3eabe85f	0.33575723
127	0x3db5eedb	0.08883449
128	0x3da8ccee	0.08242212
129	0x3d330cdb	0.04371343
130	0x3de646f9	0.11244006
131	0xbd0961fd	-0.033540715
132	0xbe8ae8c2	-0.27130705
133	0xbe253cb0	-0.16136432
134	0x3da95ba9	0.08269436
135	0x3e480946	0.19534788
136	0xbe2270f9	-0.15863408
137	0xbe14aafc	-0.1451835
138	0xbe19b448	-0.15010178
139	0x3e82e56e	0.25565666
140	0xbe78803f	-0.24267672
141	0xbd698ae1	-0.05701721
142	0xbe21bf1f	-0.15795563
143	0x3d450553	0.04810078
144	0xbe1ae9dd	-0.15128274
145	0x3da87320	0.08225083
146	0xbd964efa	-0.07339282
147	0xbd028e0e	-0.031873755
148	0x3e1a61cc	0.15076369
149	0x3e75a0ad	0.23987074
150	0x3da930b0	0.082612395
151	0xbd89e6c7	-0.067334704
152	0x3dce0c60	0.10060954
153	0x3d927631	0.071514495
154	0xbe875edb	-0.26439556
155	0xbdf5277e	-0.11970423
156	0x3d1ae2e5	0.03781404
157	0xbe7ec61f	-0.24880265
158	0x3ecf727c	0.40517032
159	0x3e88abac	0.26693475
160	0x3e913417	0.28360054
161	0xbe1c4d7d	-0.15263934
162	0xbd55572f	-0.052085098
163	0xbe8fcf7f	-0.28087994
164	0xbe31443f	-0.1731119
165	0x3e7103c3	0.23536591
166	0xbe11bb03	-0.14231496
167	0xbe81fc33	-0.25387725
168	0xbe2d3470	-0.16914535
169	0xbe4e1bd3	-0.20127802
170	0x3e4f8961	0.2026725
171	0xbe92a7ac	-0.28643548
172	0x3e944761	0.28960708
173	0xbe335c1c	-0.17515606
174	0x3c7e9a30	0.015539691
175	0xbe777710	-0.24166512
176	0x3e5e5151	0.21710707
177	0xbe14b46c	-0.1452195
178	0x3ddfb941	0.10924006
179	0xbe7ce078	-0.24695003
180	0x3e90b558	0.28263354
181	0xbb00980a	-0.0019621872
182	0x3dd18276	0.102299616
183	0xbe0c4dc1	-0.13701536
184	0x3d0f46ef	0.034979757
185	0xbe188dac	-0.14897794
186	0x3ddd1afe	0.10796164
187	0x3e93a118	0.28833842
188	0xbe18cb34	-0.14921266
189	0x3cbd846c	0.023134433
190	0x3d386fcd	0.045028497
191	0xbe11d116	-0.14239916
192	0x3b364c29	0.002781639
193	0x3df83358	0.12119168
194	0x3ec1e901	0.3787308
195	0xbe683aa2	-0.22678617
196	0x3d9917df	0.07475256
197	0x3e6445ee	0.22292301
198	0x3e8f790a	0.28022033
199	0x3e8ad61b	0.27116475
200	0x3d840432	0.06446113
201	0x3e2aeabb	0.16691105
202	0x3c2e0d98	0.010623358
203	0x3ce36b02	0.027760986
204	0x3e11da87	0.14243518
205	0x3e2409eb	0.16019408
206	0x3df63a46	0.120228335
207	0x3d900fed	0.070342876
208	0x3e15b8b6	0.14621243
209	0x3e6f9fad	0.23400755
210	0xbe9462b2	-0.2898155
211	0x3dec86da	0.115491584
212	0x3ee01824	0.43768418
213	0x3e94f963	0.29096517
214	0xbdaf95b6	-0.08573477
215	0x3e2d6826	0.1693426
216	0xbdc5b97f	-0.09654521
217	0x3e4c8c36	0.19975361
218	0x3e622580	0.22084618
219	0xbe769060	-0.24078512
220	0xbddef57e	-0.10886668
221	0x3df22b85	0.11824707
222	0x3e297240	0.16547489
223	0xbe1a4a50	-0.1506741
224	0x3e8e86b1	0.27837136
225	0xbe450865	-0.19241484
226	0x3de59a0d	0.112110235
227	0x3e68322d	0.2267539
228	0xbd816002	-0.0631714
229	0xbd29a186	-0.041413806
230	0xbde0b02b	-0.109711014
231	0xbde0ef1c	-0.109831065
232	0x3d9600a6	0.073243424
233	0x3d33bcc2	0.043881185
234	0x3dd29263	0.10281827
235	0xbdb3737e	-0.08762263
236	0xbd23c09a	-0.0399786
237	0xbd90c986	-0.070696875
238	0xbe8004a3	-0.25003538
239	0xbcc74ccc	-0.024328612
240	0xbdcaf1f3	-0.099094294
241	0xbe1da521	-0.15395023
242	0x3e865c72	0.26242405
243	0x3de13675	0.10996715
244	0x3e3c237c	0.18372911
245	0xbe3a59a2	-0.18198255
246	0x3cb87edd	0.02252143
247	0xbea08b11	-0.313561
248	0xbe69f29e	-0.22846457
249	0x3e67b58f	0.22627853
250	0x3ae5c97f	0.0017531364
251	0xbe29460f	-0.16530631
252	0xbb9ee73d	-0.004849343
253	0x3d2a0f9f	0.041518804
254	0xbd787bdc	-0.060664997
255	0xbde2a82b	-0.11067232

network_body._body_endoder.seq_layers.0.bias f4 [256]
0	0x3d1c5b78	0.03817317
1	0xbb59625a	-0.0033170194
2	0x3ca7a02b	0.020462116
3	0x3cc93ab6	0.024564128
4	0xbc874c81	-0.016515972
5	0x3d11a3b6	0.035556518
6	0x3d2c0100	0.04199314
7	0xbc25e033	-0.010124254
8	0xbbb4086c	-0.005494168
9	0x3cfbd994	0.030743398
10	0x3db3cf09	0.08779723
11	0xbcbe19b8	-0.023205623
12	0x3c4531e0	0.012035817
13	0x3bd24eb5	0.006418074
14	0x3d4438d2	0.04790575
15	0x3d14befd	0.036314953
16	0x3cc76370	0.024339408
17	0x3d9963fb	0.07489773
18	0x3cbf5d35	0.023359874
19	0xbc5b664b	-0.013391088
20	0x3ba2359b	0.004950238
21	0x3d961750	0.07328665
22	0xbc5c2eb8	-0.013438873
23	0x3c969182	0.01837993
24	0x3cd8c56d	0.026461327
25	0x3c939a77	0.01801799
26	0x3cf2e5d9	0.029650616
27	0x3b871468	0.0041223057
28	0xbc635d82	-0.0138772745
29	0x3b6d9b4c	0.0036255894
30	0x3d77c524	0.060490742
31	0x3d16865e	0.036749236
32	0x3d792798	0.060828775
33	0xbd3f0910	-0.046639502
34	0x3a013653	0.00049290544
35	0xbc69034d	-0.014221978
36	0x3c287b66	0.010283327
37	0x3c5f2903	0.013620618
38	0x3d342e43	0.04398943
39	0x3d615aae	0.05501812
40	0x3b254992	0.0025220853
41	0x3d4d2039	0.050079558
42	0x3d0a7f68	0.03381291
43	0x3d7d9fda	0.061920024
44	0x3d1b1f71	0.03787178
45	0xbc034a45	-0.008013313
46	0x3d27b2b8	0.040941924
47	0xba8c335e	-0.0010696461
48	0x3d7bc9cf	0.061471757
49	0xbbe78301	-0.0070651774
50	0x3cf03cfe	0.029325958
51	0x3c477e76	0.012176147
52	0x3d3e4645	0.046453733
53	0x3c93b607	0.018031133
54	0x3c4dc15b	0.012558307
55	0x3be97b3a	0.0071252855
56	0x3c9bd4de	0.019022401
57	0xbb47935e	-0.0030452828
58	0x3c560bd8	0.013064347
59	0x3c88fc07	0.016721739
60	0x3cf29fba	0.02961718
61	0x3da874aa	0.08225377
62	0xbbc37479	-0.0059648124
63	0x3c54d872	0.012991058
64	0x3bf4f5db	0.0074755973
65	0x3c9b24b0	0.018938392
66	0x3c26f949	0.01019127
67	0x3bcbf633	0.0062244176
68	0x3d648b2e	0.055796795
69	0xbb8eb417	-0.0043549645
70	0x3c9c4f67	0.01908083
71	0xbb6f7fa9	-0.0036544597
72	0x3d4928da	0.049111225
73	0xbc0e2a30	-0.0086770505
74	0x3c4c0abb	0.01245373
75	0x3d4c68b8	0.049904555
76	0x3d5290e4	0.05140771
77	0x3d8633b2	0.06552829
78	0x3d71386c	0.0588917
79	0x3cfed113	0.031105554
80	0x3bf7781b	0.0075521595
81	0xbb2d4e14	-0.0026444243
82	0x3ccc9c88	0.024976984
83	0xbc2ac331	-0.010422514
84	0x3d34a891	0.04410607
85	0x3d7828fd	0.060585964
86	0x3c5850e8	0.013202883
87	0x3b8f361d	0.0043704645
88	0x3e0721ce	0.13196489
89	0x3c5d5950	0.013510063
90	0xbca3f778	-0.020015463
91	0x3c657f18	0.014007352
92	0x3c8230d9	0.015892433
93	0x3c94ad89	0.018149154
94	0x3a266b88	0.0006348421
95	0x3cd9f680	0.026606798
96	0x3c29e393	0.010369199
97	0x3c07e524	0.0082943775
98	0xbc8b0930	-0.016972154
99	0x3d29b43d	0.041431654
100	0x3d3f895c	0.046761855
101	0x3c5ce5ed	0.013482553
102	0x3cf62b33	0.030049896
103	0x3d1a29d2	0.03763754
104	0x3dd265cb	0.10273322
105	0xbb6298f2	-0.0034576026
106	0x3d19c8b2	0.037544914
107	0x3ce6b1c8	0.028160945
108	0x3d2845cb	0.041082185
109	0x3b2fc649	0.0026821068
110	0x3d6669c3	0.056253206
111	0x3b646306	0.0034849062
112	0x3c325efc	0.010886904
113	0xbb0583e4	-0.0020372802
114	0x3d907747	0.07054
115	0x3ad76de4	0.0016435948
116	0xbc9019eb	-0.017590484
117	0x3ca3de26	0.02000339
118	0xbc4bdb2b	-0.01244239
119	0x3ccc1b8f	0.024915485
120	0xbb173dd8	-0.0023077633
121	0x3c6845ce	0.014176799
122	0xbcc797f0	-0.024364442
123	0x3d161f43	0.036650907
124	0xbc94a416	-0.018144649
125	0x3cd943ac	0.026521526
126	0x3d274ed1	0.04084665
127	0x3be527af	0.006993256
128	0xbb95b979	-0.004569229
129	0x3c1dea2a	0.009638349
130	0x3c7a6902	0.015283825
131	0x3cbb40f1	0.022858115
132	0x3d40277c	0.046912655
133	0x3c510071	0.012756453
134	0x3d25f46a	0.040516295
135	0x3cc98921	0.024601521
136	0x3d47a1f8	0.04873845
137	0x3c695ae3	0.0142428605
138	0x3d659c45	0.056057233
139	0x3d65461a	0.055975057
140	0xbbd7faec	-0.0065911915
141	0x3c908812	0.017643008
142	0x3d2ac1b8	0.04168865
143	0xbca1bbe0	-0.019742906
144	0x3cbbbcbc	0.022917144
145	0x3d3acfd5	0.04560836
146	0x3d179467	0.037006762
147	0x3d01fac8	0.031733304
148	0x3d4e80d7	0.05041584
149	0xba981807	-0.001160384
150	0x3c8b5602	0.017008785
151	0x3d85e99a	0.065386966
152	0x3c308ab3	0.010775256
153	0x3d6c8770	0.05774635
154	0x3a1f4a83	0.0006076472
155	0x3d3e4dd8	0.046460956
156	0x3d544854	0.05182679
157	0x3bc1770b	0.0059040836
158	0xbcf025f2	-0.029314969
159	0xbb98efc9	-0.0046672565
160	0x3b3b305f	0.0028562767
161	0x3d5e9a09	0.054346118
162	0x3cdc8ba8	0.026922062
163	0x3d67a48e	0.056553416
164	0x3c366ecd	0.011134815
165	0x3d208c6a	0.03919641
166	0x3c215912	0.009847896
167	0x3db2a19a	0.08722229
168	0xbc0a8910	-0.00845553
169	0x3c199ad0	0.009375289
170	0x3ceb6211	0.028733285
171	0xbc1b43cb	-0.009476612
172	0x3d150071	0.036377374
173	0x3c889467	0.016672326
174	0x3d56a9f4	0.052408174
175	0x3c3186fc	0.010835405
176	0x3d0e9166	0.03480663
177	0x3d451244	0.048113123
178	0x3d5804fb	0.052739125
179	0x3cb1d8a4	0.021709748
180	0x3c84322e	0.016137209
181	0x3d4400f7	0.047852483
182	0xba1732fb	-0.00057677896
183	0xbca4d43d	-0.020120734
184	0xbae8db67	-0.0017765582
185	0x3d82521a	0.06363316
186	0x3c291300	0.010319471
187	0x3bb3d7c4	0.0054883678
188	0xbb22b0ca	-0.0024824613
189	0x3d0a3acd	0.033747483
190	0x3ca69281	0.02033353
191	0xbbd142eb	-0.006386151
192	0x3ae51b06	0.0017479367
193	0x3bcbe520	0.006222382
194	0x3b49ab76	0.0030772365
195	0x3a8881df	0.0010414681
196	0x3cc00627	0.023440434
197	0x3b92ee5b	0.0044839806
198	0x3cb1b24f	0.02169147
199	0x3a0b0d2a	0.0005304391
200	0x3d42a090	0.047516406
201	0x3d55ff6e	0.05224555
202	0x3dd808da	0.10548563
203	0x3d9b014d	0.075686075
204	0x3c2dea9e	0.010615019
205	0x3cb2ebec	0.021841012
206	0xbaac3e26	-0.001314108
207	0x3d194878	0.037422627
208	0x3c98007c	0.018554918
209	0xbbe45b00	-0.006968856
210	0x3d0f75a7	0.03502431
211	0x3cd6d6c3	0.026225453
212	0x3d47d5ee	0.048788004
213	0x3bb421ab	0.0054971776
214	0xbb0e0aaf	-0.0021673848
215	0x3d1622a7	0.03665414
216	0x3d13d7da	0.036094524
217	0xbd41b628	-0.04729286
218	0x3ba393cf	0.0049919854
219	0x3d8892aa	0.06668599
220	0x3ce5533c	0.02799379
221	0x3ccbf2d9	0.024896072
222	0x3d21f3c2	0.039539106
223	0xbc3b9881	-0.011449934
224	0x3b0b1e2f	0.0021227708
225	0x3ca3229b	0.019913962
226	0xbcd7854e	-0.026308682
227	0x3d0cb1c4	0.034349218
228	0x3df4d3a4	0.1195443
229	0x3b57c11c	0.0032921499
230	0x3c0cebe7	0.008601165
231	0x3d3cadcf	0.046064194
232	0x3b10cfb6	0.0022096462
233	0x34ebba85	4.3907872e-07
234	0x3c57542a	0.013142625
235	0xbc9a30ed	-0.018822158
236	0x3df11b6e	0.1177281
237	0x3c68e2af	0.014214202
238	0x3ce7dfe4	0.028305002
239	0x3d58f058	0.052963585
240	0x3cf6fa77	0.030148728
241	0xbc05c537	-0.008164695
242	0x3a5d6ed9	0.00084469985
243	0x3d7aab47	0.0611985
244	0x3ce4ac88	0.0279143
245	0x3c68f90d	0.014219535
246	0xbbb4c68b	-0.005516832
247	0x3db2665a	0.08710928
248	0xbc8ff6c5	-0.017573724
249	0x3d089323	0.033343446
250	0x3c7f9bb1	0.015601085
251	0x3cd1195a	0.025524784
252	0xbc851485	-0.016245136
253	0xbc4cdc2c	-0.012503665
254	0x3b8eebfa	0.0043616267
255	0x3d4c7e41	0.049925093

action_model._discrete_distribution.branches.0.weight f4 [2, 256]
0	0xbdaf0ef2	-0.085477725
1	0x3cb4c42a	0.022066195
2	0xbdef72b0	-0.11691797
3	0x3d61d66d	0.055136133
4	0xbbdd49e1	-0.006753192
5	0x3d8a14b9	0.06742234
6	0x3daf0b9d	0.08547137
7	0xbc6d52d1	-0.014485077
8	0xbd6cf574	-0.05785127
9	0xbbf653f4	-0.007517332
10	0x3cbafbf5	0.02282522
11	0xbb919ecc	-0.004443979
12	0x3d2f21f3	0.042756986
13	0x3ce110ce	0.027473833
14	0x3b0c7287	0.0021430568
15	0xbb923f7f	-0.0044631357
16	0x3d8ad576	0.06778996
17	0xbdd3aa4e	-0.103352174
18	0x3d80b1df	0.06283926
19	0xbc1f7746	-0.009733027
20	0xbd959a1c	-0.07304785
21	0x3cdb4975	0.026768425
22	0xbcd165b4	-0.025561191
23	0x3d2d6c97	0.042339887
24	0xbde1b15a	-0.11020155
25	0xbd8962fb	-0.06708332
26	0x3d76ee2a	0.060285725
27	0xbd0edab8	-0.034876555
28	0x3c1a79a6	0.009428417
29	0xbd6f4c8c	-0.05842261
30	0x3e068d0e	0.13139746
31	0x3dd506c1	0.10401679
32	0x3df2d340	0.11856699
33	0xbcafa71e	-0.021441992
34	0xbd84163b	-0.064495526
35	0x3bdd3a40	0.0067513287
36	0xbcc4b58b	-0.024012348
37	0xbdf3241f	-0.11872124
38	0xbdac0c1a	-0.08400746
39	0x3e1ecd3f	0.15507983
40	0xbd2d3ee9	-0.042296324
41	0x3dcdaf26	0.100431725
42	0x3d473e77	0.048643555
43	0x3cc2f14b	0.023796698
44	0x3df123e2	0.11774422
45	0xbccaedde	-0.024771627
46	0x3dd7adb6	0.105311796
47	0xbd4e40bc	-0.050354704
48	0x3e0c4753	0.13699083
49	0xbca7ea2a	-0.0204974
50	0xbdf85e9d	-0.12127421
51	0xbd319e43	-0.04336382
52	0x3d1d81ea	0.038453974
53	0xbd6aff9b	-0.05737267
54	0xbd585175	-0.05281206
55	0xbd2354a0	-0.039875627
56	0x3d1dfe8a	0.038572825
57	0xbce4e685	-0.027941952
58	0xbc4bf6f4	-0.012449015
59	0x3d2f01f7	0.042726483
60	0xbdaffe8c	-0.08593473
61	0x3e31ed6f	0.1737573
62	0xbd1a6c13	-0.037700724
63	0xbceb40c4	-0.028717406
64	0xbd969038	-0.07351726
65	0xbde71b39	-0.11284489
66	0x3d31d0a6	0.043411873
67	0xbd24c143	-0.04022337
68	0x3e188617	0.14894901
69	0xbcc7e305	-0.024400244
70	0xbd3440b8	-0.044007033
71	0xbcd252b9	-0.02567421
72	0x3dea6b50	0.114462495
73	0xbbe172c3	-0.0068801357
74	0xbd778daf	-0.060437854
75	0x3de9582f	0.11393773
76	0xbe07f8d2	-0.13278511
77	0x3da0699d	0.07832644
78	0x3e074b43	0.13212304
79	0x3dbe3bcd	0.0928875
80	0x3a557ea7	0.0008144178
81	0xbca3cc68	-0.01999493
82	0xbd2796f4	-0.040915444
83	0xbcef684b	-0.029224535
84	0x3dc8e447	0.098091654
85	0x3d66f73f	0.056388136
86	0x3d0cec21	0.034404878
87	0xbd16e5fd	-0.036840428
88	0x3dea837d	0.11450861
89	0x3d22ec86	0.039776348
90	0xba9b8446	-0.0011864982
91	0x3c80d4ed	0.01572653
92	0xbd5d7062	-0.054062255
93	0x3ad0862a	0.0015909125
94	0xbd6597b3	-0.056052875
95	0x3d609147	0.054826047
96	0x3d099537	0.033589568
97	0xbc8f959a	-0.01752739
98	0xbb214d42	-0.00246127
99	0x3dd99d76	0.106257364
100	0x3dea26d8	0.1143319
101	0xbbfb1e81	-0.0076635485
102	0x3cd0fe96	0.025512021
103	0x3dbaec61	0.09127117
104	0x3e073d9e	0.13207099
105	0xbcd174d0	-0.025568396
106	0x3ce27ca1	0.027647318
107	0xbc6dbaad	-0.014509839
108	0xbdb71f8e	-0.089415655
109	0x3c41e194	0.011833567
110	0xbb79b2f8	-0.0038101058
111	0xbd8549d5	-0.06508223
112	0xbbf3d387	-0.0074409875
113	0xbd1d5748	-0.038413316
114	0x3e1b8b89	0.15189947
115	0xbcd136c8	-0.025538817
116	0xbcb9e75e	-0.022693332
117	0xbdc71928	-0.09721595
118	0xba8c7ba7	-0.0010718004
119	0x3d5d1b7e	0.053981297
120	0xbd301424	-0.042987958
121	0xbd91e010	-0.07122815
122	0xbac1436a	-0.0014744822
123	0xbceb5bca	-0.028730292
124	0xbc209803	-0.009801867
125	0xbda6fe58	-0.08153981
126	0x3df14349	0.11780412
127	0xbd626a9b	-0.05527745
128	0xbcb017a0	-0.02149564
129	0x3cfdc3a2	0.030977074
130	0x3d5fa941	0.054604772
131	0xbe02f3b1	-0.12788273
132	0x3de367d1	0.11103786
133	0xbd1ca943	-0.038247358
134	0xbda45e9b	-0.08025857
135	0xbcd3bc31	-0.025846573
136	0xbd3f7844	-0.046745554
137	0xbce397f5	-0.02778242
138	0x3cd3eddc	0.025870256
139	0x3db34f3a	0.08755346
140	0xbb076a1b	-0.002066261
141	0x3c938998	0.018009946
142	0xbcec7ec0	-0.028869033
143	0x3b01ef9c	0.0019826656
144	0x3d210354	0.039309815
145	0x3d5535fd	0.05205344
146	0xbde3cc66	-0.1112297
147	0xbdaa1c38	-0.083061635
148	0x3dd2a883	0.10286047
149	0x3c63bfb8	0.01390069
150	0xbdd1314b	-0.1021448
151	0x3d2a3f94	0.04156454
152	0xbd359bf9	-0.0443382
153	0xbe1eaf80	-0.15496635
154	0x3c89e9af	0.016835062
155	0x3dc01664	0.09379271
156	0x3ddfd890	0.10929978
157	0x3cb1b852	0.021694336
158	0x3c41cd75	0.01182877
159	0xbccf26df	-0.02528709
160	0x3d0aeab2	0.03391523
161	0x3e18daa2	0.14927152
162	0x3d4586c2	0.04822422
163	0x3e18c8d8	0.14920366
164	0x3ccdbd52	0.025114689
165	0x3dc1f88e	0.09471236
166	0xbc873d62	-0.016508762
167	0x3dcd9a4b	0.10039195
168	0xbc0d6b87	-0.008631594
169	0x3d214fec	0.03938286
170	0xbd2080bd	-0.039185274
171	0xbcfafb34	-0.030637361
172	0x3de2bd52	0.11071266
173	0xbd8020f1	-0.06256283
174	0x3e1a3504	0.15059286
175	0xbc5f0e7a	-0.013614291
176	0xbe0691c3	-0.13141541
177	0x3d9ed13d	0.07754753
178	0xbdca413e	-0.09875725
179	0x3d552a40	0.052042246
180	0xbc205596	-0.00978603
181	0xbcfc10d1	-0.030769737
182	0x3ca82b44	0.020528443
183	0x3b24ba3c	0.0025135418
184	0x3cc4e90e	0.02403691
185	0xbd96bab5	-0.0735983
186	0xbda4a339	-0.08038945
187	0xbd4a9a62	-0.049463637
188	0xbd4aad31	-0.049481574
189	0x3d8f89c5	0.07008699
190	0xbdbee913	-0.09321799
191	0xbc5f7031	-0.013637588
192	0xbd7d3920	-0.061822057
193	0xbd27bd89	-0.04095224
194	0x3c2cb6d2	0.010541635
195	0xbd89e511	-0.06733144
196	0xbdbd3055	-0.09237734
197	0xbca2ed80	-0.01988864
198	0xbd449703	-0.04799558
199	0xbd2bec61	-0.041973475
200	0x3e0d3304	0.13788992
201	0x3e0923c0	0.13392544
202	0x3d9fa17d	0.07794473
203	0x3e204e10	0.15654778
204	0xbd26b028	-0.04069534
205	0x3d4535ef	0.04814714
206	0xbcc7ad1b	-0.024374535
207	0x3dad4c49	0.08461816
208	0xbd72fe2e	-0.059324436
209	0xbcb530fe	-0.022118088
210	0xbc6fbdce	-0.014632655
211	0xbddf7828	-0.1091159
212	0x3e01fd83	0.12694363
213	0x3d17fe71	0.03710789
214	0xbcd44c0c	-0.025915168
215	0x3dcb52d7	0.0992791
216	0x3cec53ba	0.028848518
217	0xbc3ff929	-0.011717119
218	0x3cd60c20	0.026128829
219	0xbda864cf	-0.08222353
220	0xbc72c980	-0.014818549
221	0x3d78ea92	0.06077058
222	0x3da31c87	0.079644255
223	0xbd0bea75	-0.034159143
224	0xbc8355ec	-0.016032182
225	0xbd711ee4	-0.05886735
226	0xbb25e2b2	-0.0025312123
227	0xbda6123a	-0.08108945
228	0x3e11f7db	0.14254706
229	0xbd63a783	-0.055579673
230	0xbc33811b	-0.010956074
231	0x3d8621c7	0.06549411
232	0xbd12f736	-0.03588029
233	0xbd3d9d83	-0.046292793
234	0x3d1d9236	0.038469516
235	0xbc366914	-0.011133451
236	0x3e1885b7	0.14894758
237	0xbd86d356	-0.06583278
238	0x3c41ad46	0.011821097
239	0x3d36f60d	0.044668246
240	0x3d8b900a	0.06814583
241	0xbc775f0b	-0.015098344
242	0xbcf80852	-0.030277405
243	0x3db0ad7a	0.08626838
244	0x3da0b3cb	0.07846793
245	0xbba8d47e	-0.005152284
246	0xbcd5129e	-0.026009854
247	0x3dfc0619	0.123058505
248	0xbbfbcdc0	-0.0076844394
249	0x3c0dddb7	0.008658818
250	0xbd5218b0	-0.051293075
251	0xbe136026	-0.14392146
252	0xbc4f2fdb	-0.012645687
253	0xbd0dd01e	-0.034622304
254	0xbd6bd62b	-0.057577293
255	0x3d94e55f	0.072703116

action_model._discrete_distribution.branches.0.bias f4 [2]
0	0x3bb63a3a	0.0055611404
1	0xbbb63a33	-0.005561137

exp_avg f4 [256, 29]
0	0xb60201f0	-1.9372637e-06
1	0xb62666d5	-2.4795784e-06
2	0xba03d944	-0.00050296285
3	0xba02d87d	-0.0004991366
4	0xb6c75fca	-5.9418135e-06
5	0xb9f326d0	-0.0004637749
6	0xb81df8e6	-3.766352e-05
7	0xb873a5c3	-5.8090092e-05
8	0xb6c75fca	-5.9418135e-06
9	0x3826777b	3.968876e-05
10	0xba0dda64	-0.0005411266
11	0xba0b41f1	-0.0005312255
12	0xb7af00ab	-2.0861937e-05
13	0xb9eb4ef2	-0.00044881512
14	0xb81e22f6	-3.7702695e-05
15	0xb84d2d3a	-4.891793e-05
16	0xb6c6a93a	-5.9205604e-06
17	0x3826efbc	3.9800754e-05
18	0xba0de355	-0.0005412598
19	0xba0c5fb9	-0.000535484
20	0x37d70284	2.5631169e-05
21	0xba03043e	-0.00049978856
22	0xb80b58f1	-3.3223016e-05
23	0xb84c3769	-4.8688995e-05
24	0xb6ecf920	-7.06235e-06
25	0x382bb9bb	4.0942552e-05
26	0xba0de355	-0.0005412598
27	0xba0c9127	-0.00053622056
28	0x00000000	0.0
29	0x34a45d36	3.06152e-07
30	0x34de220a	4.137549e-07
31	0x391eb4c9	0.00015135402
32	0x391d6661	0.00015010826
33	0x35d8c284	1.6149866e-06
34	0x3911e7da	0.00013914649
35	0x373dcb75	1.1312649e-05
36	0x378f1436	1.705634e-05
37	0x35d8c284	1.6149866e-06
38	0xb6c9cff6	-6.0144766e-06
39	0x39241301	0.00015647338
40	0x392281ac	0.0001549783
41	0x36aa59f2	5.076866e-06
42	0x390e424e	0.00013566876
43	0x373e0ebb	1.1328312e-05
44	0x37735d33	1.4505628e-05
45	0x35d85250	1.611721e-06
46	0xb6cabef1	-6.0422976e-06
47	0x39241b5a	0.00015650448
48	0x39232fe9	0.0001556274
49	0xb74012e1	-1.1448487e-05
50	0x391ff0a6	0.0001525307
51	0x37386a02	1.09919365e-05
52	0x377440ba	1.4558604e-05
53	0x35f40a7d	1.8182469e-06
54	0xb6d1ad00	-6.2488252e-06
55	0x39241b5a	0.00015650448
56	0x39234da4	0.00015573815
57	0x00000000	0.0
58	0xb6d25c2a	-6.269217e-06
59	0xb6137f57	-2.1978828e-06
60	0xb9e85cae	-0.0004431954
61	0xb9e68120	-0.00043965224
62	0xb72794d0	-9.988624e-06
63	0xb9d6d52f	-0.00040976095
64	0xb805dabc	-3.1913383e-05
65	0xb84a9156	-4.8295908e-05
66	0xb72794d0	-9.988624e-06
67	0x37b282a1	2.1280082e-05
68	0xb9f2b89e	-0.00046295387
69	0xb9efd076	-0.00045740948
70	0xb7e21962	-2.695312e-05
71	0xb9cdec24	-0.00039276585
72	0xb805faf8	-3.1943404e-05
73	0xb82ae95b	-4.0748488e-05
74	0xb7277b3a	-9.982667e-06
75	0x37b352c9	2.1377013e-05
76	0xb9f2c66a	-0.00046305667
77	0xb9f11297	-0.00045980953
78	0x3824663f	3.919587e-05
79	0xb9eefb4c	-0.00045582128
80	0xb812f56b	-3.5037676e-05
81	0xb82e71f6	-4.1590967e-05
82	0xb7306c51	-1.0515637e-05
83	0x37b7cb57	2.1909987e-05
84	0xb9f2c66a	-0.00046305667
85	0xb9f14aaa	-0.0004602273
86	0x00000000	0.0
87	0x35861614	9.990204e-07
88	0x35606232	8.3589396e-07
89	0x39750f3d	0.00023370697
90	0x39736a34	0.0002321385
91	0x36317e08	2.6448415e-06
92	0x395ecb20	0.0002124724
93	0x37ab563b	2.0424943e-05
94	0x37ecc85e	2.8226696e-05
95	0x36317e08	2.6448415e-06
96	0xb75bd7c8	-1.3103658e-05
97	0x3980f9a6	0.00024600065
98	0x397e8714	0.00024273648
99	0x371bc837	9.285336e-06
100	0x3957ce9a	0.00020580963
101	0x37ab8572	2.0446929e-05
102	0x37cf1d7c	2.4690053e-05
103	0x3631089f	2.6380073e-06
104	0xb75cc685	-1.3159243e-05
105	0x39810206	0.00024606305
106	0x39800159	0.00024415067
107	0xb7da1b05	-2.6000207e-05
108	0x39790797	0.00023749318
109	0x37c9bd7c	2.4049303e-05
110	0x37d3e060	2.5257643e-05
111	0x364c2d17	3.0424615e-06
112	0xb7638fa5	-1.3563699e-05
113	0x39810206	0.00024606305
114	0x398021f7	0.00024439368
115	0x00000000	0.0
116	0x33808d04	5.986115e-08
117	0xb28988d9	-1.601113e-08
118	0xb7307ffa	-1.0520214e-05
119	0xb72f1a32	-1.0436912e-05
120	0xb2ed72c3	-2.7642619e-08
121	0xb7189a9a	-9.095902e-06
122	0xb5b592fb	-1.3528328e-06
123	0xb5d736bd	-1.6034679e-06
124	0xb2ed72c3	-2.7642619e-08
125	0x34f9461d	4.6430878e-07
126	0xb7371719	-1.0913028e-05
127	0xb7353532	-1.0800826e-05
128	0xb4aef9c6	-3.259176e-07
129	0xb71393ca	-8.796293e-06
130	0xb5b5c05a	-1.3541533e-06
131	0xb5c78ebf	-1.48682e-06
132	0xb2eb97c2	-2.7426612e-08
133	0x34fab533	4.6697969e-07
134	0xb7372380	-1.09159155e-05
135	0xb73607bd	-1.0849847e-05
136	0x3592894e	1.0917809e-06
137	0xb72bd914	-1.0242937e-05
138	0xb5b1de77	-1.3252273e-06
139	0xb5ca8efe	-1.5091789e-06
140	0xb3301a35	-4.100203e-08
141	0x3500ff7f	4.805551e-07
142	0xb7372380	-1.09159155e-05
143	0xb7362be2	-1.0858263e-05
144	0x00000000	0.0
145	0x361758b9	2.2552397e-06
146	0x358f8305	1.0692462e-06
147	0x39534aeb	0.00020150437
148	0x395151a7	0.00019962211
149	0x368dd3cb	4.2267834e-06
150	0x394ca3be	0.00019515955
151	0x36b6a1a7	5.4428415e-06
152	0x3749254d	1.1989218e-05
153	0x368dd3cb	4.2267834e-06
154	0xb78aca12	-1.6544978e-05
155	0x3963b1f8	0.00021714706
156	0x395f5457	0.00021298356
157	0x37109106	8.616835e-06
158	0x394802e0	0.00019074557
159	0x36b76cad	5.4664765e-06
160	0x37180f76	9.063506e-06
161	0x368da29d	4.221058e-06
162	0xb78b399a	-1.6596914e-05
163	0x3963c173	0.00021720472
164	0x3961353c	0.00021477503
165	0xb7e2edb2	-2.7051985e-05
166	0x396a857a	0.00022365703
167	0x3709fa92	8.224177e-06
168	0x3722bdb1	9.700118e-06
169	0x369933b2	4.5657735e-06
170	0xb78e1de1	-1.6941633e-05
171	0x3963c173	0.00021720472
172	0x396189a5	0.00021508949
173	0x00000000	0.0
174	0x3704a7b3	7.906859e-06
175	0x35493943	7.496166e-07
176	0x39c09325	0.00036730725
177	0x39bf61b4	0.00036503153
178	0x372c994a	1.0287689e-05
179	0x39a8fa77	0.00032230068
180	0x3835ee4a	4.3375687e-05
181	0x38688950	5.5440993e-05
182	0x372c994a	1.0287689e-05
183	0xb7f4f7d4	-2.920247e-05
184	0x39cf07ae	0.00039487839
185	0x39cb5b54	0.00038787222
186	0x37c0d9f0	2.2989669e-05
187	0x39a249ea	0.00030954118
188	0x38362b96	4.3432774e-05
189	0x38513e66	4.9887596e-05
190	0x372c4de0	1.0270131e-05
191	0xb7f5e465	-2.931263e-05
192	0x39cf18d1	0.00039500606
193	0x39ccf247	0.00039090423
194	0xb82d73f3	-4.13544e-05
195	0x39c1ec7a	0.00036988017
196	0x3846f8ad	4.7438476e-05
197	0x3855d2f8	5.0979637e-05
198	0x373afe7c	1.1145716e-05
199	0xb7fd3cb5	-3.018822e-05
200	0x39cf18d1	0.00039500606
201	0x39cd3830	0.0003914251
202	0x00000000	0.0
203	0xb4cbf464	-3.7989514e-07
204	0xb4b4b882	-3.366186e-07
205	0xb8c75725	-9.5052914e-05
206	0xb8c5e3b9	-9.436109e-05
207	0xb59460ea	-1.1055065e-06
208	0xb8b4a332	-8.613466e-05
209	0xb70f1946	-8.529349e-06
210	0xb74b2798	-1.21089615e-05
211	0xb59460ea	-1.1055065e-06
212	0x36b421fa	5.3683734e-06
213	0xb8d1c86b	-0.00010003227
214	0xb8cefd3a	-9.8700126e-05
215	0xb660d9e1	-3.3505423e-06
216	0xb8afe83b	-8.3879066e-05
217	0xb70f4616	-8.539782e-06
218	0xb7306fce	-1.0516449e-05
219	0xb593f199	-1.1022668e-06
220	0x36b4d2c1	5.388953e-06
221	0xb8d1d533	-0.00010005608
222	0xb8d03296	-9.927635e-05
223	0x36d42cb0	6.3232947e-06
224	0xb8c5bb25	-9.4285504e-05
225	0xb702fc3f	-7.807334e-06
226	0xb7305f46	-1.05126e-05
227	0xb5adb301	-1.2941601e-06
228	0x36bb431e	5.5808478e-06
229	0xb8d1d533	-0.00010005608
230	0xb8d0674f	-9.9374556e-05
231	0x00000000	0.0
232	0xb5cfaae0	-1.5472433e-06
233	0xb52449dc	-6.120224e-07
234	0xb97c25a5	-0.00024046616
235	0xb97a1a01	-0.00023851545
236	0xb671b93a	-3.6019615e-06
237	0xb9690dde	-0.00022225778
238	0xb78ca49f	-1.6765958e-05
239	0xb7de0aed	-2.646955e-05
240	0xb671b93a	-3.6019615e-06
241	0x364e1af3	3.0712079e-06
242	0xb97ddac7	-0.00024209461
243	0xb97cfb93	-0.00024126311
244	0xb73c3604	-1.121825e-05
245	0xb9610d03	-0.0002146252
246	0xb78cc6e1	-1.678191e-05
247	0xb7b95625	-2.2093833e-05
248	0xb671a4ff	-3.6007839e-06
249	0x36515d12	3.11976e-06
250	0xb97de81e	-0.0002421443
251	0xb97d6150	-0.00024164212
252	0x3749d5be	1.2030299e-05
253	0xb97a3b9c	-0.00023864064
254	0xb78658bf	-1.601537e-05
255	0xb7b908fb	-2.20579e-05

exp_avg_sq f4 [256, 29]
0	0x317911dd	3.6244423e-09
1	0x30bdad19	1.3800757e-09
2	0x36332237	2.6692994e-06
3	0x363352a6	2.6721186e-06
4	0x31a83138	4.895039e-09
5	0x362bc707	2.5596835e-06
6	0x33e72431	1.0763359e-07
7	0x3445e097	1.842876e-07
8	0x30cc396b	1.4859273e-09
9	0x32a7b6b3	1.952444e-08
10	0x363239bd	2.6557675e-06
11	0x363234c1	2.6554774e-06
12	0x33cc221a	9.505693e-08
13	0x3625fe52	2.473495e-06
14	0x33e29fdb	1.05530226e-07
15	0x340ba50b	1.3005426e-07
16	0x30cc8f72	1.4883723e-09
17	0x32a8771d	1.961194e-08
18	0x36323d70	2.6559828e-06
19	0x363236d6	2.6555986e-06
20	0x341c5407	1.4559201e-07
21	0x3621c77f	2.4106992e-06
22	0x33d100fc	9.7325e-08
23	0x34028ed3	1.2159153e-07
24	0x30f21a5a	1.7615307e-09
25	0x32a65a9c	1.9366148e-08
26	0x36323d70	2.6559828e-06
27	0x3632381f	2.6556734e-06
28	0x00000000	0.0
29	0x2f91e97b	2.6541244e-10
30	0x2e60a303	5.1076487e-11
31	0x343923a7	1.7242438e-07
32	0x343950f1	1.7258914e-07
33	0x2fc1d6ed	3.525921e-10
34	0x3432d4b2	1.665492e-07
35	0x31b8f854	5.3833364e-09
36	0x3231c3fe	1.03473194e-08
37	0x2f305b77	1.6039602e-10
38	0x2fcfb1b6	3.7779352e-10
39	0x34391733	1.7237907e-07
40	0x34390bf7	1.723382e-07
41	0x317df409	3.6955063e-09
42	0x3430628d	1.642713e-07
43	0x3196aa4f	4.3849364e-09
44	0x31dbe06c	6.3992527e-09
45	0x2f30772c	1.6049445e-10
46	0x2fd19076	3.8119524e-10
47	0x34391b0c	1.7239307e-07
48	0x34391215	1.7236046e-07
49	0x321f4382	9.270368e-09
50	0x34292963	1.5754408e-07
51	0x31801190	3.727287e-09
52	0x31c361e7	5.686377e-09
53	0x2f3cc3b8	1.7168034e-10
54	0x2fcc13d0	3.7121461e-10
55	0x34391b0c	1.7239307e-07
56	0x343913e1	1.72367e-07
57	0x00000000	0.0
58	0x32605ca1	1.3059577e-08
59	0x313846f7	2.6815863e-09
60	0x3636b6c0	2.7226488e-06
61	0x3636e5b3	2.7253816e-06
62	0x329a9233	1.7994443e-08
63	0x362eddd0	2.6057132e-06
64	0x33cfd25a	9.6774514e-08
65	0x345e8d67	2.0726803e-07
66	0x32449797	1.1443169e-08
67	0x321be35f	9.073886e-09
68	0x363673f0	2.7187598e-06
69	0x363673c5	2.71875e-06
70	0x3424afbb	1.533762e-07
71	0x36276630	2.494442e-06
72	0x33a7828c	7.80029e-08
73	0x34025e90	1.2141595e-07
74	0x32448f28	1.14412515e-08
75	0x321d00d0	9.1387875e-09
76	0x36367855	2.7190156e-06
77	0x36367562	2.718844e-06
78	0x34aee886	3.257921e-07
79	0x361a5058	2.2994554e-06
80	0x338254c1	6.0690134e-08
81	0x33e1ec6c	1.0520384e-07
82	0x3247040b	1.1584244e-08
83	0x321b3811	9.0349355e-09
84	0x36367855	2.7190156e-06
85	0x36367623	2.7188878e-06
86	0x00000000	0.0
87	0x3017256d	5.4986665e-10
88	0x2f60b2c4	2.0436192e-10
89	0x350cf8f0	5.2516316e-07
90	0x350d141b	5.255585e-07
91	0x30a9c521	1.2352396e-09
92	0x3505b66d	4.9811825e-07
93	0x32dd41cd	2.5757709e-08
94	0x3337767b	4.2715765e-08
95	0x2fb0aec7	3.21384e-10
96	0x311177f5	2.1168465e-09
97	0x350cb6a2	5.241983e-07
98	0x350cae89	5.2408046e-07
99	0x3290d8a2	1.686232e-08
100	0x350241b9	4.8524413e-07
101	0x32c57fcb	2.2991932e-08
102	0x32fd6040	2.9496846e-08
103	0x2fb10a5f	3.2203482e-10
104	0x3112b775	2.135008e-09
105	0x350cb9e3	5.2424565e-07
106	0x350cb2b8	5.2414134e-07
107	0x3336d3d5	4.2567837e-08
108	0x34f45c2b	4.5515603e-07
109	0x32b7b01e	2.1384093e-08
110	0x32e9f8f0	2.7237974e-08
111	0x2fc93973	3.6602507e-10
112	0x310fb2c6	2.091086e-09
113	0x350cb9e3	5.2424565e-07
114	0x350cb421	5.2416186e-07
115	0x00000000	0.0
116	0x2d3efdb8	1.08565865e-11
117	0x2cf0afe7	6.8407393e-12
118	0x31c6faa5	5.7910534e-09
119	0x31c73d0d	5.798603e-09
120	0x2d89cb1d	1.5665297e-11
121	0x31990e8a	4.454539e-09
122	0x30ad12cc	1.2592749e-09
123	0x30cc48c9	1.486364e-09
124	0x2be22e92	1.6071192e-12
125	0x2db00070	2.0009078e-11
126	0x31c6aa32	5.7819074e-09
127	0x31c6c322	5.7847425e-09
128	0x2f58412e	1.9668242e-10
129	0x31b140ce	5.1587454e-09
130	0x2ff484e8	4.4477777e-10
131	0x30653483	8.338434e-10
132	0x2c3dbf75	2.6964795e-12
133	0x2dc0f049	2.1934581e-11
134	0x31c66d61	5.7749934e-09
135	0x31c68898	5.7780873e-09
136	0x30ab6716	1.2471186e-09
137	0x318b9cf2	4.063275e-09
138	0x2f91c2c6	2.651374e-10
139	0x303ac63a	6.79481e-10
140	0x2d42295c	1.1036807e-11
141	0x2d969522	1.7119254e-11
142	0x31c66d61	5.7749934e-09
143	0x31c681f2	5.7773315e-09
144	0x00000000	0.0
145	0x2fe88cbd	4.2300555e-10
146	0x2f17f286	1.3819532e-10
147	0x34b0ed67	3.2955288e-07
148	0x34b13325	3.3006032e-07
149	0x2fce71b3	3.755197e-10
150	0x34aba3c2	3.1970382e-07
151	0x32315cc1	1.0323846e-08
152	0x32aa3e55	1.981895e-08
153	0x2f39da33	1.6903172e-10
154	0x31156763	2.1741122e-09
155	0x34b09e2c	3.289764e-07
156	0x34b085dc	3.287995e-07
157	0x31abe7cd	5.0031077e-09
158	0x34a9568f	3.1541683e-07
159	0x3228ccaa	9.825422e-09
160	0x32604a4a	1.3055407e-08
161	0x2f3a6118	1.6951096e-10
162	0x31165121	2.187399e-09
163	0x34b0a149	3.2899905e-07
164	0x34b09007	3.2887348e-07
165	0x32911193	1.6888213e-08
166	0x34a28859	3.0274057e-07
167	0x3214070b	8.616335e-09
168	0x324bae08	1.1855725e-08
169	0x2f51330c	1.9026575e-10
170	0x31150404	2.1684636e-09
171	0x34b0a149	3.2899905e-07
172	0x34b092de	3.2889415e-07
173	0x00000000	0.0
174	0x3206dd32	7.8501206e-09
175	0x2f74f946	2.228023e-10
176	0x35d419ce	1.5802741e-06
177	0x35d447ca	1.5816124e-06
178	0x324b7ebe	1.1844973e-08
179	0x35c076f3	1.4339734e-06
180	0x34105934	1.3443497e-07
181	0x344fbefb	1.9347856e-07
182	0x31ece8dc	6.894977e-09
183	0x32345bc0	1.04982405e-08
184	0x35d2ee6a	1.5715607e-06
185	0x35d2ece1	1.571516e-06
186	0x33b4315a	8.39088e-08
187	0x35b9af7c	1.3834647e-06
188	0x33f6c7c8	1.1491608e-07
189	0x34185d8a	1.4190132e-07
190	0x31ecffd9	6.8975905e-09
191	0x32358e84	1.0567991e-08
192	0x35d2f2de	1.5716903e-06
193	0x35d2ed37	1.5715258e-06
194	0x3449d6b4	1.8797692e-07
195	0x35aa831b	1.2704144e-06
196	0x33da43a0	1.0163717e-07
197	0x340cfc45	1.3130291e-07
198	0x31f55370	7.139924e-09
199	0x32317080	1.03283355e-08
200	0x35d2f2de	1.5716903e-06
201	0x35d2ee77	1.5715622e-06
202	0x00000000	0.0
203	0x2f85d44c	2.4343405e-10
204	0x2ebfff5c	8.731035e-11
205	0x3406f5e9	1.2569184e-07
206	0x340712e4	1.2579727e-07
207	0x2fbeb340	3.4688163e-10
208	0x33ff6818	1.18932974e-07
209	0x31d49d06	6.1878636e-09
210	0x32284f35	9.796897e-09
211	0x2f2efcdb	1.591504e-10
212	0x301f201d	5.78895e-10
213	0x34068d59	1.2531144e-07
214	0x34068f5d	1.2531878e-07
215	0x3166462e	3.3509298e-09
216	0x33fbd137	1.1726154e-07
217	0x31aeba20	5.0852265e-09
218	0x31e5d1a3	6.68861e-09
219	0x2f306c3a	1.6045557e-10
220	0x302015e5	5.8238775e-10
221	0x34069047	1.253221e-07
222	0x34068ec7	1.2531665e-07
223	0x31fd4e00	7.3721367e-09
224	0x33f24907	1.1282287e-07
225	0x318da319	4.122182e-09
226	0x31cf6781	6.03626e-09
227	0x2f43d67b	1.7811345e-10
228	0x301c5f6a	5.688806e-10
229	0x34069047	1.253221e-07
230	0x34068f2d	1.253181e-07
231	0x00000000	0.0
232	0x30829625	9.501419e-10
233	0x2ef7bca4	1.1265769e-10
234	0x352ffc02	6.55593e-07
235	0x353011c8	6.5590984e-07
236	0x31253e55	2.4046092e-09
237	0x352cfe51	6.444507e-07
238	0x320af4d5	8.088326e-09
239	0x32f35141	2.8325873e-08
240	0x30479d04	7.261891e-10
241	0x2f9300a3	2.6739597e-10
242	0x35301565	6.559624e-07
243	0x353011e5	6.559115e-07
244	0x32e8b697	2.7091387e-08
245	0x3526d038	6.2142817e-07
246	0x31f245d3	7.051065e-09
247	0x326d3e6f	1.3809411e-08
248	0x30479da8	7.261982e-10
249	0x2f96a897	2.740463e-10
250	0x35301901	6.5601495e-07
251	0x35301538	6.5595987e-07
252	0x333cb2b6	4.3934698e-08
253	0x3520fee5	5.9975565e-07
254	0x31c6925e	5.7791985e-09
255	0x32484acb	1.1658538e-08

exp_avg f4 [256]
0	0xba0509dd	-0.0005075017
1	0x391f82b1	0.00015212108
2	0xb9ecc958	-0.0004516344
3	0x3976fc11	0.0002355429
4	0xb72fc7f8	-1.0477372e-05
5	0x3956cd66	0.00020485147
6	0x39c51fcd	0.00037598461
7	0xb8c8d7e2	-9.5769545e-05
8	0xb97e6e80	-0.00024264492
9	0x36601521	3.33909e-06
10	0x38267791	3.968884e-05
11	0xb7e08d0a	-2.6768557e-05
12	0x391dcff6	0.00015050158
13	0x38f7353f	0.00011787796
14	0x37e35401	2.7099626e-05
15	0xb719aede	-9.160225e-06
16	0x399ef6aa	0.00030319887
17	0xb993920b	-0.00028146835
18	0x39c62b2f	0.00037797677
19	0xb89beaab	-7.434686e-05
20	0xb9138768	-0.00014069455
21	0x38c5a144	9.42373e-05
22	0xb8c78c61	-9.515207e-05
23	0x397549c1	0.00023392496
24	0xba000385	-0.0004883337
25	0xb9a48b3a	-0.0003138425
26	0x39c000be	0.00036621647
27	0xb967a4ee	-0.00022091318
28	0x382fb2aa	4.1889645e-05
29	0xb9a4c9b4	-0.00031430798
30	0x3a17ae2e	0.00057861477
31	0x3a24cfdc	0.0006287077
32	0x3a0ce4b3	0.0005374655
33	0x375b53f4	1.3072964e-05
34	0xb98c8990	-0.00026805373
35	0x371ad0ca	9.227728e-06
36	0xb8b0b8f3	-8.4267835e-05
37	0xba01dcf5	-0.00049538846
38	0xb9b2ce03	-0.00034104296
39	0x3a43543b	0.0007451211
40	0xb8c5e953	-9.437152e-05
41	0x39c2894b	0.00037104855
42	0x39cac6a8	0.00038676453
43	0x38bc0079	8.9646266e-05
44	0x3a20cf30	0.0006134389
45	0xb8c09925	-9.183799e-05
46	0x3a27d5ff	0.00064024323
47	0xb97ad22c	-0.00023920153
48	0x3a1262d7	0.00055841863
49	0xb8eaae72	-0.000111904825
50	0xba23d98e	-0.0006250375
51	0xb95f8540	-0.00021316577
52	0x38b326f7	8.542643e-05
53	0xb9d00abe	-0.00039680855
54	0xb90ac0de	-0.00013232554
55	0xb9743bda	-0.0002329195
56	0x3981d3f9	0.0002476273
57	0xb8e33172	-0.000108334134
58	0xb821f1a2	-3.861043e-05
59	0x3981baad	0.00024743882
60	0xb9ae4129	-0.00033236414
61	0x3a57c677	0.00082311727
62	0xb97f1f1b	-0.00024330283
63	0xb8d4852f	-0.00010133755
64	0xb99ecc64	-0.0003028839
65	0xba13a619	-0.00056323555
66	0x398418e6	0.00025195553
67	0xb9a215cf	-0.00030915297
68	0x3a387126	0.00070359034
69	0xb92b301a	-0.0001632575
70	0xb95c6ce0	-0.00021021394
71	0xb91d687c	-0.0001501161
72	0x3a390ad3	0.0007058803
73	0xb85c7014	-5.255647e-05
74	0xb9cf3873	-0.00039524175
75	0x3984ab9a	0.00025304855
76	0xb9a3e569	-0.00031260707
77	0x39a842d1	0.0003209324
78	0x39ca37b5	0.00038569947
79	0x39ce908b	0.00039399075
80	0xb63c95f6	-2.8101472e-06
81	0xb907c147	-0.00012946605
82	0xb969cd96	-0.00022297198
83	0xb91c40b6	-0.00014901426
84	0x39f21736	0.0004617513
85	0x38fc70d7	0.000120373144
86	0x3928dca4	0.00016103924
87	0xb95a1675	-0.00020798466
88	0x39c7829c	0.0003805355
89	0x394f0ee3	0.00019746604
90	0x3666c496	3.4387099e-06
91	0x38ad01e5	8.249636e-05
92	0xb9ac4370	-0.0003285664
93	0xb5fa1b66	-1.8634425e-06
94	0xb94f7d17	-0.00019787658
95	0x39dc7e4c	0.00042055768
96	0x396859a6	0.00022158641
97	0xb838f137	-4.4093667e-05
98	0xb7fbe9fa	-3.0030486e-05
99	0x3a255d16	0.00063081214
100	0x3a10f7f6	0.0005530113
101	0xb5e4c866	-1.7045647e-06
102	0x386017c9	5.3427913e-05
103	0x39eea762	0.00045519607
104	0x3a3c3cc0	0.00071806833
105	0xb919cb3e	-0.0001466693
106	0x3829fbd6	4.052728e-05
107	0xb855ab7a	-5.0942857e-05
108	0xba24512e	-0.00062682
109	0x38b460ee	8.6011234e-05
110	0x34dc2937	4.100818e-07
111	0xb985544e	-0.0002543055
112	0xb78c0552	-1.6691778e-05
113	0xb892aa0d	-6.993497e-05
114	0x3a27cee6	0.00064013747
115	0xb8f08b5c	-0.000114700495
116	0xb910777b	-0.0001377742
117	0xb9fdd56d	-0.00048414935
118	0x37c7eae2	2.3832024e-05
119	0x39ca3412	0.00038567238
120	0xb9725984	-0.00023112266
121	0xb9c638c7	-0.00037807805
122	0x382324ab	3.8896378e-05
123	0xb89ddf30	-7.527915e-05
124	0xb77feffc	-1.525506e-05
125	0xba1de333	-0.000602293
126	0x3a162876	0.0005728075
127	0xb9bb03e7	-0.00035670327
128	0xb901fc55	-0.000123964
129	0x397d3e76	0.00024151229
130	0x39b7daf2	0.00035067607
131	0xba202c3a	-0.0006110106
132	0x3a1bdc34	0.00059455936
133	0xb950cc36	-0.000199125
134	0xb9c903ad	-0.00038340446
135	0xb7fff73a	-3.0513493e-05
136	0xb980eb60	-0.0002458943
137	0xb83382ed	-4.279886e-05
138	0x386470af	5.446438e-05
139	0x39b0fea4	0.00033759058
140	0xb73642de	-1.0863614e-05
141	0x38c57188	9.414839e-05
142	0xb8863f68	-6.401428e-05
143	0x382505eb	3.9344577e-05
144	0x399940a1	0.00029230586
145	0x394f91f8	0.00019795436
146	0xba3fbb80	-0.00073140115
147	0xba199366	-0.0005858451
148	0x39d93fdd	0.00041437047
149	0x38464636	4.7272268e-05
150	0xba01f924	-0.00049580843
151	0x38adb377	8.282711e-05
152	0xb94d773d	-0.00019594743
153	0xba1f9d33	-0.0006088793
154	0x38bfb774	9.1417605e-05
155	0x3a02a833	0.000498417
156	0x39e3838a	0.00043394818
157	0x38ed00e9	0.0001130121
158	0x37affb6a	2.09787e-05
159	0xb95bc59b	-0.00020959081
160	0x39329fac	0.00017034885
161	0x3a109268	0.00055149803
162	0x39ad049d	0.00033000569
163	0x3a3ef4fb	0.000728443
164	0x39066300	0.00012816116
165	0x3a016c5f	0.0004937108
166	0xb84372d4	-4.6598565e-05
167	0x39a54b26	0.00031527242
168	0xb830735e	-4.2069114e-05
169	0x398c0a86	0.0002671072
170	0xb90fec82	-0.00013725649
171	0xb935ef55	-0.00017350663
172	0x39f4a007	0.00046658536
173	0xb9c40136	-0.00037384935
174	0x3a51ee98	0.00080082705
175	0xb8908a75	-6.892245e-05
176	0xba042163	-0.00050403754
177	0x39a7dfff	0.00032019612
178	0xb9c19774	-0.0003692467
179	0x39ad7183	0.00033081704
180	0xb78c9f85	-1.6763583e-05
181	0xb859690e	-5.183467e-05
182	0x3903b39c	0.00012560043
183	0xb6f1c784	-7.2055864e-06
184	0x38b4885f	8.60847e-05
185	0xb98e8f31	-0.00027191036
186	0xb99fdfc1	-0.00030493553
187	0xb9744e77	-0.00023298884
188	0xb944c862	-0.00018766665
189	0x39b6de63	0.00034879436
190	0xb96f5700	-0.00022825226
191	0xb8f3255f	-0.00011594104
192	0xb9a60c8a	-0.0003167133
193	0xb9725df5	-0.0002311392
194	0x37e243cc	2.697287e-05
195	0xb9a8bed8	-0.00032185647
196	0xb9dc2ae0	-0.00041993614
197	0xb87902b8	-5.936876e-05
198	0xb92ab8e8	-0.00016281346
199	0xb920cb77	-0.00015334586
200	0x3a162dbc	0.0005728861
201	0x3a28d414	0.00064402935
202	0x398a3fb1	0.00026368865
203	0x3a2541f8	0.00063040806
204	0xb8cd11d7	-9.778485e-05
205	0x39bc185d	0.00035876306
206	0xb85ea293	-5.3080334e-05
207	0x39f4fb69	0.00046726622
208	0xb9e7ecfc	-0.0004423632
209	0xb8cbc5d5	-9.7166434e-05
210	0xb8b6b7e6	-8.71269e-05
211	0xba11a5c5	-0.00055560126
212	0x3a21ce9e	0.0006172451
213	0x396ea2dc	0.00022758119
214	0xb8f24364	-0.00011552012
215	0x3a26fcaf	0.000637005
216	0x385c9ab4	5.2596166e-05
217	0xb2de36b6	-2.5869081e-08
218	0x390618f4	0.00012788532
219	0xb99341b9	-0.00028086992
220	0xb68301c2	-3.904309e-06
221	0x39d41c22	0.00040456752
222	0x3a07ea00	0.000518471
223	0xb91184cd	-0.0001387775
224	0xb7c63935	-2.3630078e-05
225	0xb9caaf89	-0.00038659226
226	0xb5b5873e	-1.3524912e-06
227	0xb9eb22f6	-0.0004484874
228	0x3a266b22	0.00063483615
229	0xb99c555f	-0.00029818245
230	0xb6e13710	-6.7119327e-06
231	0x394a983d	0.00019320934
232	0xb977d5d7	-0.00023635417
233	0xb9632aaa	-0.000216643
234	0x394e69a4	0.00019685045
235	0xb81245f1	-3.487425e-05
236	0x3a04e2c1	0.00050691894
237	0xb9fa198a	-0.00047702744
238	0x3884bb8a	6.329182e-05
239	0x3900ea2c	0.00012294267
240	0x3a000949	0.0004884196
241	0xb8ccfc5f	-9.774486e-05
242	0xb9527563	-0.0002007089
243	0x39b5c6d0	0.00034671137
244	0x39cc4f20	0.00038968865
245	0xb5a3a9da	-1.219388e-06
246	0xb90126b3	-0.00012316815
247	0x39fdc583	0.00048403078
248	0xb8ce5d9e	-9.840283e-05
249	0x366fb848	3.572104e-06
250	0xba03b014	-0.0005023491
251	0xba306e53	-0.0006730307
252	0xb88ef5d6	-6.816878e-05
253	0xb90829eb	-0.00012985586
254	0xb981bb1b	-0.00024744202
255	0x3980fadf	0.00024600976

exp_avg_sq f4 [256]
0	0x36335499	2.672232e-06
1	0x343963ef	1.7265823e-07
2	0x3637a4a3	2.7364956e-06
3	0x350d1d81	5.2569527e-07
4	0x31c79e0f	5.8096314e-09
5	0x34b125d3	3.299634e-07
6	0x35d514c9	1.5875786e-06
7	0x3407496c	1.2599565e-07
8	0x35302d39	6.5630917e-07
9	0x2efbd4a1	1.1451929e-10
10	0x3312bfe2	3.416779e-08
11	0x32da4d06	2.5413566e-08
12	0x3491a00e	2.712481e-07
13	0x33c0faf3	8.986344e-08
14	0x31c17db3	5.6313296e-09
15	0x2fe08b5e	4.084439e-10
16	0x35767b3b	9.1821465e-07
17	0x358d52ae	1.0529382e-06
18	0x35b9fa7a	1.3856472e-06
19	0x33bb8132	8.7313666e-08
20	0x3488f362	2.5509058e-07
21	0x33deb30c	1.0370249e-07
22	0x33b20ce7	8.291118e-08
23	0x35170c73	5.627e-07
24	0x363b97b3	2.7953472e-06
25	0x35b53742	1.3501633e-06
26	0x35a0305f	1.1935007e-06
27	0x351d3b01	5.857292e-07
28	0x31d7e859	6.2837384e-09
29	0x35984426	1.1344716e-06
30	0x3682d5b6	3.899181e-06
31	0x367fa328	3.809293e-06
32	0x364dd5e3	3.067188e-06
33	0x30c4eb5d	1.4327771e-09
34	0x35787e4e	9.2570997e-07
35	0x3129b1c1	2.4693778e-09
36	0x33c5e459	9.2150636e-08
37	0x36331976	2.6687899e-06
38	0x35a18be6	1.203615e-06
39	0x36b91eea	5.5170285e-06
40	0x33a40a8a	7.638762e-08
41	0x35d57204	1.590292e-06
42	0x35aff602	1.3110114e-06
43	0x33b4a621	8.412122e-08
44	0x367d20e2	3.7719078e-06
45	0x33b1528b	8.257219e-08
46	0x36831f75	3.9077663e-06
47	0x353a9ee3	6.952161e-07
48	0x3651f1a3	3.1284078e-06
49	0x33de2819	1.0344974e-07
50	0x368ad1ac	4.1371295e-06
51	0x3513e549	5.509542e-07
52	0x340ca549	1.3098646e-07
53	0x3600511b	1.9120696e-06
54	0x3440217b	1.7893574e-07
55	0x3523b0fa	6.0979767e-07
56	0x3512ad12	5.464109e-07
57	0x3464b536	2.1300079e-07
58	0x3156c55d	3.1253287e-09
59	0x35148ccf	5.53392e-07
60	0x3558c130	8.0747395e-07
61	0x36d85f4e	6.4483966e-06
62	0x352be709	6.4038665e-07
63	0x343d805a	1.764869e-07
64	0x3585ff0d	9.983502e-07
65	0x365c2371	3.2803184e-06
66	0x350d26dd	5.2583147e-07
67	0x358fee8d	1.0723758e-06
68	0x36ab9017	5.1129714e-06
69	0x34977ae3	2.8215354e-07
70	0x35211fe4	6.002358e-07
71	0x34a2bb81	3.0311278e-07
72	0x36a06338	4.779922e-06
73	0x33977974	7.0535776e-08
74	0x35e9298e	1.7371947e-06
75	0x3596cfb4	1.123632e-06
76	0x3588da2e	1.0196288e-06
77	0x3569f83b	8.7160487e-07
78	0x3608d0c4	2.0387097e-06
79	0x35eaf9bc	1.7507041e-06
80	0x2e93e9df	6.72633e-11
81	0x3481cfe7	2.417939e-07
82	0x354589f0	7.3588944e-07
83	0x34abb1a1	3.1980474e-07
84	0x3609b2ba	2.0518623e-06
85	0x346a1404	2.180023e-07
86	0x34add126	3.2375937e-07
87	0x350afb9c	5.1775146e-07
88	0x35d2ac75	1.5696411e-06
89	0x34d0203e	3.8766478e-07
90	0x3118998c	2.2206192e-09
91	0x33fb0b15	1.1690114e-07
92	0x35b74e4f	1.3657353e-06
93	0x2fda5752	3.9716014e-10
94	0x3485a9d8	2.4896758e-07
95	0x35d467a0	1.582539e-06
96	0x34df1488	4.1551925e-07
97	0x3376a9a5	5.743063e-08
98	0x32c1f3a3	2.257895e-08
99	0x3682f96a	3.9033375e-06
100	0x363c6466	2.8072623e-06
101	0x30fd0193	1.840862e-09
102	0x33774633	5.7573015e-08
103	0x36134c70	2.19492e-06
104	0x36a10e52	4.799841e-06
105	0x34a3532b	3.042163e-07
106	0x331e46f8	3.6851787e-08
107	0x33278025	3.8999264e-08
108	0x369166df	4.3333125e-06
109	0x33a8977b	7.850664e-08
110	0x2dfaaea0	2.8499259e-11
111	0x35275168	6.233081e-07
112	0x30b8d925	1.3449478e-09
113	0x338ddac9	6.605621e-08
114	0x3695fb01	4.4697667e-06
115	0x3421a219	1.5053264e-07
116	0x348caff9	2.620507e-07
117	0x363253d6	2.6572866e-06
118	0x325d3209	1.287527e-08
119	0x35cb30d0	1.5138885e-06
120	0x350d77a1	5.2700676e-07
121	0x35ea4b09	1.7456197e-06
122	0x3197a141	4.413011e-09
123	0x33858c40	6.2188064e-08
124	0x3262845d	1.3185027e-08
125	0x3674e50b	3.6492154e-06
126	0x3660b933	3.3486401e-06
127	0x35a0c087	1.1976962e-06
128	0x347769d3	2.3042166e-07
129	0x35079191	5.0503246e-07
130	0x359624b1	1.118655e-06
131	0x3689eb5e	4.1103185e-06
132	0x3668eeae	3.4709624e-06
133	0x350fbc2b	5.354547e-07
134	0x3601a352	1.9317563e-06
135	0x329220d2	1.7011562e-08
136	0x34efed7d	4.4690015e-07
137	0x329c710e	1.8212202e-08
138	0x330c73e7	3.2701703e-08
139	0x35ad2080	1.2898963e-06
140	0x3227885f	9.751687e-09
141	0x33b09747	8.223156e-08
142	0x330d02dc	3.283172e-08
143	0x320fe5bf	8.375934e-09
144	0x3561eb84	8.416175e-07
145	0x34e08087	4.1816767e-07
146	0x36c849a4	5.9690374e-06
147	0x3683a38a	3.9231427e-06
148	0x35bc1cd8	1.4015486e-06
149	0x333ec6a5	4.441849e-08
150	0x3643e8b2	2.919271e-06
151	0x33e64011	1.0721863e-07
152	0x35040c3b	4.919163e-07
153	0x3680989c	3.8324633e-06
154	0x337e50fc	5.921264e-08
155	0x361f8d6a	2.377516e-06
156	0x36086c27	2.0328532e-06
157	0x33fecd7c	1.1865174e-07
158	0x30d6fff2	1.5643293e-09
159	0x35102170	5.369284e-07
160	0x3480b7df	2.3975642e-07
161	0x36727404	3.612834e-06
162	0x357d7509	9.4420153e-07
163	0x36ae171f	5.1882957e-06
164	0x34390e5c	1.7234692e-07
165	0x362fc684	2.6192583e-06
166	0x3267a576	1.3483591e-08
167	0x35a98d65	1.2632632e-06
168	0x33028501	3.038895e-08
169	0x3520405c	5.96983e-07
170	0x34339c24	1.6727478e-07
171	0x34a540f5	3.0780907e-07
172	0x361f3b41	2.3727337e-06
173	0x35cf0cac	1.542639e-06
174	0x36d94cd4	6.476048e-06
175	0x33a2ce82	7.5812764e-08
176	0x36320d90	2.6531961e-06
177	0x35812968	9.6233e-07
178	0x359aa55d	1.1522021e-06
179	0x35844191	9.853849e-07
180	0x30ebb455	1.7149754e-09
181	0x3296eb0a	1.7569182e-08
182	0x33dcc9d6	1.0281262e-07
183	0x32208bcd	9.345013e-09
184	0x337e4a32	5.9206464e-08
185	0x35214178	6.0072443e-07
186	0x35703add	8.9492625e-07
187	0x3510f97e	5.400724e-07
188	0x349d2a0e	2.9274128e-07
189	0x35a39953	1.218907e-06
190	0x350eeea4	5.324639e-07
191	0x348d40fc	2.631058e-07
192	0x359bad68	1.1598868e-06
193	0x353045c5	6.566664e-07
194	0x32f87f75	2.892896e-08
195	0x35971f76	1.1259533e-06
196	0x35e7e694	1.7277948e-06
197	0x331f0b74	3.703049e-08
198	0x34985565	2.837434e-07
199	0x34796469	2.3226461e-07
200	0x3675c92a	3.6624938e-06
201	0x368ed1cd	4.256354e-06
202	0x3566f910	8.604411e-07
203	0x36806efb	3.827617e-06
204	0x33bf963c	8.921458e-08
205	0x35ab9001	1.2782403e-06
206	0x32e31c2d	2.6439091e-08
207	0x3608eb36	2.040249e-06
208	0x3610fc5b	2.1604562e-06
209	0x33ca72f1	9.427266e-08
210	0x344f4f66	1.9307262e-07
211	0x365c026e	3.278397e-06
212	0x36842316	3.937991e-06
213	0x34e8ebc7	4.3384918e-07
214	0x342fef6d	1.6385248e-07
215	0x36833f69	3.911486e-06
216	0x33144b09	3.452718e-08
217	0x2e296750	3.851791e-11
218	0x34208380	1.4949e-07
219	0x354ddd0a	7.6690105e-07
220	0x30a5e032	1.206905e-09
221	0x35cfde94	1.5487481e-06
222	0x36337ef5	2.6746977e-06
223	0x347641b9	2.2934445e-07
224	0x31880800	3.9590304e-09
225	0x36041bc0	1.9685685e-06
226	0x2e3af35c	4.250765e-11
227	0x361daac1	2.3494215e-06
228	0x36880b26	4.0544137e-06
229	0x35812cf4	9.624332e-07
230	0x301ad535	5.632786e-10
231	0x34e81573	4.3228974e-07
232	0x35407bf0	7.1705927e-07
233	0x350fb045	5.352816e-07
234	0x34b06a2c	3.2859805e-07
235	0x320bec49	8.14459e-09
236	0x3646f735	2.9648193e-06
237	0x361f0cd4	2.3700313e-06
238	0x3334456b	4.197265e-08
239	0x3434f392	1.6852417e-07
240	0x3617beed	2.2611887e-06
241	0x3415101c	1.3882567e-07
242	0x3508f80f	5.102492e-07
243	0x35c98062	1.5013031e-06
244	0x35ca1944	1.5057526e-06
245	0x313d759f	2.756998e-09
246	0x346189b2	2.1004851e-07
247	0x362bb28a	2.558491e-06
248	0x33fa324c	1.1650681e-07
249	0x3033ff4a	6.548261e-10
250	0x362a44de	2.537206e-06
251	0x36a11d17	4.8015604e-06
252	0x33c0c1b5	8.975932e-08
253	0x34132797	1.3704845e-07
254	0x3539dc83	6.923876e-07
255	0x350c0f72	5.217654e-07
