ml-agents-release_20/Result/Dino/Dino03/Dino/Dino-1999981.onnx (onnx, 34598 bytes, 4 tensors)

action_model._discrete_distribution.branches.0.bias f4 [2]
000000 e6 cc fd 39 51 cc fd b9
       0.00048408582 -0.00048408148

action_model._discrete_distribution.branches.0.weight f4 [2, 256]
000000 57 a2 bc bd dc f9 7f 3c 42 e0 e9 bd 64 19 83 3d
       -0.09210651 0.015623536 -0.11419727 0.06401327
000010 b5 d9 42 bc dc 0b c6 3d ed 3e bf 3d 1a 60 b5 bc
       -0.011892726 0.09670231 0.09338174 -0.022140551
000020 df d8 8f bd f9 b8 8f ba d4 f3 01 3d 1b 64 35 bc
       -0.07023787 -0.001096516 0.031726673 -0.01107123
000030 04 b3 11 3d 00 d3 18 3d 81 49 87 3b e1 87 65 3a
       0.035571113 0.0373106 0.0041286354 0.0008755904
000040 be d4 91 3d 46 54 b0 bd bb 0a 83 3d f9 23 79 bc
       0.071206555 -0.08609824 0.06398531 -0.01520633
000050 9e cb 81 bd e7 36 02 3d 4c 20 fe bc 5c 29 25 3d
       -0.06337665 0.03179064 -0.03102126 0.040322646
000060 c2 d7 e6 bd 03 09 96 bd 58 bb 63 3d 71 c9 32 bd
       -0.11271621 -0.073259376 0.055598587 -0.04364914
000070 8f 6f 81 3b b4 49 84 bd c2 33 0a 3e 1a 6d ca 3d
       0.0039500664 -0.0645937 0.13496307 0.09884091
000080 d1 e9 f8 3d 0e ba 8d bc f9 6d 86 bd f7 65 b4 ba
       0.12153972 -0.017300632 -0.06563944 -0.0013763298
000090 7b 32 06 bd 1c 0a f8 bd 7a d4 b7 bd 96 18 1d 3e
       -0.032762986 -0.12111303 -0.089760736 0.1534141
0000a0 74 72 04 bd b6 26 e7 3d 67 3c 2b 3d f0 3b 10 3d
       -0.032335714 0.112866804 0.04180565 0.03521341
0000b0 26 1f f2 3d 2a 0f 65 bc 5c 0a d1 3d 68 4f 58 bd
       0.11822347 -0.013980666 0.10207054 -0.052810103
0000c0 fc fb 0e 3e 51 4f cb bc 6c de ff bd 4b 5d 75 bd
       0.13963312 -0.024818094 -0.124935955 -0.059903424
0000d0 eb f3 43 3d 4a f7 84 bd 6b 47 2f bd 8d 01 46 bd
       0.04784004 -0.06492479 -0.04279272 -0.048341323
0000e0 fd 2f 10 3d 83 23 7c bc f9 2f 12 bc 0c b2 19 3d
       0.035202015 -0.015389326 -0.00892257 0.037523314
0000f0 5a 18 ab bd 25 96 33 3e 46 96 33 bd e7 76 25 bd
       -0.08354254 0.17537744 -0.043844484 -0.040396597
000100 b3 cb 86 bd e0 04 f7 bd 56 de 1c 3d 72 33 4b bd
       -0.06581821 -0.12061477 0.038297974 -0.04960961
000110 b2 20 18 3e 28 a9 05 bd 20 93 49 bd 37 03 0a bd
       0.14856222 -0.032632023 -0.049212575 -0.033694472
000120 09 25 df 3d 9e 42 7e bc 2b 41 89 bd 30 24 05 3e
       0.10895736 -0.015518812 -0.06701883 0.13002086
000130 f1 a5 fd bd ca 5e bc 3d 75 6e 14 3e 98 5f c2 3d
       -0.123851664 0.09197767 0.14495261 0.09490889
000140 90 01 ea 3b e7 c7 fd bc 76 c0 44 bd 36 81 12 bd
       0.0071412995 -0.03097911 -0.048035108 -0.035767756
000150 6f 0d ca 3d f4 9c 8a 3d 56 4e 1b 3d 2d b1 32 bd
       0.098658435 0.06768218 0.037916504 -0.043626
000160 07 6d 0b 3e 66 ff 25 3d cf 54 c4 bb da b7 64 3c
       0.1361581 0.04052677 -0.0059915553 0.013959849
000170 ba a4 80 bd 3f 4e 1e 3c f9 cd 54 bd 58 57 4f 3d
       -0.06281419 0.00966221 -0.051954243 0.050620407
000180 13 96 e4 3c 45 1e d5 bc a0 5c 16 bc 26 54 d4 3d
       0.027903592 -0.02601541 -0.009177357 0.103676125
000190 f6 79 e6 3d a7 fd 81 3a 51 dc 06 3d ad c5 b8 3d
       0.11253731 0.0009917513 0.032924954 0.09022079
0001a0 99 b4 02 3e 49 c5 0c bd d1 cd 1b 3d 9b ee 15 bc
       0.12764205 -0.034367833 0.03803808 -0.009151126
0001b0 32 df c8 bd cf 03 66 3c 6f c6 4c bb 8f 3c 72 bd
       -0.09808196 0.014038994 -0.0031246205 -0.059139784
0001c0 9e 1b a3 ba bf 7e d3 bc 19 c7 23 3e 65 2e 0b bd
       -0.0012444144 -0.025817273 0.15993918 -0.033979792
0001d0 cc 6b dc bc 2d 8e d3 bd 67 9d a5 bb 3d aa 52 3d
       -0.02690687 -0.10329852 -0.005054164 0.051431883
0001e0 37 91 43 bd df b9 9e bd d1 eb 03 bc 4c 8c ba bc
       -0.04774591 -0.07750296 -0.0080518285 -0.022771977
0001f0 cd b7 97 bc a7 66 bb bd 91 27 f8 3d d7 09 7d bd
       -0.01852026 -0.09150439 0.12116922 -0.061776962
000200 aa d5 d4 bc bf 16 ca 3c f2 96 4d 3d 9f de 05 be
       -0.02598079 0.02466905 0.05019278 -0.13073204
000210 e4 33 e4 3d e2 01 4d bd bc c8 b1 bd 15 7d 80 bc
       0.1114271 -0.050050624 -0.08680865 -0.015684644
000220 3b b5 69 bd 8e 62 a6 bc 3a 14 01 3d 04 9b d2 3d
       -0.0570576 -0.020310666 0.03151343 0.10283473
000230 0b c7 25 bc cd 35 20 3d 09 c1 b9 bc 71 d1 a3 bb
       -0.010118256 0.03911381 -0.022675054 -0.0049993326
000240 c7 c0 15 3d 80 9b 52 3d 2e b4 f6 bd 51 68 ba bd
       0.0365608 0.051417828 -0.12046085 -0.09101928
000250 a1 7e ce 3d 62 1b e2 3c 84 28 d6 bd 5b 29 46 3d
       0.10082746 0.027600948 -0.104569465 0.048379283
000260 72 71 63 bd 2c de 17 be fe 22 3b 3c 75 23 b6 3d
       -0.05552811 -0.14830846 0.011421917 0.08893482
000270 b1 2a f4 3d a0 a0 92 3c 50 97 c7 3b ee 09 0b bd
       0.11922205 0.017898858 0.006091036 -0.033945017
000280 7b c9 ed 3c 57 9a 29 3e de 3a 31 3d 5a 73 1b 3e
       0.029026737 0.16562782 0.04326903 0.15180722
000290 74 7c a7 3c c3 cf c7 3d 4f 12 64 bc a9 bf d7 3d
       0.020445086 0.09756424 -0.013920381 0.10534603
0002a0 17 fd 8a bc df 70 11 3d ae 4c 25 bd 88 51 12 bd
       -0.016966386 0.035508033 -0.04035633 -0.035722286
0002b0 6f 4a f0 3d c5 00 94 bd aa 12 19 3e c9 16 e4 bc
       0.11732947 -0.07226709 0.14948526 -0.027842896
0002c0 68 33 04 be fa 1f a0 3d b4 cc b5 bd 2d d6 4d 3d
       -0.12910235 0.07818599 -0.08876935 0.050253082
0002d0 ba 40 af bb d8 4b c3 bc 9f ef c9 3c af 13 52 bb
       -0.005348292 -0.023839876 0.024650393 -0.003205519
0002e0 c6 4a a6 3c 1b ef 9a bd bd 40 99 bd b0 a0 57 bd
       0.020299327 -0.07565137 -0.07483051 -0.052643478
0002f0 8a a7 65 bd 1e e7 80 3d 71 9e ab bd 7b d5 9d bc
       -0.05606798 0.06294082 -0.0837983 -0.019266834
000300 1b ad 83 bd 1c 37 38 bd e4 b9 5f 3b 87 64 8b bd
       -0.064295016 -0.04497443 0.00341379 -0.068062834
000310 da 19 d2 bd d1 1e d4 bc 5f c6 40 bd e3 d6 40 bd
       -0.10258837 -0.0258936 -0.04706418 -0.047079932
000320 98 06 17 3e 96 3a 05 3e d4 4d af 3d b8 05 2d 3e
       0.14748609 0.1301063 0.085597664 0.16896713
000330 8b bd 06 bd a8 31 36 3d e4 e8 66 bc e5 85 a4 3d
       -0.032895606 0.04448095 -0.014093611 0.08033351
000340 e0 1a 89 bd 12 6f f0 bc ee f9 7d bc 9e 78 ea bd
       -0.06694579 -0.029349837 -0.015501482 -0.11448787
000350 47 ca 07 3e fd 2f 02 3d b6 18 f6 bc 24 ac c3 3d
       0.13260756 0.031784046 -0.03004108 0.095543176
000360 bf a2 11 3d cb d3 02 bc c6 9c ca 3c 05 03 b6 bd
       0.035555597 -0.007985066 0.024732959 -0.08887295
000370 3a 3d ec bb 76 83 6b 3d 87 71 9f 3d d9 e7 0d bd
       -0.007209447 0.057498418 0.077853255 -0.034644935
000380 87 61 43 bc 65 04 84 bd c7 07 6c 3b 82 9f b2 bd
       -0.011925108 -0.06446151 0.0036015378 -0.0872183
000390 d5 52 15 3e 9f 83 7e bd a1 7d 84 bb d0 17 b0 3d
       0.14582379 -0.062137242 -0.0040432964 0.08598292
0003a0 22 e3 37 bd cf 27 43 bd 23 c2 0a 3d 46 e0 4d bb
       -0.044894345 -0.047645386 0.03387655 -0.0031414195
0003b0 dd 94 22 3e 51 b7 95 bd e1 a5 00 bc 43 ea 6b 3d
       0.158771 -0.073103555 -0.007852049 0.057596456
0003c0 19 13 82 3d 93 13 a7 bc a2 71 1c bd ba 72 b4 3d
       0.06351299 -0.020395076 -0.038194306 0.08810945
0003d0 51 07 92 3d 02 1b b2 3b f8 7d 07 bd e7 f2 01 3e
       0.07130302 0.0054353485 -0.033079118 0.12690316
0003e0 a8 17 6d bc 30 d2 48 3c f8 f7 72 bd 7f 83 17 be
       -0.014470972 0.012257144 -0.059318513 -0.14796256
0003f0 5d 6f b2 bc 35 ba d3 bc 50 5b 67 bd 11 f1 bd 3d
       -0.021781618 -0.025845626 -0.056483567 0.092744954

network_body._body_endoder.seq_layers.0.bias f4 [256]
000000 2c fe 33 3d a3 53 20 bc 2b af c8 3c 59 33 aa 3c
       0.04394357 -0.009785566 0.02449759 0.020776438
000010 8a 36 6e bc 48 08 05 3d 72 de 1e 3d e4 e3 95 bb
       -0.01453937 0.0324786 0.03878636 -0.004574286
000020 f8 ec a5 3a b5 e5 a2 3c 9c 07 b1 3d 47 26 a1 bc
       0.0012659123 0.019884923 0.086440295 -0.019671572
000030 a0 bb e2 3b ee 3d d3 3a 3c 44 32 3d b6 12 32 3d
       0.0069193393 0.0016116479 0.043522105 0.043474875
000040 b2 86 a3 3c eb cd 9c 3d 00 95 99 3c 54 24 13 bc
       0.019961689 0.07656463 0.018747807 -0.008980829
000050 c8 5b a0 3b 73 7d 8c 3d 63 b5 03 bc 09 ec 59 3c
       0.0048937537 0.06859865 -0.008038851 0.013300904
000060 12 f4 01 3d 34 13 c3 3c 92 9b c5 3c eb ab 29 3c
       0.031726904 0.023812868 0.024122033 0.01035593
000070 18 c2 b5 bc 59 c6 10 3c 82 44 68 3d 9a 44 00 3d
       -0.022187278 0.008836352 0.05670596 0.031315424
000080 1f 60 66 3d 50 5b 63 bd 86 88 c2 3b dc ec 63 bc
       0.056244012 -0.055507004 0.005936685 -0.013911452
000090 9f a8 82 3c 23 5f 96 3c 3b f3 4d 3d 1a 35 4f 3d
       0.015949545 0.018355912 0.05028079 0.05058775
0000a0 1e fe 71 3b 35 d0 40 3d fa c5 e2 3c 32 b2 71 3d
       0.0036925147 0.04707356 0.027682293 0.05900783
0000b0 a1 b7 09 3d bb 1b d3 bb fe 40 12 3d 35 c0 4e 3b
       0.033622388 -0.0064425147 0.035706513 0.003154767
0000c0 ec dc 68 3d fe 58 ed ba 61 fa 0c 3d c0 d6 a3 3c
       0.056851313 -0.0018108187 0.034418467 0.019999862
0000d0 63 12 3c 3d c1 8e c4 3c 62 66 56 3c 47 f6 5a 3c
       0.045915972 0.023993852 0.013085933 0.013364381
0000e0 bf 9a 5d 3c 84 42 bd ba c1 66 96 3c a5 dd 33 3c
       0.013525664 -0.0014439379 0.018359544 0.010978137
0000f0 bf f6 0f 3d b3 c1 9e 3d 2e 95 30 ba ac c2 9c 3c
       0.035147425 0.07751789 -0.00067360967 0.019135796
000100 8d 62 2e 3c d2 d2 cc 3c 1b 40 93 3b b3 c5 52 3c
       0.0106436135 0.02500287 0.004493726 0.012864518
000110 ee 0d 53 3d 5e df ea 3a 54 83 c8 3c 4d ca 0c 3b
       0.051526956 0.0017919352 0.024476685 0.0021482885
000120 3d c7 32 3d 54 6c 61 bb 78 7f 92 3c 38 9d 51 3d
       0.04364704 -0.0034396844 0.017883047 0.051175326
000130 d6 79 5e 3d 60 21 7a 3d e7 46 6c 3d 2f 84 de 3c
       0.05431541 0.061066985 0.057684805 0.02716264
000140 e8 a2 7e 3c 9e 99 93 3b 86 4e ff 3c d3 21 aa bb
       0.01554177 0.0045043966 0.031165373 -0.0051920204
000150 98 80 22 3d 1b 9e 76 3d 00 f9 0e 3c f4 3b 23 3c
       0.039673418 0.060209375 0.008726358 0.009963024
000160 ed e3 05 3e 59 1e 0e 3c d3 bc b6 bc e7 4e 17 3c
       0.13075228 0.008674228 -0.022306835 0.00923512
000170 76 55 ba 3c 44 72 ad 3c 4f 2d b3 3b 23 59 ac 3c
       0.02274583 0.02117265 0.0054680477 0.021038597
000180 59 84 91 3b 5e 58 5d 3c d0 06 53 bc 12 f6 15 3d
       0.004440826 0.013509838 -0.012880042 0.036611624
000190 5d fd 2a 3d 29 97 15 3c 4e 3c e7 3c 69 6f 07 3d
       0.041745532 0.009130278 0.028226998 0.033065233
0001a0 47 7c c7 3d ff 79 2d 3b 61 ab 1b 3d b5 45 07 3d
       0.09740501 0.002647042 0.038005237 0.033025462
0001b0 94 99 42 3d 88 60 f6 ba 80 26 77 3d 51 b0 fb 3b
       0.047509745 -0.0018797079 0.06033945 0.0076809307
0001c0 57 ab 8d 3c 4c 57 84 ba 2b 9d 89 3d 2b 03 fa 3b
       0.017293615 -0.0010096817 0.067194305 0.007629772
0001d0 e4 3c 55 bc 85 02 cf 3c 84 d7 8f bc 7e 6f a3 3c
       -0.013015006 0.025269756 -0.01755882 0.019950625
0001e0 1b 84 52 3b 8c ff 9e 3c cb a4 08 bd 64 5c 2c 3d
       0.0032122198 0.019408964 -0.033360284 0.042080298
0001f0 74 f0 60 bc 77 c0 09 3d 68 9c 17 3d 6e 61 56 3c
       -0.0137292035 0.033630814 0.037014395 0.0130847525
000200 2a c4 fa 38 d0 61 70 3b 06 7a 1d 3c a0 7f e2 3c
       0.00011957467 0.0036679395 0.009611612 0.027648747
000210 5e ec 2d 3d 86 4e a7 3c e3 b0 3d 3d 05 e7 e6 3c
       0.042461745 0.020423185 0.04631127 0.02818633
000220 2d b6 67 3d 5b 0e 90 3c 6a ef 53 3d e9 83 57 3d
       0.05657022 0.01758497 0.051741995 0.052616034
000230 cf ed 23 bb 5a d5 5f 3c a3 b3 3e 3d 58 07 e1 bc
       -0.002501357 0.013661707 0.046558034 -0.027469322
000240 d4 08 91 3c 91 2e 27 3d 26 bd 31 3d 77 60 1a 3d
       0.017704405 0.040815894 0.043393277 0.037689652
000250 5d 93 38 3d 7a be 50 bb 5c 3a af 3c ae 61 81 3d
       0.04506241 -0.0031851814 0.021390133 0.06317459
000260 fd e1 94 3c 78 dd 79 3d c4 75 be bb bd 45 28 3d
       0.018174166 0.061002225 -0.0058123786 0.041082133
000270 9b a5 45 3d ab af 13 3a 96 db 19 bd 4d e0 b6 3a
       0.048253637 0.00056337815 -0.03756293 0.0013952345
000280 53 61 3d bb 1c 9f 53 3d b7 83 ad 3c 6b 0e 56 3d
       -0.002889712 0.05166541 0.02118097 0.052259844
000290 71 f4 b4 3b c7 0b 10 3d 32 17 90 3c f6 21 aa 3d
       0.0055223037 0.03516748 0.017589185 0.08307259
0002a0 db 7c 5b bb 81 8d 70 3b 4d 08 13 3d 23 fc 8d bb
       -0.0033491168 0.0036705437 0.035896588 -0.0043330356
0002b0 88 d0 04 3d ea 59 be 3c 2f c5 42 3d f7 68 93 3c
       0.032425433 0.023236234 0.04755133 0.017994387
0002c0 16 30 21 3d 90 3e 31 3d 50 00 65 3d 8a eb 88 3c
       0.0393525 0.043272555 0.0559085 0.016713876
0002d0 a9 af cb 3c f6 2b 50 3d b6 c9 ae bb 23 42 8d bc
       0.024864035 0.050823174 -0.0053341044 -0.01724345
0002e0 65 c0 fb bb a5 4e 8f 3d 77 4a 68 3c 2d fe 28 3c
       -0.0076828473 0.06997422 0.01417791 0.0103145065
0002f0 9c 17 5b 3b 1f 89 e2 3c e1 3c bb 3c e2 9e 00 bb
       0.003343082 0.027653275 0.022856178 -0.0019625952
000300 5a d6 cd 3b 2c 12 31 3c 93 34 53 ba 10 33 ab 3b
       0.006281656 0.010807555 -0.00080568454 0.005224593
000310 a0 99 f7 3c d7 d9 42 3c 44 9d de 3c e3 d2 cf 3b
       0.030224621 0.011892757 0.0271746 0.0063422783
000320 df 69 36 3d 64 8d 41 3d dd 03 d0 3d c6 1f 93 3d
       0.04453456 0.04725398 0.10156987 0.07183795
000330 1b 27 5d 3c 00 13 85 3c da 34 00 3b 44 fa 02 3d
       0.013498093 0.016244411 0.0019562752 0.031976953
000340 a7 6f c8 3c 33 d9 8e ba 22 12 21 3d 09 01 00 3d
       0.024467302 -0.0010898471 0.039323933 0.031250987
000350 ea 7f 37 3d fb 49 20 ba 69 34 1b 3b 89 1f 00 3d
       0.044799723 -0.00061145396 0.0023682362 0.031280074
000360 dd 5e 05 3d 06 4c 46 bd 51 ca e9 b9 e3 eb 95 3d
       0.03256117 -0.048412345 -0.0004459196 0.073203824
000370 37 e7 ec 3c 98 c6 9e 3c bf d1 0d 3d 1a 92 fd bb
       0.028918846 0.019381806 0.034623858 -0.007738364
000380 a3 72 21 3c cc 6c d1 3c 67 87 ac bc 71 35 23 3d
       0.009853992 0.025564574 -0.021060659 0.039845888
000390 80 3c eb 3d aa 75 10 3c 55 4b 0c 3c 6c b5 35 3d
       0.11486149 0.008817116 0.008562882 0.04436247
0003a0 25 68 0c 3c ce f7 81 3b 85 a4 e2 3b 17 c9 64 bc
       0.008569752 0.003966308 0.006916585 -0.013963959
0003b0 ba db ea 3d db 63 a5 3c e0 04 c4 3c de da 49 3d
       0.11467691 0.020189216 0.023928106 0.049280994
0003c0 84 bb c8 3c b5 02 70 bb 0d 8a db 3b d8 c3 66 3d
       0.024503477 -0.0036622707 0.0066998065 0.056339115
0003d0 55 22 b7 3c ca 05 6b 3c 16 25 22 b9 be 05 aa 3d
       0.022355238 0.014344642 -0.0001546334 0.083018765
0003e0 5d cd 47 bc 2e 55 02 3d ba 97 b4 3c 9f 4f f9 3c
       -0.0121949585 0.031819515 0.022045005 0.030433474
0003f0 3b 1e 33 bc cd 2c 15 bc e1 2f 0c 3c 00 40 3e 3d
       -0.0109325005 -0.00910492 0.008556337 0.046447754

network_body._body_endoder.seq_layers.0.weight f4 [256, 29]
000000 df 2b 8f 3d 06 25 5a 3e 7a 19 4f 3d 8f fa 90 3e
       0.069907896 0.21303186 0.050561406 0.2831616
000010 38 ed 05 3e 76 f7 ea 3e 6f 68 28 3d ea 24 e2 3c
       0.13078773 0.45891923 0.04111522 0.027605493
000020 f4 5b 97 be 49 d5 6c 3e 90 b3 9b bb 9a 63 f8 bc
       -0.29562342 0.23128237 -0.00475163 -0.030320931
000030 4f 40 d8 3e ed a7 b1 bd e8 db 4f 3e 29 2b f1 3c
       0.42236564 -0.086746074 0.20298731 0.029439526
000040 f9 2a 19 3e 1b 34 9a 3c 1d 49 d1 bd 8c ac b8 3d
       0.14957799 0.018823674 -0.102190234 0.09017286
000050 62 c5 9e be 26 00 ef bc cc fa 50 3e 87 54 19 be
       -0.31009966 -0.029174875 0.20408171 -0.14973651
000060 ce b7 60 be 79 11 2d 3c a7 ee 5e be 41 41 a4 3d
       -0.21945116 0.010563248 -0.21770726 0.08020259
000070 2e 51 a9 3c c1 34 7a 3e 77 f4 55 be 9f 35 74 3d
       0.020668592 0.24434187 -0.20894037 0.05962145
000080 2a 8a 8d 3e b7 f9 43 3e 39 6d 1c bd 0b 1c 9e 3c
       0.27644473 0.19138227 -0.0381901 0.019300481
000090 e3 53 23 3d f2 e9 56 be c8 18 40 3e 43 42 92 3e
       0.039874922 -0.2098768 0.18759453 0.2856618
0000a0 40 b6 a5 3b 4e ac e1 bd 29 b8 84 3e 1d 86 70 3c
       0.0050571263 -0.11019193 0.25921753 0.014680413
0000b0 70 04 a4 be 50 ab 4d bd 24 4e 55 3e 75 aa 9f bd
       -0.32034636 -0.050212204 0.2083059 -0.07796184
0000c0 e2 b2 1a 3d 06 fa aa 3d f6 23 6f 3d b6 9b 2a 3c
       0.037768252 0.083484694 0.058383904 0.010413101
0000d0 3b 79 ab bd 48 12 7f 3d a1 24 4a bd bf 10 1e 3e
       -0.08372732 0.062273294 -0.04935134 0.15436076
0000e0 87 a7 1f 3e 30 b4 68 bd 77 dd 32 3e 52 98 84 3e
       0.1559125 -0.056812465 0.17467295 0.2589746
0000f0 1e b8 54 3e 8b a4 87 be f1 ce 20 3e e9 9e 92 3e
       0.2077336 -0.26492724 0.15703942 0.28636864
000100 bc 3e de be b6 e9 e4 3d ed e4 08 bd d1 a3 b4 be
       -0.43407238 0.11177389 -0.033421446 -0.35281232
000110 ae 19 92 bd 11 a3 05 3e 86 bb 94 3e cf 01 c9 3d
       -0.07133804 0.13050486 0.2904932 0.09814798
000120 e3 86 a8 3e e1 02 90 3e 37 f8 aa be 59 d0 ae bc
       0.3291541 0.28127196 -0.33392498 -0.021339582
000130 e0 ea 24 3d c9 74 ea bd 51 02 88 3e 66 1f fc 3c
       0.040263057 -0.11448056 0.26564267 0.03077669
000140 da 19 4d bd 66 59 72 3c db c8 17 be 2b 15 91 bc
       -0.050073482 0.014791822 -0.14822714 -0.017710289
000150 16 80 13 3c c9 81 5d be d3 c9 7e 3e 4f a3 23 be
       0.009002706 -0.2163154 0.24881677 -0.15980266
000160 a4 44 a2 3e ea 23 8b 3b 30 b1 51 3e 94 52 f8 bc
       0.31692994 0.0042462246 0.20477748 -0.030312814
000170 71 a7 26 be ec 22 1a be 1f 4b de bd 0f b5 c2 bc
       -0.16274811 -0.15052384 -0.10854172 -0.023767976
000180 bb 4b 09 3d e5 a0 1c 3e db a7 8e 3d c4 df 63 be
       0.033519488 0.15295751 0.0696561 -0.22253329
000190 fc 1d 31 3e 44 a6 f2 bd c9 0d 4e 3d 12 7c a0 bd
       0.17296594 -0.11848119 0.050306115 -0.078361645
0001a0 9c 64 00 3d 2d 1d fa 3e 62 d4 61 bd 91 26 de 3d
       0.03134595 0.48850384 -0.055134185 0.108472
0001b0 33 a0 e7 be ce c3 0c 3e eb 5e b2 bd a3 3c 0d 3e
       -0.4523941 0.13746569 -0.087095104 0.13792662
0001c0 8c ab 35 3e 0e 0e c3 bd 9c ec 48 be a7 0a 8d 3e
       0.17741221 -0.09524165 -0.1962151 0.2754719
0001d0 b4 a6 18 3c 96 28 4c 3e 4b d8 12 3e ea fe 0b 3e
       0.009317089 0.19937357 0.14340322 0.13671461
0001e0 67 01 a1 bd 0b 93 a4 3d ba ea 07 be 81 2d 96 3e
       -0.078615956 0.08035859 -0.13273135 0.29331592
0001f0 fa 80 3f be 68 8a 8f be 90 4e ad 3e 65 a0 bb 3d
       -0.18701544 -0.28035283 0.33849 0.09161452
000200 c1 27 b2 3d e0 55 40 3d f3 5e d6 3d 1e 28 1f bd
       0.08698989 0.046956897 0.10467329 -0.038856618
000210 e3 98 8a be 90 54 2f be 3c 6a ae 3d f1 b6 4a 3e
       -0.27069768 -0.17122102 0.08516356 0.19796349
000220 a1 dd 36 be 6a 82 09 be e6 ac 1f be 81 6f 80 3e
       -0.17857982 -0.13428655 -0.155933 0.2508507
000230 c2 68 65 be 04 a6 9e bd d9 37 1f be 0e 98 4f 3d
       -0.22403243 -0.07746509 -0.15548648 0.05068212
000240 dd e9 1a be bb 20 c8 3d 54 e5 bb bc 4d b8 15 bd
       -0.15128274 0.09771868 -0.0229365 -0.036552716
000250 49 0e 16 3e 8b af 6e 3e 1d b0 9f 3d 6a c7 6d bd
       0.14653887 0.23309152 0.07797263 -0.058051504
000260 c3 15 de 3d 05 9d 8a 3d 69 e2 77 be 1e 86 ff bd
       0.108439945 0.0676823 -0.24207462 -0.12476753
000270 3c 06 06 3d 67 b4 82 be 61 5e cd 3e 14 7f 8d 3e
       0.03272079 -0.2552826 0.40111068 0.27636015
000280 0a ca 95 3e fc 6a 20 be cc b8 07 bd 34 40 92 be
       0.29255706 -0.15665811 -0.03313522 -0.28564608
000290 50 4d 36 be 7a bb 8c 3e 12 77 1f be 6c 34 7e be
       -0.1780293 0.27486783 -0.15572765 -0.24824685
0002a0 f7 cb 25 be e8 af 77 be 50 66 6a 3e 61 18 95 be
       -0.16191088 -0.24188197 0.22890592 -0.29120162
0002b0 18 c8 91 3e 1c 5c 33 be a9 80 b8 3c 3a 6d 54 be
       0.28472972 -0.17515606 0.022522287 -0.20744792
0002c0 1b 5f 5a 3e ac 54 18 be db 17 d5 3d 2a d7 80 be
       0.21325342 -0.1487605 0.10404941 -0.25164157
0002d0 c1 ad 93 3e 1c a2 40 3b 5f bd ce 3d 7b 40 01 be
       0.288435 0.00293935 0.100947134 -0.12622254
0002e0 8e 2f fd 3c 33 ce 1c be b5 c0 d1 3d 45 a7 91 3e
       0.030906465 -0.15313034 0.10241834 0.2844793
0002f0 37 81 12 be 66 11 ec 3c fa 8d 32 3d 83 99 0a be
       -0.14307104 0.02881689 0.04359243 -0.13535123
000300 59 45 80 ba f9 1d f0 3d ef 22 cd 3e e8 41 74 be
       -0.0009786292 0.11724467 0.40065715 -0.23853266
000310 52 95 a0 3d 93 08 69 3e 1e fb 86 3e b4 dd 92 3e
       0.078409806 0.22757177 0.26363462 0.2868477
000320 7f a1 78 3d 36 ec 26 3e 98 0d 2e 3c 5f 2e 77 3c
       0.06070089 0.16301045 0.010623358 0.015086739
000330 d1 02 e1 3d b2 d7 2a 3e e9 8c 01 3e aa 81 9a 3d
       0.10986865 0.16683844 0.12651409 0.07544263
000340 c2 ee 1c 3e 09 99 68 3e 6e 95 94 be 1f 05 ef 3d
       0.15325454 0.22714628 -0.29020256 0.11670899
000350 84 3d d7 3e 70 6a 98 3e 61 a6 a1 bd 96 cf 32 3e
       0.4203912 0.29768705 -0.078930624 0.17462
000360 70 89 b8 bd 25 0b 45 3e f9 da 5e 3e 39 30 75 be
       -0.09010589 0.19242533 0.21763219 -0.23944177
000370 b8 bb fa bd 58 6b ff 3d 7d 3c 30 3e da c3 2f be
       -0.12242836 0.12471646 0.17210574 -0.17164555
000380 0e 2a 94 3e 63 a4 49 be 45 40 e0 3d 92 c6 80 3e
       0.28938335 -0.19691615 0.109497584 0.25151497
000390 46 15 b0 bd 15 22 0f bd d1 30 d3 bd 1c ef e0 bd
       -0.085978076 -0.034944613 -0.10312045 -0.109831065
0003a0 46 47 81 3d c5 71 b7 3b ff fb e1 3d 45 a1 a4 bd
       0.063124225 0.005598279 0.110343926 -0.08038572
0003b0 be 2e 0d bd 81 5f 82 bd 5d dd 82 be 10 e0 a7 bc
       -0.034468405 -0.06365872 -0.25559512 -0.020492584
0003c0 56 95 c7 bd e1 fb 37 be 76 12 8a 3e d4 26 f0 3d
       -0.097452804 -0.17967178 0.2696721 0.11726156
0003d0 91 ec 41 3e 77 ec 33 be cc a2 88 3c 9d 2e a0 be
       0.18937899 -0.17570673 0.01667919 -0.31285563
0003e0 6b 3f 68 be 2c ba 57 3e a7 29 10 3c 27 f0 21 be
       -0.22680442 0.21067113 0.008798993 -0.15814267
0003f0 45 d0 c0 bc f9 b4 58 3d d7 d4 81 bd a9 6a df bd
       -0.02353681 0.052906964 -0.06339424 -0.10909016
