ml-agents-release_20/Result/Dino/Dino03/Dino/Dino-499942.onnx (onnx, 34598 bytes, 4 tensors)

action_model._discrete_distribution.branches.0.bias f4 [2]
000000 68 af ce 3a 5c af ce ba
       0.0015768828 -0.0015768814

action_model._discrete_distribution.branches.0.weight f4 [2, 256]
000000 5e fc 24 bd b6 5b 7b 3c f1 a3 f1 bd 8c c4 f7 3c
       -0.04027974 0.01534169 -0.117988475 0.030245088
000010 3d 63 2d bc 6b f8 82 3c 3a 0d 74 3d 36 35 72 bc
       -0.010582742 0.015987596 0.059582926 -0.014783194
000020 0f be 13 bd ae ae 8b bb 1a db 0d 3d 26 eb 00 bc
       -0.036069926 -0.004262767 0.03463278 -0.007868564
000030 f7 67 48 3d 8b 41 b1 3b e2 ca c7 3b fd ae b8 3b
       0.048927274 0.0054094247 0.0060971836 0.0056360946
000040 65 fb 30 3d 52 d7 8f bd 1e 41 20 3d ff cc 98 bc
       0.0432085 -0.07023491 0.0391246 -0.018652437
000050 79 a1 41 bd 8b 4f b7 3c 5b 14 5e bb bb 9d e9 3c
       -0.047273133 0.022376796 -0.0033886645 0.028517595
000060 c3 04 ca bd dc e2 72 bd 9a 82 2f 3d 3d 1a f1 bc
       -0.098641895 -0.05929838 0.04284916 -0.029431457
000070 32 a3 4f 3b b5 ad 6c bd 8f 3e f7 3d 1a ce ab 3d
       0.0031682965 -0.057782847 0.12072479 0.0838892
000080 38 10 bd 3d f6 9f 81 bc fb 49 cc bc ad 39 c2 3b
       0.09231609 -0.015823346 -0.02493762 0.0059272856
000090 81 34 eb bb 21 b7 e1 bd 17 b3 2f bd eb 98 05 3e
       -0.00717789 -0.11021257 -0.042895403 0.13046615
0000a0 01 cc 00 bd 28 9a 8d 3d 39 40 15 3d 5e e3 86 3b
       -0.031444553 0.069141686 0.0364382 0.0041164597
0000b0 d6 0c a9 3d 69 3a e1 bc fc aa ad 3d 65 36 24 bd
       0.082544014 -0.027493672 0.08479878 -0.040090937
0000c0 e1 74 d1 3d 85 0f 4c bc 78 5c b9 bd c8 55 d0 bc
       0.10227371 -0.012454872 -0.0905084 -0.025431529
0000d0 90 27 45 3d 5e 71 49 bd 58 ac 77 bd 33 a0 12 bd
       0.048133433 -0.04918038 -0.060467094 -0.03579731
0000e0 6f 55 ae 3c 1d 28 34 bd 53 e1 06 3b a3 26 f6 3c
       0.021280972 -0.043983568 0.002058108 0.03004772
0000f0 f0 eb 7a bd d4 98 f6 3d 2f a8 d3 bc e3 b2 9e bc
       -0.061260164 0.120408684 -0.025837032 -0.01937241
000100 68 4e 66 bd b9 87 a2 bd 29 99 d7 3c d6 ce 13 bd
       -0.056227118 -0.07936043 0.02631815 -0.036085926
000110 ec fa fc 3d 02 4d 83 bc 99 d4 0e bd 07 83 ea bc
       0.12352547 -0.016027931 -0.034870718 -0.028626932
000120 a9 f1 c4 3d 30 ea 15 bc b0 6e 30 bd c3 01 d1 3d
       0.096164055 -0.009150073 -0.04307431 0.10205414
000130 f4 d0 c7 bd 75 5a 0b 3d c8 9f ea 3d 01 01 a1 3d
       -0.097566515 0.034021813 0.11456257 0.078615196
000140 4a 7b cb 3b 3d 65 3a bc 64 6e 15 bd 02 cb d0 bc
       0.0062097656 -0.011376676 -0.03648223 -0.025487427
000150 3b f0 8c 3d 89 23 68 3d b5 d7 9a 3c 58 61 0e bd
       0.06881758 0.056674514 0.018901685 -0.034760803
000160 a5 cb 80 3d ed c0 ca 3c 09 1f 9b bb e5 69 e8 3c
       0.06288842 0.024750197 -0.0047339243 0.028370807
000170 b8 ce 2a bd 32 10 65 3c 6c 17 2a bd 88 93 0c 3d
       -0.04170105 0.013980912 -0.041526243 0.034320384
000180 86 54 ae 3c cc bd 9d bc 69 ff 0c 3b d1 b5 ac 3d
       0.021280538 -0.019255541 0.002151454 0.08433116
000190 83 1b 8c 3d 22 f4 ae 3b 1c f2 24 3d 01 77 9e 3d
       0.06841185 0.0053391615 0.040269956 0.07737542
0001a0 3a 5d d2 3d 09 e0 d7 bc 68 87 f3 3c 24 f2 8a bc
       0.10271688 -0.026351945 0.029727653 -0.016961165
0001b0 40 15 a2 bd 6c aa 38 bb 2e 87 5b bb 6c 3c 57 bd
       -0.07914209 -0.0028177751 -0.0033497321 -0.052547857
0001c0 95 76 d9 3a 96 21 3e bd 44 6f f2 3d 87 63 c8 bc
       0.0016591126 -0.04641875 0.118376285 -0.02446152
0001d0 f2 2d b1 bc e5 2f a3 bd 3f 51 4b bb ce 4f 3c 3d
       -0.021628354 -0.079681195 -0.0031023768 0.045974545
0001e0 c5 ec 1d bd 91 4d 96 bd 88 c7 af bb 1a 4c a9 bc
       -0.03855588 -0.07339013 -0.005364362 -0.02066617
0001f0 ac b6 d3 bb e9 42 87 bd 3c 9c b5 3d 69 e4 38 bd
       -0.006460985 -0.06604559 0.0886769 -0.045139704
000200 d5 ef b8 bc eb 2c be 3c 98 cf 22 3d b4 15 d0 bd
       -0.022575298 0.023214778 0.039748758 -0.101603895
000210 f0 a9 a0 3d 05 4e f3 bc ff d3 82 bd de 48 e3 bc
       0.07844913 -0.029700289 -0.06388091 -0.027744707
000220 ee 7c 96 bc a1 43 f6 bc 60 83 a0 3c 73 ae 64 3d
       -0.018370118 -0.030061545 0.019593894 0.05583043
000230 14 9a 88 bb 84 b9 d3 bb 62 65 bd bc ce c4 7e bb
       -0.004168758 -0.006461324 -0.023119632 -0.003887463
000240 ca d5 f3 3c e7 20 75 3d 75 5d cc bd 3c 9a 8f bd
       0.029765029 0.05984583 -0.09978763 -0.0701184
000250 07 1b 4e 3d 4c ab b2 3a 4d 8d d0 bd 74 a8 4e 3d
       0.050318744 0.0013631373 -0.10183201 0.05045362
000260 c1 76 17 bd 1d 3e 06 be 27 19 18 3c b5 72 92 3d
       -0.036978487 -0.13109632 0.009283341 0.07150785
000270 15 dd 93 3d e9 2e 93 3c 47 ed 1b 3c 72 f0 b1 bc
       0.072199024 0.017966704 0.009517021 -0.021721099
000280 10 5c 91 3c 63 87 db 3d 0e b4 00 3d 06 e3 e6 3d
       0.017744094 0.10719182 0.031421714 0.1127377
000290 f1 1c bf 3c e4 4a 8e 3d 9c 2c 07 bc 81 45 d3 3d
       0.02332923 0.06947878 -0.008250382 0.10315991
0002a0 2a c4 52 bc 1a d2 b6 3c bc 96 ab bc 63 82 b5 bc
       -0.012864152 0.022316981 -0.0209459 -0.0221569
0002b0 94 74 a0 3d ee e1 40 bd 65 60 f5 3d b0 8c 3b bc
       0.078347355 -0.047090463 0.119812764 -0.011447117
0002c0 ac 32 9b bd a2 9e 5d 3d 0d 29 66 bd 73 15 c9 3c
       -0.07578024 0.054106362 -0.056191493 0.02454636
0002d0 84 ab fd bb b4 16 24 bc d7 c9 0d bc f7 79 9e ba
       -0.0077413935 -0.0100151785 -0.008654079 -0.0012090792
0002e0 25 72 87 3c 56 6a 26 bd 88 74 90 bd dc d2 2e bd
       0.01653392 -0.040628754 -0.070534766 -0.04268156
0002f0 6b 11 b3 bc 4a 3a 7a 3d 10 2b a6 bd 71 94 8e bc
       -0.021858891 0.061090745 -0.08113682 -0.017404767
000300 a7 20 63 bd c9 33 2c bd a2 bf be 3c 1c c5 7a bd
       -0.05545106 -0.042041574 0.023284737 -0.061223134
000310 ab dd 88 bd 29 eb 82 bc 9c 81 35 bd cb 3f 3b bd
       -0.06682905 -0.015981274 -0.04431306 -0.045715135
000320 cf 95 db 3d 9b d8 f3 3d aa 57 90 3d d9 8e a6 3d
       0.10721933 0.119065486 0.070479706 0.08132715
000330 ee cd 06 bd bb 21 08 3d 56 3d 32 bc b8 6a 7a 3d
       -0.032911234 0.033235293 -0.010878881 0.06113693
000340 bf 3d 66 bd 68 5e 9e bc 6c 88 db bc 17 b2 bd bd
       -0.05621123 -0.019332126 -0.02679845 -0.092624836
000350 fa 15 ab 3d 23 71 d4 3c 23 e0 f4 bc db 11 95 3d
       0.08353801 0.025932854 -0.029892033 0.07278796
000360 1c a7 b4 3c fd 53 19 bc e7 03 45 3c 6c 54 16 bd
       0.02205234 -0.009358403 0.012024856 -0.036701605
000370 df d8 78 bb c2 a7 36 3d 76 de 6d 3d 37 47 16 bd
       -0.0037971062 0.04459358 0.058073483 -0.03668901
000380 86 36 e3 bb 73 35 54 bd 4f 18 79 3a 70 30 85 bd
       -0.00693399 -0.051808786 0.00095022185 -0.06503379
000390 83 4e d2 3d 03 2f 03 bd a0 52 4c bb 40 dc 07 3d
       0.10268881 -0.032027256 -0.0031177178 0.03316903
0003a0 71 7b f8 bc 7b 55 36 bd 3a 89 f4 3c 6d 16 8b bb
       -0.030332299 -0.044515114 0.029850591 -0.0042446167
0003b0 bd 2c 01 3e 98 fe 69 bd ff 12 d4 3c 5f 9d 0b 3d
       0.12614723 -0.057127565 0.025887964 0.034085628
0003c0 b4 81 4a 3d 73 cb 98 bc 7d d4 ce bc 40 25 b4 3d
       0.0494401 -0.0186517 -0.025247807 0.087961674
0003d0 a3 3a 9e 3d fe a0 95 3c 49 03 ef bc 14 67 d9 3d
       0.07726028 0.018265244 -0.029176371 0.10615364
0003e0 c1 a2 b0 bb b6 65 2f 3c f7 cc 3a bd 10 0e 03 be
       -0.0053904955 0.010705402 -0.045605626 -0.12798333
0003f0 ca 77 6f bc 2b f3 ed bc 26 d9 f6 bc 53 ef dc 3c
       -0.014615962 -0.029046616 -0.030132841 0.026969587

network_body._body_endoder.seq_layers.0.bias f4 [256]
000000 f4 f2 e7 3c 2a bd aa bb a7 bf d1 3c c0 cc 88 3c
       0.028314091 -0.0052105384 0.025604082 0.016699195
000010 46 29 8c bb 78 e9 7c 3c 2a 5b f6 3c c4 ba 80 bb
       -0.004277381 0.015436523 0.030072767 -0.003928514
000020 97 eb 85 bb 7b e2 ea 3c c8 e3 a7 3d 02 c6 3b bc
       -0.0040869224 0.028672447 0.08197743 -0.011460783
000030 eb 73 21 3c f4 37 f3 ba b9 95 2c 3d 57 f9 f0 3c
       0.009854297 -0.0018556104 0.042134974 0.02941577
000040 82 72 62 3c db 9a 93 3d 08 52 52 3c 76 3b 9f bb
       0.013821246 0.07207271 0.012836941 -0.004859383
000050 ba ca 8e 3b 2a 8a 7a 3d 9e bb 5c bc ea dd 3e 3c
       0.004357663 0.06116692 -0.013472466 0.011649588
000060 5a cf 00 3d 3f 5f 9c 3c 8b 96 ad 3c f3 a6 cf 3b
       0.031447746 0.019088386 0.021189949 0.0063370406
000070 69 08 ac ba 8c 85 f4 3b 92 d3 52 3d 2a c5 de 3c
       -0.0013125065 0.007462209 0.0514713 0.027193625
000080 99 24 4c 3d 83 15 15 bd 94 8a 7a bb 10 6c 68 bb
       0.04983959 -0.03639747 -0.0038229572 -0.00354648
000090 14 44 77 ba 5e 0e 87 3c 16 fa 15 3d 66 ad 37 3d
       -0.00094324467 0.016486343 0.036615454 0.0448431
0000a0 d0 8f 48 b9 35 a8 15 3d 6a ea da 3c ff 05 15 3d
       -0.0001912706 0.036537368 0.026723105 0.03638267
0000b0 37 9b cf 3c 81 62 68 3a 7d a4 03 3d ba ea a6 39
       0.025342567 0.0008864776 0.03213929 0.00031836872
0000c0 6c 2f 44 3d 1e 50 20 bb 09 92 d1 3c c1 7c 1b 3c
       0.047896788 -0.0024461816 0.02558233 0.009490193
0000d0 c8 00 27 3d a5 ee 92 3c 59 85 b6 3c 65 69 2c 3c
       0.04077223 0.01793606 0.022280382 0.010523175
0000e0 27 6d 41 3c b6 13 ce 3b ba 10 2f 3c 9c 09 2b 3c
       0.011805809 0.006288971 0.01068514 0.010439303
0000f0 a6 89 cd 3c b7 c9 7f 3d 97 9e 92 bb 34 b2 63 3c
       0.02509005 0.06244823 -0.004474472 0.013897467
000100 97 1e 21 3c b5 97 76 3c 94 02 1e 3b 61 f3 12 3c
       0.009833953 0.015050818 0.0024110423 0.008969159
000110 1a aa 33 3d de e0 95 ba 5f 3c a8 3c 9b 92 d7 3a
       0.043863393 -0.0011434813 0.0205366 0.001644689
000120 6d 5e 24 3d b1 1f 10 39 2f b8 38 3c 23 25 21 3d
       0.040129114 0.00013744716 0.011274382 0.039342057
000130 14 7e 21 3d 17 8e 36 3d 07 ca 3f 3d a5 4f bb 3c
       0.039426878 0.0445691 0.046823528 0.022865126
000140 d4 08 5d ba 21 f9 6b bb 93 12 c1 3c 7c 08 b9 bb
       -0.00084317965 -0.0036006647 0.023568427 -0.0056467634
000150 3c 26 01 3d 5a 88 4e 3d de 06 83 3b 17 f5 ea 3b
       0.031530604 0.050423004 0.0039986214 0.0071703303
000160 00 57 d7 3d ac 75 ca 3b f1 d9 9f bb 0e 9d 4e 3c
       0.10514641 0.0061785784 -0.0048782756 0.012610687
000170 63 91 38 3c 6e 91 a3 3c 31 45 27 3b a1 c8 8a 3c
       0.011265132 0.019966807 0.002552342 0.01694137
000180 1d e8 95 3b cc 06 de 3b b2 ee ef bb 59 34 02 3d
       0.004574789 0.0067757126 -0.007322156 0.031788204
000190 60 a9 0a 3d f1 87 1e 3c 6b de df 3c 74 67 fe 3c
       0.033852935 0.009675966 0.027327737 0.03105519
0001a0 ae ce b8 3d 70 33 2d 3b 7b 72 ee 3c a9 47 f8 3c
       0.09023796 0.0026428364 0.029107323 0.030307608
0001b0 99 62 27 3d 82 70 48 bb 29 7d 93 3c 32 d9 b9 3b
       0.040865514 -0.0030584638 0.018004017 0.0056716437
0001c0 3b e0 af ba bc 64 88 3b 88 a2 65 3d 03 6f b9 3b
       -0.0013418266 0.004162399 0.056063205 0.0056589856
0001d0 65 4a 30 bc 61 a6 9d 3c 33 a4 1f bc ba 08 ac 3c
       -0.010759925 0.019244375 -0.009743738 0.021000255
0001e0 92 d4 73 3a 1a 3d 9a 3c 6a 05 a9 bb d1 4d ef 3c
       0.000930139 0.018827964 -0.005158116 0.02921191
0001f0 dd 0b b6 bb 32 f5 cf 3c 58 33 ee 3c ef 44 12 3c
       -0.0055556134 0.025385473 0.029077217 0.008927568
000200 91 9f bf 3a cf 4f b6 3b 8f 80 12 3c 94 25 b1 3c
       0.0014619698 0.005563713 0.008941784 0.021624364
000210 05 43 09 3d 96 3d 5a 3c 76 2c 16 3d 3b 7c d5 3c
       0.03351118 0.013320347 0.036663495 0.026060214
000220 7f c9 31 3d 2c 53 a1 3c b8 37 19 3d 4b f1 2c 3d
       0.043405052 0.01969298 0.037406653 0.042222302
000230 00 b5 89 3b 9d a9 20 3c e4 9f 2c 3d 8e 8f 1a bc
       0.004202485 0.009806064 0.04214467 -0.00943364
000240 90 6f 98 3c 94 0f 2b 3d eb 0c 1f 3d 3c 1c f5 3c
       0.018607885 0.041762903 0.03883068 0.02992069
000250 a4 b1 16 3d 2b 78 00 bc 95 fe aa 3c 9e d4 6d 3d
       0.036790505 -0.00784115 0.020873347 0.058064096
000260 7f fa 3f 3c f9 38 72 3d 96 a4 03 38 4c 21 0f 3d
       0.011717438 0.059136365 3.1386116e-05 0.034943864
000270 79 d0 19 3d 82 63 6f 3b e3 0d a3 bb e6 79 94 38
       0.03755233 0.0036527817 -0.0049760207 7.079895e-05
000280 11 dc 95 bb 46 74 15 3d 31 12 9b 3c c8 ff 34 3d
       -0.004573353 0.03648784 0.018929573 0.044189245
000290 32 77 00 3c db 9e e5 3c 67 c4 ae 3a 92 2a a2 3d
       0.007840918 0.02802985 0.0013333679 0.07918276
0002a0 26 a4 85 ba 4e 0d 2c 3b 2c 7a ae 3c fb b7 c9 bb
       -0.0010196015 0.0026253047 0.02129849 -0.0061559654
0002b0 5e 17 c8 3c 2e f4 63 3c ed 6a 26 3d c1 82 47 3c
       0.024425205 0.013913197 0.040629316 0.01217717
0002c0 6e 3c f1 3c 9a 8b 1c 3d 18 55 39 3d 8e 76 22 3c
       0.02944776 0.038219072 0.045247167 0.009915961
0002d0 68 4f 70 3b 66 89 a0 3c c5 65 9b bb 52 1b 95 bb
       0.0036668424 0.019596767 -0.0047423565 -0.004550376
0002e0 12 02 dd ba 78 ad 72 3d f1 eb 34 3c 37 d8 08 3c
       -0.0016861579 0.059247464 0.011042581 0.008352331
0002f0 4f 9d 1a bb 6a 78 de 3c 8e 2a b8 3c 1b 2c 0f 39
       -0.0023592298 0.027157027 0.02248123 0.00013653973
000300 9c 77 c6 3b c1 62 28 3c 00 9a 91 3b 03 b0 96 3b
       0.006056739 0.010277451 0.004443407 0.004598619
000310 bd 11 a8 3c 17 50 a0 3b 4d a5 d8 3c 23 4f d8 3b
       0.02051627 0.00489236 0.026446009 0.0066012307
000320 be bb 0d 3d 27 5e 35 3d e9 3e c4 3d 8c d9 50 3d
       0.034602873 0.044279244 0.09582312 0.05098872
000330 57 b0 72 3c ac f3 6f 3c 60 f8 9d ba 49 16 dc 3c
       0.0148125505 0.014645498 -0.0012052171 0.026866095
000340 7a ea ac 3c 6b a2 2c bb f3 63 11 3d 42 75 de 3c
       0.0211079 -0.0026341926 0.03549571 0.027155522
000350 1e c7 f9 3c 0d dd 87 3a 45 d1 bd 3b ef 52 c6 3c
       0.030490454 0.0010365561 0.005792769 0.024209468
000360 3e 2a ce 3c b1 f1 fe bc b9 9b 85 ba 9c ba 5c 3d
       0.025166627 -0.031121107 -0.0010193504 0.053888902
000370 53 c9 c2 3c d5 86 94 3c 4d 1f f9 3c 87 11 a9 bb
       0.02377764 0.0181307 0.030410433 -0.00515956
000380 cd a7 dc bb 5b 46 ac 3c d7 b2 ed bc 92 82 00 3d
       -0.0067338706 0.021029642 -0.029015942 0.03137452
000390 63 f2 d5 3d d9 6b 34 3b a8 38 47 bb c6 cf e7 3c
       0.10446622 0.0027530103 -0.003039876 0.028297316
0003a0 85 53 ae 3b 12 ec 86 3b 3b d7 1b 3c 36 0a 56 bc
       0.005320015 0.0041174972 0.009511764 -0.013063958
0003b0 47 6b d3 3d 22 01 7b 3c f8 f1 e2 3c 66 68 2a 3d
       0.10323196 0.015320094 0.02770327 0.04160347
0003c0 25 c7 ae 3c db 75 90 ba d6 5b 86 3b 60 f1 60 3d
       0.021335194 -0.0011021452 0.004100303 0.054917693
0003d0 28 57 c6 3c 27 fd 92 3c 41 fd 7c 3a 4d 16 92 3d
       0.024211481 0.017942978 0.0009650775 0.0713316
0003e0 b5 4a 31 bc d9 7d a3 3c 38 e7 9b 3c 67 b2 df 3c
       -0.010821034 0.01995747 0.019031152 0.027306749
0003f0 99 dc 19 bc 6b 6c 0f bc b1 d5 79 3b 5f bd dd 3c
       -0.0093909735 -0.008753876 0.0038121755 0.027067838

network_body._body_endoder.seq_layers.0.weight f4 [256, 29]
000000 bd 7b b2 3d 5c d1 8d 3e 21 f0 04 3d 6f eb 87 3e
       0.087150075 0.2769879 0.032455567 0.2654681
000010 fc 72 21 3e 69 a6 dd 3e ed 90 41 3d c9 04 14 3b
       0.1576652 0.43291023 0.047257353 0.002258586
000020 8b 4b 94 be 80 91 5d 3e c8 51 95 bc e1 2c 38 bd
       -0.28963885 0.21637535 -0.018227473 -0.044964675
000030 98 34 b0 3e 25 8b a3 bd fb 10 42 3e 34 e7 3a 3c
       0.34415126 -0.07985524 0.1895179 0.011407662
000040 27 b8 1e 3e ad cf d6 39 e4 22 ec bd 26 1b 9c 3d
       0.15499936 0.0004097199 -0.11530092 0.07622366
000050 86 31 8a be 6c 35 49 bd d2 ef 14 3e 96 6b 30 be
       -0.26990908 -0.049123213 0.14544609 -0.17228541
000060 aa 13 85 be 44 71 d3 3b 81 5b 6c be 63 01 88 3d
       -0.25991565 0.0064527113 -0.23081781 0.066408895
000070 2e 51 a9 3c 02 e5 6a 3e a0 a4 81 be 9f 41 87 3d
       0.020668592 0.22938922 -0.2532091 0.06604313
000080 8b 8b 90 3e 94 7f 2e 3e fb 45 8f bc 39 c1 73 bb
       0.28231463 0.17040855 -0.017489424 -0.0037194027
000090 b2 ff 24 3d 10 e6 5b be fb d4 48 3e 0e 34 94 3e
       0.040282913 -0.2147448 0.19612496 0.28945965
0000a0 91 f8 19 3c 6d 9b 3c bd 83 4c 81 3e ad a5 1d 3c
       0.009397642 -0.046046663 0.25253686 0.00962202
0000b0 e7 de a6 be 43 b5 60 bd e7 96 62 3e 1a 64 98 bd
       -0.32591936 -0.054860365 0.22127877 -0.07440968
0000c0 82 fb 2a 3d eb 63 f8 3c 3a a2 a2 3d 52 fb 6f 3d
       0.041743763 0.030321082 0.079410985 0.058589287
0000d0 f3 af ae bd 8e fc a6 3d a3 58 53 bd e2 b3 21 3e
       -0.085296534 0.0815364 -0.051598202 0.15791276
0000e0 29 a4 23 3e 30 b4 68 bd eb 6c 3d 3e 4a 3f 9a 3e
       0.15980591 -0.056812465 0.1849858 0.3012641
0000f0 82 6f 53 3e 41 2d 88 be 07 b5 31 3e 01 f9 88 3e
       0.20648006 -0.26597026 0.17354213 0.26752475
000100 b2 c4 cd be 8d 71 f6 3d 64 1b eb bc f6 0d b0 be
       -0.4018913 0.12033377 -0.028699584 -0.3438565
000110 bc e3 90 bd d8 c5 05 3e 50 d0 6c 3e ba 33 e5 3d
       -0.07074687 0.13063753 0.2312634 0.11191507
000120 9c 5a b3 3e e5 e0 98 3e 3d 95 a8 be 0d 16 87 bc
       0.35030067 0.2985908 -0.3292636 -0.016490007
000130 4a 68 28 3d 6a 7e e9 bd 75 7a 9f 3e 34 2d 3b 3c
       0.041115083 -0.11401065 0.31148115 0.0114243515
000140 6b 4f bb bd a2 1d e8 3c ad 6b 1e be 62 9f d0 ba
       -0.09146007 0.028334443 -0.15470763 -0.001591664
000150 d4 75 21 3c 60 f3 5c be d3 c9 7e 3e 63 fd 32 be
       0.009854753 -0.21577215 0.24881677 -0.17479472
000160 51 a3 85 3e a9 5c cf 3a 0b 28 4f 3e 0d 1b 64 bd
       0.26101163 0.0015820462 0.20230119 -0.05568986
000170 68 74 19 be 94 33 2f be 3f da ea bd 43 86 ec bc
       -0.14985812 -0.17109519 -0.114674084 -0.028872615
000180 54 1d 22 3d 2c 75 17 3e 29 dc 85 3d 86 86 1f be
       0.03957875 0.14790791 0.06536133 -0.1557866
000190 1a 7f 1d 3e 35 97 f5 bd 1d fa 27 3d db 26 aa bd
       0.15380517 -0.11991731 0.04101001 -0.08308192
0001a0 ad 44 2d 3d 9a 57 f7 3e 3a 8d 75 bd bd 54 28 3d
       0.042301822 0.48309022 -0.059949137 0.041096438
0001b0 bf 46 dd be 35 6f 42 3e c0 6e b9 bd 6f a5 33 3e
       -0.43218037 0.18987735 -0.09054327 0.17543577
0001c0 c3 de 2f 3e 4e 24 ce bd 80 f9 4d be a7 0a 8d 3e
       0.1717482 -0.10065518 -0.20114708 0.2754719
0001d0 65 c5 de 3c 86 7b 5f 3e 83 64 1c 3e f0 ff 15 3e
       0.027193734 0.21824464 0.15272717 0.14648414
0001e0 dc fd 76 bd 54 57 a4 3d 6a a6 f4 bd ec 33 9b 3e
       -0.060300693 0.08024469 -0.119458035 0.3031305
0001f0 c6 f3 3d be 9d 33 8c be 35 88 b2 3e d4 fc cf 3d
       -0.18550023 -0.27383128 0.34869543 0.10155645
000200 28 32 47 3d cb 99 7b 3d 7f b2 f2 3d e2 c9 d1 bc
       0.048631817 0.061425965 0.11850452 -0.02560896
000210 0d 28 8a be 7b 5f 2e be 02 03 c4 3d 40 34 55 3e
       -0.2698368 -0.1702861 0.09570886 0.20820713
000220 20 a9 10 be b6 a5 0f be 59 ef 2a be d3 67 86 3e
       -0.14127016 -0.14028057 -0.16692866 0.26251087
000230 bd b4 7c be b6 36 82 bd 7a 6b 14 be 18 d0 79 3d
       -0.24678321 -0.063580915 -0.14494124 0.06098947
000240 dd e9 1a be af 08 a6 3d 20 77 d9 bd 93 19 54 bd
       -0.15128274 0.08107125 -0.106184244 -0.051782202
000250 19 55 07 3e 48 4a 5b 3e 05 2d a9 3d 23 29 c3 bd
       0.13216056 0.21415055 0.0826054 -0.095293306
000260 ba 49 a0 3d 52 dc 81 3d 57 dd 77 be fa ca 12 be
       0.07826562 0.06340851 -0.24205528 -0.14335242
000270 42 d0 77 3c b2 c9 4d be 79 7a c1 3e f5 1c 82 3e
       0.015125336 -0.20096472 0.37788752 0.25412717
000280 b9 50 84 3e 5f 69 24 be 7e 6d ec bc d4 fa 9b be
       0.25842836 -0.16055821 -0.028860804 -0.30464804
000290 be fc 48 be d8 53 2a 3e 67 1b 08 be 62 68 39 be
       -0.19627663 0.16633546 -0.13291703 -0.18106225
0002a0 c7 ec 40 be 2a 75 49 be a6 b0 60 3e 01 d3 9e be
       -0.18840323 -0.19673601 0.21942386 -0.31020358
0002b0 ab 5d 88 3e 1c 5c 33 be ab ef 35 3c 1f 59 83 be
       0.26633963 -0.17515606 0.011104505 -0.25653931
0002c0 b7 cb 52 3e 5a 77 1f be cd b1 b0 3d 01 67 6f be
       0.20585524 -0.15572873 0.08627663 -0.23379137
0002d0 84 10 85 3e 9b 0a 3b bc 2f a8 c3 3d 75 31 ca bd
       0.25989163 -0.011416103 0.09553563 -0.098727144
0002e0 5e 65 a9 3c e8 50 26 be 25 61 1f 3e 3a cb 85 3e
       0.020678218 -0.16241801 0.15564401 0.26131612
0002f0 cb 59 1d be 90 50 2a 3c d5 52 1d 3d 39 44 d3 bd
       -0.15366285 0.010395184 0.038409073 -0.10315747
000300 5b d7 3e bc 13 c8 db 3d 25 56 ab 3e 38 8c 5f be
       -0.011648024 0.107315205 0.3346416 -0.21830833
000310 ed b9 05 3e c5 55 5b 3e ff 66 8f 3e 4e 21 9b 3e
       0.13059206 0.21419437 0.28008267 0.30298847
000320 de ed 4c 3d 54 9b 1c 3e 98 0d 2e 3c 2e fc 06 3d
       0.050031535 0.15293628 0.010623358 0.03295534
000330 e5 77 1f 3e e5 62 29 3e b2 8c 00 3e c1 d2 c1 3d
       0.1557308 0.16541632 0.12553671 0.09464026
000340 f8 a2 0d 3e 47 2d 7c 3e 67 a0 93 be d8 75 f8 3d
       0.13831699 0.24626647 -0.28833315 0.12131852
000350 0b e3 d6 3e 3b 0b 99 3e 1e a4 a0 bd 48 1e f0 3d
       0.41970095 0.2989138 -0.07843803 0.11724526
000360 b2 d0 a3 bd 17 de 4d 3e d7 8a 66 3e 24 d2 70 be
       -0.0799879 0.20104252 0.225139 -0.23517662
000370 60 c2 02 be 48 52 01 3e 36 41 31 3e 62 0e f1 bd
       -0.1276946 0.12629044 0.17310032 -0.117703214
000380 44 85 8c 3e 74 6e 72 be 4b c8 e8 3d a7 a8 63 3e
       0.27445424 -0.23674947 0.11366328 0.22232305
000390 76 db 98 bd 84 af 08 bd 0f ea d0 bd 1c ef e0 bd
       -0.07463734 -0.03337051 -0.10200893 -0.109831065
0003a0 78 bf a2 3d d6 3c 86 3d c5 2e d1 3d 62 44 b3 bd
       0.07946676 0.06554572 0.10213999 -0.08753277
0003b0 1c a0 01 bc f6 38 b2 bd d6 bc 62 be cd 0b eb bc
       -0.007911708 -0.08702271 -0.22142348 -0.02869215
0003c0 38 9e bc bd d4 79 23 be 51 e8 86 3e 56 e4 e2 3d
       -0.09209865 -0.15964442 0.26349118 0.11078708
0003d0 da 48 f9 3d b2 7c 29 be 84 6b 12 3d 53 aa 9d be
       0.121720985 -0.16551474 0.035747066 -0.3079401
0003e0 ae cf 62 be ad 41 5f 3e 9a ed 3e 3b 30 46 28 be
       -0.22149536 0.21802397 0.002913332 -0.16433024
0003f0 e4 47 97 3c 08 e5 08 3d fd 81 e7 bd a8 2a de bd
       0.018466897 0.033421546 -0.1130409 -0.1084798
