ml-agents-release_20/Result/Dino/Dino03/Dino/Dino-999997.pt (torch, 205607 bytes, 21 tensors)

network_body._body_endoder.seq_layers.0.weight f4 [256, 29]
0	0x3dafbc21	0.085808046
1	0x3e90ac72	0.28256565
2	0x3d3d2468	0.046177298
3	0x3e8ee77b	0.2791098
4	0x3e1025e9	0.14076962
5	0x3ee9b248	0.4564383
6	0x3d13a0a9	0.03604189
7	0x3c81d54d	0.01584878
8	0xbe9774c0	-0.2958126
9	0x3e83227b	0.25612244
10	0xbc171e92	-0.009223597
11	0xbd0f859e	-0.035039537
12	0x3ecb3f86	0.39696902
13	0xbda8a84c	-0.08235225
14	0x3e4a28a8	0.19742072
15	0x3ca6f05d	0.020378286
16	0x3e1891e5	0.14899404
17	0x3d23f473	0.040028047
18	0xbdd9c35c	-0.10632965
19	0x3daf9914	0.08574119
20	0xbe948d74	-0.2901417
21	0xbd036c86	-0.032085918
22	0x3e3eb012	0.18621853
23	0xbe247353	-0.16059618
24	0xbe873002	-0.26403815
25	0x3d38aa10	0.04508406
26	0xbe632bc2	-0.22184661
27	0x3d9b5597	0.07584684
28	0x3ca9512e	0.020668592
29	0x3e70c64e	0.23513147
30	0xbe839669	-0.2570069
31	0x3d829185	0.06375412
32	0x3e8f9946	0.28046626
33	0x3e3ddb9e	0.18540809
34	0xbd0f42ad	-0.034975696
35	0x3cb7b6e0	0.022426069
36	0x3d4369a0	0.047708154
37	0xbe56d0d4	-0.20978099
38	0x3e2b3a5a	0.16721478
39	0x3e9458fa	0.28974134
40	0x3c186d6b	0.009303431
41	0xbdb1df33	-0.0868515
42	0x3e83d631	0.25749353
43	0x3c9dd396	0.019265931
44	0xbea0c481	-0.3139992
45	0xbd4caf90	-0.049972117
46	0x3e4559be	0.19272515
47	0xbd97cc8e	-0.074120626
48	0x3d2b4426	0.04181304
49	0x3d6c148e	0.05763679
50	0x3d8462cb	0.06464156
51	0x3cfb28a0	0.03065902
52	0xbd998105	-0.07495312
53	0x3daf85b9	0.085704274
54	0xbda3ce51	-0.07998336
55	0x3e21ffc5	0.15820225
56	0x3e23bead	0.15990706
57	0xbd68b430	-0.056812465
58	0x3e396619	0.18105353
59	0x3e9c5d17	0.30539772
60	0x3e53d17a	0.20685378
61	0xbe88020d	-0.26564065
62	0x3e2600a2	0.16211179
63	0x3e92446d	0.2856783
64	0xbedccde8	-0.43125844
65	0x3de2f406	0.110817
66	0xbd0911ce	-0.033464245
67	0xbea4ce66	-0.3218872
68	0xbd9425ac	-0.07233748
69	0x3e04849d	0.12941213
70	0x3e89772c	0.26848733
71	0x3dd69ccf	0.104791276
72	0x3ea9f8b5	0.3319756
73	0x3e90aba1	0.28255942
74	0xbeab02e3	-0.3340064
75	0x3baf8fc8	0.005357716
76	0x3d21d567	0.039510157
77	0xbdec55fe	-0.11539839
78	0x3e93907b	0.28821167
79	0x3cdbe28e	0.026841428
80	0xbd85cf44	-0.065336734
81	0x3c5c6a89	0.013453134
82	0xbe22d8ac	-0.15902966
83	0x3ca13ead	0.019683206
84	0x3c072a43	0.008249822
85	0xbe5e6786	-0.21719179
86	0x3e7ec9d3	0.24881677
87	0xbe335eba	-0.17516604
88	0x3e83ea9e	0.25764936
89	0x3ba5eab3	0.0050633787
90	0x3e524b58	0.20536554
91	0xbd24bd8d	-0.040219832
92	0xbe27e46f	-0.16395734
93	0xbe144bba	-0.14482012
94	0xbdd359fb	-0.10319897
95	0xbcc055ac	-0.023478352
96	0x3c2dc5c7	0.010606236
97	0x3e1d6be4	0.15373188
98	0x3d90b013	0.070648335
99	0xbe4a8cf7	-0.19780336
100	0x3e2908d1	0.1650727
101	0xbde39530	-0.1111244
102	0x3d64a0a5	0.055817265
103	0xbd9f5290	-0.077794194
104	0x3c60af97	0.013713739
105	0x3efa53bc	0.4889201
106	0xbd5ef31d	-0.05443107
107	0x3d964c18	0.073387325
108	0xbee5187e	-0.4474525
109	0x3e23588a	0.15951744
110	0xbda0ba33	-0.07848015
111	0x3e379a46	0.17929944
112	0x3e133d4e	0.14378855
113	0xbdc233fe	-0.09482573
114	0xbe484706	-0.19558343
115	0x3e8d0aa7	0.2754719
116	0x3cd3ba58	0.025845692
117	0x3e60c68b	0.21950738
118	0x3e1897d0	0.14901662
119	0x3e1223ea	0.14271513
120	0xbd8ef699	-0.069806285
121	0x3daebd5a	0.0853221
122	0xbe030602	-0.1279526
123	0x3e983c06	0.29733294
124	0xbe3fbe3c	-0.18724912
125	0xbe867c05	-0.26266494
126	0x3eb031b5	0.34412923
127	0x3dc6f960	0.09715533
128	0x3d8fbcca	0.070184305
129	0x3d62aafe	0.055338852
130	0x3de663e8	0.11249524
131	0xbd06b430	-0.032886684
132	0xbe8acb7f	-0.2710838
133	0xbe239fca	-0.15978923
134	0x3dba9e6f	0.0911225
135	0x3e509ccb	0.20372312
136	0xbe1f3986	-0.15549287
137	0xbe097b5b	-0.13425963
138	0xbe21d639	-0.15804376
139	0x3e82eedc	0.2557286
140	0xbe7c6d57	-0.24651085
141	0xbd53bebb	-0.051695567
142	0xbe191dc0	-0.14952755
143	0x3d6761aa	0.056489624
144	0xbe1ae9dd	-0.15128274
145	0x3d9f99a1	0.07792974
146	0xbdde207b	-0.10846039
147	0xbd283e29	-0.041074906
148	0x3e111537	0.14168249
149	0x3e652306	0.22376642
150	0x3d957e31	0.0729946
151	0xbd82a724	-0.06379536
152	0x3dcc4d2f	0.09975659
153	0x3d8e437d	0.06946466
154	0xbe8c5e2f	-0.27415606
155	0xbe04085f	-0.12893818
156	0x3ceb4086	0.02871729
157	0xbe6a2102	-0.22864154
158	0x3ec803d8	0.39065433
159	0x3e8ac7df	0.27105615
160	0x3e9133b2	0.28359753
161	0xbe1e479d	-0.15457006
162	0xbd788b71	-0.060679857
163	0xbe949865	-0.29022518
164	0xbe3ab44c	-0.1823284
165	0x3e5cdc97	0.21568523
166	0xbe1a81a5	-0.15088518
167	0xbe697f36	-0.22802433
168	0xbe2a7b74	-0.16648656
169	0xbe44766a	-0.19185796
170	0x3e40a65d	0.18813463
171	0xbe977092	-0.29578072
172	0x3e8f8ad0	0.28035593
173	0xbe335c1c	-0.17515606
174	0x3c4f9f0d	0.012672198
175	0xbe856b18	-0.2605827
176	0x3e5b3b9e	0.21409461
177	0xbe17d243	-0.14826302
178	0x3dc90fb3	0.098174475
179	0xbe80b3c7	-0.2513716
180	0x3e94c99d	0.2906007
181	0x3bb83755	0.0056218305
182	0x3dcef1c9	0.101047106
183	0xbe0ce580	-0.13759422
184	0x3d019edc	0.03164564
185	0xbe1bc526	-0.15211925
186	0x3dfee5e0	0.12446189
187	0x3e8dd67c	0.277027
188	0xbe0f1992	-0.13974598
189	0x3cfef880	0.031124353
190	0x3d339a9e	0.043848626
191	0xbe112b5d	-0.14176698
192	0xba2ea4e0	-0.00066621415
193	0x3df178bd	0.11790607
194	0x3ebdfff3	0.37109336
195	0xbe6f28e6	-0.23355445
196	0x3dca2929	0.09871132
197	0x3e6e3f45	0.23266323
198	0x3e91cb6d	0.28475514
199	0x3e8784d7	0.26468536
200	0x3d79e912	0.06101329
201	0x3e2782bc	0.16358465
202	0x3c2e0d98	0.010623358
203	0x3cf11de8	0.029433206
204	0x3e22bab3	0.15891533
205	0x3e298806	0.16555795
206	0x3e008e45	0.12554272
207	0x3daadda3	0.08343055
208	0x3e1c1211	0.15241267
209	0x3e6aa3a3	0.22913985
210	0xbe972035	-0.2951676
211	0x3deec413	0.11658492
212	0x3ee30251	0.44337705
213	0x3e97ccfa	0.29648572
214	0xbda49d5b	-0.08037826
215	0x3e1bc567	0.15212022
216	0xbdaf7536	-0.08567278
217	0x3e46a9bb	0.19400685
218	0x3e5ccc7d	0.21562381
219	0xbe758ca9	-0.23979439
220	0xbdd55127	-0.10415869
221	0x3dfda32f	0.123846404
222	0x3e2f0c08	0.17094433
223	0xbe154ab7	-0.14579283
224	0x3e92fa2d	0.28706494
225	0xbe595464	-0.21223599
226	0x3dd83cc9	0.10558469
227	0x3e607b31	0.21921994
228	0xbd54c9de	-0.051950328
229	0xbd12b23f	-0.03581452
230	0xbdd56b65	-0.104208745
231	0xbde0ef1c	-0.109831065
232	0x3d90a5d2	0.07062878
233	0x3d919c7d	0.07109926
234	0x3ddd3be8	0.10802442
235	0xbda94ccf	-0.08266603
236	0xbccbb265	-0.024865339
237	0xbd87679f	-0.06611561
238	0xbe834da1	-0.25645164
239	0xbd03358e	-0.032033496
240	0xbdc838be	-0.09776448
241	0xbe0da21b	-0.1383137
242	0x3e88f320	0.2674799
243	0x3deb6816	0.11494462
244	0x3e2a192e	0.16611168
245	0xbe2f3ef4	-0.17113858
246	0x3c786fd1	0.015163378
247	0xbea43bf6	-0.32076997
248	0xbe68999d	-0.22714849
249	0x3e74b190	0.2389586
250	0x3be1541f	0.006876483
251	0xbe241ac8	-0.16025841
252	0xbb54e08e	-0.0032482478
253	0x3d49ecea	0.049298204
254	0xbdaf6d42	-0.08565761
255	0xbdf52e92	-0.11971773

network_body._body_endoder.seq_layers.0.bias f4 [256]
0	0x3d2b35b0	0.041799247
1	0xbbdd1ce5	-0.0067478293
2	0x3cd029be	0.02541053
3	0x3ca37b93	0.019956386
4	0xbc03271c	-0.00800493
5	0x3ccf4427	0.025301052
6	0x3d1d923b	0.038469534
7	0xbb875634	-0.0041301493
8	0x38084a9e	3.249442e-05
9	0x3d0f6fa7	0.03501859
10	0x3db141a5	0.08655099
11	0xbc77eb10	-0.015131727
12	0x3c1718cf	0.009222223
13	0xbb0ccd54	-0.002148469
14	0x3d2d495a	0.04230628
15	0x3d00b9c8	0.031427175
16	0x3ca72187	0.02040173
17	0x3d9fb760	0.07798648
18	0x3c9c7774	0.019099928
19	0xbc01606c	-0.007896524
20	0x3b81a060	0.003955886
21	0x3d8bea85	0.068318404
22	0xbc02a342	-0.007973494
23	0x3c7cd870	0.015432462
24	0x3d00d0ca	0.031449117
25	0x3cc86135	0.024460414
26	0x3ccb78bc	0.024837844
27	0x3c1c9c0a	0.009558687
28	0xbc273f97	-0.010208032
29	0x3c0afe54	0.008483488
30	0x3d6e6a85	0.058207054
31	0x3d01e72c	0.031714603
32	0x3d69dbd1	0.0570944
33	0xbd3ae628	-0.04562965
34	0x3ba6e6f0	0.005093448
35	0xbbd7b465	-0.006582784
36	0x3c70e7de	0.014703719
37	0x3c8d998d	0.017285133
38	0x3d458a85	0.048227806
39	0x3d4e0b0c	0.050303504
40	0xba60f8fb	-0.0008582023
41	0x3d3d71ac	0.046250984
42	0x3cef50d7	0.029213352
43	0x3d607ba6	0.05480542
44	0x3d040b45	0.03223731
45	0xbb9bbfbe	-0.004753082
46	0x3d11ed32	0.035626598
47	0x3b812925	0.0039416724
48	0x3d6b3167	0.05742016
49	0xbb354c43	-0.0027663864
50	0x3d02090f	0.03174692
51	0x3c946ddd	0.018118793
52	0x3d3aea77	0.04563376
53	0x3cc083e7	0.023500396
54	0x3c6f6b47	0.014612979
55	0x3c496586	0.0122922715
56	0x3c794722	0.015214713
57	0x3af53861	0.0018708819
58	0x3c19a353	0.009377318
59	0x3c570b47	0.013125247
60	0x3cea4376	0.028596621
61	0x3d9b1dd4	0.07574049
62	0xbaa0e4f1	-0.0012275261
63	0x3ca20cd7	0.019781513
64	0x3c319a9f	0.010840087
65	0x3cb7d4af	0.022440283
66	0x3bc264d5	0.0059324303
67	0x3c3a53ed	0.0113725485
68	0x3d500cd1	0.050793473
69	0x3a2777d0	0.0006388398
70	0x3ccfd6f5	0.025371054
71	0x3af01ddb	0.0018319444
72	0x3d353957	0.044244137
73	0xba913159	-0.0011077329
74	0x3c8b28c6	0.016987216
75	0x3d45aa6a	0.048258223
76	0x3d414288	0.04718259
77	0x3d7136b9	0.05889008
78	0x3d67bc0e	0.056575827
79	0x3ce1845d	0.027528936
80	0x3bad6d76	0.00529259
81	0x3b8779d1	0.0041343947
82	0x3d02b889	0.031914268
83	0xbb895102	-0.004190565
84	0x3d1b14b0	0.037861526
85	0x3d6bf3cb	0.057605546
86	0x3c29dc5d	0.01036748
87	0x3c139784	0.009008292
88	0x3e01e8ee	0.12686512
89	0x3c159ae6	0.009131169
90	0xbc1d0b2f	-0.009585186
91	0x3c49a047	0.0123062795
92	0x3cb4883f	0.022037623
93	0x3c863bcb	0.016385933
94	0x3ab9c44f	0.0014172884
95	0x3cb24b73	0.021764493
96	0x3bd707bf	0.0065622027
97	0x3c72126f	0.014774903
98	0xbc10a92b	-0.008829395
99	0x3d15d653	0.03658135
100	0x3d276942	0.040871866
101	0x3c4abce8	0.01237414
102	0x3ce910ed	0.028450454
103	0x3d0af7c1	0.033927683
104	0x3dc74303	0.09729578
105	0x3b421231	0.0029612894
106	0x3d08ae85	0.03336956
107	0x3d08fb94	0.03344305
108	0x3d3d9915	0.04628857
109	0xba151c47	-0.00056881126
110	0x3cd1cccf	0.025610356
111	0x3bd5ec9f	0.0065284516
112	0x3c035508	0.0080158785
113	0xb9b3c1d1	-0.00034285945
114	0x3d882d4d	0.066492654
115	0x3bd972d1	0.0066360016
116	0xbc3ff338	-0.011715703
117	0x3ccba9be	0.024861213
118	0xbc43feee	-0.011962635
119	0x3cae0e98	0.021247193
120	0x3ac8b2dc	0.0015312093
121	0x3c9fdb47	0.01951374
122	0xbc6d431b	-0.014481331
123	0x3d2a1ee7	0.041533377
124	0xbc0de56a	-0.008660654
125	0x3cfb6679	0.030688511
126	0x3d112027	0.035431053
127	0x3c2a65ba	0.01040023
128	0x3ac053e6	0.0014673441
129	0x3bc66ad3	0.006055215
130	0x3c2b124f	0.010441377
131	0x3cd55666	0.026042175
132	0x3d2c91b8	0.042131156
133	0x3ca34a19	0.019932793
134	0x3d3e722e	0.04649561
135	0x3cf73cd9	0.030180382
136	0x3d556ddd	0.052106727
137	0x3c8563f3	0.016283011
138	0x3d4fb4ca	0.050709523
139	0x3d525ada	0.051356174
140	0x3ad1eaf9	0.0016015462
141	0x3c400ebf	0.011722266
142	0x3d394bf7	0.04523846
143	0xbc805444	-0.015665181
144	0x3c9f9ecc	0.0194849
145	0x3d2a85a0	0.04163134
146	0x3d2ab0bb	0.04167245
147	0x3d160e05	0.036634464
148	0x3d33cc06	0.043895744
149	0xbb9ad9c0	-0.004725665
150	0x3cb091d1	0.021553906
151	0x3d8207a7	0.06349116
152	0x3c8fc471	0.017549725
153	0x3d78d5d2	0.06075079
154	0xbae2a9b7	-0.0017293011
155	0x3d29212c	0.0412914
156	0x3d438637	0.04773542
157	0x3b3ed79d	0.0029120215
158	0xbc66d83a	-0.014089638
159	0x3a3638e5	0.0006951227
160	0xbae34a11	-0.0017340799
161	0x3d4ae2b9	0.049532626
162	0x3cb17a8d	0.021664882
163	0x3d54d79b	0.05196343
164	0x3c0988ba	0.008394415
165	0x3d11092a	0.03540913
166	0x3c21c92f	0.009874626
167	0x3dae7290	0.08517945
168	0xbb22986c	-0.0024810089
169	0x3baf259f	0.005345061
170	0x3d046a9a	0.032328226
171	0xbba4466a	-0.005013277
172	0x3d049ee8	0.032378107
173	0x3caf75a3	0.021418398
174	0x3d3ebd2d	0.04656713
175	0x3c889951	0.01667467
176	0x3d1c9bb2	0.03823442
177	0x3d31c7a9	0.0434033
178	0x3d59f7fc	0.053215012
179	0x3c8ba910	0.017048389
180	0x3c9baab2	0.019002292
181	0x3d20b124	0.039231434
182	0xbbf67dd3	-0.0075223236
183	0xbc2d039f	-0.010559945
184	0xbb816b82	-0.0039495835
185	0x3d86d2e7	0.06583195
186	0x3c42bdc0	0.01188606
187	0x3c138256	0.0090032425
188	0x3aa68f85	0.0012707567
189	0x3cf9d0e5	0.030495116
190	0x3ca4cef8	0.020118222
191	0x3a90d4cd	0.0011049748
192	0x3bc2ffea	0.0059509175
193	0x3c3304a4	0.010926399
194	0x3b1f036d	0.0024263517
195	0x3b94c583	0.004540147
196	0x3ce2a7fb	0.02766799
197	0x3c14fbe4	0.0090932585
198	0x3cd96c97	0.026541037
199	0x3b9a212d	0.004703662
200	0x3d331bc8	0.043727666
201	0x3d4722b0	0.048617065
202	0x3dd0cd03	0.10195353
203	0x3d8e053b	0.069345914
204	0x3c44c765	0.01201043
205	0x3c8f8b2c	0.017522417
206	0x3b09ebf7	0.0021045187
207	0x3d083840	0.03325677
208	0x3cbd32af	0.023095457
209	0xbb03963a	-0.0020078556
210	0x3d2e5cad	0.04256885
211	0x3cf80430	0.030275434
212	0x3d28e2b5	0.04123183
213	0x3b03a689	0.0020088276
214	0x3b4963bc	0.0030729612
215	0x3cfb602b	0.030685505
216	0x3cf953d3	0.030435478
217	0xbd16265e	-0.036657684
218	0x3b116548	0.0022185612
219	0x3d8ebd93	0.06969752
220	0x3ccf0680	0.025271654
221	0x3ca7a6a8	0.02046521
222	0x3d1067d2	0.03525526
223	0xbbd61c49	-0.0065341336
224	0x3b8bee5b	0.0042703575
225	0x3cd4931a	0.02594905
226	0xbcf4db48	-0.029889718
227	0x3d2171aa	0.03941504
228	0x3deb5906	0.11491589
229	0x3bfb80c8	0.007675264
230	0x3b26aad8	0.002543142
231	0x3d24f3bf	0.040271517
232	0x3c08d5b5	0.008351733
233	0x3b8a13ff	0.0042138095
234	0x3c278af0	0.010225996
235	0xbc53b983	-0.012922647
236	0x3deaebb6	0.114707395
237	0x3c94c359	0.018159555
238	0x3cd14863	0.025547212
239	0x3d426516	0.047459684
240	0x3cd0c48d	0.025484348
241	0xbb2ffd93	-0.0026854023
242	0x3bd04f23	0.00635709
243	0x3d745689	0.05965284
244	0x3cc590f2	0.024116967
245	0x3c572d03	0.01313329
246	0x389c0072	7.4387426e-05
247	0x3daa0cb0	0.08303201
248	0xbc4042c9	-0.011734673
249	0x3cb6897b	0.022282353
250	0x3c9fc165	0.019501397
251	0x3cf0531a	0.0293365
252	0xbc1a50eb	-0.009418706
253	0xbc195a9e	-0.009359984
254	0x3c0ab4d0	0.008465961
255	0x3d2af3ab	0.041736286

action_model._discrete_distribution.branches.0.weight f4 [2, 256]
0	0xbdad69b7	-0.08467429
1	0x3c8350d2	0.016029749
2	0xbdf735f4	-0.120708376
3	0x3d48dc25	0.04903807
4	0xbc109f49	-0.008827039
5	0x3d417f95	0.047240812
6	0x3dae092f	0.084978454
7	0xbc98e65d	-0.018664533
8	0xbd7bf522	-0.061513074
9	0xbba09dd1	-0.0049016257
10	0x3d031d56	0.0320104
11	0xbc142cf4	-0.009043921
12	0x3d3ddd16	0.046353422
13	0x3c536611	0.0129027525
14	0x3ac521f7	0.001504003
15	0x3927322c	0.00015945052
16	0x3d8141b4	0.0631136
17	0xbdc01480	-0.0937891
18	0x3d6bf448	0.05760601
19	0xbc64a702	-0.013955833
20	0xbd6c0aca	-0.057627477
21	0x3d0002a0	0.031252503
22	0xbcb14a3f	-0.021641849
23	0x3d28818f	0.04113918
24	0xbde1f341	-0.11032725
25	0xbd984bf0	-0.07436359
26	0x3d5c7cb0	0.05382985
27	0xbd21e6bb	-0.039526682
28	0x3b68752a	0.0035470226
29	0xbd80272b	-0.06257471
30	0x3e0fca2d	0.14041968
31	0x3dc7c9ab	0.09755262
32	0x3df06529	0.11738045
33	0xbc899dfd	-0.016798967
34	0xbd6fde1a	-0.058561422
35	0x3b8e7e7a	0.0043485733
36	0xbcc7a98b	-0.024372837
37	0xbdef6068	-0.1168831
38	0xbd9a85d6	-0.075450584
39	0x3e1bca34	0.15213853
40	0xbd032fc0	-0.03202796
41	0x3dd651d9	0.1046483
42	0x3d2e472f	0.042548355
43	0x3cbffb87	0.023435367
44	0x3ddd83ee	0.10816179
45	0xbca42cf4	-0.020040967
46	0x3dc6aede	0.09701322
47	0xbd5c4dfe	-0.053785317
48	0x3e0f064f	0.1396725
49	0xbc840c1c	-0.016119055
50	0xbde95b03	-0.11394312
51	0xbd4ddf56	-0.050261818
52	0x3d4c4cb5	0.04987784
53	0xbd80fb27	-0.062979035
54	0xbd3f5609	-0.04671291
55	0xbd34e3a1	-0.044162396
56	0x3d0a48d8	0.033760875
57	0xbd0822d0	-0.033236325
58	0x3a6bfd39	0.00090022717
59	0x3d1f4196	0.038880907
60	0xbd8a7965	-0.067614354
61	0x3e24c428	0.16090453
62	0xbd1d943c	-0.038471445
63	0xbd2081b0	-0.03918618
64	0xbd870490	-0.06592667
65	0xbde41593	-0.111369275
66	0x3d1b3b96	0.037898622
67	0xbd38d42d	-0.04512422
68	0x3e14055a	0.14455166
69	0xbccb63aa	-0.024827797
70	0xbd4b8e1d	-0.049696077
71	0xbcfcf33e	-0.030877706
72	0x3dde97c7	0.10868793
73	0xbc61ba15	-0.013777276
74	0xbd7d497a	-0.06183765
75	0x3df8ef74	0.12155047
76	0xbdec6698	-0.11543006
77	0x3d8e9b99	0.06963272
78	0x3e108591	0.14113452
79	0x3dc17817	0.094467334
80	0x3b6c2149	0.0036030582
81	0xbce78936	-0.02826367
82	0xbd46b74f	-0.04851466
83	0xbd0f6f2e	-0.03501814
84	0x3db39cec	0.08770165
85	0x3d848d03	0.06472208
86	0x3d16f295	0.036852438
87	0xbd249a5c	-0.04018627
88	0x3de8831a	0.11353131
89	0x3d0d2281	0.034456734
90	0xbb3a5071	-0.0028429294
91	0x3cc22fc3	0.023704415
92	0xbd76ba88	-0.060236484
93	0x3baad4d0	0.0052133575
94	0xbd20d8e6	-0.03926935
95	0x3d4489a0	0.047982812
96	0x3ce8f28b	0.028435966
97	0xbcec2328	-0.028825358
98	0xbbe06e15	-0.0068490603
99	0x3dcd0388	0.10010439
100	0x3dd32ce6	0.10311298
101	0x3b278c0b	0.002556565
102	0x3d1cba11	0.038263384
103	0x3db56f73	0.08859148
104	0x3e0026dc	0.12514824
105	0xbd03a9c7	-0.032144334
106	0x3d033cc5	0.032040376
107	0xbcaa80c6	-0.020813357
108	0xbdc14646	-0.09437232
109	0x3c24d434	0.010060359
110	0xbb41814b	-0.0029526528
111	0xbd67bf93	-0.056579184
112	0xbb48e1ae	-0.0030652094
113	0xbd0d0549	-0.03442887
114	0x3e1d5106	0.15362939
115	0xbce7f762	-0.028316204
116	0xbcd53cea	-0.026030023
117	0xbdd07264	-0.10178068
118	0x3a8fb2db	0.0010963337
119	0x3d4ca707	0.049963977
120	0xbd2ad5a4	-0.04170765
121	0xbd9e3ed8	-0.0772683
122	0xbbcd0523	-0.006256716
123	0xbce03c3d	-0.027372474
124	0xbc666eff	-0.0140645495
125	0xbdabe688	-0.0839358
126	0x3ddfbdc0	0.10924864
127	0xbd5a9dc1	-0.053373102
128	0xbcdf2547	-0.027239455
129	0x3cda202b	0.026626667
130	0x3d41ae99	0.04728565
131	0xbdfbe193	-0.12298884
132	0x3dd9b9db	0.10631152
133	0xbd4052c6	-0.04695394
134	0xbdaeac90	-0.085290074
135	0xbce975b2	-0.028498504
136	0xbd2718cc	-0.040795133
137	0xbcc2dbbb	-0.023786416
138	0x3cfbf20a	0.030755062
139	0x3db622c4	0.0889335
140	0xbbdc43c8	-0.0067219473
141	0x3c70e5f1	0.01470326
142	0xbccba697	-0.02485971
143	0xbadfd209	-0.0017076145
144	0x3d11fdf2	0.03564257
145	0x3d5a5f8f	0.053313788
146	0xbde8315e	-0.11337541
147	0xbdb3d4ec	-0.08780846
148	0x3dad92da	0.08475275
149	0x3c9fceb6	0.019507747
150	0xbdd88cc6	-0.105737254
151	0x3d59ae90	0.05314499
152	0xbd560595	-0.052251417
153	0xbe1438b5	-0.14474757
154	0x3c4e1171	0.012577401
155	0x3db49628	0.088177025
156	0x3de3cdbb	0.11123224
157	0x3ca141ae	0.019684639
158	0x3becfc41	0.0072322194
159	0xbcf4c290	-0.02987793
160	0x3cde0cc1	0.02710569
161	0x3e12864d	0.14309044
162	0x3d254c8e	0.04035621
163	0x3e1414bf	0.14461039
164	0x3ccec43e	0.02524006
165	0x3dbd4f1c	0.092436045
166	0xbc2c2766	-0.01050744
167	0x3de8fea0	0.11376691
168	0xbc526d20	-0.0128434
169	0x3d0a27ee	0.033729486
170	0xbd150883	-0.03638507
171	0xbceedc04	-0.029157646
172	0x3ddf3aae	0.10899864
173	0xbd88250d	-0.06647692
174	0x3e0fc133	0.14038543
175	0xbcab6cd4	-0.020925917
176	0xbdf638da	-0.12022562
177	0x3d922601	0.07136155
178	0xbda71bcb	-0.08159598
179	0x3d3d16cd	0.046164323
180	0xbbe5000a	-0.00698853
181	0xbca5df83	-0.02024818
182	0x3c0419e9	0.008062818
183	0xbb27a4d7	-0.002558043
184	0x3ca8eaec	0.020619832
185	0xbd6b1a8b	-0.05739836
186	0xbd918888	-0.071061194
187	0xbd3ceca2	-0.046124108
188	0xbd19f507	-0.037587192
189	0x3d8fbae5	0.07018069
190	0xbda28bac	-0.079367965
191	0xbcc3df3a	-0.023910154
192	0xbd794755	-0.060859043
193	0xbd367689	-0.044546638
194	0x3c92df5f	0.017928777
195	0xbd83221c	-0.0640299
196	0xbdc0b056	-0.094086334
197	0xbcb27d8c	-0.021788381
198	0xbd3e21b2	-0.046418853
199	0xbd26dbdc	-0.040737018
200	0x3e0c6a74	0.13712484
201	0x3e0a554b	0.13509099
202	0x3db4e94b	0.088335596
203	0x3e169dfe	0.14708707
204	0xbd03371b	-0.032034975
205	0x3d38dc2b	0.045131844
206	0xbcb08142	-0.02154601
207	0x3da424a5	0.08014802
208	0xbd81aa59	-0.06331319
209	0xbcbc462a	-0.022982676
210	0xbcfda7d1	-0.03096381
211	0xbdde6684	-0.10859397
212	0x3de7bd1e	0.11315368
213	0x3d0400c9	0.03222731
214	0xbcea4c9b	-0.028600981
215	0x3db8e6b1	0.09028376
216	0x3cfc8de0	0.03082937
217	0xbc029cb1	-0.007971928
218	0x3cc4287a	0.023945082
219	0xbd8b92ee	-0.06815134
220	0xbbec6f45	-0.007215413
221	0x3d5d4215	0.0540181
222	0x3d987b1e	0.07445358
223	0xbd157a65	-0.036493678
224	0xbc582799	-0.013193035
225	0xbd84249b	-0.064522944
226	0x3acfb99a	0.001584816
227	0xbdaf224a	-0.08551462
228	0x3e0c4cc7	0.13701163
229	0xbd5d2052	-0.0539859
230	0xbbbcf689	-0.005766694
231	0x3d831cba	0.064019635
232	0xbd2a0a58	-0.04151377
233	0xbd3e8119	-0.046509836
234	0x3d0cc627	0.03436866
235	0xbbd087f1	-0.0063638617
236	0x3e21b689	0.15792288
237	0xbd88f1ab	-0.066867195
238	0x3c548fa8	0.012973703
239	0x3d3a2506	0.045445465
240	0x3d7ccaac	0.06171672
241	0xbc9757e2	-0.018474523
242	0xbd0e295b	-0.03470741
243	0x3dd0b6be	0.10191105
244	0x3d9c7ef8	0.07641405
245	0xba9cf5b6	-0.0011975083
246	0xbd02527b	-0.03181694
247	0x3e0677d4	0.13131648
248	0xbc1fa81c	-0.00974467
249	0x3c317311	0.010830657
250	0xbd583179	-0.052781556
251	0xbe10da4e	-0.14145777
252	0xbcad27f8	-0.021137223
253	0xbcd8ea3e	-0.026478883
254	0xbd5bb24c	-0.053636834
255	0x3d717f53	0.058959316

action_model._discrete_distribution.branches.0.bias f4 [2]
0	0x3aaffddc	0.0013427096
1	0xbaaffdb3	-0.0013427049

exp_avg f4 [256, 29]
0	0x35f93e05	1.8569996e-06
1	0x3680e8fb	3.8418198e-06
2	0x38f995c4	0.00011901141
3	0x38fcb8f5	0.00012050747
4	0x34656024	2.1362263e-07
5	0x38480c4a	4.769516e-05
6	0x38a1108d	7.680161e-05
7	0x389eaec1	7.5665776e-05
8	0x34656024	2.1362263e-07
9	0x3866599c	5.491973e-05
10	0x3891e9d2	6.957691e-05
11	0x3887900a	6.464131e-05
12	0xb78849ef	-1.6246891e-05
13	0x3886cb2b	6.427461e-05
14	0x38a0d0a6	7.668258e-05
15	0x38a0e160	7.671374e-05
16	0x3443ad44	1.8223824e-07
17	0x3866714d	5.4941793e-05
18	0x3891eed6	6.9586255e-05
19	0x388bf2a6	6.673233e-05
20	0x38af4d27	8.359021e-05
21	0xb8138ff8	-3.5181612e-05
22	0x38a00430	7.6301745e-05
23	0x389aec55	7.3873125e-05
24	0x355d36c7	8.2408627e-07
25	0x3863c023	5.429996e-05
26	0x3891eed6	6.9586255e-05
27	0x388cb776	6.7098925e-05
28	0x00000000	0.0
29	0xb467fe36	-2.1606033e-07
30	0xb4dc9c5c	-4.109196e-07
31	0xb7c09871	-2.295917e-05
32	0xb7c1f285	-2.3120325e-05
33	0xb328546b	-3.9192326e-08
34	0xb75f18b7	-1.329759e-05
35	0xb72bf4d2	-1.0249396e-05
36	0xb7329591	-1.064445e-05
37	0xb328546b	-3.9192326e-08
38	0xb6cbff19	-6.0795687e-06
39	0xb79286f0	-1.7467391e-05
40	0xb78deca8	-1.6918711e-05
41	0x36380653	2.7421818e-06
42	0xb7872785	-1.6111657e-05
43	0xb72b684c	-1.0216678e-05
44	0xb73155d3	-1.0570005e-05
45	0xb318953e	-3.5525993e-08
46	0xb6cc1016	-6.0815464e-06
47	0xb7928a93	-1.7469085e-05
48	0xb78fe099	-1.7151515e-05
49	0xb7b3cf12	-2.1434887e-05
50	0x370339bd	7.821652e-06
51	0xb727516c	-9.972933e-06
52	0xb724f0b0	-9.831201e-06
53	0xb4053617	-1.2406268e-07
54	0xb6c91793	-5.993011e-06
55	0xb7928a93	-1.7469085e-05
56	0xb7903744	-1.7191873e-05
57	0x00000000	0.0
58	0x35b16f0e	1.3219849e-06
59	0x3673f31b	3.6351328e-06
60	0x390cfd85	0.00013445884
61	0x390de349	0.00013531478
62	0x34ce08b4	3.8376822e-07
63	0x38b18593	8.464898e-05
64	0x386419c6	5.438344e-05
65	0x385fbb09	5.3341533e-05
66	0x34ce08b4	3.8376822e-07
67	0x3810d2de	3.452866e-05
68	0x38db28e8	0.00010450353
69	0x38d4ff1f	0.00010156468
70	0xb7a9907d	-2.0213653e-05
71	0x38dced16	0.00010534578
72	0x3863aede	5.4283875e-05
73	0x3864a108	5.4509408e-05
74	0x34c91797	3.745633e-07
75	0x3810d47c	3.4530167e-05
76	0x38db2d10	0.00010451127
77	0x38d79c06	0.000102810605
78	0x38ff5bd1	0.0001217645
79	0xb80ffb65	-3.4327986e-05
80	0x385a04ac	5.19796e-05
81	0x38534624	5.0371644e-05
82	0x3541dfd5	7.222382e-07
83	0x380f5f2b	3.418249e-05
84	0x38db2d10	0.00010451127
85	0x38d811c1	0.000103029895
86	0x00000000	0.0
87	0xb500c403	-4.796895e-07
88	0xb5897b4b	-1.0243178e-06
89	0xb8943ca1	-7.068483e-05
90	0xb895021b	-7.105266e-05
91	0xb3a24fce	-7.558229e-08
92	0xb833aa07	-4.2835276e-05
93	0xb7f59a1f	-2.9278044e-05
94	0xb8027125	-3.109979e-05
95	0xb3a24fce	-7.558229e-08
96	0xb78feae3	-1.7156306e-05
97	0xb8668195	-5.4956956e-05
98	0xb8601f62	-5.343499e-05
99	0x36d3fd66	6.3177895e-06
100	0xb84eb575	-4.9283222e-05
101	0xb7f524ce	-2.9223414e-05
102	0xb8002201	-3.0549247e-05
103	0xb38d4fee	-6.580363e-08
104	0xb78ff6ba	-1.716182e-05
105	0xb866862b	-5.4961227e-05
106	0xb862d485	-5.4080523e-05
107	0xb87499bf	-5.831732e-05
108	0x376cec62	1.4121733e-05
109	0xb7ead32a	-2.7993305e-05
110	0xb7ef0e44	-2.8497663e-05
111	0xb49f1f59	-2.9638866e-07
112	0xb78e078e	-1.6931237e-05
113	0xb866862b	-5.4961227e-05
114	0xb8634d16	-5.419281e-05
115	0x00000000	0.0
116	0x333cd524	4.396601e-08
117	0x338ca9d3	6.550149e-08
118	0x36d9a5a2	6.486386e-06
119	0x36daed31	6.524519e-06
120	0x3128a508	2.4541027e-09
121	0x3678d908	3.7081209e-06
122	0x3641a0df	2.885288e-06
123	0x3648bd9e	2.9912694e-06
124	0x3128a508	2.4541027e-09
125	0x35b6e44f	1.3626503e-06
126	0x36af83cd	5.23075e-06
127	0x36ab0309	5.0965505e-06
128	0xb53a0841	-6.930241e-07
129	0x36941173	4.412775e-06
130	0x3641031b	2.8761049e-06
131	0x36474873	2.9695482e-06
132	0x30ebd01f	1.7157652e-09
133	0x35b6ef39	1.362968e-06
134	0x36af876f	5.231173e-06
135	0x36acec25	5.1534903e-06
136	0x36bd5221	5.6422e-06
137	0xb5f76288	-1.843161e-06
138	0x363bb109	2.796822e-06
139	0x363a2994	2.7740361e-06
140	0x32a022f9	1.8642355e-08
141	0x35b4a9a2	1.3460415e-06
142	0x36af876f	5.231173e-06
143	0x36ad41fa	5.1634825e-06
144	0x00000000	0.0
145	0xb519d8a0	-5.731217e-07
146	0xb583964c	-9.804003e-07
147	0xb8515ec2	-4.9917733e-05
148	0xb8533b20	-5.0361385e-05
149	0xb3b7efdd	-8.5652324e-08
150	0xb800b9c5	-3.069059e-05
151	0xb7ad9a4c	-2.0695057e-05
152	0xb7ba73c1	-2.222683e-05
153	0xb3b7efdd	-8.5652324e-08
154	0xb77d9c20	-1.5116326e-05
155	0xb8181fd8	-3.626928e-05
156	0xb8125aad	-3.489356e-05
157	0x3646d9c5	2.9631058e-06
158	0xb80db04c	-3.378121e-05
159	0xb7ad4055	-2.0653164e-05
160	0xb7b5de9c	-2.1680542e-05
161	0xb3ab8027	-7.986119e-08
162	0xb77da935	-1.5119372e-05
163	0xb81822cc	-3.627203e-05
164	0xb814cc7e	-3.5476398e-05
165	0xb82b1c71	-4.0796065e-05
166	0x37187d39	9.089062e-06
167	0xb7a5cb7c	-1.9764288e-05
168	0xb7aa0693	-2.026864e-05
169	0xb46779fd	-2.155793e-07
170	0xb77b6252	-1.4983658e-05
171	0xb81822cc	-3.627203e-05
172	0xb8153b6b	-3.5579706e-05
173	0x00000000	0.0
174	0xb5c04449	-1.4324988e-06
175	0xb58a5f4e	-1.0309539e-06
176	0xb91453c1	-0.0001414558
177	0xb9155951	-0.0001424302
178	0xb4c1a98e	-3.607242e-07
179	0xb89f5de0	-7.5991964e-05
180	0xb88db29a	-6.756671e-05
181	0xb8904aa2	-6.8803565e-05
182	0xb4c1a98e	-3.607242e-07
183	0xb8239828	-3.9003935e-05
184	0xb8db4458	-0.00010455464
185	0xb8d3a071	-0.000100911486
186	0x376d7f34	1.4155918e-05
187	0xb8be297d	-9.067634e-05
188	0xb88d5881	-6.739889e-05
189	0xb8903676	-6.876599e-05
190	0xb4b30224	-3.3342906e-07
191	0xb823ab19	-3.9021576e-05
192	0xb8db498b	-0.00010456432
193	0xb8d6ddf4	-0.00010245657
194	0xb8dd1666	-0.00010542273
195	0x37dd5a32	2.6387253e-05
196	0xb8881246	-6.488389e-05
197	0xb8888183	-6.509109e-05
198	0xb569aad2	-8.704784e-07
199	0xb8216a73	-3.848453e-05
200	0xb8db498b	-0.00010456432
201	0xb8d76e6e	-0.00010272568
202	0x00000000	0.0
203	0x34b0ee7e	3.295608e-07
204	0x353ad5a5	6.9601293e-07
205	0x37e25620	2.6981405e-05
206	0x37e474f7	2.7234184e-05
207	0x33612f4a	5.2429904e-08
208	0x374bebb7	1.21546245e-05
209	0x37848a28	1.579996e-05
210	0x37863ff6	1.6003829e-05
211	0x33612f4a	5.2429904e-08
212	0x37289628	1.0048541e-05
213	0x379634e1	1.7906017e-05
214	0x378ebcce	1.7015638e-05
215	0xb654cec5	-3.1710817e-06
216	0x37815b67	1.542056e-05
217	0x37842eff	1.575751e-05
218	0x37866a97	1.602368e-05
219	0x3345d4dd	4.6061235e-08
220	0x3728a7f1	1.0052682e-05
221	0x379639aa	1.7908245e-05
222	0x3791e78c	1.739317e-05
223	0x37b46664	2.1505351e-05
224	0xb7172424	-9.008716e-06
225	0x37821c48	1.5510377e-05
226	0x378026d5	1.5276872e-05
227	0x344d9416	1.9145986e-07
228	0x3726377a	9.907288e-06
229	0x379639aa	1.7908245e-05
230	0x379273fa	1.7458562e-05
231	0x00000000	0.0
232	0x34797d08	2.3235418e-07
233	0x35982788	1.1336388e-06
234	0x383286b0	4.2563945e-05
235	0x3832e96a	4.265589e-05
236	0x340ff6dd	1.3407721e-07
237	0x3803a7e2	3.1389187e-05
238	0x375026b0	1.2406774e-05
239	0x375a295e	1.3003444e-05
240	0x340ff6dd	1.3407721e-07
241	0x36c79a32	5.948613e-06
242	0x381ebe30	3.784726e-05
243	0x381cbf34	3.737137e-05
244	0xb70efc96	-8.522669e-06
245	0x38282f22	4.0098217e-05
246	0x374f45d2	1.2354418e-05
247	0x375afd85	1.305284e-05
248	0x340e1b3d	1.323469e-07
249	0x36c788f2	5.9466047e-06
250	0x381ec239	3.785102e-05
251	0x381d9937	3.757441e-05
252	0x3856df3d	5.1229483e-05
253	0xb7a1a8bb	-1.9271267e-05
254	0x3748da85	1.1971807e-05
255	0x373ce82f	1.1259733e-05

exp_avg_sq f4 [256, 29]
0	0x320c5a00	8.169536e-09
1	0x3155d931	3.1119038e-09
2	0x35b109fc	1.3190433e-06
3	0x35b16c20	1.3218996e-06
4	0x3226ac9b	9.701718e-09
5	0x35a7c547	1.2499885e-06
6	0x33797d6b	5.8088897e-08
7	0x33ffa525	1.19044024e-07
8	0x31d11fee	6.0863306e-09
9	0x3288b714	1.5915738e-08
10	0x35af1dd8	1.3047202e-06
11	0x35af3ce0	1.3056233e-06
12	0x339b36ab	7.227694e-08
13	0x35a1bc2b	1.2050199e-06
14	0x3353bc8f	4.929876e-08
15	0x339e2b09	7.3652764e-08
16	0x31d17ac4	6.0966574e-09
17	0x32887ae5	1.588837e-08
18	0x35af25d4	1.3049525e-06
19	0x35af30fc	1.3052772e-06
20	0x343f4826	1.7814509e-07
21	0x358cde25	1.0495465e-06
22	0x333ae404	4.351388e-08
23	0x338c3eec	6.5307034e-08
24	0x31dd37a2	6.4382712e-09
25	0x32867263	1.565167e-08
26	0x35af25d4	1.3049525e-06
27	0x35af2f9b	1.3052371e-06
28	0x00000000	0.0
29	0x3074625a	8.890645e-10
30	0x2f31fb56	1.6187349e-10
31	0x33d240b3	9.790656e-08
32	0x33d324f1	9.832173e-08
33	0x308bca4a	1.0171075e-09
34	0x33bf3f7c	8.905678e-08
35	0x32013549	7.520904e-09
36	0x32589103	1.2605827e-08
37	0x30377295	6.6737843e-10
38	0x2ffa1c9e	4.549507e-10
39	0x33d1fce7	9.7783236e-08
40	0x33d2138a	9.782441e-08
41	0x31907be5	4.2050368e-09
42	0x33c2ec02	9.0767585e-08
43	0x31639cfa	3.3122078e-09
44	0x31ea89b1	6.82595e-09
45	0x30379019	6.677979e-10
46	0x2ffb88f3	4.5753942e-10
47	0x33d20c51	9.7811274e-08
48	0x33d2100a	9.7818045e-08
49	0x32a66691	1.9371585e-08
50	0x33994c69	7.1385166e-08
51	0x3116f441	2.1966715e-09
52	0x31bd7e93	5.515014e-09
53	0x303dd067	6.9053957e-10
54	0x2ff2a2a7	4.4135115e-10
55	0x33d20c51	9.7811274e-08
56	0x33d21010	9.781809e-08
57	0x00000000	0.0
58	0x335c2839	5.1259324e-08
59	0x321c9eab	9.116472e-09
60	0x361bac6d	2.3197165e-06
61	0x361c1fe2	2.326437e-06
62	0x337a238c	5.823999e-08
63	0x360cac12	2.0961784e-06
64	0x34395abd	1.7262478e-07
65	0x34b4c1cc	3.3668618e-07
66	0x334d266d	4.776523e-08
67	0x3287a49e	1.5790928e-08
68	0x361b4c45	2.3141195e-06
69	0x361b5ca8	2.3150733e-06
70	0x34582bfd	2.013257e-07
71	0x360a2940	2.0587613e-06
72	0x33c89fff	9.342329e-08
73	0x34460b2c	1.8444251e-07
74	0x334d1d9d	4.7757215e-08
75	0x32885d6b	1.5874965e-08
76	0x361b550e	2.3146308e-06
77	0x361b5910	2.314864e-06
78	0x353ce39b	7.036667e-07
79	0x35c5c172	1.4733944e-06
80	0x33553f05	4.9650243e-08
81	0x341eb161	1.4779427e-07
82	0x334ee816	4.8174194e-08
83	0x3286c971	1.5691258e-08
84	0x361b550e	2.3146308e-06
85	0x361b58ae	2.3148418e-06
86	0x00000000	0.0
87	0x30e0587d	1.6323295e-09
88	0x30239870	5.951568e-10
89	0x3489c8ad	2.566425e-07
90	0x3489fd76	2.5702656e-07
91	0x31240799	2.386946e-09
92	0x34751567	2.2825189e-07
93	0x32cca45b	2.3823466e-08
94	0x332b9dd9	3.99576e-08
95	0x30b60596	1.324383e-09
96	0x3106e849	1.9631605e-09
97	0x3488d350	2.5485724e-07
98	0x3488e7b2	2.5500555e-07
99	0x32551ba3	1.2404516e-08
100	0x347855bf	2.3127994e-07
101	0x32512081	1.2172792e-08
102	0x32c31d25	2.2714241e-08
103	0x30b6668b	1.3271387e-09
104	0x3107ae45	1.9744146e-09
105	0x3488dc1b	2.5492122e-07
106	0x3488e1ad	2.5496175e-07
107	0x33951b98	6.9433725e-08
108	0x342deb90	1.6197578e-07
109	0x3226afba	9.702427e-09
110	0x32a29af6	1.892975e-08
111	0x30c054ac	1.3993904e-09
112	0x31040152	1.9209279e-09
113	0x3488dc1b	2.5492122e-07
114	0x3488e11b	2.549576e-07
115	0x00000000	0.0
116	0x2e35cfe4	4.133928e-11
117	0x2dfb9050	2.8599484e-11
118	0x3247e69f	1.1635762e-08
119	0x32485351	1.1660476e-08
120	0x2e1d8d6f	3.5823285e-11
121	0x31e3a959	6.625822e-09
122	0x31a41dfc	4.776437e-09
123	0x31b8bd2f	5.3766125e-09
124	0x2cee6da7	6.7765407e-12
125	0x2e8364b3	5.975078e-11
126	0x32478ad1	1.1614888e-08
127	0x3247bab1	1.1625773e-08
128	0x2fdff460	4.0737103e-10
129	0x322b76bb	9.980506e-09
130	0x30b7bdf8	1.3368995e-09
131	0x3145124e	2.8677678e-09
132	0x2d4827f7	1.1377558e-11
133	0x2e94e1d9	6.7703794e-11
134	0x3247056d	1.1584558e-08
135	0x32473f13	1.1597666e-08
136	0x319cd47e	4.564355e-09
137	0x31c0cf87	5.6115286e-09
138	0x30305a37	6.415663e-10
139	0x311b4d5e	2.2599447e-09
140	0x2e4be206	4.6357605e-11
141	0x2e518bce	4.764527e-11
142	0x3247056d	1.1584558e-08
143	0x324730da	1.1594432e-08
144	0x00000000	0.0
145	0x3053fa7d	7.711732e-10
146	0x2f7781ff	2.2510703e-10
147	0x3396d4a9	7.023602e-08
148	0x3396e7b3	7.027065e-08
149	0x304e6e8e	7.509947e-10
150	0x338c8325	6.543113e-08
151	0x3193a53d	4.2970485e-09
152	0x32132317	8.564505e-09
153	0x30342ebc	6.555003e-10
154	0x30809bf2	9.357548e-10
155	0x3394f27f	6.935897e-08
156	0x3395150d	6.942182e-08
157	0x3103aed0	1.9162378e-09
158	0x338f0631	6.6600826e-08
159	0x3117c3cf	2.2084696e-09
160	0x319c8d18	4.556238e-09
161	0x3034be39	6.575394e-10
162	0x3080c96f	9.370477e-10
163	0x3394f383	6.9360816e-08
164	0x33950359	6.938962e-08
165	0x328d426d	1.6444767e-08
166	0x33501a93	4.8452943e-08
167	0x30f10bbb	1.7538392e-09
168	0x317f41b7	3.7144738e-09
169	0x303bf543	6.837874e-10
170	0x307e3d5a	9.249185e-10
171	0x3394f383	6.9360816e-08
172	0x33950124	6.938561e-08
173	0x00000000	0.0
174	0x32fdd4ad	2.954979e-08
175	0x3042517d	7.069259e-10
176	0x358c17cf	1.0437742e-06
177	0x358c53f3	1.0455245e-06
178	0x3317f8c8	3.5383692e-08
179	0x35649350	8.5150987e-07
180	0x342aebcd	1.5918268e-07
181	0x34786ed6	2.3137122e-07
182	0x32f50ba4	2.8527047e-08
183	0x32242c1d	9.556087e-09
184	0x358aa398	1.0329413e-06
185	0x358abcc5	1.033674e-06
186	0x33ca5a07	9.422734e-08
187	0x356e8bf1	8.886555e-07
188	0x33a54301	7.695599e-08
189	0x3413bd2c	1.3759262e-07
190	0x32f52428	2.8538196e-08
191	0x32242e27	9.55655e-09
192	0x358aa64a	1.0330198e-06
193	0x358ab03e	1.0333094e-06
194	0x34c2e4a3	3.630167e-07
195	0x351ae1fa	5.769831e-07
196	0x3370ba50	5.6048805e-08
197	0x33f6df4f	1.1495887e-07
198	0x32f960a2	2.9031359e-08
199	0x321ea9a0	9.235379e-09
200	0x358aa64a	1.0330198e-06
201	0x358aaebc	1.0332656e-06
202	0x00000000	0.0
203	0x3060c4b8	8.177028e-10
204	0x2fa817fb	3.057606e-10
205	0x33be09c9	8.8493444e-08
206	0x33be734c	8.868537e-08
207	0x306ffc5a	8.7306307e-10
208	0x33a64db7	7.7441136e-08
209	0x3228e9cc	9.832046e-09
210	0x326fb32b	1.3952369e-08
211	0x303646db	6.6311906e-10
212	0x3052dd92	7.6712425e-10
213	0x33bcdd26	8.794659e-08
214	0x33bcfedd	8.8007916e-08
215	0x31634a9d	3.307526e-09
216	0x33ad046d	8.056745e-08
217	0x31b228d0	5.1851217e-09
218	0x32120d4d	8.501343e-09
219	0x3037cadf	6.686331e-10
220	0x30539917	7.6978907e-10
221	0x33bce3fe	8.795904e-08
222	0x33bcef6a	8.7979814e-08
223	0x3282a6c1	1.5209823e-08
224	0x338e75f7	6.633848e-08
225	0x315b22d9	3.1888503e-09
226	0x31f3d338	7.0962436e-09
227	0x3044b7a7	7.156537e-10
228	0x304bd857	7.4158407e-10
229	0x33bce3fe	8.795904e-08
230	0x33bcedba	8.7976744e-08
231	0x00000000	0.0
232	0x316c259d	3.43639e-09
233	0x2f9dc0e2	2.8695185e-10
234	0x34cdcc60	3.8332928e-07
235	0x34ce30d5	3.840602e-07
236	0x31aae87a	4.9740807e-09
237	0x34c7153b	3.7082086e-07
238	0x3218ccc4	8.894123e-09
239	0x32e5a0a8	2.6732167e-08
240	0x314dda8b	2.9955654e-09
241	0x2fe3d000	4.1438852e-10
242	0x34ce0a20	3.8377857e-07
243	0x34ce0cc5	3.837978e-07
244	0x32d2783f	2.45019e-08
245	0x34c059f9	3.582825e-07
246	0x319be0c3	4.536646e-09
247	0x3250ef5b	1.2161617e-08
248	0x314ddb6b	2.995615e-09
249	0x2fe91223	4.239534e-10
250	0x34ce14db	3.8385664e-07
251	0x34ce10df	3.8382765e-07
252	0x3389ac29	6.4108754e-08
253	0x34a2b0df	3.0303542e-07
254	0x314b2fef	2.9567635e-09
255	0x322347bb	9.504158e-09

exp_avg f4 [256]
0	0x3902c96c	0.00012472802
1	0xb7c5d1bd	-2.3581897e-05
2	0x391230d3	0.00013941833
3	0xb89769c8	-7.2199444e-05
4	0x36dd5465	6.596138e-06
5	0xb857e1f0	-5.1470415e-05
6	0xb916e77a	-0.00014391346
7	0x37eae5d6	2.8002e-05
8	0x383837f1	4.3921118e-05
9	0x3596878a	1.1215318e-06
10	0xb807c3e5	-3.236895e-05
11	0x3777d6b8	1.477234e-05
12	0xb83c2e5a	-4.486586e-05
13	0xb78e32a0	-1.6951293e-05
14	0xb6dd30fa	-6.592015e-06
15	0x33ee6698	1.11014e-07
16	0xb8b5f37e	-8.6761065e-05
17	0x390cfcf3	0.00013445671
18	0xb8c7cb56	-9.526934e-05
19	0x37d14dd0	2.4950976e-05
20	0x38897fcd	6.556474e-05
21	0xb80360df	-3.1323052e-05
22	0x37b3d642	2.1438234e-05
23	0xb886da06	-6.430228e-05
24	0x38e4c384	0.00010908305
25	0x38845fb3	6.312076e-05
26	0xb8a855c1	-8.026837e-05
27	0x3842e197	4.64633e-05
28	0xb535328e	-6.750132e-07
29	0x38a9a569	8.089358e-05
30	0xb95ad158	-0.00020868087
31	0xb91de228	-0.00015056937
32	0xb91c02dd	-0.00014878386
33	0xb49b95cf	-2.898e-07
34	0x3890a097	6.896367e-05
35	0x35c405ca	1.4604823e-06
36	0x37a28bc2	1.9376985e-05
37	0x390a6ac7	0.00013200483
38	0x388a312a	6.58951e-05
39	0xb9662436	-0.00021947999
40	0x381fcb37	3.8097813e-05
41	0xb91c98c6	-0.00014934232
42	0xb88179a6	-6.173858e-05
43	0xb7ecf93b	-2.824945e-05
44	0xb93c09c5	-0.00017932717
45	0x37ee40bd	2.8401957e-05
46	0xb91804f3	-0.00014497693
47	0x389e7791	7.556298e-05
48	0xb929cdc6	-0.00016193753
49	0x37ce2576	2.4574558e-05
50	0x39196f81	0.00014632755
51	0x37fde58f	3.0266847e-05
52	0xb8862cf6	-6.3979925e-05
53	0x38bd8b0c	9.038122e-05
54	0x384805cd	4.768912e-05
55	0x383d81f1	4.518213e-05
56	0xb8635b0a	-5.4205804e-05
57	0x386912e0	5.5569108e-05
58	0xb6059f79	-1.991137e-06
59	0xb85dff83	-5.292847e-05
60	0x38906e41	6.8869915e-05
61	0xb93d7fa5	-0.00018071996
62	0x387d414c	6.0380713e-05
63	0x37f3fd38	2.9085772e-05
64	0x38dad715	0.00010435112
65	0x390535b7	0.00012703879
66	0xb848e370	-4.7895533e-05
67	0x38567e63	5.1139283e-05
68	0xb963335f	-0.00021667544
69	0x380f394a	3.414721e-05
70	0x38520e6f	5.0081344e-05
71	0x381ff4c9	3.8136528e-05
72	0xb93403ed	-0.000171676
73	0x37857758	1.591041e-05
74	0x38d10181	9.966177e-05
75	0xb9495f5b	-0.00019204376
76	0x38df929d	0.000106607775
77	0xb8943696	-7.0673574e-05
78	0xb95d59f2	-0.0002110971
79	0xb9153b92	-0.00014231939
80	0x3435fc23	1.6948665e-07
81	0x37cce1f6	2.4423916e-05
82	0x3825d697	3.9538918e-05
83	0x381f0a9e	3.7918442e-05
84	0xb906a39e	-0.00012840188
85	0xb8a81371	-8.0144855e-05
86	0xb86c9b4f	-5.6411427e-05
87	0x3861e39e	5.3856165e-05
88	0xb920c031	-0.00015330386
89	0xb85d78fc	-5.280318e-05
90	0x365ce6d5	3.2916917e-06
91	0xb808748d	-3.2533473e-05
92	0x38525134	5.0143528e-05
93	0xb51cdb2e	-5.8433477e-07
94	0x382e4a8d	4.1554264e-05
95	0xb8b35e2e	-8.5529275e-05
96	0xb82fc5e4	-4.190755e-05
97	0x378a9619	1.6520777e-05
98	0x37744cb8	1.4561396e-05
99	0xb926b887	-0.00015899735
100	0xb910d227	-0.00013811198
101	0xb68bcee4	-4.166608e-06
102	0xb81c5584	-3.727294e-05
103	0xb9122436	-0.00013937135
104	0xb941a94f	-0.00018468987
105	0x38043627	3.1521686e-05
106	0xb8143c91	-3.5342357e-05
107	0x3782965f	1.556723e-05
108	0x38ef485d	0.00011409887
109	0xb7c850ff	-2.3879575e-05
110	0xb50ff5a5	-5.362911e-07
111	0x389b2d4b	7.3994124e-05
112	0x36261255	2.4746598e-06
113	0x3819374b	3.652954e-05
114	0xb980e988	-0.00024588057
115	0x37cab473	2.4164305e-05
116	0x382f1895	4.1746145e-05
117	0x390e5992	0.00013575543
118	0xb702c31f	-7.794034e-06
119	0xb8ddf5c3	-0.00010583878
120	0x386cfca7	5.6502085e-05
121	0x38c58d8a	9.420056e-05
122	0x355bbe14	8.186046e-07
123	0x376d0492	1.4127365e-05
124	0x3716e485	8.993903e-06
125	0x38c0caf9	9.19308e-05
126	0xb9311cc5	-0.00016890753
127	0x38a1422c	7.689404e-05
128	0x3821106c	3.8400685e-05
129	0xb83a61af	-4.443683e-05
130	0xb896334b	-7.1621114e-05
131	0x3933786c	0.00017115631
132	0xb93215ec	-0.0001698357
133	0x37d49e30	2.5346031e-05
134	0x38ce3fa0	9.8346965e-05
135	0x37832184	1.5632024e-05
136	0x381b235e	3.6987818e-05
137	0x3784522c	1.577389e-05
138	0xb7987e59	-1.8178647e-05
139	0xb904761e	-0.00012632503
140	0x3702a9a3	7.7881e-06
141	0xb7dea2e3	-2.6540312e-05
142	0x3766f83b	1.3766864e-05
143	0xb5b1ac4f	-1.3237676e-06
144	0xb898386c	-7.258434e-05
145	0xb885579d	-6.3582534e-05
146	0x39132737	0.00014033621
147	0x390826c5	0.00012984413
148	0xb8b4f026	-8.6278e-05
149	0xb7e7b53b	-2.7621738e-05
150	0x3917523f	0.00014431121
151	0xb85dd1df	-5.2885964e-05
152	0x38070489	3.2190732e-05
153	0x3945b140	0.00018853415
154	0xb771fc63	-1.4423483e-05
155	0xb8f4c7fb	-0.00011672076
156	0xb9223d36	-0.00015472327
157	0xb7eb2fa2	-2.8036364e-05
158	0x368bd738	4.1675776e-06
159	0x384a250f	4.8195066e-05
160	0xb7f288db	-2.8912376e-05
161	0xb961ca5e	-0.0002153306
162	0xb88cbfb4	-6.711428e-05
163	0xb9506d17	-0.00019877065
164	0xb80b2b40	-3.3180462e-05
165	0xb92da546	-0.00016560135
166	0x36c5c2da	5.893741e-06
167	0xb9097e72	-0.00013112443
168	0x376c6053	1.4089123e-05
169	0xb85d2b2c	-5.2730713e-05
170	0x37f4264e	2.9104904e-05
171	0x38394dbc	4.4179833e-05
172	0xb92662eb	-0.00015867843
173	0x388ff2bc	6.863984e-05
174	0xb94e0018	-0.00019645726
175	0x3781cd71	1.5473664e-05
176	0x3911413c	0.0001385258
177	0xb8a9a5a9	-8.0894046e-05
178	0x38f1934a	0.0001151921
179	0xb8aa891c	-8.13177e-05
180	0x35955a01	1.112756e-06
181	0x378b2344	1.6586513e-05
182	0xb7ad3599	-2.0648165e-05
183	0x36fe4284	7.5775333e-06
184	0xb7906e8f	-1.721762e-05
185	0x38465c34	4.729275e-05
186	0x38c741f0	9.501341e-05
187	0x3872d452	5.7895035e-05
188	0x380e2aff	3.389548e-05
189	0xb8a2c838	-7.7620556e-05
190	0x3899500f	7.3105206e-05
191	0x383b4b2b	4.465428e-05
192	0x38c1fdf9	9.250263e-05
193	0x388e6a2f	6.790866e-05
194	0xb780da26	-1.5360372e-05
195	0x38c86624	9.555768e-05
196	0x38a6c4cc	7.952153e-05
197	0x372154d4	9.616098e-06
198	0x381a533a	3.6793972e-05
199	0x38148129	3.540624e-05
200	0xb9624231	-0.00021577698
201	0xb93d23c5	-0.0001803777
202	0xb8e1eba9	-0.00010772731
203	0xb94a3f9b	-0.00019287916
204	0x37e57797	2.7354616e-05
205	0xb8b9d6bc	-8.861485e-05
206	0x37ab356a	2.0409661e-05
207	0xb8d0582b	-9.9346355e-05
208	0x38c8cc0e	9.574751e-05
209	0x37bf09e4	2.277358e-05
210	0x37db344c	2.6131187e-05
211	0x39136c77	0.00014059419
212	0xb91ff76a	-0.0001525559
213	0xb831401d	-4.22598e-05
214	0x37faf7f2	2.9917781e-05
215	0xb90b67da	-0.0001329476
216	0xb79816e4	-1.8130471e-05
217	0x353608a0	6.7812834e-07
218	0xb7ea6235	-2.7940705e-05
219	0x386e58db	5.6826375e-05
220	0xb664e74c	-3.410928e-06
221	0xb8bbd0ce	-8.955748e-05
222	0xb91291dc	-0.00013977982
223	0x38375f08	4.3719105e-05
224	0x368b5967	4.1529306e-06
225	0x38b13085	8.449055e-05
226	0x31987fe0	4.43832e-09
227	0x38d86636	0.00010318721
228	0xb93e2b53	-0.00018135952
229	0x3891630a	6.932586e-05
230	0x36835bfa	3.9148117e-06
231	0xb8b66534	-8.697287e-05
232	0x38394873	4.417491e-05
233	0x388b0a46	6.62995e-05
234	0xb813bbbc	-3.5222372e-05
235	0x36f59560	7.3189585e-06
236	0xb969ee33	-0.00022309348
237	0x38da5966	0.00010411702
238	0xb751babc	-1.2500848e-05
239	0xb832f8b4	-4.267013e-05
240	0xb8dce93f	-0.00010533863
241	0x37f9801d	2.974277e-05
242	0x3839d1bd	4.430277e-05
243	0xb8f938d8	-0.00011883833
244	0xb8c872ed	-9.55815e-05
245	0xb625a0cd	-2.4680514e-06
246	0x381a97ea	3.6857942e-05
247	0xb93b29b6	-0.00017849248
248	0x37e2884e	2.7004771e-05
249	0xb6528bd4	-3.137383e-06
250	0x38c5a5ae	9.424552e-05
251	0x3937351a	0.00017472022
252	0x37b28fdc	2.1286243e-05
253	0x38132603	3.5082932e-05
254	0x38a80d2a	8.013316e-05
255	0xb85417a1	-5.0566745e-05

exp_avg_sq f4 [256]
0	0x35b2b690	1.3315166e-06
1	0x33d4d4ae	9.9107055e-08
2	0x361ff5bb	2.383588e-06
3	0x348b263d	2.591859e-07
4	0x32492f32	1.1710471e-08
5	0x33991fc9	7.1303994e-08
6	0x35904e5b	1.075164e-06
7	0x33c0eb4e	8.9834984e-08
8	0x34d00276	3.874481e-07
9	0x2f6ca5b2	2.1522942e-10
10	0x3345cfd9	4.6056673e-08
11	0x32ed583c	2.7630556e-08
12	0x349f131a	2.9629956e-07
13	0x325a360b	1.2701558e-08
14	0x320a9405	8.066313e-09
15	0x2ff90851	4.5298745e-10
16	0x35077ccb	5.0473017e-07
17	0x3542dd63	7.259279e-07
18	0x35595543	8.096287e-07
19	0x33e505e9	1.06647185e-07
20	0x345db11b	2.064666e-07
21	0x339f8d7e	7.429752e-08
22	0x32ab83bb	1.9966924e-08
23	0x34c3fbb1	3.650471e-07
24	0x360ec922	2.1276724e-06
25	0x3583119b	9.765384e-07
26	0x353e54ec	7.0904093e-07
27	0x34cc9b8e	3.8111142e-07
28	0x30f7ce4f	1.8030252e-09
29	0x3562b083	8.444842e-07
30	0x36541eac	3.1608315e-06
31	0x362a893d	2.5411857e-06
32	0x36103d57	2.1493377e-06
33	0x307a976e	9.1164665e-10
34	0x350da4b4	5.276627e-07
35	0x3215c638	8.718011e-09
36	0x331752db	3.5232784e-08
37	0x35fe938e	1.8967419e-06
38	0x3528a510	6.2825075e-07
39	0x36818f50	3.8611834e-06
40	0x3379bb5f	5.8145243e-08
41	0x3589c589	1.0264786e-06
42	0x35582533	8.05204e-07
43	0x33141288	3.447579e-08
44	0x361dd16c	2.3516723e-06
45	0x33d617d6	9.969487e-08
46	0x362a33cf	2.536213e-06
47	0x3501588e	4.818511e-07
48	0x36045e41	1.9724396e-06
49	0x3365ec36	5.353305e-08
50	0x362e01e9	2.5929132e-06
51	0x34a27b91	3.0264758e-07
52	0x342a752b	1.5875109e-07
53	0x35ad6505	1.2918905e-06
54	0x34740df1	2.2729343e-07
55	0x34e00d9a	4.1733148e-07
56	0x349f0d1c	2.9625596e-07
57	0x349d2292	2.9268682e-07
58	0x313b02ba	2.7213631e-09
59	0x34b56888	3.3789934e-07
60	0x34e8ea7d	4.338398e-07
61	0x367bddca	3.7531013e-06
62	0x34c62044	3.690385e-07
63	0x33dd7b1e	1.0313509e-07
64	0x3541b128	7.21559e-07
65	0x35fa21da	1.8636304e-06
66	0x3499158c	2.8514148e-07
67	0x35400474	7.1532054e-07
68	0x366b3354	3.5047606e-06
69	0x3429707d	1.5780275e-07
70	0x34dee2d3	4.151576e-07
71	0x34801a93	2.3861193e-07
72	0x3659c2db	3.244894e-06
73	0x338dcd75	6.6031966e-08
74	0x358ebb74	1.063438e-06
75	0x359b7fec	1.158563e-06
76	0x3528bee7	6.2862676e-07
77	0x34d20776	3.9120977e-07
78	0x35f05ec9	1.790898e-06
79	0x35b163d3	1.321658e-06
80	0x2ef5da70	1.11801124e-10
81	0x3420ac2b	1.4963796e-07
82	0x350cd4d3	5.2463764e-07
83	0x3480f012	2.4016532e-07
84	0x35a7d125	1.2503339e-06
85	0x34565b15	1.9963439e-07
86	0x34487169	1.866771e-07
87	0x34cd2bd2	3.821611e-07
88	0x356bede4	8.78905e-07
89	0x347d9ef3	2.3620287e-07
90	0x320a7436	8.0590805e-09
91	0x342404b9	1.5275408e-07
92	0x3563c448	8.4849717e-07
93	0x30db1405	1.5940037e-09
94	0x3428aacd	1.5708356e-07
95	0x357df6e4	9.460912e-07
96	0x34799b1e	2.3246363e-07
97	0x3347631b	4.6423434e-08
98	0x3275a191	1.4297613e-08
99	0x362c335e	2.5659897e-06
100	0x35c90ff8	1.4980315e-06
101	0x31fb25d3	7.3093616e-09
102	0x33aca3e1	8.0391835e-08
103	0x35d2ccd4	1.5705832e-06
104	0x3649bb89	3.0060494e-06
105	0x34795e59	2.3224256e-07
106	0x333a2b73	4.3346017e-08
107	0x330d053b	3.2833878e-08
108	0x364003f2	2.8612526e-06
109	0x3312e7eb	3.4204202e-08
110	0x2e3bd4d0	4.2707893e-11
111	0x34e96c4b	4.3478425e-07
112	0x30153dd7	5.4293764e-10
113	0x33b3c260	8.370694e-08
114	0x364f2410	3.0866395e-06
115	0x33fab305	1.1674096e-07
116	0x345ad926	2.038183e-07
117	0x35ee4bc5	1.7754434e-06
118	0x32660624	1.3389158e-08
119	0x359411e3	1.1032065e-06
120	0x34b9cfdb	3.461017e-07
121	0x35b46b59	1.3442287e-06
122	0x3141a7c0	2.8180551e-09
123	0x3323375c	3.8001744e-08
124	0x322f29f9	1.0195884e-08
125	0x36199483	2.2885222e-06
126	0x3611803f	2.1681333e-06
127	0x3547e0c7	7.446037e-07
128	0x3451bbbf	1.9532943e-07
129	0x34ac95b1	3.214641e-07
130	0x352e9895	6.504209e-07
131	0x36370cda	2.7276606e-06
132	0x3611b553	2.1712228e-06
133	0x34b613df	3.39146e-07
134	0x35aa0506	1.2667449e-06
135	0x32a2efd6	1.8968347e-08
136	0x34274c8a	1.5580932e-07
137	0x329c1be9	1.8173482e-08
138	0x32aaa035	1.9863458e-08
139	0x3553f578	7.896083e-07
140	0x327faf6d	1.4882841e-08
141	0x32b19e48	2.067749e-08
142	0x32b8d765	2.151837e-08
143	0x320a831a	8.062466e-09
144	0x35169f95	5.6111577e-07
145	0x34c7a4ef	3.7186643e-07
146	0x368b9da5	4.160875e-06
147	0x362bdfe7	2.5611314e-06
148	0x35273cd2	6.2300853e-07
149	0x32c4000e	2.2817428e-08
150	0x36192280	2.2818858e-06
151	0x33f97c08	1.1617527e-07
152	0x34a038ba	2.9843596e-07
153	0x363b52bd	2.7913331e-06
154	0x32f3a859	2.8365479e-08
155	0x35c7b9bc	1.4880711e-06
156	0x35a694d3	1.2411277e-06
157	0x33cd57a8	9.562001e-08
158	0x313ab63b	2.7170148e-09
159	0x34c2a513	3.6255423e-07
160	0x33f9d9f0	1.1634609e-07
161	0x3626c78f	2.4852086e-06
162	0x350d073d	5.2537126e-07
163	0x3665ee26	3.426228e-06
164	0x3417f02e	1.4150348e-07
165	0x35ee0da9	1.7736357e-06
166	0x31e128e0	6.553009e-09
167	0x3597d648	1.1312741e-06
168	0x3318727c	3.549438e-08
169	0x34a2d789	3.0331674e-07
170	0x339e840e	7.381469e-08
171	0x3439251f	1.7242972e-07
172	0x35d5584d	1.5895436e-06
173	0x356d1638	8.832171e-07
174	0x368f20ec	4.2655647e-06
175	0x33564646	4.988967e-08
176	0x35bd024c	1.4082266e-06
177	0x351d3178	5.8559044e-07
178	0x3516be83	5.6156586e-07
179	0x35068223	5.0108264e-07
180	0x306538cd	8.3390433e-10
181	0x3194af0a	4.3272665e-09
182	0x32893f70	1.5977747e-08
183	0x325ae8bf	1.274219e-08
184	0x3312b64f	3.4159083e-08
185	0x3497451a	2.817622e-07
186	0x35318415	6.6129843e-07
187	0x34ca0abc	3.7633242e-07
188	0x3404b9b6	1.2361019e-07
189	0x356b469d	8.764708e-07
190	0x34fc230f	4.6964166e-07
191	0x347664d3	2.2947215e-07
192	0x356f32bd	8.910827e-07
193	0x350d7d7e	5.270921e-07
194	0x33705e24	5.5964975e-08
195	0x3562da29	8.4509026e-07
196	0x3577ba5e	9.228587e-07
197	0x32bbf5b3	2.1881396e-08
198	0x346a933f	2.1846516e-07
199	0x345d6189	2.0617712e-07
200	0x362db78b	2.5885845e-06
201	0x36551169	3.1749607e-06
202	0x352bfea1	6.4073e-07
203	0x3600726f	1.9140095e-06
204	0x33a2f212	7.587745e-08
205	0x3554dd46	7.929815e-07
206	0x32740b09	1.4205178e-08
207	0x35aa5322	1.2690182e-06
208	0x35caa99f	1.5099539e-06
209	0x3388159c	6.336924e-08
210	0x3458e812	2.0200994e-07
211	0x3619c892	2.2915524e-06
212	0x361a6032	2.3003781e-06
213	0x34822d4d	2.4247348e-07
214	0x3424186d	1.5282576e-07
215	0x361f61ad	2.37497e-06
216	0x32c9a4c4	2.3474406e-08
217	0x2e99f563	7.001224e-11
218	0x3394f3b7	6.9361185e-08
219	0x349f5c71	2.9683318e-07
220	0x31a4856d	4.788197e-09
221	0x357d1e93	9.4294336e-07
222	0x35e8f746	1.7357313e-06
223	0x3453bcb3	1.9719555e-07
224	0x30ca5b64	1.4723409e-09
225	0x35bd8bc3	1.4122273e-06
226	0x2f35ebc0	1.654561e-10
227	0x35cf77c4	1.5457558e-06
228	0x3629e3d3	2.5315574e-06
229	0x350e627d	5.304244e-07
230	0x2faa94df	3.10286e-10
231	0x34749ad4	2.2780597e-07
232	0x350168a5	4.820852e-07
233	0x34de249f	4.1377368e-07
234	0x34575d58	2.0057394e-07
235	0x319d8292	4.5841455e-09
236	0x3616518c	2.2399208e-06
237	0x35cfc2dc	1.5479413e-06
238	0x3398094f	7.079745e-08
239	0x33d9b7b9	1.0138269e-07
240	0x35bd21e3	1.409146e-06
241	0x34050b80	1.2390774e-07
242	0x34b847cc	3.432491e-07
243	0x35ad9329	1.2932334e-06
244	0x35a365c0	1.217406e-06
245	0x32440450	1.1409682e-08
246	0x343cd017	1.7584567e-07
247	0x35f83a60	1.8494429e-06
248	0x339f62a6	7.4219585e-08
249	0x30a2021c	1.1787651e-09
250	0x35ec534d	1.7607614e-06
251	0x3667c2b1	3.4535008e-06
252	0x33a80f99	7.825947e-08
253	0x33d3d8a6	9.864861e-08
254	0x34d12153	3.895353e-07
255	0x3441ba37	1.804227e-07
