ml-agents-release_20/Result/Dino/Dino03/Dino/Dino-499942.pt (torch, 205607 bytes, 21 tensors)

network_body._body_endoder.seq_layers.0.weight f4 [256, 29]
000000 bd 7b b2 3d 5c d1 8d 3e 21 f0 04 3d 6f eb 87 3e
       0.087150075 0.2769879 0.032455567 0.2654681
000010 fc 72 21 3e 69 a6 dd 3e ed 90 41 3d c9 04 14 3b
       0.1576652 0.43291023 0.047257353 0.002258586
000020 8b 4b 94 be 80 91 5d 3e c8 51 95 bc e1 2c 38 bd
       -0.28963885 0.21637535 -0.018227473 -0.044964675
000030 98 34 b0 3e 25 8b a3 bd fb 10 42 3e 34 e7 3a 3c
       0.34415126 -0.07985524 0.1895179 0.011407662
000040 27 b8 1e 3e ad cf d6 39 e4 22 ec bd 26 1b 9c 3d
       0.15499936 0.0004097199 -0.11530092 0.07622366
000050 86 31 8a be 6c 35 49 bd d2 ef 14 3e 96 6b 30 be
       -0.26990908 -0.049123213 0.14544609 -0.17228541
000060 aa 13 85 be 44 71 d3 3b 81 5b 6c be 63 01 88 3d
       -0.25991565 0.0064527113 -0.23081781 0.066408895
000070 2e 51 a9 3c 02 e5 6a 3e a0 a4 81 be 9f 41 87 3d
       0.020668592 0.22938922 -0.2532091 0.06604313
000080 8b 8b 90 3e 94 7f 2e 3e fb 45 8f bc 39 c1 73 bb
       0.28231463 0.17040855 -0.017489424 -0.0037194027
000090 b2 ff 24 3d 10 e6 5b be fb d4 48 3e 0e 34 94 3e
       0.040282913 -0.2147448 0.19612496 0.28945965
0000a0 91 f8 19 3c 6d 9b 3c bd 83 4c 81 3e ad a5 1d 3c
       0.009397642 -0.046046663 0.25253686 0.00962202
0000b0 e7 de a6 be 43 b5 60 bd e7 96 62 3e 1a 64 98 bd
       -0.32591936 -0.054860365 0.22127877 -0.07440968
0000c0 82 fb 2a 3d eb 63 f8 3c 3a a2 a2 3d 52 fb 6f 3d
       0.041743763 0.030321082 0.079410985 0.058589287
0000d0 f3 af ae bd 8e fc a6 3d a3 58 53 bd e2 b3 21 3e
       -0.085296534 0.0815364 -0.051598202 0.15791276
0000e0 29 a4 23 3e 30 b4 68 bd eb 6c 3d 3e 4a 3f 9a 3e
       0.15980591 -0.056812465 0.1849858 0.3012641
0000f0 82 6f 53 3e 41 2d 88 be 07 b5 31 3e 01 f9 88 3e
       0.20648006 -0.26597026 0.17354213 0.26752475
000100 b2 c4 cd be 8d 71 f6 3d 64 1b eb bc f6 0d b0 be
       -0.4018913 0.12033377 -0.028699584 -0.3438565
000110 bc e3 90 bd d8 c5 05 3e 50 d0 6c 3e ba 33 e5 3d
       -0.07074687 0.13063753 0.2312634 0.11191507
000120 9c 5a b3 3e e5 e0 98 3e 3d 95 a8 be 0d 16 87 bc
       0.35030067 0.2985908 -0.3292636 -0.016490007
000130 4a 68 28 3d 6a 7e e9 bd 75 7a 9f 3e 34 2d 3b 3c
       0.041115083 -0.11401065 0.31148115 0.0114243515
000140 6b 4f bb bd a2 1d e8 3c ad 6b 1e be 62 9f d0 ba
       -0.09146007 0.028334443 -0.15470763 -0.001591664
000150 d4 75 21 3c 60 f3 5c be d3 c9 7e 3e 63 fd 32 be
       0.009854753 -0.21577215 0.24881677 -0.17479472
000160 51 a3 85 3e a9 5c cf 3a 0b 28 4f 3e 0d 1b 64 bd
       0.26101163 0.0015820462 0.20230119 -0.05568986
000170 68 74 19 be 94 33 2f be 3f da ea bd 43 86 ec bc
       -0.14985812 -0.17109519 -0.114674084 -0.028872615
000180 54 1d 22 3d 2c 75 17 3e 29 dc 85 3d 86 86 1f be
       0.03957875 0.14790791 0.06536133 -0.1557866
000190 1a 7f 1d 3e 35 97 f5 bd 1d fa 27 3d db 26 aa bd
       0.15380517 -0.11991731 0.04101001 -0.08308192
0001a0 ad 44 2d 3d 9a 57 f7 3e 3a 8d 75 bd bd 54 28 3d
       0.042301822 0.48309022 -0.059949137 0.041096438
0001b0 bf 46 dd be 35 6f 42 3e c0 6e b9 bd 6f a5 33 3e
       -0.43218037 0.18987735 -0.09054327 0.17543577
0001c0 c3 de 2f 3e 4e 24 ce bd 80 f9 4d be a7 0a 8d 3e
       0.1717482 -0.10065518 -0.20114708 0.2754719
0001d0 65 c5 de 3c 86 7b 5f 3e 83 64 1c 3e f0 ff 15 3e
       0.027193734 0.21824464 0.15272717 0.14648414
0001e0 dc fd 76 bd 54 57 a4 3d 6a a6 f4 bd ec 33 9b 3e
       -0.060300693 0.08024469 -0.119458035 0.3031305
0001f0 c6 f3 3d be 9d 33 8c be 35 88 b2 3e d4 fc cf 3d
       -0.18550023 -0.27383128 0.34869543 0.10155645
000200 28 32 47 3d cb 99 7b 3d 7f b2 f2 3d e2 c9 d1 bc
       0.048631817 0.061425965 0.11850452 -0.02560896
000210 0d 28 8a be 7b 5f 2e be 02 03 c4 3d 40 34 55 3e
       -0.2698368 -0.1702861 0.09570886 0.20820713
000220 20 a9 10 be b6 a5 0f be 59 ef 2a be d3 67 86 3e
       -0.14127016 -0.14028057 -0.16692866 0.26251087
000230 bd b4 7c be b6 36 82 bd 7a 6b 14 be 18 d0 79 3d
       -0.24678321 -0.063580915 -0.14494124 0.06098947
000240 dd e9 1a be af 08 a6 3d 20 77 d9 bd 93 19 54 bd
       -0.15128274 0.08107125 -0.106184244 -0.051782202
000250 19 55 07 3e 48 4a 5b 3e 05 2d a9 3d 23 29 c3 bd
       0.13216056 0.21415055 0.0826054 -0.095293306
000260 ba 49 a0 3d 52 dc 81 3d 57 dd 77 be fa ca 12 be
       0.07826562 0.06340851 -0.24205528 -0.14335242
000270 42 d0 77 3c b2 c9 4d be 79 7a c1 3e f5 1c 82 3e
       0.015125336 -0.20096472 0.37788752 0.25412717
000280 b9 50 84 3e 5f 69 24 be 7e 6d ec bc d4 fa 9b be
       0.25842836 -0.16055821 -0.028860804 -0.30464804
000290 be fc 48 be d8 53 2a 3e 67 1b 08 be 62 68 39 be
       -0.19627663 0.16633546 -0.13291703 -0.18106225
0002a0 c7 ec 40 be 2a 75 49 be a6 b0 60 3e 01 d3 9e be
       -0.18840323 -0.19673601 0.21942386 -0.31020358
0002b0 ab 5d 88 3e 1c 5c 33 be ab ef 35 3c 1f 59 83 be
       0.26633963 -0.17515606 0.011104505 -0.25653931
0002c0 b7 cb 52 3e 5a 77 1f be cd b1 b0 3d 01 67 6f be
       0.20585524 -0.15572873 0.08627663 -0.23379137
0002d0 84 10 85 3e 9b 0a 3b bc 2f a8 c3 3d 75 31 ca bd
       0.25989163 -0.011416103 0.09553563 -0.098727144
0002e0 5e 65 a9 3c e8 50 26 be 25 61 1f 3e 3a cb 85 3e
       0.020678218 -0.16241801 0.15564401 0.26131612
0002f0 cb 59 1d be 90 50 2a 3c d5 52 1d 3d 39 44 d3 bd
       -0.15366285 0.010395184 0.038409073 -0.10315747
000300 5b d7 3e bc 13 c8 db 3d 25 56 ab 3e 38 8c 5f be
       -0.011648024 0.107315205 0.3346416 -0.21830833
000310 ed b9 05 3e c5 55 5b 3e ff 66 8f 3e 4e 21 9b 3e
       0.13059206 0.21419437 0.28008267 0.30298847
000320 de ed 4c 3d 54 9b 1c 3e 98 0d 2e 3c 2e fc 06 3d
       0.050031535 0.15293628 0.010623358 0.03295534
000330 e5 77 1f 3e e5 62 29 3e b2 8c 00 3e c1 d2 c1 3d
       0.1557308 0.16541632 0.12553671 0.09464026
000340 f8 a2 0d 3e 47 2d 7c 3e 67 a0 93 be d8 75 f8 3d
       0.13831699 0.24626647 -0.28833315 0.12131852
000350 0b e3 d6 3e 3b 0b 99 3e 1e a4 a0 bd 48 1e f0 3d
       0.41970095 0.2989138 -0.07843803 0.11724526
000360 b2 d0 a3 bd 17 de 4d 3e d7 8a 66 3e 24 d2 70 be
       -0.0799879 0.20104252 0.225139 -0.23517662
000370 60 c2 02 be 48 52 01 3e 36 41 31 3e 62 0e f1 bd
       -0.1276946 0.12629044 0.17310032 -0.117703214
000380 44 85 8c 3e 74 6e 72 be 4b c8 e8 3d a7 a8 63 3e
       0.27445424 -0.23674947 0.11366328 0.22232305
000390 76 db 98 bd 84 af 08 bd 0f ea d0 bd 1c ef e0 bd
       -0.07463734 -0.03337051 -0.10200893 -0.109831065
0003a0 78 bf a2 3d d6 3c 86 3d c5 2e d1 3d 62 44 b3 bd
       0.07946676 0.06554572 0.10213999 -0.08753277
0003b0 1c a0 01 bc f6 38 b2 bd d6 bc 62 be cd 0b eb bc
       -0.007911708 -0.08702271 -0.22142348 -0.02869215
0003c0 38 9e bc bd d4 79 23 be 51 e8 86 3e 56 e4 e2 3d
       -0.09209865 -0.15964442 0.26349118 0.11078708
0003d0 da 48 f9 3d b2 7c 29 be 84 6b 12 3d 53 aa 9d be
       0.121720985 -0.16551474 0.035747066 -0.3079401
0003e0 ae cf 62 be ad 41 5f 3e 9a ed 3e 3b 30 46 28 be
       -0.22149536 0.21802397 0.002913332 -0.16433024
0003f0 e4 47 97 3c 08 e5 08 3d fd 81 e7 bd a8 2a de bd
       0.018466897 0.033421546 -0.1130409 -0.1084798

network_body._body_endoder.seq_layers.0.bias f4 [256]
000000 f4 f2 e7 3c 2a bd aa bb a7 bf d1 3c c0 cc 88 3c
       0.028314091 -0.0052105384 0.025604082 0.016699195
000010 46 29 8c bb 78 e9 7c 3c 2a 5b f6 3c c4 ba 80 bb
       -0.004277381 0.015436523 0.030072767 -0.003928514
000020 97 eb 85 bb 7b e2 ea 3c c8 e3 a7 3d 02 c6 3b bc
       -0.0040869224 0.028672447 0.08197743 -0.011460783
000030 eb 73 21 3c f4 37 f3 ba b9 95 2c 3d 57 f9 f0 3c
       0.009854297 -0.0018556104 0.042134974 0.02941577
000040 82 72 62 3c db 9a 93 3d 08 52 52 3c 76 3b 9f bb
       0.013821246 0.07207271 0.012836941 -0.004859383
000050 ba ca 8e 3b 2a 8a 7a 3d 9e bb 5c bc ea dd 3e 3c
       0.004357663 0.06116692 -0.013472466 0.011649588
000060 5a cf 00 3d 3f 5f 9c 3c 8b 96 ad 3c f3 a6 cf 3b
       0.031447746 0.019088386 0.021189949 0.0063370406
000070 69 08 ac ba 8c 85 f4 3b 92 d3 52 3d 2a c5 de 3c
       -0.0013125065 0.007462209 0.0514713 0.027193625
000080 99 24 4c 3d 83 15 15 bd 94 8a 7a bb 10 6c 68 bb
       0.04983959 -0.03639747 -0.0038229572 -0.00354648
000090 14 44 77 ba 5e 0e 87 3c 16 fa 15 3d 66 ad 37 3d
       -0.00094324467 0.016486343 0.036615454 0.0448431
0000a0 d0 8f 48 b9 35 a8 15 3d 6a ea da 3c ff 05 15 3d
       -0.0001912706 0.036537368 0.026723105 0.03638267
0000b0 37 9b cf 3c 81 62 68 3a 7d a4 03 3d ba ea a6 39
       0.025342567 0.0008864776 0.03213929 0.00031836872
0000c0 6c 2f 44 3d 1e 50 20 bb 09 92 d1 3c c1 7c 1b 3c
       0.047896788 -0.0024461816 0.02558233 0.009490193
0000d0 c8 00 27 3d a5 ee 92 3c 59 85 b6 3c 65 69 2c 3c
       0.04077223 0.01793606 0.022280382 0.010523175
0000e0 27 6d 41 3c b6 13 ce 3b ba 10 2f 3c 9c 09 2b 3c
       0.011805809 0.006288971 0.01068514 0.010439303
0000f0 a6 89 cd 3c b7 c9 7f 3d 97 9e 92 bb 34 b2 63 3c
       0.02509005 0.06244823 -0.004474472 0.013897467
000100 97 1e 21 3c b5 97 76 3c 94 02 1e 3b 61 f3 12 3c
       0.009833953 0.015050818 0.0024110423 0.008969159
000110 1a aa 33 3d de e0 95 ba 5f 3c a8 3c 9b 92 d7 3a
       0.043863393 -0.0011434813 0.0205366 0.001644689
000120 6d 5e 24 3d b1 1f 10 39 2f b8 38 3c 23 25 21 3d
       0.040129114 0.00013744716 0.011274382 0.039342057
000130 14 7e 21 3d 17 8e 36 3d 07 ca 3f 3d a5 4f bb 3c
       0.039426878 0.0445691 0.046823528 0.022865126
000140 d4 08 5d ba 21 f9 6b bb 93 12 c1 3c 7c 08 b9 bb
       -0.00084317965 -0.0036006647 0.023568427 -0.0056467634
000150 3c 26 01 3d 5a 88 4e 3d de 06 83 3b 17 f5 ea 3b
       0.031530604 0.050423004 0.0039986214 0.0071703303
000160 00 57 d7 3d ac 75 ca 3b f1 d9 9f bb 0e 9d 4e 3c
       0.10514641 0.0061785784 -0.0048782756 0.012610687
000170 63 91 38 3c 6e 91 a3 3c 31 45 27 3b a1 c8 8a 3c
       0.011265132 0.019966807 0.002552342 0.01694137
000180 1d e8 95 3b cc 06 de 3b b2 ee ef bb 59 34 02 3d
       0.004574789 0.0067757126 -0.007322156 0.031788204
000190 60 a9 0a 3d f1 87 1e 3c 6b de df 3c 74 67 fe 3c
       0.033852935 0.009675966 0.027327737 0.03105519
0001a0 ae ce b8 3d 70 33 2d 3b 7b 72 ee 3c a9 47 f8 3c
       0.09023796 0.0026428364 0.029107323 0.030307608
0001b0 99 62 27 3d 82 70 48 bb 29 7d 93 3c 32 d9 b9 3b
       0.040865514 -0.0030584638 0.018004017 0.0056716437
0001c0 3b e0 af ba bc 64 88 3b 88 a2 65 3d 03 6f b9 3b
       -0.0013418266 0.004162399 0.056063205 0.0056589856
0001d0 65 4a 30 bc 61 a6 9d 3c 33 a4 1f bc ba 08 ac 3c
       -0.010759925 0.019244375 -0.009743738 0.021000255
0001e0 92 d4 73 3a 1a 3d 9a 3c 6a 05 a9 bb d1 4d ef 3c
       0.000930139 0.018827964 -0.005158116 0.02921191
0001f0 dd 0b b6 bb 32 f5 cf 3c 58 33 ee 3c ef 44 12 3c
       -0.0055556134 0.025385473 0.029077217 0.008927568
000200 91 9f bf 3a cf 4f b6 3b 8f 80 12 3c 94 25 b1 3c
       0.0014619698 0.005563713 0.008941784 0.021624364
000210 05 43 09 3d 96 3d 5a 3c 76 2c 16 3d 3b 7c d5 3c
       0.03351118 0.013320347 0.036663495 0.026060214
000220 7f c9 31 3d 2c 53 a1 3c b8 37 19 3d 4b f1 2c 3d
       0.043405052 0.01969298 0.037406653 0.042222302
000230 00 b5 89 3b 9d a9 20 3c e4 9f 2c 3d 8e 8f 1a bc
       0.004202485 0.009806064 0.04214467 -0.00943364
000240 90 6f 98 3c 94 0f 2b 3d eb 0c 1f 3d 3c 1c f5 3c
       0.018607885 0.041762903 0.03883068 0.02992069
000250 a4 b1 16 3d 2b 78 00 bc 95 fe aa 3c 9e d4 6d 3d
       0.036790505 -0.00784115 0.020873347 0.058064096
000260 7f fa 3f 3c f9 38 72 3d 96 a4 03 38 4c 21 0f 3d
       0.011717438 0.059136365 3.1386116e-05 0.034943864
000270 79 d0 19 3d 82 63 6f 3b e3 0d a3 bb e6 79 94 38
       0.03755233 0.0036527817 -0.0049760207 7.079895e-05
000280 11 dc 95 bb 46 74 15 3d 31 12 9b 3c c8 ff 34 3d
       -0.004573353 0.03648784 0.018929573 0.044189245
000290 32 77 00 3c db 9e e5 3c 67 c4 ae 3a 92 2a a2 3d
       0.007840918 0.02802985 0.0013333679 0.07918276
0002a0 26 a4 85 ba 4e 0d 2c 3b 2c 7a ae 3c fb b7 c9 bb
       -0.0010196015 0.0026253047 0.02129849 -0.0061559654
0002b0 5e 17 c8 3c 2e f4 63 3c ed 6a 26 3d c1 82 47 3c
       0.024425205 0.013913197 0.040629316 0.01217717
0002c0 6e 3c f1 3c 9a 8b 1c 3d 18 55 39 3d 8e 76 22 3c
       0.02944776 0.038219072 0.045247167 0.009915961
0002d0 68 4f 70 3b 66 89 a0 3c c5 65 9b bb 52 1b 95 bb
       0.0036668424 0.019596767 -0.0047423565 -0.004550376
0002e0 12 02 dd ba 78 ad 72 3d f1 eb 34 3c 37 d8 08 3c
       -0.0016861579 0.059247464 0.011042581 0.008352331
0002f0 4f 9d 1a bb 6a 78 de 3c 8e 2a b8 3c 1b 2c 0f 39
       -0.0023592298 0.027157027 0.02248123 0.00013653973
000300 9c 77 c6 3b c1 62 28 3c 00 9a 91 3b 03 b0 96 3b
       0.006056739 0.010277451 0.004443407 0.004598619
000310 bd 11 a8 3c 17 50 a0 3b 4d a5 d8 3c 23 4f d8 3b
       0.02051627 0.00489236 0.026446009 0.0066012307
000320 be bb 0d 3d 27 5e 35 3d e9 3e c4 3d 8c d9 50 3d
       0.034602873 0.044279244 0.09582312 0.05098872
000330 57 b0 72 3c ac f3 6f 3c 60 f8 9d ba 49 16 dc 3c
       0.0148125505 0.014645498 -0.0012052171 0.026866095
000340 7a ea ac 3c 6b a2 2c bb f3 63 11 3d 42 75 de 3c
       0.0211079 -0.0026341926 0.03549571 0.027155522
000350 1e c7 f9 3c 0d dd 87 3a 45 d1 bd 3b ef 52 c6 3c
       0.030490454 0.0010365561 0.005792769 0.024209468
000360 3e 2a ce 3c b1 f1 fe bc b9 9b 85 ba 9c ba 5c 3d
       0.025166627 -0.031121107 -0.0010193504 0.053888902
000370 53 c9 c2 3c d5 86 94 3c 4d 1f f9 3c 87 11 a9 bb
       0.02377764 0.0181307 0.030410433 -0.00515956
000380 cd a7 dc bb 5b 46 ac 3c d7 b2 ed bc 92 82 00 3d
       -0.0067338706 0.021029642 -0.029015942 0.03137452
000390 63 f2 d5 3d d9 6b 34 3b a8 38 47 bb c6 cf e7 3c
       0.10446622 0.0027530103 -0.003039876 0.028297316
0003a0 85 53 ae 3b 12 ec 86 3b 3b d7 1b 3c 36 0a 56 bc
       0.005320015 0.0041174972 0.009511764 -0.013063958
0003b0 47 6b d3 3d 22 01 7b 3c f8 f1 e2 3c 66 68 2a 3d
       0.10323196 0.015320094 0.02770327 0.04160347
0003c0 25 c7 ae 3c db 75 90 ba d6 5b 86 3b 60 f1 60 3d
       0.021335194 -0.0011021452 0.004100303 0.054917693
0003d0 28 57 c6 3c 27 fd 92 3c 41 fd 7c 3a 4d 16 92 3d
       0.024211481 0.017942978 0.0009650775 0.0713316
0003e0 b5 4a 31 bc d9 7d a3 3c 38 e7 9b 3c 67 b2 df 3c
       -0.010821034 0.01995747 0.019031152 0.027306749
0003f0 99 dc 19 bc 6b 6c 0f bc b1 d5 79 3b 5f bd dd 3c
       -0.0093909735 -0.008753876 0.0038121755 0.027067838

action_model._discrete_distribution.branches.0.weight f4 [2, 256]
000000 5e fc 24 bd b6 5b 7b 3c f1 a3 f1 bd 8c c4 f7 3c
       -0.04027974 0.01534169 -0.117988475 0.030245088
000010 3d 63 2d bc 6b f8 82 3c 3a 0d 74 3d 36 35 72 bc
       -0.010582742 0.015987596 0.059582926 -0.014783194
000020 0f be 13 bd ae ae 8b bb 1a db 0d 3d 26 eb 00 bc
       -0.036069926 -0.004262767 0.03463278 -0.007868564
000030 f7 67 48 3d 8b 41 b1 3b e2 ca c7 3b fd ae b8 3b
       0.048927274 0.0054094247 0.0060971836 0.0056360946
000040 65 fb 30 3d 52 d7 8f bd 1e 41 20 3d ff cc 98 bc
       0.0432085 -0.07023491 0.0391246 -0.018652437
000050 79 a1 41 bd 8b 4f b7 3c 5b 14 5e bb bb 9d e9 3c
       -0.047273133 0.022376796 -0.0033886645 0.028517595
000060 c3 04 ca bd dc e2 72 bd 9a 82 2f 3d 3d 1a f1 bc
       -0.098641895 -0.05929838 0.04284916 -0.029431457
000070 32 a3 4f 3b b5 ad 6c bd 8f 3e f7 3d 1a ce ab 3d
       0.0031682965 -0.057782847 0.12072479 0.0838892
000080 38 10 bd 3d f6 9f 81 bc fb 49 cc bc ad 39 c2 3b
       0.09231609 -0.015823346 -0.02493762 0.0059272856
000090 81 34 eb bb 21 b7 e1 bd 17 b3 2f bd eb 98 05 3e
       -0.00717789 -0.11021257 -0.042895403 0.13046615
0000a0 01 cc 00 bd 28 9a 8d 3d 39 40 15 3d 5e e3 86 3b
       -0.031444553 0.069141686 0.0364382 0.0041164597
0000b0 d6 0c a9 3d 69 3a e1 bc fc aa ad 3d 65 36 24 bd
       0.082544014 -0.027493672 0.08479878 -0.040090937
0000c0 e1 74 d1 3d 85 0f 4c bc 78 5c b9 bd c8 55 d0 bc
       0.10227371 -0.012454872 -0.0905084 -0.025431529
0000d0 90 27 45 3d 5e 71 49 bd 58 ac 77 bd 33 a0 12 bd
       0.048133433 -0.04918038 -0.060467094 -0.03579731
0000e0 6f 55 ae 3c 1d 28 34 bd 53 e1 06 3b a3 26 f6 3c
       0.021280972 -0.043983568 0.002058108 0.03004772
0000f0 f0 eb 7a bd d4 98 f6 3d 2f a8 d3 bc e3 b2 9e bc
       -0.061260164 0.120408684 -0.025837032 -0.01937241
000100 68 4e 66 bd b9 87 a2 bd 29 99 d7 3c d6 ce 13 bd
       -0.056227118 -0.07936043 0.02631815 -0.036085926
000110 ec fa fc 3d 02 4d 83 bc 99 d4 0e bd 07 83 ea bc
       0.12352547 -0.016027931 -0.034870718 -0.028626932
000120 a9 f1 c4 3d 30 ea 15 bc b0 6e 30 bd c3 01 d1 3d
       0.096164055 -0.009150073 -0.04307431 0.10205414
000130 f4 d0 c7 bd 75 5a 0b 3d c8 9f ea 3d 01 01 a1 3d
       -0.097566515 0.034021813 0.11456257 0.078615196
000140 4a 7b cb 3b 3d 65 3a bc 64 6e 15 bd 02 cb d0 bc
       0.0062097656 -0.011376676 -0.03648223 -0.025487427
000150 3b f0 8c 3d 89 23 68 3d b5 d7 9a 3c 58 61 0e bd
       0.06881758 0.056674514 0.018901685 -0.034760803
000160 a5 cb 80 3d ed c0 ca 3c 09 1f 9b bb e5 69 e8 3c
       0.06288842 0.024750197 -0.0047339243 0.028370807
000170 b8 ce 2a bd 32 10 65 3c 6c 17 2a bd 88 93 0c 3d
       -0.04170105 0.013980912 -0.041526243 0.034320384
000180 86 54 ae 3c cc bd 9d bc 69 ff 0c 3b d1 b5 ac 3d
       0.021280538 -0.019255541 0.002151454 0.08433116
000190 83 1b 8c 3d 22 f4 ae 3b 1c f2 24 3d 01 77 9e 3d
       0.06841185 0.0053391615 0.040269956 0.07737542
0001a0 3a 5d d2 3d 09 e0 d7 bc 68 87 f3 3c 24 f2 8a bc
       0.10271688 -0.026351945 0.029727653 -0.016961165
0001b0 40 15 a2 bd 6c aa 38 bb 2e 87 5b bb 6c 3c 57 bd
       -0.07914209 -0.0028177751 -0.0033497321 -0.052547857
0001c0 95 76 d9 3a 96 21 3e bd 44 6f f2 3d 87 63 c8 bc
       0.0016591126 -0.04641875 0.118376285 -0.02446152
0001d0 f2 2d b1 bc e5 2f a3 bd 3f 51 4b bb ce 4f 3c 3d
       -0.021628354 -0.079681195 -0.0031023768 0.045974545
0001e0 c5 ec 1d bd 91 4d 96 bd 88 c7 af bb 1a 4c a9 bc
       -0.03855588 -0.07339013 -0.005364362 -0.02066617
0001f0 ac b6 d3 bb e9 42 87 bd 3c 9c b5 3d 69 e4 38 bd
       -0.006460985 -0.06604559 0.0886769 -0.045139704
000200 d5 ef b8 bc eb 2c be 3c 98 cf 22 3d b4 15 d0 bd
       -0.022575298 0.023214778 0.039748758 -0.101603895
000210 f0 a9 a0 3d 05 4e f3 bc ff d3 82 bd de 48 e3 bc
       0.07844913 -0.029700289 -0.06388091 -0.027744707
000220 ee 7c 96 bc a1 43 f6 bc 60 83 a0 3c 73 ae 64 3d
       -0.018370118 -0.030061545 0.019593894 0.05583043
000230 14 9a 88 bb 84 b9 d3 bb 62 65 bd bc ce c4 7e bb
       -0.004168758 -0.006461324 -0.023119632 -0.003887463
000240 ca d5 f3 3c e7 20 75 3d 75 5d cc bd 3c 9a 8f bd
       0.029765029 0.05984583 -0.09978763 -0.0701184
000250 07 1b 4e 3d 4c ab b2 3a 4d 8d d0 bd 74 a8 4e 3d
       0.050318744 0.0013631373 -0.10183201 0.05045362
000260 c1 76 17 bd 1d 3e 06 be 27 19 18 3c b5 72 92 3d
       -0.036978487 -0.13109632 0.009283341 0.07150785
000270 15 dd 93 3d e9 2e 93 3c 47 ed 1b 3c 72 f0 b1 bc
       0.072199024 0.017966704 0.009517021 -0.021721099
000280 10 5c 91 3c 63 87 db 3d 0e b4 00 3d 06 e3 e6 3d
       0.017744094 0.10719182 0.031421714 0.1127377
000290 f1 1c bf 3c e4 4a 8e 3d 9c 2c 07 bc 81 45 d3 3d
       0.02332923 0.06947878 -0.008250382 0.10315991
0002a0 2a c4 52 bc 1a d2 b6 3c bc 96 ab bc 63 82 b5 bc
       -0.012864152 0.022316981 -0.0209459 -0.0221569
0002b0 94 74 a0 3d ee e1 40 bd 65 60 f5 3d b0 8c 3b bc
       0.078347355 -0.047090463 0.119812764 -0.011447117
0002c0 ac 32 9b bd a2 9e 5d 3d 0d 29 66 bd 73 15 c9 3c
       -0.07578024 0.054106362 -0.056191493 0.02454636
0002d0 84 ab fd bb b4 16 24 bc d7 c9 0d bc f7 79 9e ba
       -0.0077413935 -0.0100151785 -0.008654079 -0.0012090792
0002e0 25 72 87 3c 56 6a 26 bd 88 74 90 bd dc d2 2e bd
       0.01653392 -0.040628754 -0.070534766 -0.04268156
0002f0 6b 11 b3 bc 4a 3a 7a 3d 10 2b a6 bd 71 94 8e bc
       -0.021858891 0.061090745 -0.08113682 -0.017404767
000300 a7 20 63 bd c9 33 2c bd a2 bf be 3c 1c c5 7a bd
       -0.05545106 -0.042041574 0.023284737 -0.061223134
000310 ab dd 88 bd 29 eb 82 bc 9c 81 35 bd cb 3f 3b bd
       -0.06682905 -0.015981274 -0.04431306 -0.045715135
000320 cf 95 db 3d 9b d8 f3 3d aa 57 90 3d d9 8e a6 3d
       0.10721933 0.119065486 0.070479706 0.08132715
000330 ee cd 06 bd bb 21 08 3d 56 3d 32 bc b8 6a 7a 3d
       -0.032911234 0.033235293 -0.010878881 0.06113693
000340 bf 3d 66 bd 68 5e 9e bc 6c 88 db bc 17 b2 bd bd
       -0.05621123 -0.019332126 -0.02679845 -0.092624836
000350 fa 15 ab 3d 23 71 d4 3c 23 e0 f4 bc db 11 95 3d
       0.08353801 0.025932854 -0.029892033 0.07278796
000360 1c a7 b4 3c fd 53 19 bc e7 03 45 3c 6c 54 16 bd
       0.02205234 -0.009358403 0.012024856 -0.036701605
000370 df d8 78 bb c2 a7 36 3d 76 de 6d 3d 37 47 16 bd
       -0.0037971062 0.04459358 0.058073483 -0.03668901
000380 86 36 e3 bb 73 35 54 bd 4f 18 79 3a 70 30 85 bd
       -0.00693399 -0.051808786 0.00095022185 -0.06503379
000390 83 4e d2 3d 03 2f 03 bd a0 52 4c bb 40 dc 07 3d
       0.10268881 -0.032027256 -0.0031177178 0.03316903
0003a0 71 7b f8 bc 7b 55 36 bd 3a 89 f4 3c 6d 16 8b bb
       -0.030332299 -0.044515114 0.029850591 -0.0042446167
0003b0 bd 2c 01 3e 98 fe 69 bd ff 12 d4 3c 5f 9d 0b 3d
       0.12614723 -0.057127565 0.025887964 0.034085628
0003c0 b4 81 4a 3d 73 cb 98 bc 7d d4 ce bc 40 25 b4 3d
       0.0494401 -0.0186517 -0.025247807 0.087961674
0003d0 a3 3a 9e 3d fe a0 95 3c 49 03 ef bc 14 67 d9 3d
       0.07726028 0.018265244 -0.029176371 0.10615364
0003e0 c1 a2 b0 bb b6 65 2f 3c f7 cc 3a bd 10 0e 03 be
       -0.0053904955 0.010705402 -0.045605626 -0.12798333
0003f0 ca 77 6f bc 2b f3 ed bc 26 d9 f6 bc 53 ef dc 3c
       -0.014615962 -0.029046616 -0.030132841 0.026969587

action_model._discrete_distribution.branches.0.bias f4 [2]
000000 68 af ce 3a 5c af ce ba
       0.0015768828 -0.0015768814

exp_avg f4 [256, 29]
000000 b6 aa 41 b8 a4 48 71 b6 29 27 c5 b8 a3 2c c0 b8
       -4.6173773e-05 -3.595408e-06 -9.400986e-05 -9.163588e-05
000010 15 44 49 b8 83 28 3e b8 f7 a0 53 b8 14 2c af b8
       -4.798554e-05 -4.533726e-05 -5.045623e-05 -8.3528605e-05
000020 7b 31 4c b8 74 53 1d b7 9c c3 b3 b8 43 41 b6 b8
       -4.8683472e-05 -9.37736e-06 -8.57182e-05 -8.690592e-05
000030 52 39 9e b8 76 f9 05 b8 78 a1 18 b8 24 5f 89 b8
       -7.544704e-05 -3.1942e-05 -3.6390004e-05 -6.5503904e-05
000040 64 fd 43 b8 9a a5 52 b7 66 33 b1 b8 e0 ef b3 b8
       -4.672761e-05 -1.25555325e-05 -8.4495914e-05 -8.580065e-05
000050 93 84 55 b7 b5 c7 ea b8 08 3a a0 b7 d0 33 7b b8
       -1.2726657e-05 -0.00011195188 -1.910051e-05 -5.9891318e-05
000060 a3 c0 4b b8 95 98 33 b7 66 33 b1 b8 1b 7e b3 b8
       -4.857838e-05 -1.0704757e-05 -8.4495914e-05 -8.558874e-05
000070 00 00 00 00 b7 da 85 37 5d 39 58 35 27 ea 0c 38
       0.0 1.5956683e-05 8.0549745e-07 3.3596672e-05
000080 13 7d 08 38 8e d4 8c 37 15 91 6b 37 b6 d3 a3 37
       3.254141e-05 1.6788279e-05 1.4040871e-05 1.95297e-05
000090 27 2b 12 38 27 2b 8f 37 2b 59 14 36 43 5d 02 38
       3.48493e-05 1.7067023e-05 2.2105621e-06 3.1081272e-05
0000a0 19 a9 03 38 58 a3 d6 37 90 4a 53 37 64 50 4c 37
       3.139032e-05 2.558685e-05 1.25939405e-05 1.2178065e-05
0000b0 51 47 df 37 b5 81 8b 37 23 33 4f 36 5c 84 00 38
       2.661688e-05 1.663049e-05 3.087517e-06 3.0640847e-05
0000c0 44 29 02 38 a8 4e ab b6 9e 02 4f 38 f8 fc cc 36
       3.1032847e-05 -5.105354e-06 4.9355083e-05 6.109123e-06
0000d0 57 07 cb 37 3c c2 90 37 e8 2e 25 36 5c 84 00 38
       2.4202904e-05 1.7256585e-05 2.461422e-06 3.0640847e-05
0000e0 64 e2 01 38 00 00 00 00 5e 8c 25 b9 b1 4b d2 b6
       3.096684e-05 0.0 -0.00015787917 -6.2672993e-06
0000f0 74 36 1c b9 3e 6f 17 b9 db 9c 28 b9 d1 fa a3 b8
       -0.00014897605 -0.00014441923 -0.00016080162 -7.819164e-05
000100 da 75 9b b8 7b 04 4c b9 41 94 2a b9 8f b3 6e b7
       -7.4129275e-05 -0.00019456625 -0.00016267692 -1.4227712e-05
000110 b0 d5 0e b9 2d ef 10 b9 3c f3 70 b9 10 7a ec b7
       -0.0001362178 -0.0001382201 -0.00022978795 -2.8190232e-05
000120 c0 4a 67 b8 66 41 12 b9 e3 43 29 b9 5e 8d 94 b7
       -5.5144308e-05 -0.00013948008 -0.00016142386 -1.7708804e-05
000130 a2 7f 0c b9 ed ce 0e b9 4b 73 7c b8 55 9d 67 b9
       -0.00013398987 -0.00013619261 -6.0188857e-05 -0.00022088487
000140 10 6c 06 b8 b2 95 04 b9 79 4f 2c b9 30 61 78 b7
       -3.204873e-05 -0.00012644267 -0.00016432804 -1.480458e-05
000150 a2 7f 0c b9 c4 6d 0e b9 00 00 00 00 0c bf aa 37
       -0.00013398987 -0.00013583066 0.0 2.0354542e-05
000160 61 2e ac 35 d3 0a e4 37 e6 e7 db 37 c9 f9 af 37
       1.2828497e-06 2.7184758e-05 2.621482e-05 2.0977941e-05
000170 7e e7 2c 37 3a 1f 93 37 28 8a 3c 38 1e 55 b3 37
       1.0305897e-05 1.7538307e-05 4.495136e-05 2.1378099e-05
000180 43 af 70 36 bc 21 c8 37 3a 74 cc 37 ba 78 0b 38
       3.5864803e-06 2.3857567e-05 2.4372817e-05 3.3252618e-05
000190 46 47 68 36 dc 24 4b 37 9a bf 07 38 4d 68 ad 37
       3.461218e-06 1.2108325e-05 3.236495e-05 2.0671776e-05
0001a0 9f 22 a7 36 db 5b c2 37 35 a9 c7 37 f7 67 66 b7
       4.9810183e-06 2.3169376e-05 2.3801442e-05 -1.37332745e-05
0001b0 06 bf 5a 38 7a 85 2e 37 9c 88 fc 37 0e 8c b5 37
       5.2153155e-05 1.0402286e-05 3.0104355e-05 2.16421e-05
0001c0 93 93 86 36 db 5b c2 37 9f c6 c6 37 00 00 00 00
       4.010691e-06 2.3169376e-05 2.369593e-05 0.0
0001d0 b7 e7 9c b5 f1 df 33 b4 ff c8 62 b7 34 5a 5d b7
       -1.1690344e-06 -1.6752143e-07 -1.3517448e-05 -1.3193629e-05
0001e0 ea 69 b9 b5 cb dc b2 b6 cf 99 08 b7 fe cb 75 b7
       -1.3814399e-06 -5.330517e-06 -8.142043e-06 -1.4650634e-05
0001f0 f5 98 ca b5 89 4d 37 b5 7a 6d 54 b7 04 4f 56 b7
       -1.5094689e-06 -6.828564e-07 -1.2661674e-05 -1.2773791e-05
000200 41 a2 bb b6 b5 84 83 b6 f8 43 b3 b6 a7 f3 3c b7
       -5.591923e-06 -3.9195534e-06 -5.3425283e-06 -1.1262403e-05
000210 de 80 b7 b5 e9 65 88 b5 9a 38 51 b7 94 d5 53 b7
       -1.3672068e-06 -1.0162449e-06 -1.2470549e-05 -1.2626308e-05
000220 34 15 08 37 ee 64 aa b7 1c 03 32 b6 13 cc 2b b7
       8.111168e-06 -2.0312578e-05 -2.6525877e-06 -1.0239909e-05
000230 5a 3c d8 b5 d5 54 4f b5 9a 38 51 b7 c4 62 53 b7
       -1.6110819e-06 -7.7236956e-07 -1.2470549e-05 -1.2599576e-05
000240 00 00 00 00 f7 37 2c 37 56 9f 0a 35 35 66 ec 36
       0.0 1.0265029e-05 5.164087e-07 7.0452465e-06
000250 27 55 e1 36 7a e3 30 37 ae a1 1e 36 40 12 a5 36
       6.7154356e-06 1.0543381e-05 2.3637945e-06 4.919508e-06
000260 68 27 4c 37 8e 13 32 37 12 35 c2 35 ad 75 c1 36
       1.21685225e-05 1.061418e-05 1.4469572e-06 5.7655475e-06
000270 95 c6 c8 36 91 b2 53 37 5d fe fc 35 ad 0a 5f 36
       5.9835825e-06 1.2618156e-05 1.8849493e-06 3.3235804e-06
000280 5d 73 14 37 62 5a 2f 37 ae 90 ef 35 1c 91 bb 36
       8.8483475e-06 1.0451857e-05 1.7848995e-06 5.5899272e-06
000290 87 a2 c2 36 4e 54 f3 35 b8 94 65 37 00 57 1c 36
       5.800571e-06 1.8129447e-06 1.368409e-05 2.3296452e-06
0002a0 d9 01 08 37 24 7c 33 37 94 82 ce 35 1c 91 bb 36
       8.106662e-06 1.0698135e-05 1.5386199e-06 5.5899272e-06
0002b0 7e 81 c1 36 00 00 00 00 8d 66 e7 38 e5 38 dd 35
       5.766923e-06 0.0 0.0001103404 1.6482342e-06
0002c0 f6 0e af 38 c5 bc ab 38 8b 9c e8 38 ba a7 cb 37
       8.347437e-05 8.1890765e-05 0.000110917805 2.427759e-05
0002d0 df c7 7c 38 ba fb 01 39 21 ee ea 38 e5 d5 01 37
       6.0267626e-05 0.00012396174 0.000112023445 7.7388e-06
0002e0 88 c1 9e 38 9b 52 a1 38 fa 0a 16 39 20 41 72 37
       7.570075e-05 7.692465e-05 0.00014309204 1.4439487e-05
0002f0 aa 18 1f 38 43 16 c2 38 89 0c e6 38 5a 07 47 37
       3.7931524e-05 9.2547874e-05 0.000109695895 1.1863036e-05
000300 f5 fc 9a 38 73 56 9e 38 fa ec 04 38 68 64 10 39
       7.390409e-05 7.5501295e-05 3.1691954e-05 0.00013770314
000310 5c ac da 37 0a 1e b2 38 f8 65 eb 38 da 3b 1c 37
       2.6067886e-05 8.4932966e-05 0.000112246664 9.31226e-06
000320 f5 fc 9a 38 74 c6 9d 38 00 00 00 00 74 7c 91 b7
       7.390409e-05 7.523308e-05 0.0 -1.73433e-05
000330 9e 44 84 b5 48 15 22 b8 83 56 1e b8 ce 0d 97 b7
       -9.854737e-07 -3.864363e-05 -3.7750706e-05 -1.8007031e-05
000340 e6 6c 80 b7 97 70 c6 b7 63 83 15 b8 24 61 99 b7
       -1.5309499e-05 -2.3655868e-05 -3.564673e-05 -1.8284256e-05
000350 37 04 30 b6 d0 44 17 b8 30 b1 18 b8 4b ce e1 b7
       -2.6228497e-06 -3.6065292e-05 -3.6404643e-05 -2.6918153e-05
000360 2d 4c 76 b7 ea f6 80 b7 11 af ef b7 cf 0d 94 b7
       -1.4680479e-05 -1.5373767e-05 -2.8572542e-05 -1.7649405e-05
000370 da fe 7b b6 d1 2e 15 b8 84 09 17 b8 18 22 3d 36
       -3.7550258e-06 -3.556797e-05 -3.6010068e-05 2.818304e-06
000380 63 29 5d b8 42 f3 ec b6 d6 25 da b7 a3 1e 9a b7
       -5.272905e-05 -7.061667e-06 -2.6005244e-05 -1.8372497e-05
000390 2e 78 4b b6 d1 2e 15 b8 d8 b9 16 b8 00 00 00 00
       -3.031931e-06 -3.556797e-05 -3.5935867e-05 0.0
0003a0 24 ee 10 b8 b3 71 93 b5 18 3d 27 b8 9f a7 20 b8
       -3.455406e-05 -1.0985444e-06 -3.98728e-05 -3.8303082e-05
0003b0 bc 64 15 b8 ef a7 a7 b7 26 1c a7 b7 d4 7e 2d b8
       -3.5618184e-05 -1.9986152e-05 -1.9921059e-05 -4.1364532e-05
0003c0 7d d3 17 b8 86 46 00 b6 e1 ee 1c b8 7a ea 1d b8
       -3.619817e-05 -1.9114536e-06 -3.741577e-05 -3.765009e-05
0003d0 7f 76 5c b8 81 c6 23 b7 a6 7a 5d b7 b8 94 fe b7
       -5.2562445e-05 -9.761775e-06 -1.3201183e-05 -3.0348412e-05
0003e0 fc 3c 17 b8 1d f0 33 b6 cd 4a 1a b8 97 11 1c b8
       -3.6058e-05 -2.6812843e-06 -3.6786125e-05 -3.720968e-05
0003f0 0c 1e 88 b6 e8 be 89 b8 c7 29 c2 b6 56 76 e8 b7
       -4.0566138e-06 -6.568228e-05 -5.786514e-06 -2.771166e-05

exp_avg_sq f4 [256, 29]
000000 ed bd c2 31 8a 7e c2 31 cd 8c 06 34 f5 4c 07 34
       5.667735e-09 5.660529e-09 1.2530946e-07 1.2600852e-07
000010 ff c9 b0 31 74 fe ba 33 81 ae 04 33 dc ee 3a 33
       5.1452385e-09 8.707585e-08 3.0892355e-08 4.352374e-08
000020 e1 88 a8 31 aa 2a ed 31 e5 0e 05 34 01 6a 05 34
       4.905005e-09 6.902458e-09 1.2392009e-07 1.2425154e-07
000030 25 aa 10 32 ef 39 dc 33 c3 cb 98 32 78 ae ee 32
       8.42059e-09 1.02550864e-07 1.7787789e-08 2.7786186e-08
000040 1e fa a9 31 9b 3b ee 31 bd 39 05 34 7e 4d 05 34
       4.9469824e-09 6.933488e-09 1.2407595e-07 1.2414782e-07
000050 e5 fe 61 33 eb ae 81 33 5e 1e 35 32 e6 89 c5 32
       5.261872e-08 6.038848e-08 1.0542491e-08 2.2996527e-08
000060 03 af b3 31 4e 7e ec 31 bd 39 05 34 3a 49 05 34
       5.229482e-09 6.882863e-09 1.2407595e-07 1.241323e-07
000070 00 00 00 00 80 3a 97 30 c6 a7 0a 30 39 14 26 33
       0.0 1.1003323e-09 5.044253e-10 3.866828e-08
000080 10 d9 26 33 1c fa 88 30 1c 49 bf 32 62 91 74 32
       3.8847304e-08 9.966388e-10 2.2268573e-08 1.42357255e-08
000090 0b 9a 95 32 7c e6 79 30 8b 4c 22 30 79 59 26 33
       1.7415934e-08 9.091321e-10 5.904403e-10 3.873126e-08
0000a0 8b 70 26 33 a6 aa 00 31 04 97 0d 33 bc b1 8d 31
       3.8752244e-08 1.8723454e-09 3.296647e-08 4.123846e-09
0000b0 89 68 1e 32 59 58 7a 30 f4 d7 26 30 8e 6a 26 33
       9.220579e-09 9.107502e-10 6.0697336e-10 3.8746798e-08
0000c0 2d 67 26 33 c0 68 a5 32 db 35 84 32 3e 14 f3 30
       3.8743725e-08 1.9256163e-08 1.5391313e-08 1.768633e-09
0000d0 13 38 f4 31 85 57 82 30 a6 38 21 30 8e 6a 26 33
       7.1077095e-09 9.48362e-10 5.865196e-10 3.8746798e-08
0000e0 f8 67 26 33 00 00 00 00 24 88 a2 33 c8 9c f1 32
       3.8744446e-08 0.0 7.568477e-08 2.8127388e-08
0000f0 56 3d 98 35 7e cc 98 35 e1 20 a0 33 5d c4 34 35
       1.1342734e-06 1.1384398e-06 7.456561e-08 6.734097e-07
000100 2e 9a c9 34 26 54 04 35 f1 fe 99 33 b2 6d 00 33
       3.7551348e-07 4.9296284e-07 7.170991e-08 2.990209e-08
000110 68 40 98 35 e0 5c 98 35 96 51 ec 33 c8 fd 76 35
       1.1343627e-06 1.1351913e-06 1.1004447e-07 9.201144e-07
000120 3c 3a 27 34 41 bb 9b 34 27 ec 99 33 0d 5b 02 33
       1.5574273e-07 2.9007245e-07 7.1675736e-08 3.0350794e-08
000130 6a 47 98 35 42 4e 98 35 ab 0c 46 35 e6 f1 b6 34
       1.1345667e-06 1.1347659e-06 7.377918e-07 3.4076146e-07
000140 7e 52 45 33 74 f3 72 34 4f dc 9b 33 53 42 01 33
       4.5942663e-08 2.2626574e-07 7.257824e-08 3.0095475e-08
000150 6a 47 98 35 bd 4c 98 35 00 00 00 00 dc dd 1e 31
       1.1345667e-06 1.1347216e-06 0.0 2.3118139e-09
000160 ee 5f 03 31 63 e4 ce 33 5d 39 cf 33 12 d7 1f 31
       1.9117539e-09 9.634166e-08 9.649623e-08 2.3259799e-09
000170 0c d6 6e 33 cb f3 22 33 51 82 44 33 a3 55 0d 31
       5.5608368e-08 3.7940293e-08 4.575333e-08 2.056688e-09
000180 34 8f 19 31 c3 19 ce 33 de 4f ce 33 1a 9e ac 31
       2.2345832e-09 9.5973085e-08 9.60715e-08 5.023833e-09
000190 60 b8 ac 33 f9 c2 4a 32 11 45 d6 32 d2 21 0e 31
       8.042912e-08 1.1802279e-08 2.4944287e-08 2.0682944e-09
0001a0 2c 3d 1e 31 80 3e ce 33 76 3c ce 33 97 8e 7d 33
       2.3026798e-09 9.603991e-08 9.60362e-08 5.9035838e-08
0001b0 31 30 e6 32 60 e2 dd 31 2b f7 a8 32 93 4a 17 31
       2.6797439e-08 6.4576824e-09 1.9670173e-08 2.2015783e-09
0001c0 28 00 18 31 80 3e ce 33 17 3c ce 33 00 00 00 00
       2.2119e-09 9.603991e-08 9.603553e-08 0.0
0001d0 84 f5 1c 2f 4b 54 05 2f 89 bf 06 33 1b fe 06 33
       1.4275342e-10 1.2126226e-10 3.1373506e-08 3.1430414e-08
0001e0 71 b7 e7 2e 93 50 41 32 1e 1d a6 32 89 81 b3 32
       1.05372495e-10 1.1252399e-08 1.9338184e-08 2.0897248e-08
0001f0 d7 5d d8 2d d2 6e 67 2f c0 9a 06 33 3e c7 06 33
       2.459803e-11 2.1048699e-10 3.134005e-08 3.1380516e-08
000200 77 21 a2 30 eb 64 de 32 11 4e a6 31 2f 74 3b 32
       1.1796563e-09 2.5890094e-08 4.840111e-09 1.091125e-08
000210 69 3d 44 2e 3f cb 86 2f 4f 03 06 33 d1 40 06 33
       4.4619784e-11 2.4518873e-10 3.1202315e-08 3.1258256e-08
000220 25 18 8c 32 e2 00 35 32 52 95 0f 31 47 07 12 32
       1.6309125e-08 1.0535787e-08 2.0894118e-09 8.499973e-09
000230 74 1e 57 2f b2 e1 2e 2f 4f 03 06 33 53 31 06 33
       1.9564955e-10 1.5905391e-10 3.1202315e-08 3.1244166e-08
000240 00 00 00 00 21 b6 5e 30 5f 20 3f 30 5b c3 34 32
       0.0 8.102195e-10 6.95314e-10 1.0521798e-08
000250 62 32 35 32 4d fd 51 30 c2 4e c9 31 05 61 ad 31
       1.0547042e-08 7.639372e-10 5.8588236e-09 5.0459925e-09
000260 86 d4 c7 31 40 4e 4d 30 7d ca 57 30 68 ed 32 32
       5.8158234e-09 7.4689765e-10 7.85043e-10 1.0414944e-08
000270 b3 81 33 32 4d 86 74 30 e3 ee 28 32 b1 e6 9d 30
       1.04486615e-08 8.8957536e-10 9.833204e-09 1.148882e-09
000280 f5 60 4c 31 c8 c0 4f 30 34 aa 5a 30 0e 33 32 32
       2.974102e-09 7.558012e-10 7.954981e-10 1.0372572e-08
000290 46 a7 32 32 1e a3 fe 31 20 4a 67 31 38 ce d3 2f
       1.0398997e-08 7.410917e-09 3.365706e-09 3.8527204e-10
0002a0 cf 60 1a 31 90 97 62 30 53 77 53 30 0e 33 32 32
       2.2464979e-09 8.2433704e-10 7.693092e-10 1.0372572e-08
0002b0 76 8b 32 32 00 00 00 00 1d f3 1f 33 3a a5 13 31
       1.0392673e-08 0.0 3.7241183e-08 2.1485236e-09
0002c0 8b ce f1 34 01 12 f2 34 53 ce 20 33 56 6a 2e 34
       4.5040028e-07 4.5089112e-07 3.7440554e-08 1.6243698e-07
0002d0 af 5f 85 34 2a 52 97 34 22 72 1c 33 53 24 98 31
       2.48428e-07 2.8185724e-07 3.6425384e-08 4.427912e-09
0002e0 41 9b f0 34 5f 0e f1 34 58 92 45 33 f9 e2 c1 34
       4.4816446e-07 4.4900204e-07 4.6000736e-08 3.6114196e-07
0002f0 83 54 9a 33 d0 2e 26 34 c5 a4 1c 33 68 71 9c 31
       7.1865564e-08 1.5476985e-07 3.6471437e-08 4.5530903e-09
000300 8f 5f f0 34 c8 a7 f0 34 e3 85 ac 34 cb d3 b8 33
       4.4773012e-07 4.482556e-07 3.2134912e-07 8.6066926e-08
000310 9f 62 02 33 c2 62 01 34 5f a9 1f 33 5f b3 8d 31
       3.035768e-08 1.2049989e-07 3.7174114e-08 4.1240322e-09
000320 8f 5f f0 34 77 98 f0 34 00 00 00 00 91 3a dd 30
       4.4773012e-07 4.4814416e-07 0.0 1.6096512e-09
000330 69 60 92 30 30 b3 67 33 22 88 68 33 5e f9 ca 30
       1.06503e-09 5.394685e-08 5.414052e-08 1.4768309e-09
000340 48 8b e0 32 94 9c d9 32 90 7a f9 32 b4 dc ba 30
       2.614037e-08 2.5333328e-08 2.904315e-08 1.3596009e-09
000350 59 99 b1 30 48 f6 66 33 ee 71 67 33 37 f2 31 31
       1.2922029e-09 5.377504e-08 5.3887497e-08 2.5894573e-09
000360 24 fa 3a 33 8c bc 21 32 2f b2 91 32 3e 25 be 30
       4.3534e-08 9.414304e-09 1.696125e-08 1.3834904e-09
000370 bc ee b3 30 86 dd 66 33 29 13 67 33 c3 0f d3 32
       1.3091817e-09 5.3752522e-08 5.3801305e-08 2.45708e-08
000380 08 67 c3 32 e6 eb 7f 31 c1 43 67 32 dd bb d1 30
       2.2747841e-08 3.7241477e-09 1.3461375e-08 1.5260145e-09
000390 a0 71 aa 30 86 dd 66 33 8e 06 67 33 00 00 00 00
       1.2401422e-09 5.3752522e-08 5.378984e-08 0.0
0003a0 76 85 4b 31 48 ef 19 30 09 72 56 33 ed 92 57 33
       2.9616252e-09 5.6001115e-10 4.9929472e-08 5.0192217e-08
0003b0 78 fb 47 31 5a 05 0d 33 47 ce 63 32 c9 9e 9a 32
       2.9101255e-09 3.2833988e-08 1.3260041e-08 1.8000167e-08
0003c0 b2 37 3b 31 6c 86 1d 30 8c 7d 57 33 bc 91 57 33
       2.724374e-09 5.730729e-10 5.0172773e-08 5.0191133e-08
0003d0 87 e0 94 31 03 41 36 33 c7 23 8d 31 6c 52 21 32
       4.3328927e-09 4.2434305e-08 4.1077075e-09 9.390174e-09
0003e0 e7 3c 3b 31 c0 0d 27 30 98 b2 57 33 1b 9a 57 33
       2.72467e-09 6.0773786e-10 5.022102e-08 5.0198746e-08
0003f0 af 1f e8 32 66 62 aa 32 9f 98 b2 30 0a 05 f5 31
       2.7022763e-08 1.9835351e-08 1.2994582e-09 7.1310113e-09

exp_avg f4 [256]
000000 3b ce 16 b9 9c 34 53 38 bf 24 a4 b9 df e3 4c 38
       -0.00014381942 5.0355316e-05 -0.00031307896 4.884961e-05
000010 7d 2e 79 b7 4d 97 95 37 0c f8 4c 39 f3 f9 6e b8
       -1.485238e-05 1.7832639e-05 0.0001954736 -5.6976405e-05
000020 89 51 9e b8 7f 4c 5b b6 ea 4f a2 38 30 35 d4 b7
       -7.549214e-05 -3.267807e-06 7.739647e-05 -2.5297137e-05
000030 00 41 09 39 c1 98 5a 37 c2 b5 0f 38 36 bc 31 37
       0.00013089553 1.3029378e-05 3.4263132e-05 1.0593843e-05
000040 d8 72 aa 38 da eb 07 b9 cc d0 bc 38 3b 71 81 b8
       8.127623e-05 -0.00012962465 9.00343e-05 -6.17229e-05
000050 b1 3e 0c b9 7b d2 87 38 6f 7a 42 37 5d d7 d2 38
       -0.00013374795 6.476507e-05 1.1591807e-05 0.00010053695
000060 c1 20 32 b9 25 6a dd b8 97 5d 0f 39 b0 a4 a1 b8
       -0.00016987605 -0.00010557872 0.00013672408 -7.707754e-05
000070 31 5c 19 36 05 b7 24 b9 0d f5 a1 39 63 a2 9b 39
       2.285244e-06 -0.00015708439 0.0003089089 0.0002968489
000080 18 c9 8b 39 fb 9d 52 b6 85 31 87 b8 a9 7b 2b 36
       0.00026661973 -3.1384395e-06 -6.4465254e-05 2.5552965e-06
000090 79 c1 cb b6 0e 57 88 b9 3b 21 d2 b8 b7 6c c4 39
       -6.0723946e-06 -0.00026004802 -0.0001001977 0.00037465032
0000a0 e5 6b e7 b8 24 12 15 39 df 95 d2 38 15 8b 9a 37
       -0.00011035035 0.00014216505 0.00010041496 1.8422996e-05
0000b0 ce e2 82 39 79 16 3c b8 0b 8b 43 39 fd c8 a8 b8
       0.00024964515 -4.4843622e-05 0.00018648447 -8.048301e-05
0000c0 3d e8 6a 39 06 ee 6f b8 39 8c b6 b9 e7 eb 85 b8
       0.00022402495 -5.7203717e-05 -0.0003481822 -6.3858744e-05
0000d0 ea 74 f0 38 02 d9 0e b9 1f e9 de b8 d3 32 c6 b8
       0.00011465869 -0.00013623017 -0.00010629207 -9.4508425e-05
0000e0 09 d4 87 38 71 ce 04 b9 08 29 36 37 c9 07 c7 38
       6.476796e-05 -0.00012665406 1.0857599e-05 9.4905095e-05
0000f0 9a 63 6e b9 22 eb 7a 39 45 05 b3 b8 7e c4 20 b8
       -0.00022734553 0.00023929452 -8.536367e-05 -3.832997e-05
000100 a0 70 2e b9 2a e8 94 b9 eb 88 9e 38 ed 61 e1 b8
       -0.00016635889 -0.00028401735 7.55953e-05 -0.00010747076
000110 a5 10 ae 39 d2 2c 9f b8 bd fe b8 b8 7c 72 da b8
       0.00033200267 -7.590059e-05 -8.8212524e-05 -0.000104163744
000120 b6 f8 a3 39 50 b8 1d b8 07 e2 19 b9 9f 37 89 39
       0.00031275087 -3.760337e-05 -0.00014675419 0.00026172117
000130 10 69 9d b9 4d 19 c8 38 c5 47 b2 39 7a a3 84 39
       -0.0003002365 9.541456e-05 0.00034004278 0.00025298801
000140 aa 89 00 36 8a 1a 08 b8 48 4b 08 b9 aa 18 82 b8
       1.9153617e-06 -3.2449643e-05 -0.00012998015 -6.203477e-05
000150 32 ee 7a 39 05 5a b8 38 d6 1b 57 38 2b e5 e2 b8
       0.00023930593 8.790571e-05 5.128592e-05 -0.000108192056
000160 f0 37 d5 38 5a 4a d5 38 82 29 57 b7 b6 d5 d1 38
       0.00010167051 0.000101704805 -1.2824663e-05 0.000100057034
000170 29 db 05 b9 cf 17 9b 37 03 07 c9 b8 d3 05 34 39
       -0.00012765512 1.8488527e-05 -9.585733e-05 0.00017168307
000180 9e 20 92 38 8f 1f 94 b7 10 a4 65 b4 2d 4e 63 39
       6.967898e-05 -1.765767e-05 -2.1386973e-07 0.0002167753
000190 9f 2f 3e 39 a8 ea 46 37 1e c6 93 38 82 65 71 39
       0.00018137552 1.1856355e-05 7.0464084e-05 0.00023021366
0001a0 a3 2a 8e 39 8d 79 b1 b8 3b d0 82 38 7f b2 08 b8
       0.00027116117 -8.462658e-05 6.237669e-05 -3.2591164e-05
0001b0 97 ab 74 b9 e0 61 57 37 5f 91 11 35 61 de 30 b9
       -0.00023333576 1.2837787e-05 5.422825e-07 -0.0001686751
0001c0 82 fb 8f b5 bf 66 08 b9 6b 6e 96 39 0c 4e a2 b8
       -1.0727529e-06 -0.00013008247 0.00028692497 -7.739299e-05
0001d0 ae ca 90 b8 f0 ff 4e b9 83 9e 0d 37 5c 3e 27 39
       -6.904207e-05 -0.00019741035 8.441161e-06 0.00015949592
0001e0 17 ef f7 b8 22 0f 67 b9 d6 49 85 36 d2 5f 02 b8
       -0.00011822412 -0.00022035514 3.9723045e-06 -3.1083655e-05
0001f0 ac d7 95 36 d8 c0 8f b9 9d e9 8b 39 9b 69 20 b9
       4.4656535e-06 -0.00027418765 0.000266862 -0.0001529813
000200 d6 68 87 b8 c8 6f bb 38 6b 4e e3 38 3c b9 b1 b9
       -6.456829e-05 8.937676e-05 0.0001083881 -0.0003389808
000210 74 ae 6f 39 8c 60 a5 b8 6e f5 3c b9 36 4a c6 b7
       0.00022857805 -7.8857964e-05 -0.00018020507 -2.3637996e-05
000220 6f 97 94 b8 69 cc 86 b8 82 9e 09 38 47 0a 40 39
       -7.085397e-05 -6.427692e-05 3.2810967e-05 0.00018314375
000230 81 1c ed b6 14 44 8c 36 0a cd 2b b8 d9 dc 6c b6
       -7.0664687e-06 4.1802505e-06 -4.0960535e-05 -3.529529e-06
000240 88 2a d8 38 4a a9 e8 38 f1 56 f8 b9 4d dd 63 b9
       0.00010307605 0.000110941546 -0.00047367022 -0.00021730848
000250 aa 01 05 39 9d 18 32 36 d3 14 a1 b9 17 3b d9 38
       0.00012684488 2.6538394e-06 -0.00030723828 0.00010358373
000260 60 e0 96 b8 16 aa ac b9 ce 30 b2 37 3f c2 86 39
       -7.1943505e-05 -0.0003293312 2.124198e-05 0.00025703196
000270 1d e5 4c 39 d8 24 60 38 a7 12 0f 36 d2 e5 bd b8
       0.00019540307 5.3440075e-05 2.1319518e-06 -9.05503e-05
000280 d6 03 37 38 a2 23 67 39 65 6f c6 38 41 58 aa 39
       4.3634172e-05 0.00022043151 9.4621246e-05 0.0003249068
000290 62 bd 93 38 00 ce 66 39 85 2d 18 b8 81 a5 a8 39
       7.0447815e-05 0.0002201125 -3.6282017e-05 0.00032166767
0002a0 c9 8b 3f b8 92 7c 7f 38 d1 ce 87 b8 29 c0 89 b8
       -4.5668134e-05 6.0912753e-05 -6.475824e-05 -6.568462e-05
0002b0 56 a5 7f 39 0b 45 02 b9 c2 f1 99 39 8e ba d0 b7
       0.00024380288 -0.00012423487 0.00029362558 -2.4882404e-05
0002c0 69 2a 3f b9 88 0a 0f 39 fd 89 13 b9 4f 01 b1 38
       -0.00018230978 0.00013641466 -0.00014070417 8.4402614e-05
0002d0 03 47 01 b7 bf bf c7 b7 ca 21 b3 b6 e8 8b 7d b7
       -7.705533e-06 -2.3811937e-05 -5.3385493e-06 -1.511255e-05
0002e0 89 a3 d7 37 b0 35 0b b9 d4 4d 3c b9 65 55 e3 b8
       2.570615e-05 -0.00013276073 -0.0001795807 -0.000108401095
0002f0 a1 47 30 b8 85 7c 62 39 12 94 5b b9 a3 26 8a b8
       -4.202838e-05 0.00021599427 -0.00020940628 -6.5875494e-05
000300 59 f3 2b b9 ba e7 fb b8 a4 7a 72 38 65 5b 49 b9
       -0.00016398485 -0.00012011775 5.7811514e-05 -0.00019202901
000310 62 c6 18 b9 e2 fc 9b b7 0a 04 00 b9 10 11 14 b9
       -0.00014569753 -1.8595198e-05 -0.00012208536 -0.00014120736
000320 65 d4 82 39 b9 8e cf 39 4b 38 24 39 22 f9 4d 39
       0.00024953778 0.00039588453 0.0001566123 0.00019643133
000330 93 3d a0 b8 6e f7 14 39 67 44 e0 b7 ba 5d 43 39
       -7.6408636e-05 0.00014206555 -2.6734733e-05 0.00018631565
000340 ed 37 24 b9 ca a7 82 b8 ef 1d 50 b8 72 3f 96 b9
       -0.00015661093 -6.230136e-05 -4.9618942e-05 -0.000286575
000350 6f 92 55 39 56 44 8f 38 92 39 6b b8 b8 9d 4f 39
       0.00020367814 6.8315e-05 -5.6081983e-05 0.00019799813
000360 39 c3 2b 38 53 fe 2c 36 80 5f a0 37 5c 5c c0 b8
       4.0951392e-05 2.5778033e-06 1.9117957e-05 -9.172477e-05
000370 71 b0 83 37 e0 c1 e6 38 1b 36 55 39 4a 1c 71 b8
       1.5698579e-05 0.00011003367 0.00020333419 -5.7485224e-05
000380 df af bc b5 30 a7 19 b9 a0 7a 15 36 11 87 38 b9
       -1.4058277e-06 -0.00014653499 2.2274107e-06 -0.00017597924
000390 10 66 73 39 05 40 eb b8 ad 13 9f b6 02 66 9e 38
       0.00023212307 -0.00011217598 -4.74086e-06 7.5530275e-05
0003a0 69 32 d0 b8 60 3a f9 b8 5e e1 5f 38 3e 2b 32 b7
       -9.9276025e-05 -0.000118841184 5.3377233e-05 -1.0619695e-05
0003b0 f3 af a0 39 72 ba 7f b9 08 2d ba 38 3e 0d 7b 38
       0.0003064867 -0.00024388151 8.877559e-05 5.9855396e-05
0003c0 c1 ee 3c 39 d8 6d 5c b8 b3 ad ad b8 77 d5 95 39
       0.0001801802 -5.2554387e-05 -8.281637e-05 0.00028578538
0003d0 2d 54 82 39 b1 81 32 38 25 7d 81 b8 d0 8d a8 39
       0.00024858248 4.255929e-05 -6.174509e-05 0.00032149116
0003e0 b1 0d 51 b8 8f fa aa 36 ad 66 81 b9 4a f7 c7 b9
       -4.9842234e-05 5.0955637e-06 -0.00024681297 -0.00038140483
0003f0 26 f2 06 b8 d3 bc 76 b8 2f 8c a5 b8 3a cf b5 37
       -3.2173608e-05 -5.8826827e-05 -7.893924e-05 2.1673379e-05
