ml-agents-release_20/Result/Dino/Dino01/Dino/Dino-81037.pt (torch, 205607 bytes, 21 tensors)

network_body._body_endoder.seq_layers.0.weight f4 [256, 29]
000000 8c c3 a0 3e 6d a5 b1 bd fe 36 86 bd a6 d6 ef 3d
       0.3139919 -0.086741306 -0.06553458 0.11710863
000010 15 11 4b bb dd c3 7b bd bb 20 81 be a4 37 3a 3d
       -0.0030985523 -0.061466087 -0.25220284 0.04546322
000020 bc 5f a3 3d b0 04 d4 3d db 11 86 be ae 5f f4 bd
       0.07977244 0.103524566 -0.26185498 -0.11932312
000030 c5 cc 21 be c3 08 0f 3d 13 4e 5f 3d 97 5a bf 3d
       -0.1580077 0.034920465 0.054517817 0.093434505
000040 ba 04 14 be 36 03 6b 3b cb 89 39 be 53 53 07 be
       -0.14454928 0.0035860068 -0.1811897 -0.1321538
000050 90 bf 14 3e b0 fd 02 be d5 af 68 3e 25 7c d7 3c
       0.145262 -0.12792087 0.22723325 0.026304314
000060 2a 73 40 bd da ff 0e be 13 1a 04 3e 94 1a f2 bd
       -0.04698483 -0.13964787 0.12900572 -0.118214756
000070 45 ef 0d 3d e1 1a 21 be eb 67 66 3e a2 eb 40 3d
       0.034652013 -0.1573291 0.22500579 0.047099717
000080 80 bc e5 bd c5 ed d6 bd 4b 67 8f be 29 88 b2 3d
       -0.11217594 -0.1049457 -0.28008494 0.08717377
000090 fb 20 42 3d 01 da 95 b8 60 a8 48 bd da 7f 06 be
       0.047394734 -7.14548e-05 -0.0489887 -0.13134709
0000a0 fa 62 04 3e ae c4 b5 be 1d dd b1 bd 84 66 9e bd
       0.12928382 -0.35501617 -0.08684752 -0.07734397
0000b0 ba 6a 0b 3e 18 22 0b be 39 57 16 3e d0 89 e9 be
       0.13614932 -0.13587224 0.1468171 -0.45612955
0000c0 66 c6 73 3e c9 69 35 3e d5 7a 73 be 10 3e cf 3e
       0.23806152 0.17716135 -0.23777325 0.40477037
0000d0 c3 2d fe 3e 35 8f 00 be 4a 77 a2 bd 2c 02 db 3d
       0.49644288 -0.12554629 -0.07932909 0.106937736
0000e0 a8 7d ae 3e 6b f4 39 be 05 ea 84 3e 0b 6c 38 be
       0.34080243 -0.18159644 0.25959793 -0.18009965
0000f0 b3 76 52 bd 47 11 82 be b8 36 29 be 05 9c 00 3e
       -0.05138273 -0.25403807 -0.1652478 0.12559517
000100 d7 2d 55 bd 77 dc 0c bf 8f 83 33 3e 8a a3 90 be
       -0.05204567 -0.550239 0.17530654 -0.2824977
000110 d0 f8 92 3e 45 6c b9 be 4d c4 2d 3d 17 b6 e4 bd
       0.28705454 -0.36215416 0.042423535 -0.111675434
000120 0c d6 1a 3e d5 09 f7 3d ea 8d a4 3d f8 e0 21 be
       0.15120715 0.12062422 0.080348805 -0.15808475
000130 c9 7f 5e be ae 14 a8 3d 11 1b 4c 3e f2 c6 5e 3e
       -0.21728434 0.08207069 0.199322 0.21755579
000140 1d c7 da be 17 af 45 3e 1b 5d 34 3d 62 56 33 bc
       -0.42730036 0.19305073 0.044034105 -0.010945888
000150 c1 60 07 3e fe e3 d3 3d 1f 3b b6 bd e2 85 6d 3e
       0.13220502 0.103462204 -0.08897995 0.23195603
000160 39 c4 8e 3c 2f ef c6 bd 51 96 e9 bc b7 59 3e 3e
       0.01742755 -0.097135894 -0.02851406 0.18588911
000170 2e b0 6f 3e 79 94 61 be be 93 33 be cd 2d 7e 3e
       0.23407051 -0.22029294 -0.17536828 0.24822159
000180 5e c1 09 3e ca ca 11 bd 04 d4 c8 3d ef fe b6 be
       0.1345267 -0.035593785 0.09806064 -0.35741374
000190 5a 53 6c 3d 21 70 86 be 4c a6 57 bd f8 42 ea 3d
       0.057696678 -0.26257423 -0.052648827 0.114385545
0001a0 a2 1b 87 3e c0 db 17 3e 92 6c 10 3e 9e 5d 91 bd
       0.2638827 0.14829922 0.14103916 -0.07097934
0001b0 c0 98 9e be 6d a8 4a be ad 55 6d be f4 50 90 3e
       -0.30975914 -0.19790812 -0.23177214 0.28186762
0001c0 af fe 2d 3e 22 7f 19 3e c2 b1 ba 3e ea e9 3d 3d
       0.16991685 0.14989904 0.36463743 0.046365656
0001d0 2d 86 33 3e bc 60 47 3d 0e cd 8f 3e 1f 55 1e 3e
       0.17531653 0.048676237 0.28086132 0.15462159
0001e0 25 3e 34 be ad e3 66 bd 85 08 94 3e 66 bc 82 3d
       -0.17601831 -0.056369472 0.2891275 0.063835904
0001f0 5b b3 72 be 57 27 99 bd 8f c2 70 3e 87 56 23 be
       -0.23701231 -0.074782066 0.23511718 -0.15950976
000200 28 35 db 3d ef d7 39 3d 0a 5a 45 be 5f b3 2d bd
       0.10703498 0.045371946 -0.19272628 -0.04240739
000210 d0 b5 89 3d ca 4b df 3c 67 3d 79 3c 23 70 07 be
       0.06724131 0.027257819 0.015212393 -0.1322637
000220 30 85 01 be 83 ac 58 be 28 06 17 3e e0 17 3a be
       -0.12648463 -0.21159558 0.14748442 -0.1817317
000230 32 13 c8 bd 23 4c 42 be ee f5 fb ba 7a 51 4b bd
       -0.09769286 -0.18974356 -0.0019223073 -0.04963825
000240 50 75 29 be c2 74 a6 bd ec 70 ca be 12 15 28 3e
       -0.16548657 -0.081277385 -0.39539278 0.16414288
000250 d1 c0 45 3e 09 bd 83 3e 16 7a 21 3e 4b c2 5a be
       0.19311835 0.2573016 0.15769228 -0.2136318
000260 45 c4 80 be 52 80 dd bd 82 fa 76 be 8a 4d 42 bd
       -0.25149742 -0.10815491 -0.24118999 -0.04743723
000270 6e d0 44 bc e8 5a 6b be 83 8b cc bd 4a 69 0f bd
       -0.012012584 -0.22983897 -0.09987547 -0.03501252
000280 85 60 87 bd 54 51 2e be 52 59 ce be b5 be 56 3e
       -0.066102065 -0.17023212 -0.4030252 0.20971186
000290 64 f1 bb 3e 95 a3 85 3e 1d 59 84 be 89 ec 7f 3e
       0.36707604 0.26101366 -0.25849238 0.24992575
0002a0 a8 cf 36 3e 20 bf 4a 3e a6 5e dc 3d a1 06 84 3e
       0.17852652 0.19799471 0.1076024 0.25786307
0002b0 cd b6 17 3e b2 45 51 3e 23 c6 82 bd 9b e1 f4 3d
       0.14815827 0.20436743 -0.06385448 0.11957093
0002c0 ca 92 72 be 27 22 20 bd ac 7b 1b bd bb d0 cc bd
       -0.23688808 -0.03909507 -0.03795974 -0.1000075
0002d0 c9 1b 99 3e 02 9c bd bd fe 9f 8e 3e dd 16 c6 be
       0.2990401 -0.09258272 0.2785644 -0.38689318
0002e0 a6 6b 20 bd 8c b1 44 be c4 0e 85 be 40 e6 d5 3c
       -0.03916516 -0.19208354 -0.25987828 0.026110768
0002f0 df 69 85 3d ac fc d1 bd 2a c0 f5 3d a8 b2 bf bb
       0.06514334 -0.102532715 0.11999543 -0.005850155
000300 44 48 2d be a3 3b 4e 3d ed 23 9d be 4e 8e b4 be
       -0.16922098 0.050349843 -0.30691472 -0.3526482
000310 18 b8 68 3e 88 b5 e7 3d 48 b3 66 3b a8 1a 8c bd
       0.22726476 0.11313921 0.0035202075 -0.06841022
000320 aa ef 21 bd 52 d1 6c be 49 e8 d3 3d 33 51 2d 3e
       -0.039535202 -0.23126724 0.10347039 0.16925506
000330 8c 28 b7 bd fa aa d9 bc f1 d3 6d bd 69 67 55 be
       -0.089432806 -0.026570786 -0.05806345 -0.20840229
000340 28 7f 88 3d fa b1 04 bd af 59 27 3e 56 fb be bc
       0.06664878 -0.032396294 0.16342805 -0.023313206
000350 ad f5 3a be 4b 5d ba bc d5 3d c4 3b 38 e5 4a 3e
       -0.1825778 -0.022749564 0.0059888163 0.19814003
000360 e5 96 5c bd 66 56 8b be c3 86 2e bc 76 39 06 3d
       -0.05385484 -0.27214354 -0.010652247 0.032769643
000370 2c d1 a1 3e 90 79 4f 3c 20 78 15 3e 05 07 f9 3d
       0.31604898 0.01266326 0.14596605 0.12159542
000380 32 66 8f bd 52 5c 1f be 57 b2 4e 3d c7 60 0d bd
       -0.07001914 -0.15562561 0.050463047 -0.034516122
000390 5a 1d ab 3d 9a 70 f4 3d 67 9a 84 be d1 84 b1 3d
       0.08355208 0.119355395 -0.2589905 0.08667911
0003a0 00 0a f1 bd 39 84 27 3e af 1b 63 bd 5d 6f 01 bc
       -0.117694855 0.16359033 -0.055446323 -0.007900086
0003b0 3e 00 a9 bd 70 12 86 be fc 99 04 3e 58 7e 9f 3e
       -0.08251999 -0.26185942 0.12949365 0.3115108
0003c0 aa c1 1f 3e 9b db 01 ba 32 13 b8 3d 8d 87 86 be
       0.1560122 -0.0004953683 0.08988036 -0.26275292
0003d0 c0 0e ab 3e da aa ca bd 25 d4 9e 3e 17 75 73 3e
       0.3340969 -0.098958686 0.31021228 0.23775135
0003e0 fb 71 2d 3d d9 39 87 3d 3b 84 be 3d 1d bf d6 bd
       0.04234503 0.066028304 0.09302565 -0.10485671
0003f0 84 a8 9d be d6 ee 7f be 4e 05 f7 3b 9a 77 94 be
       -0.3079263 -0.24993452 0.007538474 -0.289975

network_body._body_endoder.seq_layers.0.bias f4 [256]
000000 35 ec 7f 3a 7b 82 9e bb 34 c0 8c 3c 00 f9 df bb
       0.00097626756 -0.004837332 0.017181493 -0.006835103
000010 a2 5a c9 3a a9 e0 ea 3b 61 76 b4 3c 10 86 1d 3b
       0.0015362094 0.007167895 0.022029104 0.0024036206
000020 e4 b8 1f 3b 16 63 61 3b 15 8d 66 3c 5e e7 fd 3b
       0.0024371678 0.0034391335 0.0140717225 0.0077485284
000030 57 7e e3 3b d8 d8 d4 bb aa ba 48 3b 37 76 36 3b
       0.006942551 -0.0064955764 0.0030628839 0.0027841458
000040 b0 4c 22 3c df e7 17 3c 6f 40 a1 bb 11 b5 b1 3c
       0.009905979 0.009271591 -0.004921011 0.021692785
000050 20 e7 3f 3c fa 77 c8 3b 19 34 1f 3a 13 b9 03 3c
       0.011712819 0.006117818 0.0006073132 0.008039731
000060 ad 8d 15 bb 77 ea 91 bc af 57 c6 bb 98 1d 94 39
       -0.002282004 -0.017811997 -0.006052933 0.0002825081
000070 12 cf 46 3c 96 e6 92 bb 54 5f 14 b9 62 8e e9 39
       0.01213433 -0.0044830544 -0.00014149892 0.00044547307
000080 7c e2 46 ba 70 55 e7 3b 71 74 ba 3b 26 53 af bb
       -0.00075868494 0.0070597455 0.0056901504 -0.0053504882
000090 d3 c8 4a 3c 7f a0 36 3b 03 85 79 3c 9a 1e 8c bb
       0.012376982 0.002786666 0.015229466 -0.004276109
0000a0 7f 99 eb 3a 5c 9a 0c 3b 3a 94 15 3b d8 19 2c 3a
       0.0017974823 0.002145431 0.0022823946 0.00065651303
0000b0 85 d5 e2 bb 84 d5 bd 3b 46 9c 46 ba 51 cf a9 3c
       -0.006922426 0.0057932753 -0.0007576387 0.020728739
0000c0 19 ea b9 37 56 2d dc 3a 77 ab 1b 3c 8c 44 0c 3c
       2.2162729e-05 0.0016798179 0.00950133 0.008561265
0000d0 e4 8d 8e 3a 28 87 77 bb 8c 46 78 3b 79 9b bd 3b
       0.0010876027 -0.0037769768 0.0037883846 0.005786356
0000e0 50 df b0 3b 49 a8 ba b9 ad 0d b4 ba e3 e8 0f 3b
       0.0053977147 -0.00035602067 -0.0013736986 0.002195888
0000f0 df 47 ba ba 66 fd a3 ba 0e 61 e3 b9 5e a6 33 3b
       -0.0014212093 -0.0012511432 -0.00043369125 0.0027412395
000100 87 c0 24 3c 6b 92 85 3b 51 f3 82 3c a9 0a e8 ba
       0.010055668 0.0040762923 0.015985163 -0.0017703372
000110 6b 81 f3 3a 28 a1 6e bb 1e fc 4f bb 50 12 31 3c
       0.0018577998 -0.0036411975 -0.0031735967 0.010807589
000120 83 71 ab bc 03 31 5d bb a8 31 3e bb 4a 20 96 3b
       -0.02092815 -0.0033751137 -0.0029021297 0.004581486
000130 16 28 82 3c 1a 94 0a 3c a3 75 76 bb 28 b8 50 3c
       0.015888255 0.008458162 -0.0037606738 0.012739219
000140 c0 31 b3 3b be 3c 2c 3c 3b 97 95 b9 44 9e 0a 3b
       0.005468577 0.010512529 -0.0002853217 0.0021151463
000150 12 4f ca ba 8e 4b e7 bb 7e 96 69 3b 35 29 e6 3b
       -0.0015434942 -0.0070585674 0.003564268 0.007023955
000160 d6 52 0e b9 7d 63 01 3b 92 f5 43 bb 5e 28 a6 38
       -0.00013573034 0.0019743138 -0.002990101 7.923016e-05
000170 0b 91 81 3b 7b fd 14 3c 16 51 64 bb 1c 8c 2c 3a
       0.003954058 0.009093638 -0.003483837 0.0006582157
000180 0e ad f5 3b 6c 34 69 3c bd 96 02 3a 3e 72 99 bb
       0.0074974364 0.01423369 0.0004981568 -0.004682808
000190 78 18 fe ba a7 c3 4e 3c cb b4 18 3c dd 9d 0d 3b
       -0.0019385954 0.012619889 0.009320448 0.0021608986
0001a0 4b fd c0 ba de 33 85 bb 24 91 a1 3b 8a d0 a7 39
       -0.0014723925 -0.004065021 0.004930632 0.00032008096
0001b0 39 d4 c8 3b 69 37 b2 3c 34 8d 18 bb 44 57 af 3a
       0.0061288145 0.021754937 -0.0023277523 0.0013377448
0001c0 dd 3a a8 bb 2e af c6 3b ba 4a 82 bb 17 61 d5 3b
       -0.00513397 0.0060633635 -0.0039761933 0.006511818
0001d0 22 ef cc 3b 03 c3 40 3c 99 8a e9 3a ce a6 d3 3b
       0.006254093 0.011765244 0.0017817795 0.0064590937
0001e0 b8 ac 9f 39 dd 59 52 3b c9 74 37 3c 5d b4 29 3c
       0.0003045553 0.003209702 0.011197277 0.010357943
0001f0 8b e5 12 3b 3a 39 95 bb 2d 8e 7e 3b 6e 0c 53 3b
       0.002241465 -0.004553941 0.0038842068 0.0032203454
000200 6b ef 49 3c 22 a9 1f 3b 6a 65 27 bc 5a 17 8f bb
       0.012325148 0.0024362286 -0.01021705 -0.0043667974
000210 ba 3b c5 3a db 43 a3 3b f6 2a e1 3b 67 64 58 3c
       0.0015047707 0.0049824542 0.0068715764 0.0132075315
000220 b8 73 6e 3c 4f e8 a5 3c 35 f2 9a bb ae bb 78 3c
       0.014553957 0.020252375 -0.0047285804 0.015181465
000230 84 a6 05 bb 3d 6f 1a 3c 81 10 e9 ba a1 eb 40 3c
       -0.002039344 0.009425935 -0.0017781408 0.011774928
000240 f2 dc 55 ba f9 a5 0b 3c c5 92 88 b9 f2 4b 69 3b
       -0.00081582286 0.008523458 -0.00026049293 0.0035598245
000250 1d d1 0e 3c 6b ff fe 3b da e4 81 bb 3f 9c a7 bb
       0.008716849 0.007781913 -0.003964049 -0.0051150615
000260 c3 18 e5 3b 1b fa e2 3b 5c 4e 32 3c d5 53 c3 bb
       0.006991477 0.0069267876 0.01088294 -0.0059609213
000270 53 2d bc 3b 05 80 fd ba 7e 0b 81 ba 40 63 f9 3a
       0.0057427078 -0.0019340521 -0.0009845344 0.0019026771
000280 fe d2 8a 3b 75 74 87 ba f3 7e b6 3a 80 4e 82 bb
       0.004236578 -0.001033439 0.0013923332 -0.003976643
000290 ab 9c df 3b 35 74 04 3a 3a c2 b7 3b 60 4e c2 3b
       0.006824096 0.00050527166 0.0056078704 0.005929753
0002a0 bf 7b 83 3a 5e 5f cc 3b 0b d6 91 3b ad e8 25 b9
       0.0010031386 0.0062369546 0.0044505647 -0.00015822305
0002b0 18 23 19 3c 19 4e d1 3b fe bb 33 3c 6d 80 51 3b
       0.009346746 0.006387484 0.010970114 0.0031967417
0002c0 2a aa b5 38 38 1a e0 3b 5b bc 3d bb 05 b9 04 3b
       8.662448e-05 0.006839063 -0.002895138 0.0020251882
0002d0 5a a8 66 3c 22 ab a1 3b c4 b7 d3 3a 2d a3 56 3b
       0.014078224 0.0049337307 0.0016152789 0.003275107
0002e0 e7 f0 67 3b 23 ad 0e 3b 8e 07 84 3a 19 47 6e ba
       0.0035391392 0.0021770678 0.0010073052 -0.0009089574
0002f0 3d 4c 9f 3b 1d 94 17 ba cd b6 13 3b 8c 51 0f 3c
       0.0048613832 -0.00057822635 0.0022539378 0.00874747
000300 eb 28 8c 3b ab d7 07 3b 54 08 85 bb ff 0e 0f 3c
       0.0042773387 0.0020727913 -0.0040598307 0.008731603
000310 54 11 78 3c 68 d9 76 3b e8 f6 13 3b 0d 28 38 3c
       0.01514085 0.0037666205 0.0022577588 0.011240018
000320 6c b8 30 3c ba 54 b4 3b cd 5c b9 bb c8 0b 50 3c
       0.010786157 0.0055032643 -0.0056568147 0.012698121
000330 b5 29 51 3b 1f 48 62 bb b8 9c 3f 3c bb 57 9f 3c
       0.0031915728 -0.003452785 0.0116950795 0.019451013
000340 31 2b 2f 3c 1f 5f c7 bb 55 74 80 3b 13 f4 12 3c
       0.01069145 -0.0060843374 0.003920118 0.008969325
000350 93 59 d2 bb fa 72 a5 3b b3 d7 e3 3b 0b cd 37 3a
       -0.0064193695 0.0050491067 0.0069532036 0.000701145
000360 01 f5 b0 bb e3 84 2f 3b 77 09 64 3b 95 47 df 3a
       -0.0054003005 0.0026782088 0.003479568 0.0017034883
000370 e9 81 0a 3c ab 63 80 3b a1 dc 44 3c 95 1e 1d bb
       0.008453825 0.0039181313 0.012015493 -0.0023974527
000380 d5 09 52 3a 77 91 b0 3b 17 b4 e7 ba dc e9 bc 3b
       0.00080123293 0.0053884345 -0.0017677572 0.005765183
000390 bd 58 1b bc 25 a2 25 3c 66 21 d1 3b 86 1c 3b 3b
       -0.009481606 0.010109459 0.006382155 0.0028550937
0003a0 ed 00 d0 3b 95 f9 b5 bb a0 9f 99 3b f0 ce 01 3c
       0.0063477666 -0.005553434 0.0046882182 0.007922873
0003b0 81 be b7 3b 09 b3 13 bc fa 81 e2 39 5d 0e ff 38
       0.0056074266 -0.009014853 0.0004320292 0.00012162023
0003c0 20 1c a6 3b d4 0a bd 3b b0 9a 04 3c cb d6 99 3b
       0.0050692707 0.005769113 0.008093521 0.004694795
0003d0 54 93 a4 3b b5 e0 9d 3b 43 1d cd bb ed f3 b5 bb
       0.0050224457 0.004818047 -0.006259592 -0.00555276
0003e0 c9 43 8e b8 4c 7b bd bb 77 65 8c 3b f7 32 c3 bb
       -6.7837136e-05 -0.0057825204 0.0042845565 -0.005957003
0003f0 ae 94 c1 3b cd fd 9c 3b 19 4e 8a bc ae 88 a3 3a
       0.0059076166 0.0047909976 -0.016882943 0.0012476647

action_model._discrete_distribution.branches.0.weight f4 [2, 256]
000000 c6 43 8e 3b ce 28 bb 3b db 42 54 bc 1f 1d 94 3b
       0.0043415753 0.0057116514 -0.012955393 0.004520073
000010 a1 e9 02 bc c6 19 ab bc d5 8f 85 3c 96 a7 96 bc
       -0.007990272 -0.020886313 0.016303936 -0.018390458
000020 c3 ce 91 bb 64 df 1b 3a a4 e6 f0 bc a4 49 87 bc
       -0.0044496967 0.00059460686 -0.029406853 -0.016514607
000030 25 a3 77 bb 7f 1b 22 bb 4e 22 37 3d 99 4d 15 bc
       -0.003778645 -0.0024735627 0.04471045 -0.009112739
000040 01 02 d1 3b e2 b5 0b 3d ec 5b 18 bc 35 3d c4 3c
       0.0063784127 0.034109004 -0.00929926 0.023954967
000050 52 05 d3 3c a7 cd d8 bc 87 c3 0e bb be a9 04 3d
       0.025759373 -0.02646525 -0.0021784024 0.03238844
000060 52 ac 0b bc 7f 3e 95 bb c7 03 a0 b9 89 dc 7e 3c
       -0.008524971 -0.0045545693 -0.00030520392 0.015555509
000070 a0 27 06 bd 04 43 a7 b9 25 67 65 3c 0c 94 f4 b7
       -0.032752633 -0.00031902653 0.014001642 -2.9156006e-05
000080 b1 36 86 3c ce c4 18 bc 5d 13 51 3c 8d 3e a7 bb
       0.0163835 -0.009324266 0.012760964 -0.005103892
000090 5a 36 c6 3b 02 00 23 3c a6 5a f1 3c 82 74 a8 3b
       0.0060489597 0.009948732 0.02946217 0.005140842
0000a0 d7 b2 2a 3c 6b 51 d4 bb 5f 5b b9 bb 5d 46 ab 3c
       0.010418615 -0.0064794323 -0.0056566442 0.020907575
0000b0 5a 3c 9b ba ad 78 84 bc 46 f2 41 3c de 73 8e 3c
       -0.0011843548 -0.016170824 0.011837548 0.017389234
0000c0 fa f3 d2 38 2a e3 79 3c 9d f9 29 3d c2 06 03 3c
       0.000100590245 0.015251914 0.041497815 0.007997217
0000d0 a7 e2 8b 3a ac 18 09 bc 66 ed 13 bc 46 f0 cb 3c
       0.0010672406 -0.008367699 -0.009028768 0.024894845
0000e0 79 43 85 bc b9 f6 19 bc ec 45 b5 3c 27 49 54 3c
       -0.016267525 -0.009397202 0.022128068 0.012956894
0000f0 37 14 0b ba ce 76 ee ba 6e f5 16 bb 11 96 31 3c
       -0.00053054414 -0.0018193366 -0.002303447 0.010839001
000100 df dc 37 3c 7a d0 cb bb d6 f2 f0 3c dd 5b ae bb
       0.011222093 -0.0062199207 0.029412668 -0.0053210096
000110 55 13 4e bb 4d e0 85 bb 27 0e a8 3b ac 13 c2 bc
       -0.0031444628 -0.0040855766 0.00512864 -0.02369102
000120 ae 39 9d 3b 33 87 df 3b 2d 20 45 3b 32 52 86 bc
       0.0047981357 0.006821537 0.0030078993 -0.016396616
000130 4c 5c cf 3c 31 13 05 bc 8a e8 07 3c c7 a0 04 3d
       0.025312565 -0.008122251 0.008295188 0.03237989
000140 b5 5c 11 bb e6 96 de 3b aa 83 b9 3b 10 7a 19 3c
       -0.0022180502 0.006792891 0.0056614475 0.009367481
000150 7a 82 0b 3b 11 7b f6 39 a6 82 51 bc 9a 58 9e 3b
       0.0021287487 0.00047012468 -0.012787497 0.0048323395
000160 4b 07 6d 3c 79 71 cb bb bb b7 03 3c 3b 1e 57 38
       0.014467071 -0.0062085954 0.00803941 5.128815e-05
000170 48 c7 eb 3c d4 fc db bc bd 0d c0 3b 56 25 50 3c
       0.028781548 -0.026853956 0.0058610127 0.012704214
000180 9b a5 fa bb 55 3a b8 bc c3 28 93 bb e4 5a 0b 3b
       -0.0076491362 -0.022488752 -0.004490943 0.0021263892
000190 ab 77 a4 3b d0 2b 2c 3c 58 ac 93 bc 29 fd 52 3b
       0.0050191483 0.010508493 -0.018026516 0.0032194352
0001a0 73 a1 0c 3c a3 45 7d 3b f4 1c 35 bc c0 0b ba 3c
       0.008583414 0.0038646243 -0.011054266 0.022710681
0001b0 b7 ef 49 bc a6 3a e9 3b 54 b0 9c 3c 69 15 71 bb
       -0.012325219 0.007117587 0.019127049 -0.0036786443
0001c0 80 ba c5 bb e9 9e 5e 3c d6 4a 79 3a f0 de a0 3c
       -0.0060341954 0.013587692 0.00095097476 0.019637555
0001d0 e1 75 5a 3c 70 17 98 3c ef 0b 2b bc 23 f7 c8 3c
       0.013333769 0.018565863 -0.010439857 0.024531906
0001e0 4a 9e c4 bb 92 63 d8 ba ef 89 97 3b 78 99 04 bd
       -0.006000315 -0.0016509166 0.0046245973 -0.03237292
0001f0 af 29 ab bb 1a cb fd 3a d6 e7 9a 3b ae da b7 bb
       -0.005223475 0.0019362897 0.004727344 -0.0056107854
000200 9b 7b 65 bc 84 dd 1b 3b 69 b9 c0 ba 1d 0f 00 3c
       -0.014006521 0.0023783157 -0.0014703694 0.007816103
000210 09 93 7d bc f4 28 a1 bc 0e ce bb bc 31 f9 ee 3c
       -0.01547695 -0.019672848 -0.022925403 0.029171558
000220 76 bd 89 bc 27 60 42 3c 00 62 d7 3b c7 78 34 3c
       -0.016813975 0.011863745 0.006572962 0.011015124
000230 9a 33 a3 ba 43 9a d7 3b cb ba 45 3c d9 00 21 3c
       -0.0012451292 0.0065796687 0.012068461 0.009826862
000240 9d 71 25 ba ac 8a 8a 3c d4 d5 5a 3c d1 85 8e 3c
       -0.000631118 0.016911827 0.013356645 0.017397793
000250 81 fc c8 3b 32 4f 5c bb a0 90 bd 3b f5 96 49 ba
       0.0061336164 -0.003361654 0.005785063 -0.0007690036
000260 96 5b 20 3c 2b 56 d6 bb ac 87 6a bc db de 68 ba
       0.009787461 -0.0065410337 -0.014314573 -0.00088833057
000270 bf 9d d5 bc c6 9e 59 3c ee e6 36 3c 6c ab 39 bc
       -0.026076196 0.013282483 0.011163456 -0.011332374
000280 a0 6d 2d bc bb 92 44 3c 18 48 f3 3b 9e f5 ef 3b
       -0.010585219 0.011997874 0.0074243657 0.007322981
000290 35 e3 99 bc db 89 b5 3c 97 68 7f bc 91 fd 82 bc
       -0.018785099 0.022160461 -0.015588901 -0.01599005
0002a0 20 7d a1 bc 45 35 cf bb 6e b8 92 3b e3 85 b2 3a
       -0.019712985 -0.006323489 0.004477552 0.0013620224
0002b0 1e 50 75 3b 57 86 bf bc c5 7d f4 3b ca 7b 06 bc
       0.0037431787 -0.023379488 0.007461282 -0.008208225
0002c0 f8 77 41 bc fe ca e4 3b 42 80 64 3c f4 2a b4 bb
       -0.011808388 0.0069822064 0.013946595 -0.0054982845
0002d0 44 54 a4 3b 2c 8c 7f bc 80 53 5f bb 32 54 91 bc
       0.005014928 -0.015597384 -0.003407687 -0.017740343
0002e0 33 98 52 bc 13 ac 61 bc 22 37 f4 3b 02 8b 36 3b
       -0.01285367 -0.013773936 0.0074528614 0.0027853851
0002f0 44 40 15 3c 1d 64 b6 3c 53 13 49 bb 1d 2d e9 bc
       0.00910956 0.022264535 -0.0030681684 -0.028463895
000300 e9 d5 e4 3c b6 a1 14 3c d2 e8 18 3a 92 0f d5 3c
       0.027934032 0.009071758 0.0005833033 0.026008401
000310 88 c5 09 bc 90 04 12 bc c4 51 5b bc c1 e0 ea 3c
       -0.0084089115 -0.008912221 -0.013386194 0.028671624
000320 d4 24 7c 3c 79 be d5 bc db b0 33 3b 5a f3 f0 3c
       0.01538964 -0.026091801 0.0027418646 0.029412914
000330 aa 5b f0 bb b9 23 93 bb f2 08 15 3b 12 f1 f9 3c
       -0.007335146 -0.0044903425 0.0022740928 0.03051046
000340 43 e9 4b 3c 4b 3f 3b 3b 20 96 5a bc bf 3d bb bc
       0.012445751 0.002857166 -0.013341457 -0.022856591
000350 97 31 36 b9 fc 01 bd bc 45 1d 47 3c c3 12 4d 3c
       -0.00017375346 -0.023072235 0.0121529745 0.01251668
000360 0c ab 88 ba f1 79 23 bc e2 09 91 bc ed e3 d2 ba
       -0.0010426953 -0.009977804 -0.017704908 -0.0016089656
000370 a1 d1 b7 3b 87 0b 17 3c b9 36 7e 3c 75 9f c6 bb
       0.0056097065 0.009219057 0.015515977 -0.006061489
000380 5a c6 94 3c 89 9b bb bb 65 13 86 bb 79 65 1d bc
       0.018160988 -0.0057253283 -0.0040916675 -0.0096067125
000390 ce 11 26 3c 06 0a af 3c 5b 5f 55 3c 9a 9f ea bb
       0.010136081 0.021367084 0.013023223 -0.0071601393
0003a0 2f 0a 80 bc 5c 7b b8 bb 07 ee bb 3b d9 5f 80 bc
       -0.015629856 -0.00562994 0.005735162 -0.015670704
0003b0 a8 ae 77 bc 46 f6 85 3b 52 0a a0 3a 5b 36 0c 3b
       -0.015117325 0.004088196 0.0012210107 0.0021394703
0003c0 9e ac 7d bb 8a 4c ae 3c 10 21 0b 3c a5 b5 dd ba
       -0.0038707624 0.021276731 0.008491769 -0.0016915096
0003d0 60 1c 98 bb 8b 5f b6 bb 97 87 4b bb 24 c4 3f bb
       -0.0046420544 -0.005565589 -0.003105616 -0.0029261196
0003e0 38 1a 06 3b b8 11 3c bb c7 6f 59 bb ff b5 ab 3b
       0.0020462405 -0.0028697085 -0.0033178197 0.0052402015
0003f0 1f 79 2d bc 2f 87 23 bc 42 ec c4 3b b7 4b 6c 3c
       -0.01058796 -0.009980961 0.0060096094 0.014422349

action_model._discrete_distribution.branches.0.bias f4 [2]
000000 f5 4e 57 bb ea 4e 57 3b
       -0.0032853459 0.0032853433

exp_avg f4 [256, 29]
000000 73 00 ad b5 9d b5 b5 b6 c8 03 76 b6 8f e9 92 35
       -1.2889635e-06 -5.415363e-06 -3.6659058e-06 1.0945822e-06
000010 f0 f6 cf b6 e5 7d bb b6 e0 f4 bd 35 32 a1 79 35
       -6.197828e-06 -5.5876903e-06 1.4152865e-06 9.29943e-07
000020 22 90 d9 b6 51 a9 2c b7 2b eb d6 36 94 87 c3 34
       -6.483883e-06 -1.0291421e-05 6.405074e-06 3.6420226e-07
000030 be 55 56 b6 7b c7 73 b7 35 c2 f6 36 27 99 96 36
       -3.1938393e-06 -1.4530374e-05 7.35398e-06 4.4881776e-06
000040 d7 3a 66 b7 10 51 20 b7 17 90 58 37 32 9c 0c 37
       -1.3722768e-05 -9.555617e-06 1.2908152e-05 8.381017e-06
000050 4f f5 39 36 73 bb 3b b7 b5 f6 02 b6 1f 7d 88 36
       2.7709937e-06 -1.11897125e-05 -1.9515112e-06 4.067682e-06
000060 be ee cc b7 90 5f 02 35 b1 bb 63 37 6f 52 1d 37
       -2.4429868e-05 4.8567836e-07 1.3573955e-05 9.377122e-06
000070 00 00 00 00 7a 29 93 35 55 1e 00 b6 23 54 8f 35
       0.0 1.0964425e-06 -1.9091142e-06 1.0678817e-06
000080 b6 07 3a 36 6f 5c 06 b5 43 ee 81 b6 0e 4a 9b 36
       2.7720648e-06 -5.00534e-07 -3.872237e-06 4.627981e-06
000090 60 d5 8d 36 21 f1 4b b5 41 d6 c8 b6 a5 e4 ea 36
       4.2269676e-06 -7.597428e-07 -5.985407e-06 7.000361e-06
0000a0 f7 9a 32 36 ef 04 21 36 48 fb 94 b7 b9 fe 82 37
       2.6614268e-06 2.3993741e-06 -1.7759987e-05 1.5615822e-05
0000b0 6f 75 29 37 d2 5f c4 b6 1c 1d de b6 98 86 55 37
       1.0100527e-05 -5.85241e-06 -6.6195043e-06 1.2727127e-05
0000c0 14 06 2a 37 b6 2c 3f 37 63 18 63 b7 32 cf 20 36
       1.0134205e-05 1.1394897e-05 -1.3535932e-05 2.3962461e-06
0000d0 55 68 24 37 0e 78 76 b7 d2 7a e0 34 59 bc 73 37
       9.799453e-06 -1.4690695e-05 4.1812615e-07 1.4527782e-05
0000e0 b7 fa 37 37 00 00 00 00 f1 d8 83 35 cc 23 44 36
       1.0966024e-05 0.0 9.823399e-07 2.9227112e-06
0000f0 cc 1d 9c 35 3c 13 47 b6 5f 59 ad 36 3a 2e b1 36
       1.1631578e-06 -2.9664507e-06 5.166206e-06 5.2803925e-06
000100 02 78 b4 b6 d8 e0 a6 b6 95 23 b6 36 b9 76 49 36
       -5.378389e-06 -4.973361e-06 5.428165e-06 3.002044e-06
000110 b3 9e 61 b6 66 e9 5f b6 2e c0 d7 35 f6 1d 61 37
       -3.3619988e-06 -3.3365445e-06 1.607468e-06 1.3418021e-05
000120 30 0e 27 b7 ad e7 f7 b6 94 51 bd 36 3b 19 aa 35
       -9.957279e-06 -7.3881442e-06 5.642136e-06 1.267333e-06
000130 26 21 f7 b5 ea 50 70 b6 f4 b3 be b6 65 46 58 37
       -1.8412582e-06 -3.5809885e-06 -5.6833906e-06 1.2890993e-05
000140 81 92 0f b6 ef cd ee b6 69 e2 78 36 fe 46 70 36
       -2.1393937e-06 -7.1169266e-06 3.7086668e-06 3.580411e-06
000150 35 0a 15 b6 fe 3b 66 b6 00 00 00 00 96 43 bf b4
       -2.2208671e-06 -3.430759e-06 0.0 -3.5625698e-07
000160 01 19 ae 35 be 06 93 36 b5 61 54 36 1f b1 60 35
       1.2971287e-06 4.3817263e-06 3.1647335e-06 8.370425e-07
000170 ba 31 5b 36 1f a7 a3 35 41 0b 01 36 c7 ee 82 35
       3.2662488e-06 1.2193085e-06 1.9229049e-06 9.755248e-07
000180 1c b6 f9 35 1e df 26 36 c4 12 47 36 c2 83 8b b4
       1.8604946e-06 2.48658e-06 2.9664234e-06 -2.5986634e-07
000190 8b 87 f4 36 15 da e4 b5 a7 ea 99 34 c3 99 c0 35
       7.287546e-06 -1.7050794e-06 2.8669203e-07 1.4349865e-06
0001a0 dc 74 be 35 3e aa 25 36 fa da 1b 36 af b3 22 34
       1.4190114e-06 2.468601e-06 2.322426e-06 1.5152794e-07
0001b0 3d 62 b0 36 49 c5 b7 b3 9f 1e dc 33 d4 92 f6 35
       5.256645e-06 -8.5574875e-08 1.0250118e-07 1.8371161e-06
0001c0 bb ec a9 35 c4 f1 14 36 0d e1 18 36 00 00 00 00
       1.2660379e-06 2.2194445e-06 2.2780762e-06 0.0
0001d0 88 55 20 b6 0e 44 4b 36 be b9 7d 37 f7 9e 2f 37
       -2.3891644e-06 3.028897e-06 1.5123222e-05 1.0467825e-05
0001e0 72 fb 09 36 69 b1 0c 37 34 8a b2 36 b8 df d4 36
       2.0560951e-06 8.385957e-06 5.3209023e-06 6.3441366e-06
0001f0 06 2b 33 36 b3 ca 0b 37 d0 bf 9f 36 c3 89 27 37
       2.6698121e-06 8.33224e-06 4.760899e-06 9.986051e-06
000200 fb c6 96 b6 3e 5f 1a 38 0f d2 8a b7 87 d0 84 b6
       -4.4935127e-06 3.6805162e-05 -1.6548698e-05 -3.9581823e-06
000210 7d 70 1a 37 29 5b 28 37 20 59 69 b6 48 e5 b9 34
       9.205306e-06 1.0034805e-05 -3.4771583e-06 3.462576e-07
000220 f2 5c 1a b7 65 67 e5 37 e8 f1 1f b6 9a 74 9f b6
       -9.200756e-06 2.7347074e-05 -2.3833654e-06 -4.7521435e-06
000230 a5 0d b0 37 f7 3b 19 35 60 73 c2 b6 96 b7 70 b5
       2.0987189e-05 5.70842e-07 -5.795082e-06 -8.967412e-07
000240 00 00 00 00 20 60 31 b7 60 bf a6 35 b0 f6 88 37
       0.0 -1.0572403e-05 1.2423661e-06 1.6327336e-05
000250 e5 51 c9 b6 e8 3f 30 37 2d 78 02 38 dc 2e 11 b8
       -5.9998006e-06 1.0505297e-05 3.1106338e-05 -3.4614335e-05
000260 b8 a7 f0 b7 79 81 63 37 fd e2 98 37 2b f1 cf b7
       -2.868833e-05 1.35604e-05 1.8225512e-05 -2.4788626e-05
000270 b6 7a 3c b7 d1 c3 bc b7 a0 76 12 39 a6 0f e7 b8
       -1.1234244e-05 -2.250253e-05 0.00013967836 -0.00011017853
000280 42 e0 87 b8 cf 39 01 38 80 90 8a 37 c7 28 29 b8
       -6.479073e-05 3.0809835e-05 1.651817e-05 -4.0330717e-05
000290 5e 12 11 b8 82 32 6a b8 7b 33 dd 38 2b db 32 b8
       -3.45878e-05 -5.5836987e-05 0.0001054769 -4.2642623e-05
0002a0 99 60 8b b8 d0 43 5e 38 1b 18 67 36 09 5c 4f b8
       -6.646029e-05 5.299208e-05 3.4435714e-06 -4.943836e-05
0002b0 e3 1d 1d b8 00 00 00 00 3d 23 ad b6 74 21 9a b6
       -3.745955e-05 0.0 -5.159904e-06 -4.593452e-06
0002c0 da 16 d1 b6 48 6a 6e b6 a5 38 09 b7 15 0e 96 b6
       -6.2313457e-06 -3.5526627e-06 -8.179025e-06 -4.4719877e-06
0002d0 52 b8 5f b6 9e b7 8a b6 ef 66 07 b7 70 b4 54 b7
       -3.3336878e-06 -4.1340963e-06 -8.070593e-06 -1.2678196e-05
0002e0 31 db 9f 36 7b 6c 79 b6 6b 3b 26 b7 d3 3e f4 b6
       4.7640865e-06 -3.7167035e-06 -9.908205e-06 -7.2790804e-06
0002f0 73 68 a1 35 76 8e 62 b5 a8 e7 a3 b7 f2 fc cb b7
       1.2025833e-06 -8.439887e-07 -1.9538988e-05 -2.4317273e-05
000300 b7 cd e9 37 e1 d3 77 37 f5 df d5 b5 74 ee e6 b6
       2.7871558e-05 1.4771679e-05 -1.5934917e-06 -6.8822937e-06
000310 18 f5 fb b6 ef 8b c1 b5 b9 1b 4c b8 e6 91 02 36
       -7.5089156e-06 -1.4420347e-06 -4.866321e-05 1.9456434e-06
000320 2b e7 00 38 10 30 92 37 00 00 00 00 a4 51 7a b5
       3.073287e-05 1.7426937e-05 0.0 -9.325106e-07
000330 11 f9 92 37 2c 39 c3 37 29 1e 11 37 06 a2 61 37
       1.7520537e-05 2.3272434e-05 8.649696e-06 1.3448769e-05
000340 b9 55 c2 37 af c7 59 36 04 07 0a 36 4c 01 7b 37
       2.316652e-05 3.245175e-06 2.0567686e-06 1.4961068e-05
000350 d1 eb ab 37 de cc 93 36 61 ca 3d 37 9f 00 20 b7
       2.0494599e-05 4.404791e-06 1.1312398e-05 -9.536888e-06
000360 ad d2 b9 38 5c 75 24 b8 49 57 99 b7 7d 3c bb 37
       8.860729e-05 -3.9209946e-05 -1.8279667e-05 2.2320304e-05
000370 86 f0 a6 37 9a 6a 1e b6 fb b8 78 b6 09 c0 00 b8
       1.9900745e-05 -2.3605885e-06 -3.7062553e-06 -3.0696425e-05
000380 ae 4c 97 38 c8 2f d5 b5 0d f1 98 b7 28 16 0d 38
       7.214524e-05 -1.5883643e-06 -1.823206e-05 3.3637654e-05
000390 fd 15 49 37 87 5e c1 b6 ee c5 a6 b6 00 00 00 00
       1.1985653e-05 -5.7628527e-06 -4.9702276e-06 0.0
0003a0 6b 3c 4e b3 35 ae bb b4 d7 ee 98 b5 17 c3 66 b5
       -4.8018062e-08 -3.4958217e-07 -1.1394394e-06 -8.596557e-07
0003b0 d7 50 90 b4 5b a0 e7 b4 fd 9f 60 b5 90 34 4f b5
       -2.688091e-07 -4.3143777e-07 -8.3679316e-07 -7.719e-07
0003c0 7c b3 bf b4 69 59 cd b5 00 e8 bb 34 91 1b 38 b5
       -3.5707114e-07 -1.5299712e-06 3.5000267e-07 -6.8585456e-07
0003d0 c0 ea 8b 34 50 a6 5b b6 a2 05 c6 35 13 8b 4c 34
       2.606157e-07 -3.273035e-06 1.4753789e-06 1.9049575e-07
0003e0 a7 be cc b5 7a 2b da b5 d7 9d d8 35 16 9d 5e 35
       -1.5254672e-06 -1.6254919e-06 1.6139192e-06 8.2930035e-07
0003f0 b8 57 3e 35 61 5a 07 b6 f9 1a 76 b4 39 13 92 34
       7.0908163e-07 -2.0169175e-06 -2.2920348e-07 2.7208606e-07

exp_avg_sq f4 [256, 29]
000000 3f 81 bd 2e 76 fd cf 2d 8c 75 e2 2f 41 7e f1 2f
       8.6176837e-11 2.3645735e-11 4.1192683e-10 4.3927353e-10
000010 18 69 9c 2e f2 91 4f 2f 65 b0 69 2f 02 67 89 2f
       7.112727e-11 1.887839e-10 2.1253894e-10 2.4993346e-10
000020 68 4f 92 2e ca 8a 8e 2e a7 98 d0 2f df c2 d8 2f
       6.653417e-11 6.482066e-11 3.7943446e-10 3.9428635e-10
000030 41 29 f6 2e 6f 61 83 2f ed 03 e2 2e 46 c1 31 2f
       1.1194113e-10 2.3897992e-10 1.02779875e-10 1.6166721e-10
000040 43 91 af 2e 4b f0 d1 2e 06 0e b6 2f 8e 08 c7 2f
       7.983882e-11 9.546904e-11 3.3115571e-10 3.6203968e-10
000050 67 e5 be 2f c5 eb c1 2e e2 26 c7 2e d7 48 1b 2f
       3.47238e-10 8.818505e-11 9.056379e-11 1.4123046e-10
000060 7e 9f 3b 2f d7 a4 54 2e 1d 0c b9 2f ef 6f c2 2f
       1.7064214e-10 4.8349626e-11 3.365991e-10 3.5367928e-10
000070 00 00 00 00 ab 44 4e 2c c2 21 1a 2c 53 d8 fa 2f
       0.0 2.931248e-12 2.1903456e-12 4.5628443e-10
000080 7d 75 00 30 da be 31 2c d0 e4 a8 2e 04 11 b6 2f
       4.673309e-10 2.5259157e-12 7.680401e-11 3.3117697e-10
000090 8f eb c4 2f 6b 49 40 2b 1e bb b4 2d b2 25 f4 2f
       3.5819567e-10 6.831399e-13 2.0546728e-11 4.4410126e-10
0000a0 ba 7f f3 2f 16 bf 9e 2d 71 c4 99 2f bd 92 0f 2f
       4.4292198e-10 1.804738e-11 2.7970118e-10 1.3057906e-10
0000b0 84 97 64 2f b8 77 c4 2c 05 35 b6 2e 11 1d c3 2f
       2.0790308e-10 5.5839465e-12 8.28582e-11 3.5490946e-10
0000c0 cc 77 e3 2f 28 ae 84 2f fe ea 25 2f ee 85 bb 2e
       4.137618e-10 2.4134406e-10 1.5090149e-10 8.527566e-11
0000d0 f0 f8 41 2f 49 07 cb 2e 45 3e 35 2e 73 ec ba 2f
       1.7641688e-10 9.232665e-11 4.120994e-11 3.400121e-10
0000e0 84 ff d9 2f 00 00 00 00 ad 58 04 2e c0 24 51 2c
       3.9653625e-10 0.0 3.0092085e-11 2.9721087e-12
0000f0 24 d9 f3 2e 68 d7 09 2f 70 34 c8 2d 0c 35 b6 2e
       1.10889325e-10 1.2536605e-10 2.2760654e-11 8.285825e-11
000100 d0 dc e3 2d a9 57 24 2e 31 0e ba 2d 04 df 53 2c
       2.5904973e-11 3.736714e-11 2.1152054e-11 3.0108702e-12
000110 6b cf 0b 2f e1 db 0b 2f e2 1a 3b 2e 91 7a a8 2e
       1.2715666e-10 1.2720093e-10 4.2542754e-11 7.661528e-11
000120 62 28 47 2d 4c 4f b4 2d 80 a2 ba 2d 4c 24 0b 2d
       1.1320807e-11 2.0498846e-11 2.1217916e-11 7.909295e-12
000130 af cc ff 2e cb 9e 08 2f 2b 36 cc 2e 14 7e 80 2e
       1.16324166e-10 1.2425543e-10 9.286468e-11 5.843162e-11
000140 1f 82 3a 2b e7 74 8d 2d 1a 31 e0 2d c2 33 de 2c
       6.6261054e-13 1.608176e-11 2.5487657e-11 6.3153658e-12
000150 ef 01 f7 2e 3d eb 05 2f 00 00 00 00 f3 8a 63 2e
       1.1232603e-10 1.2179853e-10 0.0 5.1737236e-11
000160 4b b6 b2 2d 85 68 71 30 9e ad 74 30 51 97 3d 2e
       2.0317211e-11 8.782382e-10 8.901341e-10 4.310802e-11
000170 e7 9d 11 30 d4 35 97 2f d0 a9 d4 2f a5 5b bb 2d
       5.2975085e-10 2.7504987e-10 3.8683234e-10 2.1300137e-11
000180 bd 02 c8 2d f3 51 74 30 fd 23 75 30 98 95 87 2f
       2.2738584e-11 8.888314e-10 8.9181623e-10 2.466265e-10
000190 56 3c 27 30 0e 73 36 2e d9 e0 3f 2f 0e 82 b9 2d
       6.083999e-10 4.1484198e-11 1.7451231e-10 2.108982e-11
0001a0 ca 16 28 2e 8c 10 6d 30 a7 53 72 30 31 94 37 30
       3.8219018e-11 8.624361e-10 8.8157964e-10 6.6785605e-10
0001b0 b5 c9 62 2f 24 8a 94 2d ff 4b 0f 2f 49 53 86 2e
       2.0626241e-10 1.6886999e-11 1.3032773e-10 6.108409e-11
0001c0 aa 3f 02 2e 6c f9 72 30 4a 90 70 30 00 00 00 00
       2.9615123e-11 8.8393537e-10 8.751654e-10 0.0
0001d0 93 e4 2c 2f 4c 8a 1b 2e 02 65 16 32 ce 0e 17 32
       1.5724515e-10 3.5365752e-11 8.754116e-09 8.792723e-09
0001e0 11 21 1c 2f 5e 1c 26 31 76 91 b4 31 86 b8 cc 31
       1.4199865e-10 2.4172304e-09 5.2552265e-09 5.9581593e-09
0001f0 73 58 56 2e f6 39 4c 2f 89 ff 12 32 19 6a 14 32
       4.8736525e-11 1.8574284e-10 8.5564205e-09 8.638858e-09
000200 17 3b b1 30 02 5a a8 31 dd ec b6 30 9a 53 57 31
       1.2895239e-09 4.899676e-09 1.3309563e-09 3.133414e-09
000210 4c e8 b5 2e 77 d5 1a 30 15 00 09 32 eb e7 0f 32
       8.272191e-11 5.6328225e-10 7.974468e-09 8.3764276e-09
000220 ef 7e b0 31 e3 31 0c 31 8e 0b 5a 30 dc 05 2e 31
       5.136705e-09 2.0401039e-09 7.932436e-10 2.5323663e-09
000230 46 e4 7b 30 ca 0e b6 2f 19 52 0b 32 6d 66 0d 32
       9.1637664e-10 3.3116115e-10 8.109532e-09 8.230569e-09
000240 00 00 00 00 eb 84 5f 30 77 3c d4 2b a7 25 ce 32
       0.0 8.1315815e-10 1.5080288e-12 2.3998679e-08
000250 25 ef d6 32 2e 2a 16 30 dc 05 45 32 3d 63 37 32
       2.502163e-08 5.4629623e-10 1.14682415e-08 1.0674566e-08
000260 09 40 59 32 49 69 8b 2f 68 1d 30 2f a7 f7 d4 32
       1.2645622e-08 2.5358762e-10 1.6017554e-10 2.4792667e-08
000270 8c 50 d5 32 c0 01 86 31 72 18 8a 32 39 00 3f 31
       2.4833092e-08 3.9001122e-09 1.607643e-08 2.7794285e-09
000280 4e 90 d9 31 e3 9e b3 2f 7a 42 56 30 dd 4f c8 32
       6.3319368e-09 3.2672806e-10 7.7947215e-10 2.3319382e-08
000290 f1 62 d1 32 96 09 8d 32 51 1f 00 32 e6 64 b8 30
       2.4375796e-08 1.641892e-08 7.457701e-09 1.3416439e-09
0002a0 4a b1 ac 31 d2 df 0b 31 83 77 1b 30 9e 49 c4 32
       5.0260143e-09 2.035439e-09 5.655851e-10 2.285088e-08
0002b0 a4 ff cd 32 00 00 00 00 1c 41 07 2f a5 a7 9d 2d
       2.3981393e-08 0.0 1.230131e-10 1.7923283e-11
0002c0 a8 9a 0a 30 f2 05 0c 30 35 f6 f9 2e 25 d5 23 2e
       5.042389e-10 5.094015e-10 1.1366944e-10 3.725122e-11
0002d0 3d 40 08 30 a4 4d 09 30 d5 bc f8 2e 06 ea d9 2e
       4.95678e-10 4.9950644e-10 1.13112776e-10 9.9095884e-11
0002e0 d1 75 ce 2f e4 5b e6 2f 37 ad 0d 2f 90 8d b5 2e
       3.7554895e-10 4.1902048e-10 1.2885414e-10 8.2560736e-11
0002f0 98 d2 e2 2f f6 4e f0 2f 9f 1c 21 2f 56 d8 be 2f
       4.1258796e-10 4.371185e-10 1.4653033e-10 3.4714515e-10
000300 c4 9b 5a 2f fa a3 95 2f 4a e6 67 2f 4b f0 75 2e
       1.9882324e-10 2.7219454e-10 2.1091143e-10 5.5919974e-11
000310 bb 46 dc 2f 78 b7 ea 2f 5e 47 07 30 fe 9f 22 2f
       4.0068024e-10 4.2694714e-10 4.921413e-10 1.4790655e-10
000320 6f ca 49 2f 83 22 84 2f 00 00 00 00 4c 5d 0d 30
       1.8352762e-10 2.4035182e-10 0.0 5.1428084e-10
000330 5a 7b 6c 2f 43 cc 05 32 86 31 0d 32 9e e0 c8 2f
       2.1507898e-10 7.788063e-09 8.2185405e-09 3.6539388e-10
000340 f0 00 83 31 6f ef 89 31 99 d9 9a 31 d1 b5 ab 2f
       3.8127084e-09 4.014445e-09 4.506728e-09 3.1233907e-10
000350 7f 12 8c 2f 2e dd 08 32 28 05 0a 32 eb 42 d2 30
       2.5478994e-10 7.966532e-09 8.03383e-09 1.529853e-09
000360 d3 6b b7 31 f7 4d 5e 30 8b 01 12 31 27 2d b8 2f
       5.338259e-09 8.0873924e-10 2.1246673e-09 3.3501488e-10
000370 d7 20 65 30 14 0e ee 31 60 9a 03 32 79 12 bd 31
       8.3356383e-10 6.928312e-09 7.660304e-09 5.502724e-09
000380 7d 25 53 31 e8 73 e9 2f 25 c7 e5 30 d7 d9 96 30
       3.072585e-09 4.246481e-10 1.6718543e-09 1.097585e-09
000390 6d 5d 0d 30 15 ed e3 31 1e e7 ff 31 00 00 00 00
       5.1428267e-10 6.6335226e-09 7.4477517e-09 0.0
0003a0 f0 3e a0 2d bb 30 00 2d 39 15 64 30 78 6f 63 30
       1.8217844e-11 7.286778e-12 8.2976076e-10 8.2740526e-10
0003b0 ef f7 bf 2d e9 cb cf 2e 8f fe 22 30 c9 2f 32 30
       2.182429e-11 9.449492e-11 5.9297006e-10 6.482393e-10
0003c0 eb 45 45 2d 83 d7 45 2e 66 09 5b 30 c1 56 5d 30
       1.1213678e-11 4.4984027e-11 7.968509e-10 8.0522616e-10
0003d0 17 01 ce 2e e1 14 8e 2f 71 d0 a2 2f 2a 1d f5 2f
       9.367989e-11 2.5844485e-10 2.9615735e-10 4.4585963e-10
0003e0 e4 39 90 2d 85 af ee 2e 7f 5a 49 30 f0 0c 55 30
       1.6396613e-11 1.08541655e-10 7.3251977e-10 7.7507334e-10
0003f0 29 14 ce 2f a0 de 11 2f 8f ce 2e 2f 9e a3 d3 2f
       3.7485506e-10 1.3266765e-10 1.5898592e-10 3.8496933e-10

exp_avg f4 [256]
000000 bd ef 2d b7 ca 03 89 34 e1 0e aa 36 27 97 b2 36
       -1.0367422e-05 2.5520995e-07 5.068127e-06 5.32241e-06
000010 52 2a 84 37 da 6e ea 36 e8 17 86 b7 88 3e 27 38
       1.5755333e-05 6.9866483e-06 -1.5985177e-05 3.987414e-05
000020 f0 4d ce b5 e8 74 60 37 eb c2 64 37 69 72 fc 37
       -1.5370879e-06 1.337866e-05 1.3635242e-05 3.0094017e-05
000030 cc af b5 b7 eb 1f 06 b6 89 6f 0f b9 61 ac af b5
       -2.1658743e-05 -1.9986135e-06 -0.00013679093 -1.3088685e-06
000040 15 da 19 b8 e7 c4 6a b8 93 4f 12 37 b4 da 41 b8
       -3.6681147e-05 -5.5973327e-05 8.720805e-06 -4.621847e-05
000050 e2 2a 72 b8 73 bc 6d 37 b6 dd 7d 36 bb fa a7 b8
       -5.7737234e-05 1.4170178e-05 3.782899e-06 -8.009883e-05
000060 e1 66 ba 36 1d ec 0a 37 76 9a ac 37 ce 88 05 b8
       5.5552086e-06 8.280415e-06 2.0575924e-05 -3.183708e-05
000070 b5 4a 29 36 37 97 5a b7 7b 5f e0 b7 8f 0b 4f 36
       2.5226448e-06 -1.302902e-05 -2.6747342e-05 3.0852132e-06
000080 4d ed 86 b8 cc af 22 38 c4 8e 96 b8 4d 22 10 37
       -6.4338186e-05 3.8787533e-05 -7.1791495e-05 8.591055e-06
000090 02 aa 31 b5 2d c8 84 b8 84 be 28 b9 01 64 cd b6
       -6.618503e-07 -6.331536e-05 -0.00016092701 -6.121118e-06
0000a0 ba ef bd b7 3b 29 86 34 ec 51 61 37 09 18 67 b7
       -2.2642187e-05 2.4989444e-07 1.3430119e-05 -1.3774269e-05
0000b0 89 4d 0c 36 d7 3c 09 38 28 e5 04 b8 85 40 d4 b7
       2.0906757e-06 3.2720007e-05 -3.168467e-05 -2.5302414e-05
0000c0 6b e0 48 b7 e4 49 56 b7 9e 6d 13 b9 8d 3e 02 b8
       -1.197318e-05 -1.2772598e-05 -0.00014059848 -3.105267e-05
0000d0 d0 f4 1e b8 8c b1 78 b4 6b df 29 37 bd b7 86 b8
       -3.7898135e-05 -2.3161391e-07 1.01252035e-05 -6.423842e-05
0000e0 56 7a 5f b6 d6 e2 d1 36 0e 11 4c b8 86 50 0d b8
       -3.3300798e-06 6.2550926e-06 -4.8653274e-05 -3.3692013e-05
0000f0 eb 79 5f 36 4b 5f 2d 36 72 3e 09 37 26 8b 57 b8
       3.3300555e-06 2.5834477e-06 8.1803755e-06 -5.1389587e-05
000100 68 b9 f0 b7 d8 5e 31 38 19 d9 e3 b7 42 65 c9 b6
       -2.8696566e-05 4.228842e-05 -2.7161603e-05 -6.0020548e-06
000110 23 0b 10 b7 4d 09 36 b7 35 91 8a b7 bf 5a 40 38
       -8.585662e-06 -1.0850211e-05 -1.65185e-05 4.586088e-05
000120 43 72 0f b6 32 7a a9 36 37 e9 58 b7 32 74 98 37
       -2.137517e-06 5.050818e-06 -1.2928903e-05 1.817392e-05
000130 fe ff ae b8 d4 81 24 38 28 bb 0c b8 ae 78 e8 b8
       -8.344649e-05 3.922156e-05 -3.3552904e-05 -0.000110851004
000140 a4 60 64 36 1e b3 5b b8 87 b0 7a b7 58 63 87 b6
       3.40309e-06 -5.2380485e-05 -1.4942262e-05 -4.0348787e-06
000150 a6 2a ec b6 b8 70 75 36 62 c6 07 38 53 c7 8f b7
       -7.038313e-06 3.6573456e-06 3.2371267e-05 -1.7139746e-05
000160 89 22 8d b8 13 5f 4f 38 aa 0c e5 b7 cd 7c 95 36
       -6.7298366e-05 4.944119e-05 -2.7304824e-05 4.4550748e-06
000170 d3 da 20 b9 ec 48 5b 38 60 f6 17 b8 e6 ff 12 b8
       -0.00015340307 5.2281583e-05 -3.623066e-05 -3.5047437e-05
000180 9d 4a 83 36 18 b8 13 38 af f6 e2 37 0d f3 1f b6
       3.9127904e-06 3.521898e-05 2.705617e-05 -2.383432e-06
000190 a1 f1 01 b8 c8 4e d6 b7 f3 f8 1b b7 1f 54 d0 37
       -3.098103e-05 -2.5547473e-05 -9.296683e-06 2.4834704e-05
0001a0 4b 2b ea b7 e9 84 25 b7 48 8f b3 37 92 de 3c b8
       -2.7915134e-05 -9.865712e-06 2.1405183e-05 -4.5029978e-05
0001b0 26 8b 53 37 2a 3a 1e b7 40 bc 84 b8 e9 a8 a6 36
       1.2608978e-05 -9.431076e-06 -6.329315e-05 4.9668492e-06
0001c0 57 f2 84 37 87 b1 6e b8 2c 74 7e b7 ce 2d 3f b6
       1.5848475e-05 -5.6908957e-05 -1.5166628e-05 -2.848788e-06
0001d0 d5 4e a8 b7 cb b3 41 b7 a8 16 17 38 16 10 85 b8
       -2.006387e-05 -1.1545558e-05 3.6022306e-05 -6.3449304e-05
0001e0 50 ec ce 36 3a ab 6d b7 b2 af 6b b7 a4 d8 b0 36
       6.166789e-06 -1.4166168e-05 -1.4047999e-05 5.270429e-06
0001f0 8f be e8 b5 7f 62 0a b6 a8 d0 a5 36 5d d2 04 38
       -1.7340807e-06 -2.0620935e-06 4.941674e-06 3.166717e-05
000200 45 42 76 37 34 f8 0a b8 fc 5a 41 36 b0 00 b6 b7
       1.4678172e-05 -3.313292e-05 2.88122e-06 -2.169641e-05
000210 b4 61 05 37 04 9f 87 38 5b 92 c7 37 ed 99 b6 b8
       7.950166e-06 6.4669206e-05 2.37908e-05 -8.707107e-05
000220 a0 c0 6f b7 76 5f 55 b8 b9 a7 b9 b7 f7 91 cb b7
       -1.4290359e-05 -5.0872062e-05 -2.213182e-05 -2.4267456e-05
000230 1f 41 a0 37 7b f1 63 b8 ad a8 b8 b7 f9 ff af b7
       1.910381e-05 -5.4345914e-05 -2.2013055e-05 -2.0980822e-05
000240 eb 78 d4 b7 ad b9 5c b8 ba d1 75 b8 19 76 1c b8
       -2.5328676e-05 -5.262501e-05 -5.8607875e-05 -3.7303285e-05
000250 2b d0 b2 b7 e8 41 a5 33 79 92 a6 b7 0b cb 4f 36
       -2.131619e-05 7.6953995e-08 -1.9856949e-05 3.096359e-06
000260 36 35 a3 b7 97 97 30 35 4a f1 bd 38 a6 01 11 37
       -1.9455892e-05 6.57857e-07 9.057166e-05 8.643057e-06
000270 6c df a8 37 ed 0d 27 b8 a0 7b 4a b8 f8 76 d8 37
       2.01312e-05 -3.9828872e-05 -4.8275688e-05 2.5804606e-05
000280 98 01 f9 37 2f 46 83 b8 b2 24 3f 37 48 74 3a b7
       2.9683855e-05 -6.2596395e-05 1.1393031e-05 -1.1113538e-05
000290 43 39 49 38 e2 84 1b b8 84 59 3a 38 71 12 8f 37
       4.7975464e-05 -3.7078637e-05 4.4429224e-05 1.7055516e-05
0002a0 d4 5a 0b 37 90 8f 91 37 43 8e 33 b7 64 75 94 b7
       8.306193e-06 1.7352198e-05 -1.0702354e-05 -1.769764e-05
0002b0 99 90 82 b7 d6 d0 23 38 c3 eb 16 b7 ad 22 4e 37
       -1.5564541e-05 3.9056722e-05 -8.995589e-06 1.228663e-05
0002c0 29 d8 64 38 c3 18 e9 b5 5c 07 36 b8 a2 7d 23 37
       5.456075e-05 -1.7367059e-06 -4.3399035e-05 9.744808e-06
0002d0 8e 98 e3 b4 cb 65 0e 38 c5 ce cd 37 fa ca d3 37
       -4.2393043e-07 3.395024e-05 2.4534189e-05 2.5247678e-05
0002e0 e6 84 83 37 2d a6 26 37 4d 6e a5 36 0e 0d bb 33
       1.5678303e-05 9.933062e-06 4.930224e-06 8.710241e-08
0002f0 cb 53 90 b8 dc 39 90 b8 f7 81 e1 36 f7 55 35 37
       -6.882063e-05 -6.877232e-05 6.7206524e-06 1.0808456e-05
000300 c3 67 26 b9 3c 5b 2c b7 9d 51 67 37 23 0a a4 b8
       -0.00015869648 -1.0273241e-05 1.3787675e-05 -7.8220175e-05
000310 40 be d5 b7 cb 25 14 38 d5 17 aa 36 df 1c 09 b9
       -2.548017e-05 3.5321147e-05 5.069169e-06 -0.00013076093
000320 46 f6 3d b8 c0 68 b9 37 6d 55 70 b7 d0 c7 63 b7
       -4.529047e-05 2.2102497e-05 -1.43250045e-05 -1.3576777e-05
000330 44 69 f3 37 f5 f2 f5 b6 21 05 c1 b6 61 92 de b8
       2.9016875e-05 -7.329853e-06 -5.7524453e-06 -0.0001061305
000340 1a 06 f6 b7 38 f6 9d 31 7e 1d 42 38 65 f7 2b b7
       -2.9328326e-05 4.597293e-09 4.628067e-05 -1.0249995e-05
000350 33 d4 f3 34 9e 1f 21 38 49 57 87 b7 b0 aa f2 b7
       4.5416672e-07 3.8414837e-05 -1.61339e-05 -2.892813e-05
000360 74 1a 16 37 48 5d 9c 35 53 90 0e 38 f1 ad 1b b7
       8.946856e-06 1.1650054e-06 3.398985e-05 -9.279219e-06
000370 55 0e 2e b6 01 e3 bc b7 76 09 8e b8 32 f8 5c 36
       -2.5936363e-06 -2.2517053e-05 -6.77285e-05 3.2927023e-06
000380 38 6d 4c b8 98 5a 78 b6 26 0a 17 35 64 d0 89 37
       -4.8739108e-05 -3.7007612e-06 5.626665e-07 1.6428712e-05
000390 b9 08 2c b6 d5 a2 38 b8 21 45 68 b8 17 69 de 37
       -2.5635075e-06 -4.4020668e-05 -5.537749e-05 2.6513399e-05
0003a0 67 18 3d 38 94 6b 58 37 1c 80 07 b8 39 7e 1f 37
       4.5083838e-05 1.2899651e-05 -3.230582e-05 9.506527e-06
0003b0 df 5a e5 37 8f d3 a0 36 43 98 82 b6 8d da 50 b4
       2.7341242e-05 4.7930002e-06 -3.8920275e-06 -1.9451018e-07
0003c0 28 8a 81 37 f8 8b 22 b8 ef 30 41 b8 2e 47 54 b7
       1.5442332e-05 -3.8754166e-05 -4.606036e-05 -1.26527575e-05
0003d0 54 39 ba 37 c1 e7 b0 37 f6 9b 7b b6 2c bf de 36
       2.2199623e-05 2.1088754e-05 -3.7492696e-06 6.638371e-06
0003e0 ae e7 66 36 ac 10 e5 35 21 bc 1f 38 d9 95 0c 35
       3.4407526e-06 1.7066682e-06 3.8083763e-05 5.237212e-07
0003f0 63 7f 98 37 ef e7 d4 37 2a a5 4d b6 58 a4 8b b8
       1.8179131e-05 2.5380372e-05 -3.0643519e-06 -6.658648e-05
