ml-agents-release_20/Result/Dino/Dino01/Dino/Dino-81037.onnx (onnx, 34598 bytes, 4 tensors)

action_model._discrete_distribution.branches.0.bias f4 [2]
-0.0032853459 0.0032853433
00000000: f54e 57bb ea4e 573b

action_model._discrete_distribution.branches.0.weight f4 [2, 256]
0.0043415753 0.0057116514 -0.012955393 0.004520073 -0.007990272 -0.020886313 0.016303936 -0.018390458
-0.0044496967 0.00059460686 -0.029406853 -0.016514607 -0.003778645 -0.0024735627 0.04471045 -0.009112739
0.0063784127 0.034109004 -0.00929926 0.023954967 0.025759373 -0.02646525 -0.0021784024 0.03238844
-0.008524971 -0.0045545693 -0.00030520392 0.015555509 -0.032752633 -0.00031902653 0.014001642 -2.9156006e-05
0.0163835 -0.009324266 0.012760964 -0.005103892 0.0060489597 0.009948732 0.02946217 0.005140842
0.010418615 -0.0064794323 -0.0056566442 0.020907575 -0.0011843548 -0.016170824 0.011837548 0.017389234
0.000100590245 0.015251914 0.041497815 0.007997217 0.0010672406 -0.008367699 -0.009028768 0.024894845
-0.016267525 -0.009397202 0.022128068 0.012956894 -0.00053054414 -0.0018193366 -0.002303447 0.010839001
0.011222093 -0.0062199207 0.029412668 -0.0053210096 -0.0031444628 -0.0040855766 0.00512864 -0.02369102
0.0047981357 0.006821537 0.0030078993 -0.016396616 0.025312565 -0.008122251 0.008295188 0.03237989
-0.0022180502 0.006792891 0.0056614475 0.009367481 0.0021287487 0.00047012468 -0.012787497 0.0048323395
0.014467071 -0.0062085954 0.00803941 5.128815e-05 0.028781548 -0.026853956 0.0058610127 0.012704214
-0.0076491362 -0.022488752 -0.004490943 0.0021263892 0.0050191483 0.010508493 -0.018026516 0.0032194352
0.008583414 0.0038646243 -0.011054266 0.022710681 -0.012325219 0.007117587 0.019127049 -0.0036786443
-0.0060341954 0.013587692 0.00095097476 0.019637555 0.013333769 0.018565863 -0.010439857 0.024531906
-0.006000315 -0.0016509166 0.0046245973 -0.03237292 -0.005223475 0.0019362897 0.004727344 -0.0056107854
-0.014006521 0.0023783157 -0.0014703694 0.007816103 -0.01547695 -0.019672848 -0.022925403 0.029171558
-0.016813975 0.011863745 0.006572962 0.011015124 -0.0012451292 0.0065796687 0.012068461 0.009826862
-0.000631118 0.016911827 0.013356645 0.017397793 0.0061336164 -0.003361654 0.005785063 -0.0007690036
0.009787461 -0.0065410337 -0.014314573 -0.00088833057 -0.026076196 0.013282483 0.011163456 -0.011332374
-0.010585219 0.011997874 0.0074243657 0.007322981 -0.018785099 0.022160461 -0.015588901 -0.01599005
-0.019712985 -0.006323489 0.004477552 0.0013620224 0.0037431787 -0.023379488 0.007461282 -0.008208225
-0.011808388 0.0069822064 0.013946595 -0.0054982845 0.005014928 -0.015597384 -0.003407687 -0.017740343
-0.01285367 -0.013773936 0.0074528614 0.0027853851 0.00910956 0.022264535 -0.0030681684 -0.028463895
0.027934032 0.009071758 0.0005833033 0.026008401 -0.0084089115 -0.008912221 -0.013386194 0.028671624
0.01538964 -0.026091801 0.0027418646 0.029412914 -0.007335146 -0.0044903425 0.0022740928 0.03051046
0.012445751 0.002857166 -0.013341457 -0.022856591 -0.00017375346 -0.023072235 0.0121529745 0.01251668
-0.0010426953 -0.009977804 -0.017704908 -0.0016089656 0.0056097065 0.009219057 0.015515977 -0.006061489
0.018160988 -0.0057253283 -0.0040916675 -0.0096067125 0.010136081 0.021367084 0.013023223 -0.0071601393
-0.015629856 -0.00562994 0.005735162 -0.015670704 -0.015117325 0.004088196 0.0012210107 0.0021394703
-0.0038707624 0.021276731 0.008491769 -0.0016915096 -0.0046420544 -0.005565589 -0.003105616 -0.0029261196
0.0020462405 -0.0028697085 -0.0033178197 0.0052402015 -0.01058796 -0.009980961 0.0060096094 0.014422349
00000000: c643 8e3b ce28 bb3b db42 54bc 1f1d 943b
00000010: a1e9 02bc c619 abbc d58f 853c 96a7 96bc
00000020: c3ce 91bb 64df 1b3a a4e6 f0bc a449 87bc
00000030: 25a3 77bb 7f1b 22bb 4e22 373d 994d 15bc
00000040: 0102 d13b e2b5 0b3d ec5b 18bc 353d c43c
00000050: 5205 d33c a7cd d8bc 87c3 0ebb bea9 043d
00000060: 52ac 0bbc 7f3e 95bb c703 a0b9 89dc 7e3c
00000070: a027 06bd 0443 a7b9 2567 653c 0c94 f4b7
00000080: b136 863c cec4 18bc 5d13 513c 8d3e a7bb
00000090: 5a36 c63b 0200 233c a65a f13c 8274 a83b
000000a0: d7b2 2a3c 6b51 d4bb 5f5b b9bb 5d46 ab3c
000000b0: 5a3c 9bba ad78 84bc 46f2 413c de73 8e3c
000000c0: faf3 d238 2ae3 793c 9df9 293d c206 033c
000000d0: a7e2 8b3a ac18 09bc 66ed 13bc 46f0 cb3c
000000e0: 7943 85bc b9f6 19bc ec45 b53c 2749 543c
000000f0: 3714 0bba ce76 eeba 6ef5 16bb 1196 313c
00000100: dfdc 373c 7ad0 cbbb d6f2 f03c dd5b aebb
00000110: 5513 4ebb 4de0 85bb 270e a83b ac13 c2bc
00000120: ae39 9d3b 3387 df3b 2d20 453b 3252 86bc
00000130: 4c5c cf3c 3113 05bc 8ae8 073c c7a0 043d
00000140: b55c 11bb e696 de3b aa83 b93b 107a 193c
00000150: 7a82 0b3b 117b f639 a682 51bc 9a58 9e3b
00000160: 4b07 6d3c 7971 cbbb bbb7 033c 3b1e 5738
00000170: 48c7 eb3c d4fc dbbc bd0d c03b 5625 503c
00000180: 9ba5 fabb 553a b8bc c328 93bb e45a 0b3b
00000190: ab77 a43b d02b 2c3c 58ac 93bc 29fd 523b
000001a0: 73a1 0c3c a345 7d3b f41c 35bc c00b ba3c
000001b0: b7ef 49bc a63a e93b 54b0 9c3c 6915 71bb
000001c0: 80ba c5bb e99e 5e3c d64a 793a f0de a03c
000001d0: e175 5a3c 7017 983c ef0b 2bbc 23f7 c83c
000001e0: 4a9e c4bb 9263 d8ba ef89 973b 7899 04bd
000001f0: af29 abbb 1acb fd3a d6e7 9a3b aeda b7bb
00000200: 9b7b 65bc 84dd 1b3b 69b9 c0ba 1d0f 003c
00000210: 0993 7dbc f428 a1bc 0ece bbbc 31f9 ee3c
00000220: 76bd 89bc 2760 423c 0062 d73b c778 343c
00000230: 9a33 a3ba 439a d73b cbba 453c d900 213c
00000240: 9d71 25ba ac8a 8a3c d4d5 5a3c d185 8e3c
00000250: 81fc c83b 324f 5cbb a090 bd3b f596 49ba
00000260: 965b 203c 2b56 d6bb ac87 6abc dbde 68ba
00000270: bf9d d5bc c69e 593c eee6 363c 6cab 39bc
00000280: a06d 2dbc bb92 443c 1848 f33b 9ef5 ef3b
00000290: 35e3 99bc db89 b53c 9768 7fbc 91fd 82bc
000002a0: 207d a1bc 4535 cfbb 6eb8 923b e385 b23a
000002b0: 1e50 753b 5786 bfbc c57d f43b ca7b 06bc
000002c0: f877 41bc feca e43b 4280 643c f42a b4bb
000002d0: 4454 a43b 2c8c 7fbc 8053 5fbb 3254 91bc
000002e0: 3398 52bc 13ac 61bc 2237 f43b 028b 363b
000002f0: 4440 153c 1d64 b63c 5313 49bb 1d2d e9bc
00000300: e9d5 e43c b6a1 143c d2e8 183a 920f d53c
00000310: 88c5 09bc 9004 12bc c451 5bbc c1e0 ea3c
00000320: d424 7c3c 79be d5bc dbb0 333b 5af3 f03c
00000330: aa5b f0bb b923 93bb f208 153b 12f1 f93c
00000340: 43e9 4b3c 4b3f 3b3b 2096 5abc bf3d bbbc
00000350: 9731 36b9 fc01 bdbc 451d 473c c312 4d3c
00000360: 0cab 88ba f179 23bc e209 91bc ede3 d2ba
00000370: a1d1 b73b 870b 173c b936 7e3c 759f c6bb
00000380: 5ac6 943c 899b bbbb 6513 86bb 7965 1dbc
00000390: ce11 263c 060a af3c 5b5f 553c 9a9f eabb
000003a0: 2f0a 80bc 5c7b b8bb 07ee bb3b d95f 80bc
000003b0: a8ae 77bc 46f6 853b 520a a03a 5b36 0c3b
000003c0: 9eac 7dbb 8a4c ae3c 1021 0b3c a5b5 ddba
000003d0: 601c 98bb 8b5f b6bb 9787 4bbb 24c4 3fbb
000003e0: 381a 063b b811 3cbb c76f 59bb ffb5 ab3b
000003f0: 1f79 2dbc 2f87 23bc 42ec c43b b74b 6c3c

network_body._body_endoder.seq_layers.0.bias f4 [256]
0.00097626756 -0.004837332 0.017181493 -0.006835103 0.0015362094 0.007167895 0.022029104 0.0024036206
0.0024371678 0.0034391335 0.0140717225 0.0077485284 0.006942551 -0.0064955764 0.0030628839 0.0027841458
0.009905979 0.009271591 -0.004921011 0.021692785 0.011712819 0.006117818 0.0006073132 0.008039731
-0.002282004 -0.017811997 -0.006052933 0.0002825081 0.01213433 -0.0044830544 -0.00014149892 0.00044547307
-0.00075868494 0.0070597455 0.0056901504 -0.0053504882 0.012376982 0.002786666 0.015229466 -0.004276109
0.0017974823 0.002145431 0.0022823946 0.00065651303 -0.006922426 0.0057932753 -0.0007576387 0.020728739
2.2162729e-05 0.0016798179 0.00950133 0.008561265 0.0010876027 -0.0037769768 0.0037883846 0.005786356
0.0053977147 -0.00035602067 -0.0013736986 0.002195888 -0.0014212093 -0.0012511432 -0.00043369125 0.0027412395
0.010055668 0.0040762923 0.015985163 -0.0017703372 0.0018577998 -0.0036411975 -0.0031735967 0.010807589
-0.02092815 -0.0033751137 -0.0029021297 0.004581486 0.015888255 0.008458162 -0.0037606738 0.012739219
0.005468577 0.010512529 -0.0002853217 0.0021151463 -0.0015434942 -0.0070585674 0.003564268 0.007023955
-0.00013573034 0.0019743138 -0.002990101 7.923016e-05 0.003954058 0.009093638 -0.003483837 0.0006582157
0.0074974364 0.01423369 0.0004981568 -0.004682808 -0.0019385954 0.012619889 0.009320448 0.0021608986
-0.0014723925 -0.004065021 0.004930632 0.00032008096 0.0061288145 0.021754937 -0.0023277523 0.0013377448
-0.00513397 0.0060633635 -0.0039761933 0.006511818 0.006254093 0.011765244 0.0017817795 0.0064590937
0.0003045553 0.003209702 0.011197277 0.010357943 0.002241465 -0.004553941 0.0038842068 0.0032203454
0.012325148 0.0024362286 -0.01021705 -0.0043667974 0.0015047707 0.0049824542 0.0068715764 0.0132075315
0.014553957 0.020252375 -0.0047285804 0.015181465 -0.002039344 0.009425935 -0.0017781408 0.011774928
-0.00081582286 0.008523458 -0.00026049293 0.0035598245 0.008716849 0.007781913 -0.003964049 -0.0051150615
0.006991477 0.0069267876 0.01088294 -0.0059609213 0.0057427078 -0.0019340521 -0.0009845344 0.0019026771
0.004236578 -0.001033439 0.0013923332 -0.003976643 0.006824096 0.00050527166 0.0056078704 0.005929753
0.0010031386 0.0062369546 0.0044505647 -0.00015822305 0.009346746 0.006387484 0.010970114 0.0031967417
8.662448e-05 0.006839063 -0.002895138 0.0020251882 0.014078224 0.0049337307 0.0016152789 0.003275107
0.0035391392 0.0021770678 0.0010073052 -0.0009089574 0.0048613832 -0.00057822635 0.0022539378 0.00874747
0.0042773387 0.0020727913 -0.0040598307 0.008731603 0.01514085 0.0037666205 0.0022577588 0.011240018
0.010786157 0.0055032643 -0.0056568147 0.012698121 0.0031915728 -0.003452785 0.0116950795 0.019451013
0.01069145 -0.0060843374 0.003920118 0.008969325 -0.0064193695 0.0050491067 0.0069532036 0.000701145
-0.0054003005 0.0026782088 0.003479568 0.0017034883 0.008453825 0.0039181313 0.012015493 -0.0023974527
0.00080123293 0.0053884345 -0.0017677572 0.005765183 -0.009481606 0.010109459 0.006382155 0.0028550937
0.0063477666 -0.005553434 0.0046882182 0.007922873 0.0056074266 -0.009014853 0.0004320292 0.00012162023
0.0050692707 0.005769113 0.008093521 0.004694795 0.0050224457 0.004818047 -0.006259592 -0.00555276
-6.7837136e-05 -0.0057825204 0.0042845565 -0.005957003 0.0059076166 0.0047909976 -0.016882943 0.0012476647
00000000: 35ec 7f3a 7b82 9ebb 34c0 8c3c 00f9 dfbb
00000010: a25a c93a a9e0 ea3b 6176 b43c 1086 1d3b
00000020: e4b8 1f3b 1663 613b 158d 663c 5ee7 fd3b
00000030: 577e e33b d8d8 d4bb aaba 483b 3776 363b
00000040: b04c 223c dfe7 173c 6f40 a1bb 11b5 b13c
00000050: 20e7 3f3c fa77 c83b 1934 1f3a 13b9 033c
00000060: ad8d 15bb 77ea 91bc af57 c6bb 981d 9439
00000070: 12cf 463c 96e6 92bb 545f 14b9 628e e939
00000080: 7ce2 46ba 7055 e73b 7174 ba3b 2653 afbb
00000090: d3c8 4a3c 7fa0 363b 0385 793c 9a1e 8cbb
000000a0: 7f99 eb3a 5c9a 0c3b 3a94 153b d819 2c3a
000000b0: 85d5 e2bb 84d5 bd3b 469c 46ba 51cf a93c
000000c0: 19ea b937 562d dc3a 77ab 1b3c 8c44 0c3c
000000d0: e48d 8e3a 2887 77bb 8c46 783b 799b bd3b
000000e0: 50df b03b 49a8 bab9 ad0d b4ba e3e8 0f3b
000000f0: df47 baba 66fd a3ba 0e61 e3b9 5ea6 333b
00000100: 87c0 243c 6b92 853b 51f3 823c a90a e8ba
00000110: 6b81 f33a 28a1 6ebb 1efc 4fbb 5012 313c
00000120: 8371 abbc 0331 5dbb a831 3ebb 4a20 963b
00000130: 1628 823c 1a94 0a3c a375 76bb 28b8 503c
00000140: c031 b33b be3c 2c3c 3b97 95b9 449e 0a3b
00000150: 124f caba 8e4b e7bb 7e96 693b 3529 e63b
00000160: d652 0eb9 7d63 013b 92f5 43bb 5e28 a638
00000170: 0b91 813b 7bfd 143c 1651 64bb 1c8c 2c3a
00000180: 0ead f53b 6c34 693c bd96 023a 3e72 99bb
00000190: 7818 feba a7c3 4e3c cbb4 183c dd9d 0d3b
000001a0: 4bfd c0ba de33 85bb 2491 a13b 8ad0 a739
000001b0: 39d4 c83b 6937 b23c 348d 18bb 4457 af3a
000001c0: dd3a a8bb 2eaf c63b ba4a 82bb 1761 d53b
000001d0: 22ef cc3b 03c3 403c 998a e93a cea6 d33b
000001e0: b8ac 9f39 dd59 523b c974 373c 5db4 293c
000001f0: 8be5 123b 3a39 95bb 2d8e 7e3b 6e0c 533b
00000200: 6bef 493c 22a9 1f3b 6a65 27bc 5a17 8fbb
00000210: ba3b c53a db43 a33b f62a e13b 6764 583c
00000220: b873 6e3c 4fe8 a53c 35f2 9abb aebb 783c
00000230: 84a6 05bb 3d6f 1a3c 8110 e9ba a1eb 403c
00000240: f2dc 55ba f9a5 0b3c c592 88b9 f24b 693b
00000250: 1dd1 0e3c 6bff fe3b dae4 81bb 3f9c a7bb
00000260: c318 e53b 1bfa e23b 5c4e 323c d553 c3bb
00000270: 532d bc3b 0580 fdba 7e0b 81ba 4063 f93a
00000280: fed2 8a3b 7574 87ba f37e b63a 804e 82bb
00000290: ab9c df3b 3574 043a 3ac2 b73b 604e c23b
000002a0: bf7b 833a 5e5f cc3b 0bd6 913b ade8 25b9
000002b0: 1823 193c 194e d13b febb 333c 6d80 513b
000002c0: 2aaa b538 381a e03b 5bbc 3dbb 05b9 043b
000002d0: 5aa8 663c 22ab a13b c4b7 d33a 2da3 563b
000002e0: e7f0 673b 23ad 0e3b 8e07 843a 1947 6eba
000002f0: 3d4c 9f3b 1d94 17ba cdb6 133b 8c51 0f3c
00000300: eb28 8c3b abd7 073b 5408 85bb ff0e 0f3c
00000310: 5411 783c 68d9 763b e8f6 133b 0d28 383c
00000320: 6cb8 303c ba54 b43b cd5c b9bb c80b 503c
00000330: b529 513b 1f48 62bb b89c 3f3c bb57 9f3c
00000340: 312b 2f3c 1f5f c7bb 5574 803b 13f4 123c
00000350: 9359 d2bb fa72 a53b b3d7 e33b 0bcd 373a
00000360: 01f5 b0bb e384 2f3b 7709 643b 9547 df3a
00000370: e981 0a3c ab63 803b a1dc 443c 951e 1dbb
00000380: d509 523a 7791 b03b 17b4 e7ba dce9 bc3b
00000390: bd58 1bbc 25a2 253c 6621 d13b 861c 3b3b
000003a0: ed00 d03b 95f9 b5bb a09f 993b f0ce 013c
000003b0: 81be b73b 09b3 13bc fa81 e239 5d0e ff38
000003c0: 201c a63b d40a bd3b b09a 043c cbd6 993b
000003d0: 5493 a43b b5e0 9d3b 431d cdbb edf3 b5bb
000003e0: c943 8eb8 4c7b bdbb 7765 8c3b f732 c3bb
000003f0: ae94 c13b cdfd 9c3b 194e 8abc ae88 a33a

network_body._body_endoder.seq_layers.0.weight f4 [256, 29]
0.3139919 -0.086741306 -0.06553458 0.11710863 -0.0030985523 -0.061466087 -0.25220284 0.04546322
0.07977244 0.103524566 -0.26185498 -0.11932312 -0.1580077 0.034920465 0.054517817 0.093434505
-0.14454928 0.0035860068 -0.1811897 -0.1321538 0.145262 -0.12792087 0.22723325 0.026304314
-0.04698483 -0.13964787 0.12900572 -0.118214756 0.034652013 -0.1573291 0.22500579 0.047099717
-0.11217594 -0.1049457 -0.28008494 0.08717377 0.047394734 -7.14548e-05 -0.0489887 -0.13134709
0.12928382 -0.35501617 -0.08684752 -0.07734397 0.13614932 -0.13587224 0.1468171 -0.45612955
0.23806152 0.17716135 -0.23777325 0.40477037 0.49644288 -0.12554629 -0.07932909 0.106937736
0.34080243 -0.18159644 0.25959793 -0.18009965 -0.05138273 -0.25403807 -0.1652478 0.12559517
-0.05204567 -0.550239 0.17530654 -0.2824977 0.28705454 -0.36215416 0.042423535 -0.111675434
0.15120715 0.12062422 0.080348805 -0.15808475 -0.21728434 0.08207069 0.199322 0.21755579
-0.42730036 0.19305073 0.044034105 -0.010945888 0.13220502 0.103462204 -0.08897995 0.23195603
0.01742755 -0.097135894 -0.02851406 0.18588911 0.23407051 -0.22029294 -0.17536828 0.24822159
0.1345267 -0.035593785 0.09806064 -0.35741374 0.057696678 -0.26257423 -0.052648827 0.114385545
0.2638827 0.14829922 0.14103916 -0.07097934 -0.30975914 -0.19790812 -0.23177214 0.28186762
0.16991685 0.14989904 0.36463743 0.046365656 0.17531653 0.048676237 0.28086132 0.15462159
-0.17601831 -0.056369472 0.2891275 0.063835904 -0.23701231 -0.074782066 0.23511718 -0.15950976
0.10703498 0.045371946 -0.19272628 -0.04240739 0.06724131 0.027257819 0.015212393 -0.1322637
-0.12648463 -0.21159558 0.14748442 -0.1817317 -0.09769286 -0.18974356 -0.0019223073 -0.04963825
-0.16548657 -0.081277385 -0.39539278 0.16414288 0.19311835 0.2573016 0.15769228 -0.2136318
-0.25149742 -0.10815491 -0.24118999 -0.04743723 -0.012012584 -0.22983897 -0.09987547 -0.03501252
-0.066102065 -0.17023212 -0.4030252 0.20971186 0.36707604 0.26101366 -0.25849238 0.24992575
0.17852652 0.19799471 0.1076024 0.25786307 0.14815827 0.20436743 -0.06385448 0.11957093
-0.23688808 -0.03909507 -0.03795974 -0.1000075 0.2990401 -0.09258272 0.2785644 -0.38689318
-0.03916516 -0.19208354 -0.25987828 0.026110768 0.06514334 -0.102532715 0.11999543 -0.005850155
-0.16922098 0.050349843 -0.30691472 -0.3526482 0.22726476 0.11313921 0.0035202075 -0.06841022
-0.039535202 -0.23126724 0.10347039 0.16925506 -0.089432806 -0.026570786 -0.05806345 -0.20840229
0.06664878 -0.032396294 0.16342805 -0.023313206 -0.1825778 -0.022749564 0.0059888163 0.19814003
-0.05385484 -0.27214354 -0.010652247 0.032769643 0.31604898 0.01266326 0.14596605 0.12159542
-0.07001914 -0.15562561 0.050463047 -0.034516122 0.08355208 0.119355395 -0.2589905 0.08667911
-0.117694855 0.16359033 -0.055446323 -0.007900086 -0.08251999 -0.26185942 0.12949365 0.3115108
0.1560122 -0.0004953683 0.08988036 -0.26275292 0.3340969 -0.098958686 0.31021228 0.23775135
0.04234503 0.066028304 0.09302565 -0.10485671 -0.3079263 -0.24993452 0.007538474 -0.289975
00000000: 8cc3 a03e 6da5 b1bd fe36 86bd a6d6 ef3d
00000010: 1511 4bbb ddc3 7bbd bb20 81be a437 3a3d
00000020: bc5f a33d b004 d43d db11 86be ae5f f4bd
00000030: c5cc 21be c308 0f3d 134e 5f3d 975a bf3d
00000040: ba04 14be 3603 6b3b cb89 39be 5353 07be
00000050: 90bf 143e b0fd 02be d5af 683e 257c d73c
00000060: 2a73 40bd daff 0ebe 131a 043e 941a f2bd
00000070: 45ef 0d3d e11a 21be eb67 663e a2eb 403d
00000080: 80bc e5bd c5ed d6bd 4b67 8fbe 2988 b23d
00000090: fb20 423d 01da 95b8 60a8 48bd da7f 06be
000000a0: fa62 043e aec4 b5be 1ddd b1bd 8466 9ebd
000000b0: ba6a 0b3e 1822 0bbe 3957 163e d089 e9be
000000c0: 66c6 733e c969 353e d57a 73be 103e cf3e
000000d0: c32d fe3e 358f 00be 4a77 a2bd 2c02 db3d
000000e0: a87d ae3e 6bf4 39be 05ea 843e 0b6c 38be
000000f0: b376 52bd 4711 82be b836 29be 059c 003e
00000100: d72d 55bd 77dc 0cbf 8f83 333e 8aa3 90be
00000110: d0f8 923e 456c b9be 4dc4 2d3d 17b6 e4bd
00000120: 0cd6 1a3e d509 f73d ea8d a43d f8e0 21be
00000130: c97f 5ebe ae14 a83d 111b 4c3e f2c6 5e3e
00000140: 1dc7 dabe 17af 453e 1b5d 343d 6256 33bc
00000150: c160 073e fee3 d33d 1f3b b6bd e285 6d3e
00000160: 39c4 8e3c 2fef c6bd 5196 e9bc b759 3e3e
00000170: 2eb0 6f3e 7994 61be be93 33be cd2d 7e3e
00000180: 5ec1 093e caca 11bd 04d4 c83d effe b6be
00000190: 5a53 6c3d 2170 86be 4ca6 57bd f842 ea3d
000001a0: a21b 873e c0db 173e 926c 103e 9e5d 91bd
000001b0: c098 9ebe 6da8 4abe ad55 6dbe f450 903e
000001c0: affe 2d3e 227f 193e c2b1 ba3e eae9 3d3d
000001d0: 2d86 333e bc60 473d 0ecd 8f3e 1f55 1e3e
000001e0: 253e 34be ade3 66bd 8508 943e 66bc 823d
000001f0: 5bb3 72be 5727 99bd 8fc2 703e 8756 23be
00000200: 2835 db3d efd7 393d 0a5a 45be 5fb3 2dbd
00000210: d0b5 893d ca4b df3c 673d 793c 2370 07be
00000220: 3085 01be 83ac 58be 2806 173e e017 3abe
00000230: 3213 c8bd 234c 42be eef5 fbba 7a51 4bbd
00000240: 5075 29be c274 a6bd ec70 cabe 1215 283e
00000250: d1c0 453e 09bd 833e 167a 213e 4bc2 5abe
00000260: 45c4 80be 5280 ddbd 82fa 76be 8a4d 42bd
00000270: 6ed0 44bc e85a 6bbe 838b ccbd 4a69 0fbd
00000280: 8560 87bd 5451 2ebe 5259 cebe b5be 563e
00000290: 64f1 bb3e 95a3 853e 1d59 84be 89ec 7f3e
000002a0: a8cf 363e 20bf 4a3e a65e dc3d a106 843e
000002b0: cdb6 173e b245 513e 23c6 82bd 9be1 f43d
000002c0: ca92 72be 2722 20bd ac7b 1bbd bbd0 ccbd
000002d0: c91b 993e 029c bdbd fe9f 8e3e dd16 c6be
000002e0: a66b 20bd 8cb1 44be c40e 85be 40e6 d53c
000002f0: df69 853d acfc d1bd 2ac0 f53d a8b2 bfbb
00000300: 4448 2dbe a33b 4e3d ed23 9dbe 4e8e b4be
00000310: 18b8 683e 88b5 e73d 48b3 663b a81a 8cbd
00000320: aaef 21bd 52d1 6cbe 49e8 d33d 3351 2d3e
00000330: 8c28 b7bd faaa d9bc f1d3 6dbd 6967 55be
00000340: 287f 883d fab1 04bd af59 273e 56fb bebc
00000350: adf5 3abe 4b5d babc d53d c43b 38e5 4a3e
00000360: e596 5cbd 6656 8bbe c386 2ebc 7639 063d
00000370: 2cd1 a13e 9079 4f3c 2078 153e 0507 f93d
00000380: 3266 8fbd 525c 1fbe 57b2 4e3d c760 0dbd
00000390: 5a1d ab3d 9a70 f43d 679a 84be d184 b13d
000003a0: 000a f1bd 3984 273e af1b 63bd 5d6f 01bc
000003b0: 3e00 a9bd 7012 86be fc99 043e 587e 9f3e
000003c0: aac1 1f3e 9bdb 01ba 3213 b83d 8d87 86be
000003d0: c00e ab3e daaa cabd 25d4 9e3e 1775 733e
000003e0: fb71 2d3d d939 873d 3b84 be3d 1dbf d6bd
000003f0: 84a8 9dbe d6ee 7fbe 4e05 f73b 9a77 94be
