ml-agents-release_20/Result/Dino/Dino07/Dino/checkpoint.pt (torch, 205607 bytes, 21 tensors)

network_body._body_endoder.seq_layers.0.weight f4 [256, 29]
-0.044634804 0.1321644 0.073698595 -0.41117886 -0.28465635 -0.39295062 -0.1616852 0.32271546
-0.016110927 -0.17835715 -0.13983423 0.021603083 -0.05297876 -0.36863676 0.0717098 0.0721226
-0.04494388 -0.13522951 -0.20254858 0.14692737 0.012755386 0.108114354 0.09150771 -0.17327616
-0.13642205 -0.17471631 -0.36618817 -0.35188535 -0.19964415 -0.2595 -0.01695772 -0.15382722
0.24575888 -0.043426946 0.4643641 0.14740603 -0.08396348 0.1930464 0.088707566 0.014629517
0.19862682 0.08425085 -0.13547072 -0.044835854 -0.13524623 0.14731917 -0.09009935 -0.2731436
0.37343588 0.11856784 0.13710493 0.08406564 0.12980358 -0.14388041 -0.02918518 0.23483902
0.19597088 -0.31921828 -0.20547979 0.16914473 0.13271227 -0.090951994 0.29456088 0.051028818
-0.29552975 -0.09056351 0.09926846 0.010309287 -0.20837072 0.018399587 0.12896666 -0.09614831
0.09789289 -0.02379424 -0.11549361 -0.1538883 0.39965498 -0.03588217 0.02893469 0.029231157
0.17026515 -0.060765844 0.12285828 0.0211031 0.40568134 -0.03883145 0.30278644 0.15430588
-0.09221786 0.13839449 -0.13048168 0.19123639 0.39981708 -0.3079988 -0.09573313 -0.24044888
0.071993314 0.1219474 0.24125308 0.017025562 0.2825703 -0.07801344 -0.17952114 0.2604694
-0.40467912 -0.10625664 0.051980894 0.42027846 0.35386568 -0.024420777 -0.21954791 -0.2572556
0.12672934 0.32397443 0.08940319 0.15977192 0.12551579 -0.06288943 -0.18164283 -0.0047635334
0.24347873 0.38257948 0.032093566 -0.29318926 0.10726952 -0.18337727 0.10947457 0.04378684
-0.12876527 -0.036249053 -0.22588259 0.2483403 0.17553079 0.2903611 0.0078055365 0.07643659
0.02483016 0.24794427 -0.39579052 0.18914118 -0.22760312 0.17908293 -0.18547639 -0.14943911
0.0847924 -0.22477557 -0.2534595 0.14759642 0.092392616 0.05503278 0.1327315 -0.140537
0.2872356 -0.059590444 -0.073766634 -0.16361801 0.042259246 0.25156277 0.15523359 -0.006773874
-0.045859866 0.07324333 0.119451635 0.077387854 -0.24786495 -0.050456926 -0.039544847 0.3043256
-0.42245263 -0.023705551 0.05066607 0.06676362 0.3258171 -0.0004904344 0.1223374 -0.31727183
0.06995729 -0.0369799 -0.15918727 0.26505822 -0.110921755 0.24268477 0.026989127 0.3609703
0.17557162 -0.17371386 0.10450129 -0.08803719 -0.16432619 -0.015372241 -0.19597994 -0.14494225
-0.23844346 0.21038644 0.31883532 0.29356447 -0.348195 -0.30848157 -0.21945369 -0.09800508
-0.0021270337 0.046301086 0.098675825 -0.123831965 -0.18437856 -0.098456755 -0.049127374 -0.047322903
-0.0036582805 0.407142 -0.16843225 -0.2986013 0.023238346 0.1083041 -0.15127973 0.31603026
-0.11970239 0.18135148 -0.20794871 -0.323115 0.093288764 -0.0129509885 -0.4331122 -0.38810143
0.026384123 0.105257936 -0.20075168 0.20440267 -0.14562207 -0.5130272 -0.2929896 0.044938885
0.118525766 0.109854385 0.366863 0.060074974 0.4362457 0.30076274 -0.31002903 -0.3793753
-0.14618625 -0.21358566 -0.32770747 -0.3268181 0.08208254 0.093088694 0.18298694 -0.1612778
-0.19418979 0.05044753 0.3413083 -0.04686301 0.31865364 0.16951121 -0.1707562 -0.1470803
00000000: fcd2 36bd 1b56 073e 4aef 963d 0986 d2be
00000010: 7abe 91be d330 c9be ce90 25be f63a a53e
00000020: 10fb 83bc 42a3 36be b430 0fbe f3f8 b03c
00000030: 4200 59bd f5bd bcbe 96dc 923d 04b5 933d
00000040: 1317 38bd 9b79 0abe e568 4fbe 2174 163e
00000050: f7fb 503c 0f6b dd3d 6568 bb3d 4e6f 31be
00000060: 39b2 0bbe d5e8 32be 047d bbbe 512a b4be
00000070: 846f 4cbe 2fdd 84be ebea 8abc e284 1dbe
00000080: 37a8 7b3e 74e0 31bd 22c1 ed3e 9bf1 163e
00000090: 0cf5 abbd f5ad 453e 50ac b53d a4b0 6f3c
000000a0: d464 4b3e b68b ac3d d6b8 0abe cda5 37bd
000000b0: fd7d 0abe d6da 163e 0286 b8bd 7ad9 8bbe
000000c0: fd32 bf3e b2d3 f23d 3c65 0c3e 9b2a ac3d
000000d0: 3beb 043e 6355 13be c215 efbc a479 703e
000000e0: 97ac 483e 9470 a3be 4b69 52be 4734 2d3e
000000f0: bae5 073e 0a45 babd afd0 963e 9803 513d
00000100: ad4f 97be 5d79 b9bd 434d cb3d 49e8 283c
00000110: 225f 55be bbba 963c d60f 043e 68e9 c4bd
00000120: 117c c83d 23ec c2bc ea87 ecbd e594 1dbe
00000130: 949f cc3e 2ff9 12bd 7108 ed3c 2e76 ef3c
00000140: fd59 2e3e 9be5 78bd 1f9d fb3d 69e0 ac3c
00000150: 77b5 cf3e ba0d 1fbd d306 9b3e 5c02 1e3e
00000160: b8dc bcbd 49b7 0d3e fd9c 05be 79d3 433e
00000170: d3b4 cc3e 05b2 9dbe bb0f c4bd 3b38 76be
00000180: 3b71 933d 8fbf f93d 0c0b 773e 3179 8b3c
00000190: 0ead 903e 83c5 9fbd 64d4 37be 3f5c 853e
000001a0: 1a32 cfbe 159d d9bd ebe9 543d bd2e d73e
000001b0: e22d b53e 150e c8bc 2bd1 60be 02b7 83be
000001c0: 56c5 013e fadf a53e 0519 b73d 409b 233e
000001d0: 3687 003e 2ccc 80bd 9400 3abe 6a17 9cbb
000001e0: 7d52 793e 75e1 c33e 8b74 033d e71c 96be
000001f0: 1fb0 db3d 40c7 3bbe 3434 e03d d459 333d
00000200: 0bdb 03be e379 14bd c44d 67be eb4c 7e3e
00000210: 58be 333e 36aa 943e 96c5 ff3b c98a 9c3d
00000220: 9f68 cb3c 1ae5 7d3e 0ea5 cabe 3aae 413e
00000230: cb10 69be 8461 373e 86ed 3dbe 9106 19be
00000240: a3a7 ad3d 912b 66be 72c5 81be 8423 173e
00000250: 5738 bd3d 0d6a 613d c4ea 073e eee8 0fbe
00000260: 8b10 933e 1c15 74bd f612 97bd 7b8b 27be
00000270: 0818 2d3d d6cc 803e 8ef5 1e3e 60f7 ddbb
00000280: 8ed7 3bbd 9900 963d 0fa3 f43d 867d 9e3d
00000290: 4fd0 7dbe ecab 4ebd c7f9 21bd 91d0 9b3e
000002a0: b64b d8be 2532 c2bc 3a87 4f3d 5dbb 883d
000002b0: 80d1 a63e 7f90 00ba 088c fa3d 7471 a2be
000002c0: c545 8f3d 3c78 17bd fd01 23be b6b5 873e
000002d0: f22a e3bd 5b82 783e 4d18 dd3c 19d1 b83e
000002e0: 0cc9 333e 0ce2 31be c604 d63d d84c b4bd
000002f0: 2045 28be dadb 7bbc f7ae 48be be6b 14be
00000300: 862a 74be 8b6f 573e 623e a33e 154e 963e
00000310: 9d46 b2be 4cf1 9dbe 78b8 60be e3b6 c8bd
00000320: b465 0bbb 35a6 3d3d 8d16 ca3d 9d9b fdbd
00000330: bccd 3cbe b2a3 c9bd c939 49bd a9d5 41bd
00000340: c3bf 6fbb eb74 d03e 8179 2cbe 45e2 98be
00000350: 585e be3c 8ace dd3d 13e9 1abe b8ce a13e
00000360: 8726 f5bd 34b4 393e 82f0 54be 546f a5be
00000370: 2e0e bf3d 6230 54bc e2c0 ddbe 3bb5 c6be
00000380: 8423 d83c 7991 d73d d991 4dbe ef4e 513e
00000390: f41d 15be c055 03bf bc02 96be d611 383d
000003a0: a3bd f23d 56fb e03d 78d5 bb3e 2d11 763d
000003b0: 995b df3e 93fd 993e 20bc 9ebe 7b3d c2be
000003c0: d9b1 15be 33b6 5abe 46c9 a7be b454 a7be
000003d0: e41a a83d 49a5 be3d ee60 3b3e 0226 25be
000003e0: b0d9 46be 12a2 4e3d f6bf ae3e 6df3 3fbd
000003f0: 9226 a33e 5994 2d3e b7da 2ebe 389c 16be

network_body._body_endoder.seq_layers.0.bias f4 [256]
-0.04194443 0.0014392338 0.016952878 0.019300593 0.01995074 0.0005802432 0.019041957 -0.013607582
0.04832247 0.027538659 0.03054756 -0.006518499 0.019959081 0.031070657 0.038109764 0.033923976
0.12461796 0.031342145 -0.008032411 0.020503208 0.00011552592 0.043108813 0.048040025 0.05232917
0.009463183 0.054191463 -0.0024097362 -0.0029032314 0.004476422 0.0007834521 0.054714445 0.00087687356
0.00046482898 0.036620803 0.004296019 -0.0010446988 0.015456381 0.022747293 0.028706985 0.07292054
0.10397708 0.0067670173 0.0640392 0.017029004 0.008756327 0.056576498 0.009035355 0.066629544
0.025660401 0.0022139584 0.038753185 0.027338415 0.034307916 -0.015590147 0.05208068 0.012057311
0.0691435 0.021167777 0.0062567946 0.039803468 0.032866668 0.027896436 0.016684325 0.019303426
0.049627326 0.03710476 0.0070300326 0.025998708 0.0031085273 0.0128205335 0.060607553 -0.0014922362
-0.014069292 0.052764975 0.012711193 0.04442414 0.007119416 0.031715926 0.02692199 0.015226833
0.016422179 0.07065537 0.03127511 0.010369647 0.0030991375 0.040805634 -0.008720312 0.07383558
0.027830044 -0.0048452974 0.009881369 0.061758973 -0.0003157558 0.0707676 0.05287474 0.032533515
0.011406942 0.004475926 0.064206205 0.026509821 0.011367079 0.011476241 0.026570331 -0.0042376053
0.04977712 0.00618234 0.01919952 0.025390405 0.027625138 0.028215175 0.01349623 -0.009058213
0.030842291 0.03138018 0.0048937947 0.006745244 0.007387886 0.012048097 0.024751382 0.0076853987
0.030497266 -9.411289e-05 0.00018981182 0.02992246 0.032700434 0.0024539756 0.020135071 0.016499624
0.009387395 -0.004782126 0.026190171 0.04589033 0.045353584 0.07259415 0.0042926627 0.00922043
0.057168208 0.027749617 0.044027846 -0.0044668103 0.022799611 0.0016570297 0.03389989 0.016889023
0.053670764 0.017852124 0.029876951 0.024185864 0.011400274 0.03501112 -0.002147413 0.006272581
0.078212224 0.04638763 0.026569923 0.0069299163 0.04068244 0.011887463 0.075095795 0.0018651269
0.023487573 0.029938303 0.0019549462 0.049609374 0.043326072 0.077876166 0.051077142 0.058373533
0.050291747 -0.002711007 0.019334164 0.042279415 0.021970155 0.0046480717 0.01968926 0.03646632
0.13513969 0.014099086 0.020170085 0.07178895 0.053998698 0.005071332 0.04046659 -0.0028122806
0.01919393 0.02841083 0.044803765 0.033654425 0.019054744 0.011518887 0.004512874 0.02746555
-0.012220657 0.036535826 0.03159509 0.068367235 0.09193302 0.07422146 0.017423546 0.017990151
0.0050631193 0.027554536 -0.004319855 -0.0012935873 0.037451893 0.041559897 0.012097478 0.016613878
0.018162383 0.035967447 0.036412638 0.01476301 0.051492393 -0.0004995435 0.001718187 0.042638473
0.010757194 0.0337089 -0.00090794964 0.0072674653 0.0063979635 -0.0019392625 0.021816948 0.040158916
0.032997932 0.023054825 0.02169863 0.048759207 0.013180447 -0.0075807855 0.003916067 0.029631577
0.028773302 0.0054380456 0.028072387 0.025069358 0.0496489 0.04835167 -0.01349201 0.0017474267
0.008439249 -0.028364358 0.025682354 0.06757468 0.055794194 0.028697293 0.0037573273 0.046310768
0.040626388 -0.0013820688 0.053663388 0.032736834 0.009844902 0.07548442 0.012814537 0.07714722
00000000: eccd 2bbd aca4 bc3a c3e0 8a3c 471c 9e3c
00000010: bc6f a33c 761b 183a e1fd 9b3c 56f2 5ebc
00000020: c8ed 453d c198 e13c e03e fa3c 2299 d5bb
00000030: 3a81 a33c e487 fe3c fc18 1c3d def3 0a3d
00000040: b337 ff3d 9f60 003d 609a 03bc 58f6 a73c
00000050: 8246 f238 de92 303d 9ec5 443d 1d57 563d
00000060: 770b 1b3c def7 5d3d aaec 1dbb 2444 3ebb
00000070: f3ae 923b 9560 4d3a 411c 603d fddd 653a
00000080: 4ab4 f339 b2ff 153d 9fc5 8c3b 46ee 88ba
00000090: c33c 7d3c 8858 ba3c e92a eb3c 5d57 953d
000000a0: eff1 d43d dbbd dd3b fc26 833d 6980 8b3c
000000b0: b376 0f3c c2bc 673d 0709 143c 1275 883d
000000c0: c335 d23c 0f18 113b a9bb 1e3d d0f4 df3c
000000d0: 7586 0c3d d16d 7fbc 8d52 553d 078c 453c
000000e0: 1b9b 8d3d 0c68 ad3c cc05 cd3b f608 233d
000000f0: 339f 063d 1187 e43c 91ad 883c 3822 9e3c
00000100: 0646 4b3d 29fb 173d 305c e63b 3efb d43c
00000110: 6fb8 4b3b 370d 523c a03f 783d 2397 c3ba
00000120: e382 66bc 1620 583d 9c42 503c 16f6 353d
00000130: fd49 e93b 8fe8 013d 818b dc3c f779 793c
00000140: ce87 863c c3b3 903d 541a 003d 74e5 293c
00000150: e61a 4b3b cf23 273d a4df 0ebc 1c37 973d
00000160: d5fb e33c 4dc5 9ebb 77e5 213c faf6 7c3d
00000170: 078c a5b9 9aee 903d 2f93 583d dd41 053d
00000180: 2fe4 3a3c caaa 923b 8b7e 833d 202b d93c
00000190: fc3c 3a3c d806 3c3c 06aa d93c 9cdb 8abb
000001a0: 18e3 4b3d 3a95 ca3b 5048 9d3c 8aff cf3c
000001b0: 1d4e e23c 8323 e73c 4b1f 5d3c e668 14bc
000001c0: f9a8 fc3c 8188 003d 205c a03b 3507 dd3b
000001d0: 1416 f23b 6265 453c 69c3 ca3c ccd5 fb3b
000001e0: 67d5 f93c 795e c5b8 3908 4739 f21f f53c
000001f0: e4f0 053d e1d2 203b 4ef2 a43c 382a 873c
00000200: 97cd 193c 61b3 9cbb c58c d63c 80f7 3b3d
00000210: aec4 393d 3eac 943d 77a9 8c3b 4911 173c
00000220: 3629 6a3d 2a53 e33c 8b56 343d 525e 92bb
00000230: 40c6 ba3c b130 d93a 9cda 0a3d d95a 8a3c
00000240: e0d5 5b3d 9e3e 923c 82c0 f43c 6f21 c63c
00000250: 37c8 3a3c d267 0f3d 9dbb 0cbb 398a cd3b
00000260: bb2d a03d f500 3e3d 2ba9 d93c 5a14 e33b
00000270: a1a2 263d a2c3 423c d3cb 993d 4677 f43a
00000280: 0369 c03c 2c41 f53c 8e1e 003b 3333 4b3d
00000290: ae76 313d 8a7d 9f3d 4436 513d 1619 6f3d
000002a0: b8fe 4d3d 26ab 31bb ae62 9e3c 2e2d 2d3d
000002b0: c1fa b33c da4e 983b 5f4b a13c b55d 153d
000002c0: 0f62 0a3e daff 663c bc3b a53c 1606 933d
000002d0: bd2d 5d3d 6b2d a63b 4cc0 253d 3d4e 38bb
000002e0: 973c 9d3c d4bd e83c 2784 373d 39d9 093d
000002f0: b218 9c3c b7b9 3c3c bbe0 933b 6fff e03c
00000300: 2739 48bc 97a6 153d da69 013d 1f04 8c3d
00000310: 6147 bc3d 6c01 983d d3bb 8e3c 1560 933c
00000320: 86e8 a53b 0dba e13c 928d 8dbb 968d a9ba
00000330: 2867 193d b63a 2a3d 8034 463c d419 883c
00000340: 47c9 943c 9a52 133d 6b25 153d 8de0 713c
00000350: b0e9 523d ccf3 02ba ca34 e13a aea5 2e3d
00000360: f13e 303c 5812 0a3d 7803 6eba eb23 ee3b
00000370: 02a6 d13b da2e feba 75b9 b23c ad7d 243d
00000380: d728 073d 79dd bc3c 53c1 b13c bcb7 473d
00000390: cdf2 573c 3d68 f8bb 5a52 803b ecbd f23c
000003a0: fdb5 eb3c a231 b23b 10f8 e53c 415e cd3c
000003b0: a55c 4b3d 670c 463d 970d 5dbc e909 e53a
000003c0: c744 0a3c 5f5c e8bc cd63 d23c 9864 8a3d
000003d0: 7488 643d 9616 eb3c 7e3d 763b 5cb0 3d3d
000003e0: db67 263d 8926 b5ba 24ce 5b3d 0f17 063d
000003f0: 834c 213c 9397 9a3d 10f4 513c 5dff 9d3d

action_model._discrete_distribution.branches.0.weight f4 [2, 256]
-0.0027512503 -0.026106874 -0.054585945 -0.058266614 -0.023342095 -0.021633409 -0.05421694 -0.005921644
-0.10608632 -0.098223284 -0.07200384 -0.008822457 -0.05616223 0.047493067 -0.12557365 -0.09952232
-0.13514492 -0.10236507 -0.0023742707 -0.033256143 0.028734375 -0.025569882 -0.019535664 0.08149223
-0.00053336506 -0.07200264 0.011335275 -0.01686696 0.0057655904 0.012634083 -0.094614446 -0.021091465
-0.008426606 0.07722115 0.021780578 -0.018573463 0.03334511 0.05707905 -0.08825331 0.1213727
-0.11710409 -0.0394696 0.1045852 -0.08956987 0.04128352 -0.094312735 0.02113489 -0.10517421
-0.11646913 -0.012274531 0.061915677 -0.08608221 -0.097237594 0.013590346 -0.034884285 0.03875397
-0.1296091 -0.0074892608 -0.028745059 -0.114652686 -0.09152759 -0.09112722 0.043166902 -0.05268563
-0.08561827 -0.082001925 -0.029861022 -0.017766904 -0.021572554 0.04101804 0.13494301 -0.015973896
-0.012267007 -0.08932867 -0.045624252 -0.044217423 0.019764079 -0.014324959 0.07791005 -0.0606913
-0.05401002 -0.11976563 0.04829037 0.037720345 0.002008866 0.11608151 -0.0091636265 -0.14701399
-0.03412975 -0.0088356985 0.0020741704 -0.07363716 -0.008259848 -0.10127201 0.09758328 0.068827435
0.04257981 -0.032678943 -0.039149206 -0.072483376 -0.043044053 -0.04455809 0.03703786 0.017042626
-0.10446513 -0.023426125 -0.08307421 -0.071014024 -0.07805376 0.0051790765 0.048371676 -0.014675764
0.009245682 -0.08588137 0.02795057 0.0468072 -0.041603323 -0.038820606 -0.08191762 -0.018991807
-0.076833494 -0.02252934 0.0024851705 -0.09067464 -0.06264865 -0.02503851 0.04843415 0.046960805
0.019320842 -0.016088463 -0.058137875 0.006365676 0.10362272 -0.11285934 -0.03853491 -0.021286555
0.10199625 -0.049894933 -0.0981243 0.011693237 -0.06386631 -0.023058122 -0.0926481 -0.0807938
-0.097639844 0.0118623115 -0.0915142 0.05364133 0.018708073 0.10855042 -7.6337376e-05 0.017241169
0.059037216 0.115104936 -0.08223548 -0.0068005463 0.058141742 -0.041167513 0.057190076 -0.02827238
0.05115648 0.08562352 -0.003894539 0.06261249 -0.12562647 -0.06401017 0.10241029 0.09881501
-0.115703605 -0.011606966 -0.080080844 0.10846944 -0.05871811 -0.027958298 -0.050515294 0.083569296
0.12272637 -0.0022620747 -0.069260314 0.15406583 -0.10829031 0.023524543 -0.09739076 -0.0018283317
0.06542212 -0.011987666 -0.09590025 -0.029250206 0.06024861 0.029035557 0.02816199 -0.072450936
-0.013649225 0.11174783 0.094988994 0.08309943 -0.11502655 0.06111575 0.051692568 -0.061794274
-0.032552533 0.0675616 -0.0058939443 -0.010524322 -0.027059928 0.11078999 0.038149547 -0.09502695
0.00025796166 -0.030241124 0.045352664 -0.06418246 -0.121668585 0.0058438447 -0.019715514 0.12349442
-0.044021703 -0.08486216 0.0058073523 0.022241907 0.029675093 0.0027160689 0.07325746 0.09399081
0.12503335 0.06593156 0.06504411 -0.09024444 -0.016479649 -0.009750568 0.020754652 -0.109558344
-0.10191765 -0.034132775 -0.0741209 -0.059146963 -0.07401582 0.11614949 -0.003123464 0.019489143
-0.039699007 -0.00973251 0.073569804 -0.0529382 0.0453245 0.07788572 -0.035577178 0.088164754
0.10418814 -0.005268159 0.12994011 -0.09070618 0.03535029 0.0911167 0.03899238 -0.06933435
00000000: 524e 34bb 15de d5bc 8395 5fbd f9a8 6ebd
00000010: ec37 bfbc 8c38 b1bc 9512 5ebd 5a0a c2bb
00000020: c943 d9bd 4a29 c9bd c076 93bd 118c 10bc
00000030: 5e0a 66bd 1788 423d 6196 00be 5cd2 cbbd
00000040: 6e63 0abe c7a4 d1bd a799 1bbb 9837 08bd
00000050: 5a64 eb3c ee77 d1bc 4209 a0bc 66e5 a63d
00000060: 86d1 0bba 1f76 93bd 97b7 393c 942c 8abc
00000070: 47ed bc3b 2fff 4e3c 38c5 c1bd 02c8 acbc
00000080: bf0f 0abc 1f26 9e3d 2f6d b23c 6027 98bc
00000090: e294 083d b9cb 693d 27be b4bd 4092 f83d
000000a0: 45d4 efbd e0aa 21bd c430 d63d 6870 b7bd
000000b0: e918 293d 0927 c1bd 1423 ad3c 9465 d7bd
000000c0: 5e87 eebd 1d1b 49bc 4b9b 7d3d df4b b0bd
000000d0: 8124 c7bd 0baa 5e3c d3e2 0ebd 7cbc 1e3d
000000e0: 3fb8 04be 7968 f5bb c27a ebbc 07cf eabd
000000f0: d172 bbbd e8a0 babd c7cf 303d e3cc 57bd
00000100: a258 afbd a0f0 a7bd 1a9f f4bc e68b 91bc
00000110: edb8 b0bc 8802 283d 802e 0a3e b0db 82bc
00000120: 8efb 48bc f3f1 b6bd 7fe0 3abd 541d 35bd
00000130: 47e8 a13c 3cb3 6abc 4e8f 9f3d 7197 78bd
00000140: 9c39 5dbd af47 f5bd 1fcc 453d a680 1a3d
00000150: 2ea7 033b 25bc ed3d 0923 16bc d68a 16be
00000160: a3cb 0bbd 9bc3 10bc ceee 073b 14cf 96bd
00000170: 5054 07bc b367 cfbd bed9 c73d 66f5 8c3d
00000180: 2b68 2e3d 5bda 05bd eb5a 20bd 2a72 94bd
00000190: f64e 30bd 8b82 36bd 03b5 173d fa9c 8b3c
000001a0: d0f1 d5bd 25e8 bfbc d022 aabd cd6f 91bd
000001b0: a6da 9fbd 3eb5 a93b 6121 463d 9e72 70bc
000001c0: 337b 173c 92e2 afbd 98f8 e43c e8b8 3f3d
000001d0: 3f68 2abd 5b02 1fbd 6dc4 a7bd b594 9bbc
000001e0: e15a 9dbd 738f b8bc 3ede 223b a0b3 b9bd
000001f0: ef4d 80bd 901d cdbc e362 463d f959 403d
00000200: be46 9e3c f4cb 83bc fb21 6ebd 2997 d03b
00000210: 2638 d43d cc22 e7bd c8d6 1dbd 2461 aebc
00000220: 69e3 d03d a15e 4cbd 65f5 c8bd fe94 3f3c
00000230: 57cc 82bd 63e4 bcbc 49be bdbd 3877 a5bd
00000240: 66f7 c7bd 245a 423c cc6b bbbd 03b7 5b3d
00000250: ac41 993c af4f de3d 5117 a0b8 5a3d 8d3c
00000260: 02d1 713d 23bc eb3d 136b a8bd 1ed7 debb
00000270: 0926 6e3d 449f 28bd 2440 6a3d 7a9b e7bc
00000280: 7589 513d 625b af3d 863b 7fbb fa3a 803d
00000290: 3aa4 00be c417 83bd 7cbc d13d 865f ca3d
000002a0: 03f6 ecbd 252b 3ebc 6d01 a4bd 3a25 de3d
000002b0: 6782 70bd cd08 e5bc 20e9 4ebd 6126 ab3d
000002c0: f757 fb3d 513f 14bb 5ad8 8dbd 6fc3 1d3e
000002d0: 4fc7 ddbd 8bb6 c03c cf74 c7bd a2a4 efba
000002e0: 08fc 853d ea67 44bc 5a67 c4bd 219e efbc
000002f0: 3fc7 763d fadb ed3c f9b3 e63c 2861 94bd
00000300: 00a1 5fbc 0cdc e43d 9789 c23d 0930 aa3d
00000310: 0a93 ebbd 8254 7a3d 96bb 533d fe1b 7dbd
00000320: ce55 05bd bc5d 8a3d fd21 c1bb 356e 2cbc
00000330: c8ac ddbc dde5 e23d b342 1c3d 7d9d c2bd
00000340: 073f 8739 3cbc f7bc b7c3 393d 1872 83bd
00000350: 612d f9bd b97d bf3b 6e82 a1bc a4ea fc3d
00000360: 1a50 34bd 36cc adbd 9a4b be3b a934 b63c
00000370: 2e19 f33c 1300 323b 0208 963d 417e c03d
00000380: be08 003e 2007 873d d935 853d 14d2 b8bd
00000390: 5400 87bc d9c0 1fbc a905 aa3c 2060 e0bd
000003a0: 33ba d0bd cfce 0bbd b3cc 97bd 1644 72bd
000003b0: 9b95 97bd c9df ed3d 08b3 4cbb b2a7 9f3c
000003c0: 6d9b 22bd 1b75 1fbc c4ab 963d bad5 58bd
000003d0: 2fa6 393d 8c82 9f3d 60b9 11bd b98f b43d
000003e0: 9760 d53d 85a0 acbb 050f 053e 29c4 b9bd
000003f0: 77cb 103d 649b ba3d 79b6 1f3d 2bff 8dbd

action_model._discrete_distribution.branches.0.bias f4 [2]
0.0010991878 -0.0010991809
00000000: 9f12 903a 6412 90ba

exp_avg f4 [256, 29]
3.8985723e-07 9.6916635e-09 -3.5497135e-07 -3.5497135e-07 3.8985723e-07 -2.604955e-08 -3.1923005e-07 -3.2340364e-07
3.8985723e-07 -4.4652165e-08 -3.0062745e-07 -3.189532e-07 3.8986772e-07 -2.91919e-07 -5.3371107e-08 -2.0513436e-07
3.8917887e-07 -4.4314113e-08 -3.0028718e-07 -3.109515e-07 1.2936646e-07 -3.1000646e-08 -5.3788323e-08 -1.7324837e-07
3.4610474e-07 -1.2399678e-09 -3.0028718e-07 -3.075692e-07 0.0 4.600292e-06 5.48481e-07 2.7236712e-05
2.7236712e-05 4.600292e-06 2.5266963e-06 2.5258496e-05 2.5503154e-05 4.600292e-06 -1.9419538e-07 2.7979393e-05
2.7729991e-05 4.5994516e-06 2.8432072e-05 -6.4602506e-07 1.4051669e-05 4.5898996e-06 -1.8941044e-07 2.7985001e-05
2.7839604e-05 3.0256126e-05 2.8131597e-06 -6.837949e-07 1.0930237e-05 4.0161094e-06 3.843799e-07 2.7985001e-05
2.7885088e-05 0.0 1.7445142e-05 1.24122e-06 5.286383e-05 5.286383e-05 1.7445142e-05 5.8674464e-06
4.8237613e-05 4.880651e-05 1.7445142e-05 -2.4871835e-07 5.435378e-05 5.384992e-05 1.7443033e-05 5.5372893e-05
-1.2656963e-06 2.688147e-05 1.7427787e-05 -2.3761919e-07 5.4360044e-05 5.40678e-05 6.637049e-05 6.525311e-06
-1.3455793e-06 2.091456e-05 1.6237074e-05 9.530902e-07 5.4360044e-05 5.4160944e-05 0.0 1.6881508e-05
1.7277737e-06 7.320407e-05 7.320407e-05 1.6881508e-05 7.2605417e-06 6.76713e-05 6.834915e-05 1.6881508e-05
1.7160356e-06 7.3215815e-05 7.321606e-05 1.6879294e-05 7.479888e-05 1.3519794e-07 3.8481514e-05 1.6873963e-05
1.7203953e-06 7.3219e-05 7.321842e-05 8.368143e-05 8.068124e-06 6.380683e-08 3.0348754e-05 1.691337e-05
1.6809848e-06 7.3219e-05 7.321673e-05 0.0 5.2693604e-06 6.3978086e-07 1.0594762e-05 1.0594762e-05
5.2693604e-06 1.8944293e-06 9.340115e-06 9.509683e-06 5.2693604e-06 4.0805372e-07 1.0826489e-05 1.0754652e-05
5.2689775e-06 1.1444979e-05 -2.1005079e-07 5.2517253e-06 5.267791e-06 4.0600395e-07 1.08301065e-05 1.0787492e-05
1.4687966e-05 2.039702e-06 -2.2376375e-07 4.097791e-06 5.1186066e-06 5.5518814e-07 1.08301065e-05 1.0799965e-05
0.0 4.365085e-06 4.3220712e-07 2.1330017e-05 2.1330017e-05 4.365085e-06 1.9977642e-06 1.9764459e-05
1.9956138e-05 4.365085e-06 -3.4041022e-07 2.2102637e-05 2.184531e-05 4.3644063e-06 2.2471368e-05 -7.0845675e-07
1.0909226e-05 4.3568384e-06 -3.3718334e-07 2.2107655e-05 2.195777e-05 2.462384e-05 2.233722e-06 -7.3025063e-07
8.444106e-06 3.7617299e-06 2.5792554e-07 2.2107655e-05 2.200483e-05 0.0 1.2931938e-05 1.5122572e-06
6.0959195e-05 6.0959195e-05 1.2931938e-05 6.049217e-06 5.6422232e-05 5.697328e-05 1.2931938e-05 7.823314e-07
6.1689134e-05 6.145083e-05 1.2929839e-05 6.309524e-05 -6.2166026e-07 3.175658e-05 1.2925478e-05 7.856211e-07
6.1692284e-05 6.155393e-05 6.9343216e-05 6.7497754e-06 -6.895802e-07 2.4888563e-05 1.2387108e-05 1.323989e-06
6.1692284e-05 6.159687e-05 0.0 2.651297e-07 4.4906308e-08 -5.543196e-07 -5.543196e-07 2.651297e-07
2.7346118e-08 -5.367594e-07 -5.385145e-07 2.651297e-07 -5.963682e-08 -4.497765e-07 -4.852034e-07 2.6513794e-07
-4.0379425e-07 -1.05627514e-07 -3.488547e-07 2.6453785e-07 -5.9464224e-08 -4.493572e-07 -4.6992713e-07 -1.61787e-07
2.2619682e-08 -1.051164e-07 -2.971077e-07 1.780176e-07 2.7055977e-08 -4.493572e-07 -4.632499e-07 0.0
3.74949e-05 2.834552e-06 0.00010815469 0.00010815469 3.74949e-05 1.327447e-05 9.771474e-05 9.896196e-05
3.74949e-05 1.9427237e-06 0.000109046516 0.000108740554 3.7490507e-05 0.000111620066 -6.26384e-07 5.536455e-05
3.749191e-05 1.946003e-06 0.0001090462 0.00010886977 0.0001344782 1.4765708e-05 -7.59731e-07 4.3518077e-05
00000000: 924d d134 6380 2632 e492 beb4 e492 beb4
00000010: 924d d134 91c3 dfb2 a562 abb4 42a0 adb4
00000020: 924d d134 93c7 3fb3 ec65 a1b4 983c abb4
00000030: 034f d134 0bb9 9cb4 273a 65b3 e742 5cb4
00000040: 56f0 d034 e253 3eb3 2837 a1b4 d9f0 a6b4
00000050: fbe7 0a34 9225 05b3 e304 67b3 2606 3ab4
00000060: 46d0 b934 7d6b aab0 2837 a1b4 fd1f a5b4
00000070: 0000 0000 355c 9a36 543b 1335 657a e437
00000080: 657a e437 355c 9a36 5090 2936 35e2 d337
00000090: 9bef d537 355c 9a36 0584 50b4 4ab5 ea37
000000a0: b49d e837 fd54 9a36 6981 ee37 816a 2db5
000000b0: 75bf 6b37 f002 9a36 bf60 4bb4 55c1 ea37
000000c0: 1889 e937 89ce fd37 b7c9 3c36 078e 37b5
000000d0: 0361 3737 1ec2 8636 c55c ce34 55c1 ea37
000000e0: c5ea e937 0000 0000 2857 9237 ff97 a635
000000f0: 1bba 5d38 1bba 5d38 2857 9237 fbe0 c436
00000100: be52 4a38 97b5 4c38 2857 9237 9787 85b4
00000110: edf9 6338 e9dc 6138 a152 9237 3140 6838
00000120: fee0 a9b5 847f e137 e331 9237 4424 7fb4
00000130: a700 6438 dcc6 6238 6330 8b38 fff3 da36
00000140: c199 b4b5 ad71 af37 da34 8837 dcd7 7f35
00000150: a700 6438 df2a 6338 0000 0000 c39c 8d37
00000160: dae5 e735 2385 9938 2385 9938 c39c 8d37
00000170: 949f f336 c1ea 8d38 ac56 8f38 c39c 8d37
00000180: 8952 e635 718b 9938 938b 9938 0298 8d37
00000190: 58dd 9c38 ed2a 1134 3667 2138 8f8c 8d37
000001a0: 55e8 e635 278d 9938 d78c 9938 207e af38
000001b0: 545c 0737 2d06 8933 7495 fe37 2fe1 8d37
000001c0: 339e e135 278d 9938 ef8b 9938 0000 0000
000001d0: 76cf b036 68bd 2b35 28c0 3137 28c0 3137
000001e0: 76cf b036 1844 fe35 7db3 1c37 c78b 1f37
000001f0: 76cf b036 7a12 db34 6ba3 3537 e16e 3437
00000200: 2ccc b036 cf03 4037 528a 61b4 fa37 b036
00000210: fbc1 b036 c2f8 d934 f4b2 3537 edfb 3437
00000220: 556c 7637 d0e1 0836 b643 70b4 c27f 8936
00000230: 7fc0 ab36 3d08 1535 f4b2 3537 7f31 3537
00000240: 0000 0000 cb77 9236 180a e834 dded b237
00000250: dded b237 cb77 9236 5411 0636 dacb a537
00000260: 7b67 a737 cb77 9236 a0c1 b6b4 0d69 b937
00000270: 7240 b737 f771 9236 e580 bc37 c72c 3eb5
00000280: c506 3737 f530 9236 2006 b5b4 d473 b937
00000290: f431 b837 4b8f ce37 0de7 1536 7106 44b5
000002a0: 29ab 0d37 0772 7c36 0479 8a34 d473 b937
000002b0: 0397 b837 0000 0000 40f6 5837 c3f8 ca35
000002c0: 70ae 7f38 70ae 7f38 40f6 5837 61fa ca36
000002d0: e9a6 6c38 98f6 6e38 40f6 5837 6801 5235
000002e0: 1a5f 8138 2adf 8038 3ced 5837 0052 8438
000002f0: 2be0 26b5 5e32 0538 81da 5837 79e3 5235
00000300: cb60 8138 8416 8138 5b6c 9138 217c e236
00000310: 971b 39b5 c8c7 d037 39d2 4f37 eab3 b135
00000320: cb60 8138 912d 8138 0000 0000 2657 8e34
00000330: 02df 4033 8ecc 14b5 8ecc 14b5 2657 8e34
00000340: c0e6 ea32 d315 10b5 6f8e 10b5 2657 8e34
00000350: b011 80b3 d078 f1b4 ec3e 02b5 4858 8e34
00000360: 0fc9 d8b4 57d5 e2b3 3a4a bbb4 ce05 8e34
00000370: 9b65 7fb3 2f3f f1b4 4b4a fcb4 acb7 2db4
00000380: 354d c232 5abc e1b3 2c82 9fb4 1b25 3f34
00000390: b968 e832 2f3f f1b4 95b4 f8b4 0000 0000
000003a0: d843 1d38 3c39 3e36 1bd1 e238 1bd1 e238
000003b0: d843 1d38 6ab5 5e37 34ec cc38 cc89 cf38
000003c0: d843 1d38 bd5f 0236 e7af e438 a40b e438
000003d0: 203f 1d38 9115 ea38 c824 28b5 3c37 6838
000003e0: a240 1d38 1498 0236 bcaf e438 0351 e438
000003f0: b802 0d39 3cba 7737 51f0 4bb5 2e87 3638

exp_avg_sq f4 [256, 29]
1.5028539e-12 5.579786e-13 1.4047879e-11 1.4047879e-11 1.5114177e-12 3.934555e-12 1.07212225e-11 1.14784016e-11
1.5049795e-12 1.3897178e-12 1.34255055e-11 1.34973656e-11 1.5382071e-12 5.331303e-12 8.882255e-12 9.904716e-12
1.5918281e-12 1.2390049e-12 1.3267995e-11 1.3313154e-11 7.439905e-12 2.8241515e-12 5.868252e-12 8.866321e-12
2.0467582e-12 7.8379084e-13 1.3267995e-11 1.3292962e-11 0.0 1.3073875e-10 8.211594e-10 1.9576019e-08
1.9576019e-08 1.6005071e-10 1.2984272e-08 9.676321e-09 1.0984955e-08 1.3071257e-10 9.0074415e-10 1.9548066e-08
1.9537358e-08 3.4272166e-10 1.5649762e-08 4.4220654e-09 7.0811823e-09 1.4191832e-10 8.828764e-10 1.9504174e-08
1.9507448e-08 1.2982765e-08 4.3968162e-09 2.9144205e-09 5.9252554e-09 1.8366944e-10 8.388267e-10 1.9504174e-08
1.9506517e-08 0.0 2.061034e-09 4.5554334e-09 1.06136504e-07 1.06136504e-07 2.3781956e-09 7.3619404e-08
4.8146838e-08 5.6144287e-08 2.0606001e-09 4.953454e-09 1.05982444e-07 1.05932244e-07 3.424412e-09 8.1252885e-08
2.7170868e-08 3.868879e-08 2.0913842e-09 4.8478683e-09 1.05841615e-07 1.0583721e-07 6.9925065e-08 2.2225537e-08
1.8832068e-08 3.3318262e-08 2.2944844e-09 4.617256e-09 1.05841615e-07 1.0583588e-07 0.0 1.4614152e-09
6.0667777e-09 8.650481e-08 8.650481e-08 1.5440511e-09 7.7382225e-08 2.4102187e-08 3.524742e-08 1.4613949e-09
6.0759193e-09 8.6495774e-08 8.649659e-08 1.9145057e-09 8.615582e-08 5.152482e-09 1.709289e-08 1.4626252e-09
6.066732e-09 8.647303e-08 8.647966e-08 7.6740484e-08 1.55619e-08 2.5346671e-09 1.2537062e-08 1.4626023e-09
6.0664567e-09 8.647303e-08 8.647886e-08 0.0 1.1840913e-10 6.0590066e-10 1.9198179e-09 1.9198179e-09
1.1928407e-10 2.2074889e-09 4.1173082e-10 7.0612066e-10 1.1840705e-10 6.0875854e-10 1.9193862e-09 1.9189694e-09
1.2292704e-10 2.364954e-09 8.617011e-11 3.3371986e-10 1.183772e-10 6.088156e-10 1.917266e-09 1.917527e-09
1.8147682e-09 8.1424445e-10 3.1662326e-11 2.3877084e-10 1.188686e-10 6.0748556e-10 1.917266e-09 1.9174726e-09
0.0 8.541825e-11 3.055234e-10 6.314605e-09 6.314605e-09 8.8920225e-11 5.0521853e-09 2.357535e-09
3.06197e-09 8.541373e-11 3.3516223e-10 6.3083334e-09 6.3055956e-09 9.810835e-11 5.732832e-09 9.541781e-10
1.8003748e-09 8.8504065e-11 3.305454e-10 6.300771e-09 6.3001595e-09 5.4037237e-09 7.440399e-10 7.455207e-10
1.4697583e-09 1.0432833e-10 3.1265768e-10 6.300771e-09 6.3002297e-09 0.0 7.991009e-10 4.1244266e-09
5.2648318e-08 5.2648318e-08 8.30491e-10 4.758097e-08 1.3964531e-08 2.135313e-08 7.99092e-10 4.161754e-09
5.263749e-08 5.2633407e-08 1.0866461e-09 5.3324314e-08 2.3630813e-09 9.8837285e-09 8.0103457e-10 4.15504e-09
5.2624276e-08 5.262464e-08 4.851148e-08 8.941686e-09 6.4409234e-10 6.986855e-09 8.164997e-10 4.1354538e-09
5.2624276e-08 5.2624298e-08 0.0 6.665608e-13 7.7472456e-12 5.781021e-12 5.781021e-12 6.665343e-13
1.0672309e-11 3.339211e-12 3.758336e-12 6.669878e-13 8.839106e-12 4.4398465e-12 4.696102e-12 6.68752e-13
1.1363811e-11 2.0153293e-12 2.796826e-12 8.07743e-13 8.853771e-12 4.3222648e-12 4.421131e-12 4.1197566e-12
8.012755e-12 1.8535343e-12 2.5021782e-12 1.7643387e-12 8.201201e-12 4.3222648e-12 4.383714e-12 0.0
8.201557e-09 1.947032e-08 3.23838e-07 3.23838e-07 8.881837e-09 3.0762433e-07 6.390018e-08 1.10151305e-07
8.201239e-09 1.9569836e-08 3.2378696e-07 3.2375667e-07 1.1275435e-08 3.1744844e-07 1.9764906e-08 5.3808947e-08
8.1899545e-09 1.955078e-08 3.2378054e-07 3.2375908e-07 2.852046e-07 5.8536603e-08 8.5817e-09 4.0074706e-08
00000000: 0582 d32b 980e 1d2b 0622 772d 0622 772d
00000010: 90b6 d42b 526f 8a2c 189c 3c2d 20ee 492d
00000020: 9ace d32b dc95 c32b 1a2f 6c2d bb72 6d2d
00000030: c07b d82b 1c94 bb2c 1f42 1c2d e03e 2e2d
00000040: a707 e02b db5f ae2b bd69 692d 1e35 6a2d
00000050: 5ae2 022d 64bb 462c 8478 ce2c 5cfa 1b2d
00000060: 1e07 102c 159e 5c2b bd69 692d 2eda 692d
00000070: 0000 0000 b0bf 0f2f f5b7 6130 1f28 a832
00000080: 1f28 a832 45fa 2f2f 6f11 5f32 e93c 2632
00000090: 58b8 3c32 51b8 0f2f 3c98 7730 a7ea a732
000000a0: 1bd3 a732 c969 bc2f 316e 8632 e6f0 9731
000000b0: bd4e f331 750a 1c2f e7ae 7230 228a a732
000000c0: 5591 a732 ce0a 5f32 ce12 9731 0747 4831
000000d0: 1997 cb31 5af2 492f 2e93 6630 228a a732
000000e0: 498f a732 0000 0000 18a2 0d31 0486 9c31
000000f0: 29ed e333 29ed e333 a96d 2331 b218 9e33
00000100: 02ca 4e33 4c23 7133 769a 0d31 0b33 aa31
00000110: 7798 e333 de7c e333 e552 6b31 3f7d ae33
00000120: 5f65 e932 c62a 2633 05b8 0f31 4d92 a631
00000130: 0b4b e333 9f48 e333 b629 9633 79ea be32
00000140: 28c4 a132 d119 0f33 ffac 1d31 d0a5 9e31
00000150: 0b4b e333 e447 e333 0000 0000 fada c830
00000160: f173 d031 86c4 b933 86c4 b933 7836 d430
00000170: 542d a633 4509 cf32 f362 1733 43da c830
00000180: 5ac4 d031 8ebf b933 01c0 b933 5790 0331
00000190: aa04 b933 b609 b131 aad3 9232 8d05 c930
000001a0: 8a73 d031 0db3 b933 b2b6 b933 87cc a433
000001b0: fbac 8532 562e 2e31 9562 5732 be04 c930
000001c0: 1e71 d031 0db3 b933 42b6 b933 0000 0000
000001d0: 3531 022f 788c 2630 cbed 0331 cbed 0331
000001e0: 7b27 032f 8eb2 1731 f659 e22f d318 4230
000001f0: 9f30 022f 9355 2730 33e6 0331 dede 0331
00000200: e328 072f b684 2231 767d bd2e e576 b72f
00000210: 3828 022f 9759 2730 e6c0 0331 7ec5 0331
00000220: 7b6b f930 5cd1 5f30 9c40 0b2e 0244 832f
00000230: 89b2 022f fffb 2630 e6c0 0331 89c4 0331
00000240: 0000 0000 33d6 bb2e 99f6 a72f daf7 d831
00000250: daf7 d831 a389 c32e 7e97 ad31 3202 2231
00000260: bf6a 5231 a8d3 bb2e e441 b82f b0c0 d831
00000270: 9ba8 d831 17be d72e 86fa c431 2824 8330
00000280: 0f71 f730 5c9f c22e 21b8 b52f 2b7e d831
00000290: ca78 d831 a8ab b931 2785 4c30 5bed 4c30
000002a0: 8600 ca30 a16b e52e a8e2 ab2f 2b7e d831
000002b0: 6879 d831 0000 0000 baa7 5b30 d7b6 8d31
000002c0: 701f 6233 701f 6233 9c48 6430 d45b 4c33
000002d0: a8e8 6f32 086c b732 1aa7 5b30 2dff 8e31
000002e0: 8813 6233 0b0f 6233 f658 9530 b406 6533
000002f0: c463 2231 19cd 2932 cc2f 5c30 1ec4 8e31
00000300: 0105 6233 6705 6233 f05a 5033 f39d 1932
00000310: f80b 3130 0711 f031 0f70 6030 d617 8e31
00000320: 0105 6233 0705 6233 0000 0000 c49e 3b2b
00000330: 7e4a 082d cf66 cb2c cf66 cb2c dc9c 3b2b
00000340: cfbf 3b2d e1f9 6a2c 153c 842c 89bd 3b2b
00000350: cb7f 1b2d 9536 9c2c ba3a a52c a93c 3c2b
00000360: 0eea 472d f2d0 0d2c 23cf 442c 045c 632b
00000370: d7c1 1b2d 8013 982c 028e 9b2c 78f3 902c
00000380: 3ef6 0c2d 4e6e 022c 3c13 302c 004f f82b
00000390: ed46 102d 8013 982c fc3c 9a2c 0000 0000
000003a0: d4e6 0c32 b03f a732 f5db ad34 f5db ad34
000003b0: bb96 1832 9127 a534 7f39 8933 528c ec33
000003c0: 6ee5 0c32 861a a832 f1d4 ad34 c7d0 ad34
000003d0: e3b5 4132 c86d aa34 7dc7 a932 901b 6733
000003e0: cdb3 0c32 9ff0 a732 0fd4 ad34 1cd1 ad34
000003f0: 391e 9934 ad69 7b33 b76e 1332 9b1e 2c33

exp_avg f4 [256]
4.453148e-08 3.2393113e-05 7.1540155e-05 9.181426e-05 1.6506527e-05 2.6121674e-05 7.540979e-05 -2.443635e-07
0.00014849346 0.00012335443 0.00011457855 1.4185066e-06 8.934858e-05 -6.43029e-05 0.00012568568 8.37559e-05
0.00015929918 8.458489e-05 7.2258886e-06 2.9678526e-05 -1.935347e-05 2.5993988e-05 2.1558215e-05 -0.00013655578
4.6032545e-07 7.5111435e-05 -4.623981e-06 1.8003651e-05 -8.715664e-06 -4.1907398e-07 0.00010351821 3.0482493e-05
6.191967e-06 -0.00012814553 -3.258639e-05 1.4812096e-05 -7.7163175e-05 -8.795993e-05 0.00013067908 -0.00019210353
0.00013923722 4.9411443e-05 -0.00016333202 7.4611016e-05 -7.131637e-05 8.011623e-05 -2.916473e-05 0.00010276418
0.000118031334 1.7006127e-05 -0.00010069663 0.000114106995 0.00014446396 -2.2567847e-06 3.996772e-05 -8.413658e-05
0.00017897828 2.3239586e-06 4.0319683e-05 0.0001535232 6.595521e-05 0.00011532605 -9.0733854e-05 9.9874815e-05
6.609377e-05 0.00014112178 3.808271e-05 1.11434765e-05 2.1489192e-05 -8.3499275e-05 -0.0002197634 1.4293476e-05
2.0094589e-07 0.0001146532 6.389067e-05 3.9371578e-05 -3.814851e-05 1.3026083e-05 -0.000108727036 5.352756e-05
9.1195434e-05 0.00013005151 -5.7454334e-05 -5.5313012e-05 -7.0568564e-07 -0.00019761031 5.154723e-06 0.00014996344
2.8362452e-05 8.187624e-06 -4.275224e-06 6.883528e-05 9.974777e-07 0.00011874716 -0.00012507175 -0.00010790528
-6.445018e-05 2.0843114e-05 2.7538597e-05 0.00011196282 5.014795e-05 5.2359697e-05 -2.9988329e-05 -2.6476488e-05
0.000104827544 4.6735076e-05 9.484475e-05 9.867838e-05 7.162657e-05 -5.0224476e-06 -6.525509e-05 1.1696078e-05
-1.0604332e-05 0.00011308726 -5.6965688e-05 -7.2899624e-05 5.775642e-05 6.721827e-05 0.000110674126 3.5147437e-05
8.538018e-05 2.3826793e-05 5.1915063e-06 9.282376e-05 5.0873507e-05 3.5854995e-05 -8.420991e-05 -0.00010639206
-2.5896414e-05 1.01758305e-05 6.800907e-05 -1.4747852e-05 -0.00013934688 0.00011588714 6.23757e-05 3.6548492e-05
-0.00015244387 5.5917782e-05 0.00013425542 -1.1217433e-05 8.543851e-05 1.1463578e-05 0.00010981824 7.4520125e-05
0.00011279084 -8.412085e-06 0.00010060291 -6.679052e-05 -2.6612503e-05 -0.00015188949 1.2820672e-06 -4.17491e-05
-8.05943e-05 -0.00017906174 0.00010316535 9.6172425e-06 -7.8971105e-05 4.306673e-05 -8.888266e-05 3.372602e-05
-0.0001024994 -0.00011552434 1.7223324e-06 -0.00010192106 0.0001480556 4.2472642e-05 -0.00015117985 -0.0001292449
0.00012794796 1.7920298e-05 8.6589054e-05 -0.00019370622 4.076551e-05 1.3622606e-05 7.19758e-05 -0.00013699956
-0.00020534126 4.1287967e-06 6.409188e-05 -0.00022187897 0.00011752593 -4.9265185e-05 8.635465e-05 6.6614484e-07
-0.00010700246 4.248057e-06 0.000114731745 1.571265e-05 -0.000112419315 -3.3990385e-05 -4.1671316e-05 6.710008e-05
9.790464e-06 -0.00016032241 -0.0001556189 -0.00012325248 0.00012991602 -0.00010433645 -9.901819e-05 6.0350838e-05
3.504454e-05 -9.396859e-05 7.463111e-07 2.3070465e-05 2.7787626e-05 -0.00018585967 -8.0465295e-05 8.526236e-05
1.0157365e-05 2.7149666e-05 -5.3384636e-05 6.512177e-05 0.0001099187 -1.3468924e-06 2.7180253e-05 -0.0001878157
5.1518342e-05 0.00011298805 -4.9782257e-06 -3.702107e-05 -5.0377646e-05 -1.603147e-05 -0.00012044239 -0.00014727858
-0.00019679815 -0.00010799691 -9.697033e-05 8.963215e-05 8.520396e-06 2.2120328e-06 -3.313234e-05 0.00012252964
0.00011147355 5.106132e-05 7.075652e-05 8.977128e-05 8.8485154e-05 -0.0001743323 5.74018e-06 -1.7852988e-05
5.042712e-05 8.418192e-07 -0.000115850904 2.6513686e-05 -4.960617e-05 -0.00013951513 6.427883e-05 -0.00012692335
-0.00016087665 7.4122573e-07 -0.00020540711 0.00010823534 -4.3148233e-05 -0.00014022848 -4.6955847e-05 7.1912276e-05
00000000: e142 3f33 d7dd 0738 d407 9638 688c c038
00000010: 7f77 8a37 de1f db37 5325 9e38 1031 83b4
00000020: e9b4 1b39 b458 0139 e449 f038 8463 be35
00000030: a760 bb38 5bda 86b8 7eca 0339 1ba6 af38
00000040: 8c09 2739 2b63 b138 e975 f236 26f6 f837
00000050: 4359 a2b7 aa0d da37 ead7 b437 6a30 0fb9
00000060: a622 f734 2585 9d38 b227 9bb6 8c06 9737
00000070: 7e39 12b7 17fd e0b4 ea17 d938 a8b4 ff37
00000080: 97c4 cf36 ce5e 06b9 5fad 08b8 7881 7837
00000090: aad2 a1b8 2177 b8b8 e606 0939 666f 49b9
000000a0: 3500 1239 223f 4f38 1b44 2bb9 7c78 9c38
000000b0: af8f 95b8 1304 a838 c8a6 f4b7 1983 d738
000000c0: 9787 f738 61a8 8e37 172d d3b8 ba4c ef38
000000d0: 407b 1739 4473 17b6 03a3 2738 7c72 b0b8
000000e0: 1eac 3b39 4ef5 1b36 ee1c 2938 12fb 2039
000000f0: 6f51 8a38 34db f138 5e48 beb8 e273 d138
00000100: d39b 8a38 17fa 1339 00bb 1f38 def4 3a37
00000110: b043 b437 551c afb8 4a70 66b9 03ce 6f37
00000120: 96c3 5734 f871 f038 0bfd 8538 e922 2538
00000130: a701 20b8 9a8a 5a37 6204 e4b8 c882 6038
00000140: 2d40 bf38 705e 0839 1ffb 70b8 e5ff 67b8
00000150: 596e 3db5 9d35 4fb9 bcf6 ac36 813f 1d39
00000160: e7eb ed37 945d 0937 e573 8fb6 a95b 9038
00000170: 13e1 8535 e507 f938 b125 03b9 354b e2b8
00000180: 6d29 87b8 3fd8 ae37 b002 e737 95cd ea38
00000190: f455 5238 cc9c 5b38 728f fbb7 d319 deb7
000001a0: dcd6 db38 6805 4438 63e7 c638 8df1 ce38
000001b0: 3936 9638 7f86 a8b6 8fd9 88b8 463a 4437
000001c0: 42e9 31b7 4329 ed38 71ee 6eb8 b0e1 98b8
000001d0: 7c3f 7238 89f7 8c38 b819 e838 466b 1338
000001e0: 230e b338 a6df c737 b332 ae36 60aa c238
000001f0: 0361 5538 0263 1638 da99 b0b8 cd1e dfb8
00000200: 203c d9b7 dcb8 2a37 17a0 8e38 8b6d 77b7
00000210: a51d 12b9 6f08 f338 b3cf 8238 a54b 1938
00000220: 57d9 1fb9 4389 6a38 eac6 0c39 8232 3cb7
00000230: 732d b338 b153 4037 384e e638 b047 9c38
00000240: 1f8a ec38 a121 0db7 c7fa d238 e311 8cb8
00000250: ea3d dfb7 8644 1fb9 7e13 ac35 c11b 2fb8
00000260: bc04 a9b8 85c2 3bb9 7a5a d838 be59 2137
00000270: 4a9d a5b8 8da2 3438 8466 bab8 0a75 0d38
00000280: f2f4 d6b8 a845 f2b8 e42a e735 74be d5b8
00000290: 5f3f 1b39 a724 3238 0886 1eb9 ea85 07b9
000002a0: c529 0639 8c53 9637 2597 b538 9e1d 4bb9
000002b0: a2fb 2a38 a68c 6437 b7f1 9638 8aa7 0fb9
000002c0: e050 57b9 188a 8a36 1169 8638 2fa8 68b9
000002d0: 4178 f638 17a2 4eb8 4d19 b538 20d1 3235
000002e0: 8266 e0b8 888a 8e36 239c f038 a9ce 8337
000002f0: a9c2 ebb8 e690 0eb8 3cc8 2eb8 15b8 8c38
00000300: b941 2437 381c 28b9 a12d 23b9 563d 01b9
00000310: 113a 0839 34cf dab8 fca7 cfb8 3821 7d38
00000320: cafc 1238 0111 c5b8 1c56 4835 7287 c137
00000330: 7919 e937 53e3 42b9 7abf a8b8 e2ce b238
00000340: 8d69 2a37 77bf e337 51e9 5fb8 fc91 8838
00000350: 2784 e638 dfc6 b4b5 2601 e437 65f0 44b9
00000360: 6615 5838 fff3 ec38 a20a a7b6 1247 1bb8
00000370: 964c 53b8 527b 86b7 0496 fcb8 cb6e 1ab9
00000380: 9a5b 4eb9 667c e2b8 8d5c cbb8 e5f8 bb38
00000390: d2f2 0e37 6f72 1436 94f7 0ab8 4d7b 0039
000003a0: e8c6 e938 ad2a 5638 1e63 9438 9743 bc38
000003b0: 1b91 b938 f8cc 36b9 c59b c036 00c3 95b7
000003c0: b581 5338 60f9 6135 fbf4 f2b8 b569 de37
000003d0: 3810 50b8 cf4a 12b9 6fcd 8638 ba16 05b9
000003e0: ffb0 28b9 a5f8 4635 8d62 57b9 68fc e238
000003f0: 10fa 34b8 4c0a 13b9 75f2 44b8 9ccf 9638

exp_avg_sq f4 [256]
1.605941e-11 2.0190488e-08 1.1071834e-07 9.2096684e-08 2.5495215e-09 6.567679e-09 5.6407487e-08 1.3508748e-11
3.448625e-07 2.2486381e-07 1.8827431e-07 1.1164458e-09 1.2540846e-07 4.0327688e-08 3.9488938e-07 1.7307383e-07
3.7936474e-07 1.6838277e-07 9.962243e-10 9.626798e-09 3.0077345e-09 6.6396737e-09 5.673221e-09 9.8850336e-08
6.636016e-11 8.713115e-08 2.3795812e-09 9.679618e-09 8.236348e-10 5.0569895e-11 1.789192e-07 1.414591e-08
9.023789e-09 1.601252e-07 2.382731e-08 2.6642775e-08 8.0164455e-08 1.04967086e-07 2.3835048e-07 2.696308e-07
2.7776596e-07 4.2797847e-08 2.2817876e-07 9.6755706e-08 7.231434e-08 1.00142984e-07 1.1869503e-08 1.5773132e-07
2.7424935e-07 2.1722983e-09 5.2176482e-08 2.3902768e-07 2.6176903e-07 1.1000323e-09 1.271118e-08 9.408463e-08
3.894035e-07 1.0709477e-10 3.6350585e-08 4.152249e-07 1.18078795e-07 1.6388184e-07 9.1153744e-08 1.3947515e-07
1.7486167e-07 3.1461545e-07 1.6167599e-08 4.402606e-09 5.1446367e-09 7.61385e-08 5.565029e-07 1.10307985e-08
2.5459312e-10 1.4643906e-07 7.3103365e-08 3.4552066e-08 1.7644316e-08 5.357217e-09 1.3390351e-07 4.445611e-08
1.0738639e-07 3.2632622e-07 2.4528715e-08 6.552089e-08 1.6140043e-09 2.7285213e-07 3.767098e-09 5.47705e-07
8.52011e-09 3.5755792e-09 2.1933697e-10 7.2269806e-08 8.004865e-11 1.6734847e-07 1.2364468e-07 1.4644779e-07
7.7084714e-08 3.5679054e-08 1.5875743e-08 2.1828342e-07 5.5954317e-08 4.4112696e-08 4.270776e-09 8.735899e-09
1.860839e-07 1.9210695e-08 1.2811897e-07 1.5429406e-07 7.5134814e-08 1.5517262e-10 5.972295e-08 1.6147205e-09
4.978779e-10 2.5589503e-07 5.127143e-08 6.870457e-08 3.497302e-08 8.1350436e-08 1.4933916e-07 1.0828492e-08
1.0788827e-07 2.010655e-08 1.643604e-08 1.3232415e-07 1.4654726e-07 2.22403e-08 1.271508e-07 1.5633067e-07
1.7015832e-08 2.1862192e-09 8.722009e-08 1.388444e-09 1.3534218e-07 2.1046365e-07 6.78937e-08 1.2312722e-08
1.7780354e-07 2.2054627e-08 2.74621e-07 2.3777733e-09 1.4599848e-07 2.7745466e-09 1.7516629e-07 1.6206091e-07
1.8563836e-07 5.03976e-10 2.661996e-07 4.2962828e-08 1.2410115e-08 1.8870945e-07 3.1871955e-10 1.2583861e-08
2.5802938e-08 3.4459904e-07 1.9982744e-07 1.418244e-08 4.463016e-08 3.496637e-08 3.9221128e-08 1.39353045e-08
1.6297814e-07 9.7804346e-08 7.465431e-11 7.382544e-08 3.266769e-07 3.22435e-08 2.2879615e-07 1.2786965e-07
2.2883442e-07 2.323878e-09 1.1927273e-07 3.9629376e-07 3.0675523e-08 1.6155244e-08 6.408929e-08 2.1493388e-07
3.1461045e-07 2.565907e-10 9.2163766e-08 5.109444e-07 2.7646007e-07 2.1994595e-08 1.479666e-07 1.4005537e-10
1.3454891e-07 3.165443e-10 2.4377027e-07 3.6748504e-09 1.6831099e-07 1.6500946e-08 2.8939576e-08 6.3943475e-08
2.5998668e-09 3.7191984e-07 2.588985e-07 7.75001e-08 2.6765755e-07 9.260401e-08 8.705458e-08 6.4870946e-08
2.365843e-08 5.5677994e-08 4.725227e-10 1.0140893e-08 7.272669e-09 4.82418e-07 1.14030385e-07 1.2201482e-07
9.293711e-10 1.0928509e-08 2.09635e-08 1.0242819e-07 2.0978055e-07 1.4392518e-10 1.3999096e-08 2.759049e-07
3.7242998e-08 1.785786e-07 9.619932e-10 2.0776035e-08 4.7090484e-08 3.3631493e-09 2.0956448e-07 1.7382769e-07
3.5158112e-07 1.3139038e-07 1.5194205e-07 1.18795796e-07 1.8085309e-09 1.4931166e-10 1.4812166e-08 1.9169903e-07
1.7584036e-07 4.5895856e-08 6.193652e-08 6.8568944e-08 7.26982e-08 3.0085445e-07 2.011054e-09 4.8620095e-09
3.8009624e-08 1.7848455e-10 1.7714135e-07 1.6791006e-08 1.6544172e-08 3.3036406e-07 5.2358548e-08 1.4594757e-07
3.1090104e-07 5.148378e-09 4.1217586e-07 2.0660787e-07 1.6213466e-08 1.1079713e-07 4.5043706e-08 9.5549254e-08
00000000: 9442 8d2d 5a6f ad32 0dc4 ed33 b0c6 c533
00000010: a833 2f31 eaa9 e131 b044 7233 fea5 6d2d
00000020: 8b25 b934 1872 7134 7328 4a34 7271 9930
00000030: 04a8 0634 c334 2d33 2f01 d434 2cd6 3934
00000040: 7eab cb34 b4cc 3434 87eb 8830 1b63 2532
00000050: a0b0 4e31 3023 e431 2eee c231 8c47 d433
00000060: 73ed 912e db1c bb33 0986 2331 694b 2632
00000070: 2666 6230 a468 5e2e ef1c 4034 5f06 7332
00000080: 0b07 1b32 e1ee 2b34 cfac cc32 15dc e432
00000090: e026 ac33 446a e133 48ed 7f34 c6c1 9034
000000a0: dd1f 9534 bbd0 3733 4d01 7534 03c8 cf33
000000b0: 3b4b 9b33 300e d733 a0ea 4b32 db5c 2934
000000c0: 8b3c 9334 7a47 1531 a618 6033 b753 8034
000000d0: 4389 8c34 f22f 9730 5c60 5a32 930b ca33
000000e0: 360f d134 ff80 eb2e e41f 1c33 13ec de34
000000f0: 8192 fd33 7ff7 2f34 4dc0 c333 a3c2 1534
00000100: 9cc1 3b34 6be8 a834 ede0 8a32 bb45 9731
00000110: b4c4 b031 9581 a333 9762 1535 f781 3d32
00000120: ccf6 8b2f dd3c 1d34 00fd 9c33 6666 1433
00000130: 4390 9732 9412 b831 1ec7 0f34 03f0 3e33
00000140: 4b9c e633 ef31 af34 37b3 d232 7db4 8c33
00000150: bad3 dd30 837c 9234 bf6f 8131 0006 1335
00000160: d75f 1232 41b6 7531 de29 712f bf32 9b33
00000170: 6207 b02e 66b0 3334 31c3 0434 433f 1d34
00000180: c589 a533 893d 1933 215f 8832 4a61 6a34
00000190: 6c52 7033 6c76 3d33 25be 9231 e414 1632
000001a0: 5ace 4734 c404 a532 1391 0934 07ac 2534
000001b0: cd59 a133 369d 2a2f 0a41 8033 edec dd30
000001c0: 0bdb 0830 f261 8934 8935 5c33 bd8a 9333
000001d0: 3e35 1633 e0b2 ae33 095a 2034 3608 3a32
000001e0: 34b0 e733 c5b6 ac32 3c2f 8d32 fc14 0e34
000001f0: 9b5a 1d34 f00a bf32 f286 0834 d9db 2734
00000200: 362a 9232 603c 1631 c04d bb33 88d3 be30
00000210: 9352 1134 cffb 6134 f5cc 9133 ed87 5332
00000220: 44ea 3e34 a372 bd32 9f6f 9334 3b66 2331
00000230: c2c3 1c34 57aa 3e31 5815 3c34 f702 2e34
00000240: e253 4734 2988 0a30 32ea 8e34 2186 3833
00000250: 4334 5532 0fa0 4a34 ca37 af2f 6830 5832
00000260: 43a5 dd32 5501 b934 2690 5634 08a7 7332
00000270: 61af 3f33 ee2d 1633 1674 2833 1e68 6f32
00000280: 17ff 2e34 8208 d233 a42a a42e f789 9e33
00000290: 2262 af34 1a7c 0a33 02ab 7534 8b4c 0934
000002a0: 87b5 7534 18b2 1f31 7011 0034 33c2 d434
000002b0: 18c0 0333 c2c5 8a32 76a1 8933 93c8 6634
000002c0: bbe7 a834 ee0f 8d2f 91eb c533 d527 0935
000002d0: 626c 9434 a0ee bc32 c0e0 1e34 15fe 192f
000002e0: 8678 1034 a605 ae2f 88df 8234 a788 7c31
000002f0: f9b8 3434 f7bd 8d32 cd96 f832 4c51 8933
00000300: 57a9 3231 46ac c734 bdfe 8a34 216e a633
00000310: 93b2 8f34 98dd c633 c3f2 ba33 2e4f 8b33
00000320: 7039 cb32 9a22 6f33 d4e2 0130 1e38 2e32
00000330: 13e3 f931 837f 0135 dee0 f433 2e03 0334
00000340: ad76 7f30 17c0 3b32 3913 b432 7ef6 db33
00000350: 0a40 6134 563f 1e2f ad80 7032 1520 9434
00000360: 1cf5 1f33 50bf 3f34 2037 8430 fc76 b232
00000370: 8940 4a33 261d 6731 a504 6134 64a5 3a34
00000380: f1c0 bc34 5014 0d34 8325 2334 ae1c ff33
00000390: 0690 f830 7f2b 242f 9878 7e32 d4d5 4d34
000003a0: a1ce 3c34 071f 4533 f601 8533 2d40 9333
000003b0: 421e 9c33 1f85 a134 d632 0a31 b00e a731
000003c0: 0640 2333 ef3e 442f 3e34 3e34 d03b 9032
000003d0: 051d 8e32 e45c b134 d5e0 6033 c3b5 1c34
000003e0: eae9 a634 9de5 b031 0549 dd34 f0d7 5d34
000003f0: ca45 8b32 5eef ed33 1476 4133 c230 cd33
