ml-agents-release_20/Result/Dino/Dino07/Dino/Dino-978724.pt (torch, 205607 bytes, 21 tensors)

network_body._body_endoder.seq_layers.0.weight f4 [256, 29]
00000000: 8cc2 36bd d654 073e 73ee 963d 3b86 d2be
00000010: 6dbc 91be 0c31 c9be 4891 25be bb3a a53e
00000020: 35da 83bc d5a3 36be 3431 0fbe 32f5 b03c
00000030: 02f0 58bd 99be bcbe e7dc 923d 65b4 933d
00000040: 2f07 38bd 307a 0abe 6769 4fbe a373 163e
00000050: 000d 513c 0f6a dd3d c568 bb3d 886f 31be
00000060: 85ae 0bbe e1e9 32be 477d bbbe 912a b4be
00000070: 846f 4cbe 8ada 84be 31fa 8abc 6a83 1dbe
00000080: afa9 7b3e 70cd 31bd e4c0 ed3e b2f3 163e
00000090: 11f1 abbd 3eb3 453e f4a8 b53d b0c7 6f3c
000000a0: 4466 4b3e 2792 ac3d c1b7 0abe e1a4 37bd
000000b0: 3c7c 0abe dddf 163e 6389 b8bd c3d8 8bbe
000000c0: b533 bf3e 3cd8 f23d 4864 0c3e 272b ac3d
000000d0: ccec 043e ae50 13be bf24 efbc 157b 703e
000000e0: 0aae 483e 9470 a3be 4164 52be 7632 2d3e
000000f0: efe6 073e a242 babd 09d3 963e c701 513d
00000100: c44e 97be ff75 b9bd 5557 cb3d e8cd 283c
00000110: f55d 55be 4dc4 963c b713 043e c1e7 c4bd
00000120: 777c c83d 8ee0 c2bc f27d ecbd 8e96 1dbe
00000130: 2da0 cc3e 69f4 12bd c51a ed3c a36e ef3c
00000140: 3f5a 2e3e 7ee0 78bd fea6 fb3d d6d1 ac3c
00000150: 10b6 cf3e f908 1fbd d306 9b3e 2908 1e3e
00000160: 26e1 bcbd 00b9 0d3e 469b 05be 1bd9 433e
00000170: 82b4 cc3e 5eb0 9dbe 3e0a c4bd 6e32 76be
00000180: cd6c 933d f9c2 f93d c40c 773e 9fa1 8b3c
00000190: 96ad 903e 24c5 9fbd acd1 37be 285f 853e
000001a0: 3433 cfbe ab99 d9bd bef0 543d 0d30 d73e
000001b0: 1a2d b53e 140c c8bc 9fce 60be 19b4 83be
000001c0: 1fc3 013e d5e0 a53e 6f1c b73d 409b 233e
000001d0: 9c8d 003e 65d1 80bd cffe 39be a2de 9bbb
000001e0: dc58 793e c1e0 c33e 6d84 033d 661b 96be
000001f0: ecbc db3d d0c9 3bbe b037 e03d df60 333d
00000200: c4d4 03be 0a79 14bd 674d 67be fb4f 7e3e
00000210: bdc4 333e f0a8 943e 95fd ff3b 4c8e 9c3d
00000220: 6c84 cb3c b2e2 7d3e c5a4 cabe 26b1 413e
00000230: 510a 69be e75e 373e c5eb 3dbe ce04 19be
00000240: a3a7 ad3d 5625 66be afc6 81be 8525 173e
00000250: 553c bd3d 7582 613d 2aea 073e 9be5 0fbe
00000260: 0012 933e 2efc 73bd 4017 97bd 8c89 27be
00000270: e41f 2d3d bfcf 803e e8f6 1e3e 9fea ddbb
00000280: c9cc 3bbd c60c 963d c19e f43d 6981 9e3d
00000290: 5ece 7dbe 80a0 4ebd ff00 22bd cbd0 9b3e
000002a0: 7e4a d8be 3602 c2bc 7e7d 4f3d 40bf 883d
000002b0: 79d2 a63e 7f90 00ba 1598 fa3d a472 a2be
000002c0: 7749 8f3d e270 17bd 14fc 22be 60b5 873e
000002d0: 9c23 e3bd 4f85 783e 8d48 dd3c f5cf b83e
000002e0: e0ca 333e 37e0 31be 110f d63d 9b4a b4bd
000002f0: e244 28be 9cab 7bbc f3a8 48be 0c6e 14be
00000300: b228 74be 5f71 573e c03f a33e 2f4d 963e
00000310: 6346 b2be dbef 9dbe 66b2 60be 99bb c8bd
00000320: def0 0abb 84ad 3d3d 8d16 ca3d 4093 fdbd
00000330: 54cf 3cbe f8a5 c9bd 583e 49bd f1c4 41bd
00000340: 7f17 70bb 2c74 d03e ee7a 2cbe 2fe0 98be
00000350: ee53 be3c 64cb dd3d 78ea 1abe cdd0 a13e
00000360: 1f2b f5bd 94b4 393e 8df1 54be 746d a5be
00000370: 970b bf3d ea49 54bc a3c1 ddbe 3ab5 c6be
00000380: 3117 d83c 4792 d73d a792 4dbe e951 513e
00000390: 7e1f 15be 2256 03bf 8103 96be d611 383d
000003a0: 80c8 f23d 41f7 e03d 1cd6 bb3e 4f16 763d
000003b0: 3a5e df3e 52fd 993e a5ba 9ebe 583c c2be
000003c0: 69ac 15be 33b8 5abe a3c8 a7be 1054 a7be
000003d0: 1c24 a83d c3a6 be3d 2261 3b3e c423 25be
000003e0: 3fd4 46be 1b9a 4e3d 99c0 ae3e 53ee 3fbd
000003f0: bb27 a33e 0493 2d3e 6fda 2ebe 1f9a 16be
-0.044619128 0.13215956 0.07369699 -0.41118035 -0.2846407 -0.39295232 -0.16168702 0.3227137
-0.01609526 -0.17835934 -0.13983613 0.021601293 -0.052963264 -0.36864164 0.0717104 0.07212142
-0.044928726 -0.13523173 -0.20255052 0.1469255 0.012759447 0.10811245 0.091508426 -0.17327702
-0.13640793 -0.1747203 -0.36619017 -0.35188726 -0.19964415 -0.25947982 -0.016965004 -0.15382162
0.24576448 -0.04340881 0.46436226 0.147414 -0.08395589 0.19306657 0.08870116 0.014635012
0.1986323 0.08426314 -0.13546659 -0.044834975 -0.13523954 0.14733835 -0.090105794 -0.27313814
0.37344137 0.1185765 0.1371013 0.08406668 0.12980956 -0.14386246 -0.029192327 0.23484452
0.1959764 -0.31921828 -0.20546056 0.1691378 0.13271688 -0.090947405 0.29457882 0.051027086
-0.2955228 -0.09055709 0.09928767 0.010302998 -0.20836623 0.01840415 0.12898146 -0.09614516
0.09789365 -0.023788717 -0.1154746 -0.15389463 0.39965954 -0.03587762 0.028943429 0.02922756
0.17026614 -0.060760967 0.122877106 0.021096151 0.4056859 -0.038826916 0.30278644 0.154328
-0.09222631 0.13840103 -0.13047513 0.19125788 0.39981467 -0.3079862 -0.09572266 -0.24042675
0.071984865 0.12195391 0.24125963 0.01704484 0.28257436 -0.078012735 -0.17951077 0.2604916
-0.40468752 -0.10625013 0.051987402 0.42028847 0.35385972 -0.024419822 -0.2195382 -0.2572334
0.12672089 0.32398096 0.0894097 0.15977192 0.1255402 -0.06289939 -0.18163608 -0.0047567645
0.24350303 0.3825741 0.032108713 -0.29317778 0.10729393 -0.18338704 0.109481215 0.043793555
-0.12874132 -0.036248244 -0.2258812 0.24835198 0.17555518 0.2903514 0.0078122118 0.076443285
0.024843417 0.24793509 -0.39578834 0.18915233 -0.22757842 0.17907296 -0.1854697 -0.14943239
0.0847924 -0.2247518 -0.25346896 0.14760406 0.09240023 0.055056054 0.1327292 -0.14052431
0.2872467 -0.05956667 -0.073774815 -0.16361064 0.04226674 0.25158498 0.15523875 -0.006772354
-0.045849595 0.07326655 0.119443424 0.07739527 -0.24785754 -0.050446033 -0.03955173 0.30432734
-0.42244333 -0.023682695 0.050656788 0.06677103 0.32582453 -0.0004904344 0.122360386 -0.3172809
0.06996434 -0.036972888 -0.15916473 0.26505566 -0.11090776 0.24269603 0.027012134 0.3609616
0.1755786 -0.17370687 0.104520924 -0.08803292 -0.16432527 -0.015360739 -0.19595699 -0.14495105
-0.23843649 0.21039341 0.31884575 0.2935576 -0.34819326 -0.30847058 -0.21943054 -0.098014064
-0.0021200697 0.046308056 0.098675825 -0.12381601 -0.18438464 -0.09846109 -0.04913172 -0.04730696
-0.0036635099 0.40713632 -0.16843769 -0.29858539 0.02323338 0.10829809 -0.15128505 0.31604615
-0.11971115 0.18135291 -0.2079527 -0.3231007 0.093283825 -0.012957076 -0.43311796 -0.3881014
0.026378246 0.10525947 -0.20075475 0.20441402 -0.14562795 -0.51303303 -0.29299548 0.044938885
0.118546486 0.1098466 0.3668679 0.06007987 0.43626577 0.3007608 -0.31001773 -0.37936664
-0.1461655 -0.21359329 -0.3277026 -0.32681322 0.08210012 0.09309151 0.18298772 -0.16126925
-0.19416903 0.050439935 0.34131315 -0.046858143 0.3186625 0.16950613 -0.17075513 -0.1470723

network_body._body_endoder.seq_layers.0.bias f4 [256]
00000000: 6ecb 2bbd 5a62 bd3a acec 8a3c c22a 9e3c
00000010: c87c a33c 8d3a 1a3a af0c 9c3c c602 5fbc
00000020: 25f4 453d 47a8 e13c f04c fa3c 8c98 d5bb
00000030: 088f a33c 3e77 fe3c 781e 1c3d 3df9 0a3d
00000040: e43a ff3d 7265 003d d17e 03bc 5107 a83c
00000050: 9472 da38 2a9a 303d 5fca 443d 8147 563d
00000060: d2fd 1a3c 5efc 5d3d 140a 1ebb bff9 3dbb
00000070: c650 923b 7c40 4e3a e423 603d f474 673a
00000080: 4cb8 f439 bbf6 153d b796 8c3b 988a 88ba
00000090: bb1d 7d3c b84a ba3c 2a3a eb3c 8451 953d
000000a0: 09f5 d43d 04ef dd3b 1e21 833d 298a 8b3c
000000b0: 7d59 0f3c b4c4 673d 9de9 133c 5778 883d
000000c0: e840 d23c 15c0 113b b8ac 1e3d 5e00 e03c
000000d0: f38d 0c3d 3f68 7fbc f65b 553d e368 453c
000000e0: af9e 8d3d 636d ad3c 1e2e cd3b f40e 233d
000000f0: 1ba2 063d a999 e43c f89b 883c fb2f 9e3c
00000100: c149 4b3d e901 183d 8999 e63b 1102 d53c
00000110: a31a 4c3b fce9 513c 4337 783d 9f19 c3ba
00000120: 9286 66bc 6d26 583d d95f 503c b1f9 353d
00000130: 6110 e93b b9ee 013d 937b dc3c 4b8c 793c
00000140: 3596 863c 5bb6 903d ee0e 003d 93cc 293c
00000150: c712 4b3b 7117 273d 37d5 0ebc 4f39 973d
00000160: db04 e43c cfad 9ebb 2aca 213c 8afb 7c3d
00000170: aa86 a4b9 39f2 903d 5689 583d 013b 053d
00000180: 44cd 3a3c 21c0 923b cc80 833d 4637 d93c
00000190: c551 3a3c 641f 3c3c 718d d93c 6819 8bbb
000001a0: 7de9 4b3d 28da ca3b bb54 9d3c 060e d03c
000001b0: b65e e23c d70c e73c 2901 5d3c 3f46 14bc
000001c0: 948e fc3c 258e 003d 011e a03b 19c0 dc3b
000001d0: 4851 f23b 6180 453c 2bd3 ca3c 8710 fc3b
000001e0: efe3 f93c aaca bcb8 1948 4839 fd2b f53c
000001f0: 2df4 053d 0943 213b 21e7 a43c 1a1b 873c
00000200: 07b8 193c b588 9cbb 6595 d63c d8ec 3b3d
00000210: f1b9 393d 4caf 943d 95d9 8c3b 0e33 173c
00000220: 2a1e 6a3d 9965 e33c 025d 343d 4b96 92bb
00000230: 82d3 ba3c 1ef9 d93a ace1 0a3d 2f63 8a3c
00000240: 2adb 5b3d 0f22 923c 51ca f43c d90e c63c
00000250: 62b2 3a3c 3a5d 0f3d e1a2 0cbb 532d cd3b
00000260: 5325 a03d aff8 3d3d 17b6 d93c bc29 e33b
00000270: 8296 263d 17d7 423c 54c4 993d 417d f53a
00000280: 915a c03c 092c f53c 426d 003b a927 4b3d
00000290: 817d 313d 0080 9f3d 122c 513d 500e 6f3d
000002a0: 5505 4e3d 0122 31bb bf6d 9e3c db24 2d3d
000002b0: a002 b43c 595c 983b 6157 a13c d553 153d
000002c0: 015f 0a3e 1c10 673c 9b45 a53c ad01 933d
000002d0: fb32 5d3d e8d5 a53b d5c5 253d 0f4d 38bb
000002e0: d52a 9d3c b6ce e83c cb89 373d a9df 093d
000002f0: 3e09 9c3c 09a1 3c3c 23aa 933b 760f e13c
00000300: 6b23 48bc 7d9f 153d a360 013d b2fb 8b3d
00000310: 0f4a bc3d c9fc 973d d6a5 8e3c 0569 933c
00000320: 361d a63b c1a2 e13c cb86 8dbb 7ed3 a8ba
00000330: 796e 193d cf33 2a3d 1f1a 463c ae22 883c
00000340: 71d8 943c 9e59 133d bf1b 153d e9f8 713c
00000350: 5cee 523d 7325 03ba 2606 e23a 3c9b 2e3d
00000360: f155 303c 5f19 0a3d 9c47 6fba 98f0 ed3b
00000370: c16e d13b 571e ffba 70a8 b23c 6672 243d
00000380: f11d 073d 58cb bc3c aeb4 b13c a9be 473d
00000390: 5ffc 573c ac37 f8bb 8316 803b 53cd f23c
000003a0: 89c1 eb3c 4967 b23b 6103 e63c ed70 cd3c
000003b0: f764 4b3d 9102 463d e0fe 5cbc 855a e43a
000003c0: 015f 0a3c d655 e8bc 4953 d23c fb66 8a3d
000003d0: b57e 643d 5a08 eb3c 85b5 763b dba5 3d3d
000003e0: ac5f 263d 921c b5ba fdc2 5b3d c01c 063d
000003f0: 7524 213c bb90 9a3d 5fdf 513c dd02 9e3d
-0.041942053 0.0014448867 0.016958557 0.019307498 0.019956961 0.00058833585 0.019049017 -0.013611501
0.048328537 0.027546061 0.030554265 -0.006518429 0.019965664 0.031062718 0.038114995 0.0339291
0.12462404 0.031346746 -0.008025841 0.020511301 0.00010416392 0.043115772 0.04804456 0.052314285
0.00945993 0.054195754 -0.0024114894 -0.0028987972 0.0044651954 0.0007867885 0.054721728 0.0008829378
0.00046676619 0.036612254 0.0042904275 -0.0010417281 0.015448983 0.022740707 0.028714258 0.072909385
0.10398299 0.0067728776 0.06402801 0.017033653 0.008749363 0.056584075 0.009027866 0.06663578
0.025665715 0.0022239734 0.038738936 0.027343925 0.03431506 -0.015588819 0.052089654 0.012048933
0.06915032 0.021170324 0.006261601 0.039809182 0.03286944 0.027905302 0.016675934 0.019309988
0.049630884 0.037111197 0.007037346 0.026001962 0.0031143806 0.012812134 0.060599577 -0.0014884955
-0.01407017 0.05277102 0.012718164 0.044427577 0.007112548 0.031721804 0.026914394 0.015231202
0.016429046 0.070660315 0.031264238 0.010363716 0.0030986534 0.04079384 -0.008717827 0.073839776
0.027834347 -0.004842497 0.00987486 0.061763324 -0.0003138085 0.0707745 0.05286535 0.032526974
0.011401478 0.00447847 0.064210504 0.026515614 0.011372034 0.0114820935 0.026556702 -0.004244972
0.04978322 0.006190557 0.019205442 0.025397312 0.027633052 0.028204365 0.013489046 -0.009049951
0.030829705 0.03138556 0.0048863892 0.006736767 0.0073949434 0.012054534 0.024758896 0.0076924
0.030504195 -9.002288e-05 0.00019100345 0.029928202 0.032703567 0.0024606606 0.020129742 0.016492415
0.009382254 -0.004777039 0.026194284 0.04588017 0.045343343 0.07259998 0.0042983987 0.009228481
0.057157673 0.027758406 0.04403401 -0.0044734827 0.022805933 0.0016630029 0.033906624 0.016892998
0.053675808 0.017838506 0.029881628 0.024177002 0.011395069 0.035001017 -0.0021459388 0.0062615066
0.07819619 0.04637974 0.026576085 0.0069324654 0.04067088 0.011892102 0.0750815 0.0018729345
0.023480685 0.029928224 0.0019596373 0.04959837 0.04333258 0.07788086 0.05106742 0.05836326
0.050298054 -0.0027028325 0.01933944 0.042271476 0.021973908 0.0046496806 0.019694986 0.0364569
0.13512804 0.014102962 0.020174792 0.07178054 0.054003697 0.0050609 0.04047187 -0.0028122102
0.019185463 0.02841888 0.044809144 0.033660565 0.019047376 0.011513003 0.004506366 0.027473193
-0.012215476 0.036529053 0.0315863 0.068351164 0.09193813 0.07421262 0.017413061 0.017994413
0.0050694 0.027543427 -0.004319047 -0.0012880412 0.03745887 0.041553315 0.012091189 0.016618099
0.018169614 0.035974137 0.036403414 0.014768817 0.05149685 -0.0005002834 0.0017244264 0.04262851
0.0107626775 0.033715602 -0.0009127797 0.007261347 0.0063913767 -0.0019463998 0.021808833 0.04014816
0.03298754 0.02304618 0.0216926 0.048765812 0.013182729 -0.007574996 0.0039089336 0.029638922
0.028778808 0.0054444415 0.028077783 0.025078261 0.049656834 0.04834229 -0.013488501 0.0017421996
0.008445502 -0.028361242 0.02567448 0.06757923 0.0557849 0.028690506 0.0037644815 0.04630075
0.040618584 -0.0013817719 0.053652752 0.032742262 0.009835352 0.075471364 0.0128096035 0.0771539

action_model._discrete_distribution.branches.0.weight f4 [2, 256]
00000000: b503 34bb aee3 d5bc 3598 5fbd 4fab 6ebd
00000010: 912d bfbc e63d b1bc e013 5ebd 65e2 c1bb
00000020: d844 d9bd 5c2b c9bd 4578 93bd 4c69 10bc
00000030: dc0d 66bd 6f83 423d 8f96 00be 22d1 cbbd
00000040: c863 0abe d6a0 d1bd 44e9 1bbb 1935 08bd
00000050: 5661 eb3c 7d75 d1bc 25fd 9fbc 35de a63d
00000060: 4205 0aba 2874 93bd b9cb 393c 372f 8abc
00000070: 5bf1 bc3b 9115 4f3c 3ec6 c1bd 8ecb acbc
00000080: da09 0abc b81f 9e3d b062 b23c 0427 98bc
00000090: 488c 083d bdc5 693d e1c0 b4bd 4f8d f83d
000000a0: 9ad4 efbd ecaa 21bd aa2a d63d df6a b7bd
000000b0: 2713 293d 5f27 c1bd 311d ad3c 4b66 d7bd
000000c0: ef86 eebd ae3e 49bc 7d8d 7d3d 924c b0bd
000000d0: 5f26 c7bd 2bb9 5e3c c6e5 0ebd ddb4 1e3d
000000e0: 2fb9 04be 4d39 f5bb b27c ebbc dbcf eabd
000000f0: bb6e bbbd d8a4 babd 4dc6 303d e2cf 57bd
00000100: 5b57 afbd 96f1 a7bd 8ca4 f4bc 887c 91bc
00000110: 4ab0 b0bc e6f9 273d f12b 0a3e eade 82bc
00000120: 8dde 48bc 13f2 b6bd abe4 3abd 0418 35bd
00000130: c3df a13c 58b1 6abc 538b 9f3d 298e 78bd
00000140: f43b 5dbd 5147 f5bd 0ac6 453d e17a 1a3d
00000150: a0da 033b 90b3 ed3d da11 16bc a78a 16be
00000160: 26c4 0bbd 2cc1 10bc a23d 083b 2fcd 96bd
00000170: 8940 07bc 9368 cfbd 8fd5 c73d b2f2 8c3d
00000180: 3f63 2e3d 2fd6 05bd be54 20bd 2b73 94bd
00000190: 0f50 30bd e982 36bd f1b2 173d 6593 8b3c
000001a0: 0bf2 d5bd f3ed bfbc f622 aabd 5471 91bd
000001b0: e7db 9fbd 04c8 a93b 9f1a 463d c796 70bc
000001c0: 537a 173c 2ee3 afbd 5bec e43c 5cb2 3f3d
000001d0: 316a 2abd 1c05 1fbd c7c6 a7bd a996 9bbc
000001e0: f85b 9dbd 3294 b8bc e3db 223b e8b2 b9bd
000001f0: 044d 80bd 1c28 cdbc 0e5d 463d 3c53 403d
00000200: 2039 9e3c 24c5 83bc 2621 6ebd 3c9c d03b
00000210: fc33 d43d 7d22 e7bd 09d9 1dbd 4867 aebc
00000220: 86dd d03d 6061 4cbd a2f6 c8bd 327c 3f3c
00000230: 40ce 82bd 3fda bcbc 7dc0 bdbd 0574 a5bd
00000240: fff6 c7bd 5653 423c 316c bbbd 2cb2 5b3d
00000250: 8d40 993c 4d4a de3d b9ee 89b8 c531 8d3c
00000260: 4dc1 713d 82b7 eb3d e16c a8bd ddda debb
00000270: d71f 6e3d ef9b 28bd c52c 6a3d 4da7 e7bc
00000280: c782 513d 6156 af3d f6ff 7ebb 8237 803d
00000290: f5a4 00be 4d15 83bd a9b6 d13d 9c5b ca3d
000002a0: 5cf6 ecbd 8032 3ebc 5601 a4bd 6420 de3d
000002b0: 4d78 70bd b8f3 e4bc 64e9 4ebd da21 ab3d
000002c0: 7751 fb3d 61e2 13bb 8fd7 8dbd c0c0 1d3e
000002d0: e4c6 ddbd faa8 c03c 1d74 c7bd 5ca7 eeba
000002e0: dbf6 853d ff62 44bc 0368 c4bd 4094 efbc
000002f0: dfbe 763d e6d5 ed3c faa5 e63c 8b61 94bd
00000300: 9fb1 5fbc b8d7 e43d 8e83 c23d 6f2a aa3d
00000310: c192 ebbd 734b 7a3d ffb2 533d 6e17 7dbd
00000320: 6458 05bd 3658 8a3d 14f9 c0bb 7f79 2cbc
00000330: 35a8 ddbc 20e2 e23d 983b 1c3d 929a c2bd
00000340: 1966 8839 d5b7 f7bc b5c0 393d c373 83bd
00000350: 572b f9bd 2da1 bf3b dd88 a1bc 90e3 fc3d
00000360: 9c4f 34bd a7ce adbd 4454 be3b 4e2a b63c
00000370: 250c f33c 7ca7 313b 2d04 963d d277 c03d
00000380: f304 003e ce02 873d f732 853d 72d2 b8bd
00000390: 15f0 86bc d7bf 1fbc 87fa a93c 7c61 e0bd
000003a0: 35b9 d0bd eed3 0bbd 84ca 97bd 8b48 72bd
000003b0: 5d97 97bd f6d9 ed3d 59d5 4cbb 10a7 9f3c
000003c0: 929d 22bd b968 1fbc eba7 963d c0d0 58bd
000003d0: 92a3 393d 397f 9f3d 58bc 11bd cd8b b43d
000003e0: 355c d53d a8b4 acbb 550c 053e 5fc4 b9bd
000003f0: 79c0 103d 3b96 ba3d 66b2 1f3d dc00 8ebd
-0.002746803 -0.026109543 -0.054588515 -0.05826884 -0.023337157 -0.02163596 -0.054218173 -0.005916881
-0.10608834 -0.09822723 -0.07200674 -0.008814167 -0.05616556 0.047488626 -0.12557434 -0.09951998
-0.13514626 -0.10235755 -0.002379016 -0.033253763 0.028732937 -0.025568718 -0.019529888 0.081478514
-0.00052650657 -0.071998894 0.011340075 -0.016868217 0.0057660765 0.012639419 -0.0946164 -0.021093156
-0.0084252 0.077208936 0.021775573 -0.018573292 0.033336908 0.057073344 -0.08825851 0.121363275
-0.117104724 -0.039469644 0.10457356 -0.08955931 0.04127803 -0.094313376 0.021132084 -0.10517558
-0.1164683 -0.01228301 0.061902512 -0.08608355 -0.097241156 0.013593952 -0.034887098 0.038746703
-0.12961267 -0.0074836374 -0.028745983 -0.114654265 -0.091519795 -0.09113473 0.043157864 -0.052688487
-0.085615836 -0.08200376 -0.029863618 -0.017759576 -0.021568436 0.041009806 0.13493325 -0.015975434
-0.0122600915 -0.08932891 -0.04562823 -0.044212356 0.019760018 -0.014324509 0.07790246 -0.06068245
-0.054012254 -0.11976493 0.048284568 0.037714843 0.0020119324 0.116065145 -0.00915953 -0.14701329
-0.03412261 -0.008835118 0.002078869 -0.073633544 -0.0082551325 -0.10127368 0.0975753 0.06882228
0.042575117 -0.032674965 -0.039143316 -0.07248529 -0.0430451 -0.04455844 0.037035886 0.017038057
-0.10446557 -0.023428893 -0.083074495 -0.07101694 -0.07805615 0.0051813144 0.04836523 -0.014684386
0.009245473 -0.08588253 0.027944734 0.046800956 -0.04160518 -0.038823232 -0.08192211 -0.018992739
-0.07683557 -0.022531603 0.00248503 -0.09067327 -0.062646896 -0.02504354 0.048428588 0.04695438
0.019314349 -0.016085215 -0.05813708 0.006366281 0.10361478 -0.11285875 -0.03853706 -0.021289483
0.10198502 -0.04989755 -0.098126665 0.011687325 -0.06386995 -0.023053287 -0.0926523 -0.080787696
-0.09763908 0.011860689 -0.09151495 0.053636715 0.018707538 0.108540155 -6.5771346e-05 0.017235646
0.059022237 0.11509611 -0.08223892 -0.006800993 0.058135834 -0.041164335 0.0571716 -0.028278017
0.05115011 0.08561397 -0.0038909889 0.06260587 -0.12562926 -0.06400547 0.10239918 0.09880754
-0.11570427 -0.01160872 -0.08008067 0.10846022 -0.058708478 -0.027948245 -0.050515547 0.08356066
0.122713976 -0.0022565352 -0.0692588 0.1540556 -0.10828951 0.023518074 -0.09738944 -0.0018207836
0.065412246 -0.011986493 -0.09590151 -0.029245496 0.060240623 0.029032659 0.028155316 -0.07245167
-0.013653188 0.111739576 0.09497748 0.08308875 -0.115026005 0.06110711 0.051684376 -0.061789922
-0.032555 0.06755106 -0.0058890674 -0.010527014 -0.027057746 0.11078286 0.03814277 -0.09502138
0.0002601601 -0.030239025 0.045349795 -0.06418564 -0.121664695 0.005848071 -0.019718582 0.123480916
-0.044021234 -0.084866814 0.005808385 0.02223697 0.029668877 0.0027107885 0.07325015 0.09397854
0.12501888 0.06592332 0.065038614 -0.09024514 -0.016471902 -0.009750328 0.020749344 -0.10956094
-0.101915754 -0.03413766 -0.07411674 -0.059151214 -0.07401917 0.116138384 -0.0031255095 0.019488841
-0.039701052 -0.009729558 0.073562466 -0.052933455 0.04532201 0.07787938 -0.03558001 0.088157274
0.10417978 -0.0052705593 0.12992986 -0.09070658 0.035339806 0.091106854 0.038988493 -0.06933758

action_model._discrete_distribution.branches.0.bias f4 [2]
00000000: 9877 8f3a 5d77 8fba
0.0010945676 -0.0010945607

exp_avg f4 [256, 29]
00000000: e59d bc34 4fd2 adb3 137e 55b4 137e 55b4
00000010: e59d bc34 728e 9cb3 0620 5eb4 2e70 56b4
00000020: e59d bc34 0931 f1b2 8f20 87b4 4fe5 6ab4
00000030: 2b9c bc34 83da acb4 f344 3533 9b48 0cb4
00000040: 919a bc34 260b f3b2 99ff 86b4 8fad 79b4
00000050: f493 ed33 2b36 afb3 8e96 3633 1302 d0b3
00000060: b379 d534 4f3f a0b3 99ff 86b4 5d9f 7eb4
00000070: 0000 0000 ec6d 8b36 2f14 9ab6 73b1 bf37
00000080: 73b1 bf37 ec6d 8b36 7705 aab6 c3ad c337
00000090: bb25 c037 ec6d 8b36 484e 7cb6 30b6 b837
000000a0: d8e0 bc37 0576 8b36 daa0 9837 e18b 8933
000000b0: 0684 8937 9a63 8b36 9c7f 7cb6 f0be b837
000000c0: 9f23 bb37 9495 e237 4fa1 9db6 2fa2 da33
000000d0: 1143 5d37 ffb2 a136 318f 94b6 f0be b837
000000e0: aa91 ba37 0000 0000 0d19 8437 620c 2fb7
000000f0: 6c04 3338 6c04 3338 0d19 8437 2f1e 41b7
00000100: dc88 3738 6385 3338 0d19 8437 dcc8 15b7
00000110: 88b3 2c38 348f 3038 271e 8437 2164 0838
00000120: 3aab 92b4 c51e 0038 0617 8437 e7d7 15b7
00000130: 52b8 2c38 cef0 2e38 7181 7638 348c 31b7
00000140: d18b 50b4 8693 cd37 9c08 8f37 15bb 2bb7
00000150: 52b8 2c38 0b66 2e38 0000 0000 cfd4 7f37
00000160: fd6d 72b7 d593 6f38 d593 6f38 cfd4 7f37
00000170: 0281 84b7 d638 7538 e93a 7038 cfd4 7f37
00000180: 0464 71b7 5b51 6f38 867f 6f38 81df 7f37
00000190: b0b9 3638 8d00 71b5 6cc7 2a38 64cf 7f37
000001a0: 9368 71b7 d353 6f38 a16d 6f38 6504 9a38
000001b0: 878b 76b7 5118 5eb5 c58b 0838 7279 7f37
000001c0: a212 71b7 d353 6f38 196b 6f38 0000 0000
000001d0: 5a8c 9f36 a426 b4b6 1a6b 1937 1a6b 1937
000001e0: 5a8c 9f36 64b5 bbb6 7d32 1d37 7bb9 1937
000001f0: 5a8c 9f36 f694 acb6 46a2 1537 e954 1837
00000200: ff8f 9f36 5305 7836 ae52 aa33 76a2 dc36
00000210: 748b 9f36 41aa acb6 5dad 1537 fc37 1737
00000220: ee12 6837 fb03 b5b6 8a81 c633 f6e5 b136
00000230: b710 a536 862f b2b6 5dad 1537 7fe3 1637
00000240: 0000 0000 3f38 8436 5358 73b6 b879 9237
00000250: b879 9237 3f38 8436 d303 87b6 a2cf 9537
00000260: 22e0 9237 3f38 8436 1a5c 3eb6 30da 8b37
00000270: 3cfd 8f37 be3e 8436 bd3c 6437 8a58 7734
00000280: c959 5337 6533 8436 2290 3eb6 eae1 8b37
00000290: 8542 8e37 752a b237 9545 79b6 75be 8634
000002a0: 87a6 2a37 824d 9a36 59c4 6ab6 eae1 8b37
000002b0: c1b1 8d37 0000 0000 91e3 4337 4f63 55b7
000002c0: 38f7 4b38 38f7 4b38 91e3 4337 1d69 69b7
000002d0: adf8 5038 9094 4c38 91e3 4337 2160 49b7
000002e0: 71f6 4838 d8ee 4a38 a0ed 4337 d4f4 1538
000002f0: 2913 2734 f198 1238 4ae2 4337 e668 49b7
00000300: f1f8 4838 461b 4a38 6fe8 7c38 c5fa 58b7
00000310: ec8d 6d34 5cf7 eb37 cfbb 4d37 6a42 53b7
00000320: f1f8 4838 30d8 4938 0000 0000 8d1f 8034
00000330: bf16 c9b4 fe91 a0b4 fe91 a0b4 8d1f 8034
00000340: be5e c4b4 fa49 a5b4 3861 a1b4 8d1f 8034
00000350: acc2 97b4 0de6 d1b4 b17f b2b4 701e 8034
00000360: 310a 4eb5 34b3 c933 14fb 48b4 e929 8034
00000370: 47f4 97b4 ccbe d1b4 3aad bfb4 2e44 25b4
00000380: b901 c9b4 8c6a c833 95c8 0db4 679c af34
00000390: c666 c7b4 ccbe d1b4 fb36 c4b4 0000 0000
000003a0: 5f00 0e38 f4cd c7b7 2a4d ac38 2a4d ac38
000003b0: 5f00 0e38 472a dcb7 3d64 b138 96df ac38
000003c0: 5f00 0e38 bf71 c1b7 1eb6 aa38 92b4 ab38
000003d0: bc05 0e38 de4c 7838 7ab4 67b5 f883 7638
000003e0: 6e01 0e38 6f73 c1b7 04b6 aa38 ef48 ab38
000003f0: 0925 f538 830f c9b7 93a6 43b5 f193 4538
3.5132612e-07 -8.094195e-08 -1.9883036e-07 -1.9883036e-07 3.5132612e-07 -7.290227e-08 -2.0687011e-07 -1.9971114e-07
3.5132612e-07 -2.8078391e-08 -2.51694e-07 -2.187637e-07 3.5131356e-07 -3.2196485e-07 4.2205055e-08 -1.306493e-07
3.513019e-07 -2.8293993e-08 -2.5145417e-07 -2.3253072e-07 1.1063085e-07 -8.1589256e-08 4.2512106e-08 -9.686132e-08
3.976289e-07 -7.4620964e-08 -2.5145417e-07 -2.371357e-07 0.0 4.1553194e-06 -4.5919073e-06 2.2851606e-05
2.2851606e-05 4.1553194e-06 -5.067031e-06 2.3326726e-05 2.2905753e-05 4.1553194e-06 -3.7596492e-06 2.2019347e-05
2.2516047e-05 4.156262e-06 1.8194714e-05 6.4050035e-08 1.639315e-05 4.154118e-06 -3.7625205e-06 2.2023421e-05
2.2308725e-05 2.7010952e-05 -4.6977434e-06 1.0180917e-07 1.3188242e-05 4.819012e-06 -4.4274134e-06 2.2023421e-05
2.2240758e-05 0.0 1.5747291e-05 -1.0433696e-05 4.2681044e-05 4.2681044e-05 1.5747291e-05 -1.1510724e-05
4.375806e-05 4.280115e-05 1.5747291e-05 -8.927858e-06 4.1175197e-05 4.209504e-05 1.5749667e-05 3.251818e-05
-2.7319203e-07 3.0546234e-05 1.5746347e-05 -8.931361e-06 4.1179657e-05 4.17091e-05 5.8771522e-05 -1.0582666e-05
-1.9422374e-07 2.45066e-05 1.7050937e-05 -1.0235953e-05 4.1179657e-05 4.1579868e-05 0.0 1.5248733e-05
-1.4449933e-05 5.711972e-05 5.711972e-05 1.5248733e-05 -1.57957e-05 5.8465484e-05 5.7275323e-05 1.5248733e-05
-1.4388006e-05 5.705781e-05 5.7100806e-05 1.5251223e-05 4.3565116e-05 -8.97803e-07 4.0716885e-05 1.5247471e-05
-1.43890675e-05 5.7060108e-05 5.708414e-05 7.344111e-05 -1.4695229e-05 -8.273683e-07 3.2555097e-05 1.5227461e-05
-1.4369058e-05 5.7060108e-05 5.7081783e-05 0.0 4.7549083e-06 -5.3689164e-06 9.144447e-06 9.144447e-06
4.7549083e-06 -5.594151e-06 9.369684e-06 9.162696e-06 4.7549083e-06 -5.143341e-06 8.918874e-06 9.079676e-06
4.7553326e-06 3.695798e-06 7.931281e-08 6.575424e-06 4.7548037e-06 -5.1458196e-06 8.921456e-06 9.013336e-06
1.3832685e-05 -5.3946837e-06 9.2436565e-08 5.301782e-06 4.919329e-06 -5.310346e-06 8.921456e-06 8.993665e-06
0.0 3.9404545e-06 -3.6261233e-06 1.7461236e-05 1.7461236e-05 3.9404545e-06 -4.0237587e-06 1.785887e-05
1.7508926e-05 3.9404545e-06 -2.8365816e-06 1.6671693e-05 1.716485e-05 3.9412107e-06 1.3604001e-05 2.3035878e-07
1.2597485e-05 3.9398897e-06 -2.8396103e-06 1.667529e-05 1.6958695e-05 2.1239024e-05 -3.7144393e-06 2.509802e-07
1.0171562e-05 4.5985807e-06 -3.4983007e-06 1.667529e-05 1.6891283e-05 0.0 1.167589e-05 -1.2718911e-05
4.8629212e-05 4.8629212e-05 1.167589e-05 -1.3912356e-05 4.9822662e-05 4.877575e-05 1.167589e-05 -1.2002915e-05
4.7913232e-05 4.8382994e-05 1.1678232e-05 3.5752382e-05 1.5560057e-07 3.495155e-05 1.1675593e-05 -1.2004957e-05
4.791556e-05 4.8185953e-05 6.0297953e-05 -1.293299e-05 2.2123976e-07 2.8129369e-05 1.226268e-05 -1.2592043e-05
4.791556e-05 4.8123475e-05 0.0 2.3864814e-07 -3.7455717e-07 -2.9908546e-07 -2.9908546e-07 2.3864814e-07
-3.657678e-07 -3.078747e-07 -3.0059323e-07 2.3864814e-07 -2.8267584e-07 -3.9096668e-07 -3.324799e-07 2.3864004e-07
-7.675581e-07 9.392389e-08 -1.8717793e-07 2.3872352e-07 -2.8303677e-07 -3.9068107e-07 -3.570256e-07 -1.5391626e-07
-3.744042e-07 9.3326065e-08 -1.320462e-07 3.2710088e-07 -3.7141416e-07 -3.9068107e-07 -3.6547848e-07 0.0
3.3855784e-05 -2.3818553e-05 8.215972e-05 8.215972e-05 3.3855784e-05 -2.624573e-05 8.4586885e-05 8.243245e-05
3.3855784e-05 -2.306036e-05 8.140154e-05 8.187549e-05 3.386078e-05 5.9199396e-05 -8.6316834e-07 5.8773876e-05
3.385677e-05 -2.3061146e-05 8.140135e-05 8.1675e-05 0.00011689409 -2.396829e-05 -7.288556e-07 4.710624e-05

exp_avg_sq f4 [256, 29]
00000000: 4f95 db2b 68e9 252b 66f9 822d 66f9 822d
00000010: f3dc dc2b 5fdf 922c 42d5 472d 50f7 552d
00000020: a0e6 db2b e222 cf2b a455 7a2d 72ac 7b2d
00000030: e0dd e02b 763b c62c b7e9 252d 47df 382d
00000040: 83e0 e82b 5a9d b82b 6d64 772d f43b 782d
00000050: 78e0 092d c0c5 522c 2738 db2c 3c87 252d
00000060: 9e90 162c a747 692b 6d64 772d 97db 772d
00000070: 0000 0000 6e30 132f 78fe 6c30 337a b032
00000080: 337a b032 7369 352f deab 6c32 5f75 2c32
00000090: 6e46 4432 9828 132f 6111 8230 5c39 b032
000000a0: 7920 b032 d157 c52f 4f7c 8c32 ef50 a131
000000b0: c0b6 ff31 153d 202f 11ec 7e30 d2d2 af32
000000c0: 94da af32 5aab 6832 b50e a031 519e 5431
000000d0: dd89 d631 674c 512f f811 7230 d2d2 af32
000000e0: 5cd8 af32 0000 0000 887e 1131 3278 a431
000000f0: c51c f033 c51c f033 4ba3 2831 d6bf a733
00000100: b7de 5733 f747 7c33 6d76 1131 91f2 b231
00000110: 0fc3 ef33 f5a5 ef33 22fb 7431 9e28 b733
00000120: 57cd f732 3a3b 2f33 1bb5 1331 9218 af31
00000130: d870 ef33 666e ef33 5171 9d33 b641 ca32
00000140: bbbd ab32 f831 1733 4bb4 2231 14af a631
00000150: d870 ef33 936d ef33 0000 0000 3f1a cc30
00000160: a604 da31 a1b9 c133 a1b9 c133 9a29 d830
00000170: 8738 b033 7318 ce32 dac5 1933 7e19 cc30
00000180: d557 da31 86b4 c133 f7b4 c133 071d 0731
00000190: 7a83 c033 a9f5 bb31 6e74 9732 4147 cc30
000001a0: 2102 da31 3fa7 c133 18ab c133 1563 ab33
000001b0: a910 8d32 49e5 3831 0931 5f32 bc42 cc30
000001c0: c2ff d931 3fa7 c133 a5aa c133 0000 0000
000001d0: d017 032f 042b 2d30 38c8 0931 38c8 0931
000001e0: 521d 042f d91f 2031 9fa7 de2f bc12 4530
000001f0: 3317 032f 5ef5 2d30 f2c0 0931 31b9 0931
00000200: 175e 082f 12ff 2831 1826 c92e 8609 bd2f
00000210: 170e 032f d8f9 2d30 4899 0931 2e9e 0931
00000220: d3c4 0131 6ef1 6930 72bd 132e 96cd 872f
00000230: 95be 032f 7795 2d30 4899 0931 239d 0931
00000240: 0000 0000 7aa3 bd2e 3900 af2f 0931 e131
00000250: 0931 e131 e6d0 c52e 6615 b831 12e4 2131
00000260: f225 5531 cba0 bd2e 1223 c02f 4df8 e031
00000270: 0edf e031 1745 db2e 0b85 cb31 2931 8b30
00000280: f511 0031 b5d6 c42e c971 bd2f 8bb1 e031
00000290: 18ac e031 9fe9 bf31 905c 5730 277b 5930
000002a0: 5162 d230 a064 ea2e b705 b32f 8bb1 e031
000002b0: a2ac e031 0000 0000 9578 5e30 96e6 9331
000002c0: e211 6b33 e211 6b33 1ea2 6730 48a3 5833
000002d0: 2e23 6b32 99cf b832 ed77 5e30 c93b 9531
000002e0: ce05 6b33 2701 6b33 2733 9930 4485 6d33
000002f0: d768 2c31 daf2 2d32 a108 5f30 28fd 9431
00000300: 59f6 6a33 d0f6 6a33 4121 5833 91c4 2132
00000310: 0fe5 3b30 bf0b f731 39cc 6330 5c45 9431
00000320: 59f6 6a33 62f6 6a33 0000 0000 0298 422b
00000330: 8591 0f2d 4f90 d52c 4f90 d52c fc95 422b
00000340: 2c36 462d 1fcc 742c 1506 8a2c b0b8 422b
00000350: a6e4 232d 2f87 a32c e016 ad2c aa3f 432b
00000360: ff3e 522d 7d6d 162c e85b 4f2c 4ac9 6c2b
00000370: fb2a 242d c022 9f2c f1d2 a22c 44f0 962c
00000380: 3d85 142d 8c56 0a2c 67e7 392c a3c3 022c
00000390: 52ff 172d c022 9f2c c76d a12c 0000 0000
000003a0: 5bf5 0f32 1f55 af32 4bb9 b634 4bb9 b634
000003b0: 605e 1c32 af34 af34 ac6d 8a33 78c1 f333
000003c0: e0f3 0f32 9b3b b032 c3b1 b634 6ead b634
000003d0: ae08 4832 b4d0 b234 1042 b432 0aa9 7033
000003e0: 18bf 0f32 1c0f b032 d7b0 b634 c1ad b634
000003f0: 2994 a034 26df 8433 2f81 1c32 ded3 3333
1.5602327e-12 5.894369e-13 1.4890044e-11 1.4890044e-11 1.5693266e-12 4.1743687e-12 1.1359193e-11 1.2162563e-11
1.5624897e-12 1.4717917e-12 1.4229871e-11 1.4305989e-11 1.597774e-12 5.6341e-12 9.431059e-12 1.0508767e-11
1.6546906e-12 1.311766e-12 1.40626235e-11 1.411048e-11 7.8373905e-12 2.9952568e-12 6.2305885e-12 9.409192e-12
2.139656e-12 8.2877666e-13 1.40626235e-11 1.4089083e-11 0.0 1.3386778e-10 8.621792e-10 2.0544666e-08
2.0544666e-08 1.6499317e-10 1.3776086e-08 1.0038405e-08 1.1424715e-08 1.3383994e-10 9.463684e-10 2.051518e-08
2.0503863e-08 3.5896489e-10 1.6354674e-08 4.694918e-09 7.442253e-09 1.4573616e-10 9.274013e-10 2.0468551e-08
2.047208e-08 1.3543138e-08 4.658285e-09 3.0940053e-09 6.243893e-09 1.9035583e-10 8.806462e-10 2.0468551e-08
2.047107e-08 0.0 2.1172202e-09 4.786693e-09 1.1181104e-07 1.1181104e-07 2.454004e-09 7.811438e-08
5.0261146e-08 5.8738774e-08 2.1167594e-09 5.2080584e-09 1.1164786e-07 1.1159492e-07 3.5649426e-09 8.52899e-08
2.8847962e-08 4.079923e-08 2.1494262e-09 5.0959637e-09 1.1149831e-07 1.1149386e-07 7.331494e-08 2.3545777e-08
1.99933e-08 3.5202874e-08 2.3676587e-09 4.85114e-09 1.1149831e-07 1.1149236e-07 0.0 1.4850413e-09
6.3451635e-09 9.0210285e-08 9.0210285e-08 1.5727892e-09 8.205921e-08 2.3992675e-08 3.5803033e-08 1.4850199e-09
6.3546204e-09 9.0201e-08 9.02018e-08 1.9661586e-09 8.964612e-08 5.4703446e-09 1.763166e-08 1.4863205e-09
6.344877e-09 9.017685e-08 9.0183846e-08 7.980831e-08 1.6422137e-08 2.6905858e-09 1.2991458e-08 1.4861921e-09
6.3446075e-09 9.017685e-08 9.018303e-08 0.0 1.192284e-10 6.299816e-10 2.0049935e-09 2.0049935e-09
1.2015747e-10 2.3301168e-09 4.0500667e-10 7.1694806e-10 1.1922623e-10 6.328572e-10 2.00458e-09 2.0041393e-09
1.2402555e-10 2.4592208e-09 9.1471886e-11 3.4385667e-10 1.1919386e-10 6.329208e-10 2.0023254e-09 2.0026039e-09
1.8883852e-09 8.5108e-10 3.359219e-11 2.4702435e-10 1.1982089e-10 6.3149436e-10 2.0023254e-09 2.0025446e-09
0.0 8.623764e-11 3.1832473e-10 6.5539365e-09 6.5539365e-09 8.9956306e-11 5.3575375e-09 2.3558226e-09
3.1017149e-09 8.6232875e-11 3.4949516e-10 6.5474866e-09 6.5446164e-09 9.97124e-11 5.923203e-09 1.0127553e-09
1.8636659e-09 8.951188e-11 3.445975e-10 6.5394423e-09 6.538823e-09 5.5853913e-09 7.8348084e-10 7.911915e-10
1.5307454e-09 1.06589626e-10 3.256397e-10 6.5394423e-09 6.538884e-09 0.0 8.0934487e-10 4.3044777e-09
5.4731466e-08 5.4731466e-08 8.4267693e-10 5.0439922e-08 1.3686799e-08 2.1514824e-08 8.0933554e-10 4.3432675e-09
5.472048e-08 5.471625e-08 1.1146754e-09 5.5302067e-08 2.5088889e-09 1.0125143e-08 8.113919e-10 4.3361474e-09
5.4706423e-08 5.4706845e-08 5.0321663e-08 9.416127e-09 6.8355716e-10 7.1899815e-09 8.2872337e-10 4.315252e-09
5.4706423e-08 5.4706454e-08 0.0 6.91336e-13 8.160921e-12 6.0698456e-12 6.0698456e-12 6.913079e-13
1.12670255e-11 3.4787795e-12 3.922871e-12 6.917895e-13 9.316247e-12 4.647747e-12 4.9194954e-12 6.936627e-13
1.1951106e-11 2.137706e-12 2.9467487e-12 8.412339e-13 9.331864e-12 4.52291e-12 4.627736e-12 4.2899313e-12
8.442411e-12 1.9659023e-12 2.6418535e-12 1.8582711e-12 8.640049e-12 4.52291e-12 4.588083e-12 0.0
8.379483e-09 2.041139e-08 3.403496e-07 3.403496e-07 9.1018535e-09 3.2634622e-07 6.446075e-08 1.1350761e-07
8.379146e-09 2.0516202e-08 3.402948e-07 3.4026328e-07 1.1643506e-08 3.3306935e-07 2.09848e-08 5.6033095e-08
8.367145e-09 2.0495968e-08 3.402881e-07 3.4026564e-07 2.9910123e-07 6.1873195e-08 9.109768e-09 4.1869377e-08

exp_avg f4 [256]
00000000: 9e7d 9933 cb17 bc37 b649 4938 04e7 7238
00000010: 941e 0f37 8d1c 9537 8094 4738 2671 e9b4
00000020: d549 c138 fa7b bb38 1a0d 9e38 2890 1134
00000030: 44f1 7538 b539 45b8 0266 ae38 025a 6f38
00000040: 7464 c738 ae16 5038 c1e6 ba36 9d31 b437
00000050: a428 85b7 3f28 6337 f88f 1a37 63a8 fab8
00000060: 537c 03b5 3d39 2138 415d 24b6 786a 5037
00000070: 3d00 f9b6 5016 5935 27f2 a438 6af1 a937
00000080: 3e12 9e36 dddd c5b8 a37b c3b7 e0a1 2437
00000090: 086d 6fb8 9653 84b8 6636 bd38 c30d 26b9
000000a0: 5670 ae38 4223 0638 54bb 1ab9 94b3 2f38
000000b0: 1ec2 5fb8 5b15 8438 a59d bfb7 c0e9 7c38
000000c0: 153b a038 0084 4537 c861 b0b8 5f38 9b38
000000d0: da37 ca38 e28a 1a36 f018 ce37 e07b 97b8
000000e0: e8dc e838 037a 3335 88ec cf37 9f5a d038
000000f0: e6b4 fd37 e684 b938 db41 8eb8 7aa5 8838
00000100: 81d5 2c38 2972 c738 6041 e437 cbf4 b836
00000110: 723d 4037 caa1 82b8 e822 33b9 574a 2f37
00000120: d6ed d1b4 ccb5 8b38 528c 4d38 b850 9937
00000130: ab7a e4b7 81a7 1a37 f790 abb8 715b ea37
00000140: 7db1 8138 1c97 9b38 e7a8 40b8 4e1f 35b8
00000150: ec77 c1b4 2bb7 2ab9 f284 7336 e4b6 ba38
00000160: 26aa 5c37 b5ab 9e36 f48e 29b6 458b 1438
00000170: 6c99 a134 086a 9838 4fd2 cab8 72cb 9fb8
00000180: b29c 41b8 4852 5137 6d75 6e37 a2be 9938
00000190: b602 0a38 ff56 0638 5851 c9b7 debb a2b7
000001a0: c3ca 8938 3376 0338 8df9 6f38 f9aa 9738
000001b0: c97f 6238 8c64 68b6 9253 5eb8 2499 0b37
000001c0: 3020 00b7 2ba6 9a38 520c 43b8 47ab 79b8
000001d0: bd64 1a38 d7fc 4f38 c5a5 9a38 19ab b137
000001e0: 7038 6f38 9d08 8d37 04dc 8036 12ed 6e38
000001f0: 218a fe37 31d4 de37 b653 78b8 7d71 a4b8
00000200: d247 9fb7 4e3b d936 c427 1e38 0460 30b7
00000210: 0c50 dcb8 b058 9338 85ae 3138 acaa d737
00000220: 863c ffb8 27fc 0a38 39bc ae38 fbb0 18b7
00000230: c8c0 7d38 8510 0937 c313 9438 341d 3c38
00000240: 317b 8238 8ee4 fbb6 dcaa 8638 4808 59b8
00000250: b69b 8eb7 9163 fdb8 10c3 4735 7021 0eb8
00000260: ebbf 8ab8 5b41 0cb9 9cce 9138 6070 fa36
00000270: d63d 8bb8 2de9 c237 fd62 9ab8 2c23 ce37
00000280: f185 a7b8 f3f8 aeb8 af3d 8a35 f039 aab8
00000290: 4873 c838 781b c537 e660 07b9 694b dbb8
000002a0: 1e03 ae38 ef64 4537 3109 6038 7717 15b9
000002b0: ccdd a137 0638 c036 0f64 3438 37a9 fab8
000002c0: b6e7 38b9 bb6e cb35 837e 2038 e521 38b9
000002d0: 9106 9138 f72e 2cb8 f824 4d38 d287 9a33
000002e0: 2cd9 b1b8 6b64 5036 c17f 8e38 9d2c 2237
000002f0: d7e1 b1b8 0599 beb7 04b0 06b8 716d 5338
00000300: 5462 e336 49fa feb8 c548 fdb8 5306 f3b8
00000310: 785f 9738 35b8 a1b8 61fd aab8 c68b 0438
00000320: 286b d137 b897 91b8 c1c7 9734 4527 8737
00000330: 74b0 7a37 d4a7 0cb9 a989 78b8 7b5d 4638
00000340: 0807 d836 40e5 9137 3e9d 28b8 9f4a 4238
00000350: 5f1a 6838 c34d 2134 deab a737 a5fd 16b9
00000360: a499 f937 39e9 9538 c6cf 5ab6 ab90 dbb7
00000370: d918 26b8 b197 41b7 d9dd ddb8 c053 f8b8
00000380: eaf4 29b9 fa79 b6b8 82d3 93b8 4615 6d38
00000390: 872f 3c36 131e b135 1fce ceb7 866f b038
000003a0: 876a 8638 4df7 1538 a9a0 2038 80cd 8238
000003b0: 5f5d 5e38 bdb4 11b9 e60e 8a36 d7c3 41b7
000003c0: bd45 0d38 5864 2d35 ebe7 c9b8 15af 8837
000003d0: 1ec1 11b8 4f27 efb8 acf7 3d38 4f77 dbb8
000003e0: f1f9 02b9 8fff 0d35 c708 42b9 db95 8b38
000003f0: 95dd 09b8 2c61 f7b8 83b7 0ab8 aef9 4938
7.147467e-08 2.2422426e-05 4.7990783e-05 5.7912446e-05 8.530584e-06 1.777548e-05 4.75836e-05 -4.3481958e-07
9.2167094e-05 8.939947e-05 7.5364675e-05 1.3556621e-07 5.8637248e-05 -4.7022204e-05 8.315967e-05 5.7065867e-05
9.50777e-05 4.9612187e-05 5.5700953e-06 2.1480775e-05 -1.587376e-05 1.3539625e-05 9.212636e-06 -0.000119522934
-4.898222e-07 3.84387e-05 -2.4492185e-06 1.2422555e-05 -7.420806e-06 8.087127e-07 7.865234e-05 2.0258787e-05
4.7108906e-06 -9.435017e-05 -2.3303384e-05 9.812851e-06 -5.7083584e-05 -6.3098196e-05 9.022355e-05 -0.0001583612
8.317891e-05 3.1980926e-05 -0.0001475637 4.1890497e-05 -5.334813e-05 6.298228e-05 -2.2842383e-05 6.029918e-05
7.6403994e-05 1.1772849e-05 -8.410547e-05 7.401476e-05 9.642514e-05 2.3028629e-06 2.4568726e-05 -7.2233146e-05
0.00011103769 6.6860247e-07 2.4786466e-05 9.9350924e-05 3.0244188e-05 8.846242e-05 -6.783354e-05 6.515808e-05
4.1206837e-05 9.5103234e-05 2.721016e-05 5.512125e-06 1.1458398e-05 -6.2290186e-05 -0.00017083774 1.0448121e-05
-3.9102332e-07 6.661899e-05 4.9006492e-05 1.8276609e-05 -2.723684e-05 9.218115e-06 -8.180917e-05 2.7937554e-05
6.184259e-05 7.419122e-05 -4.593367e-05 -4.3182918e-05 -3.6036306e-07 -0.00016280699 3.6287206e-06 8.903237e-05
1.3152638e-05 4.7287563e-06 -2.5266172e-06 3.5415655e-05 3.0100216e-07 7.267675e-05 -9.6712836e-05 -7.6196055e-05
-4.616072e-05 1.2476528e-05 1.4213246e-05 7.331117e-05 3.290429e-05 3.202911e-05 -2.3998946e-05 -1.9399387e-05
6.5704364e-05 3.1342915e-05 5.7214453e-05 7.232087e-05 5.4001608e-05 -3.462922e-06 -5.3006755e-05 8.320701e-06
-7.636889e-06 7.3742434e-05 -4.6503097e-05 -5.952574e-05 3.681028e-05 4.958812e-05 7.374169e-05 2.1179718e-05
5.7034602e-05 1.681252e-05 3.8403105e-06 5.696441e-05 3.034348e-05 2.6563272e-05 -5.920577e-05 -7.841268e-05
-1.8987721e-05 6.474008e-06 3.770717e-05 -1.0512773e-05 -0.000105053274 7.0260256e-05 4.2362622e-05 2.5709473e-05
-0.00012170621 3.31366e-05 8.332026e-05 -9.1011125e-06 6.0499442e-05 8.169683e-06 7.060871e-05 4.484989e-05
6.221829e-05 -7.50699e-06 6.421443e-05 -5.1744544e-05 -1.7000228e-05 -0.00012082526 7.441713e-07 -3.388658e-05
-6.6161e-05 -0.00013375787 6.952623e-05 7.4636628e-06 -6.639554e-05 2.3235183e-05 -7.36173e-05 2.4573492e-05
-7.988129e-05 -8.343337e-05 1.0299754e-06 -8.1170234e-05 9.558216e-05 2.3497021e-05 -0.00012910701 -0.0001045678
8.297547e-05 1.1765615e-05 5.3414322e-05 -0.00014218489 1.9295978e-05 5.728568e-06 4.300853e-05 -0.00011952448
-0.00017633926 1.5156905e-06 3.8264796e-05 -0.00017560234 6.915362e-05 -4.1051735e-05 4.891024e-05 7.1958894e-08
-8.480469e-05 3.1052866e-06 6.794884e-05 9.66634e-06 -8.482084e-05 -2.272102e-05 -3.2112017e-05 5.0408245e-05
6.776574e-06 -0.00012158283 -0.000120775345 -0.00011588321 7.2180235e-05 -7.7113895e-05 -8.153427e-05 3.1601427e-05
2.496464e-05 -6.9423986e-05 2.8271282e-07 1.611154e-05 1.4942245e-05 -0.00013413961 -5.9256014e-05 4.729394e-05
6.43812e-06 1.73921e-05 -4.0200764e-05 4.63227e-05 5.533767e-05 1.5022583e-07 1.9987983e-05 -0.00014399605
2.9754658e-05 7.148315e-05 -3.2605471e-06 -2.61742e-05 -3.9600625e-05 -1.1539015e-05 -0.000105794235 -0.00011841161
-0.00016208334 -8.701156e-05 -7.0489026e-05 5.6525016e-05 2.8041848e-06 1.319628e-06 -2.4653096e-05 8.413107e-05
6.40946e-05 3.5754685e-05 3.82966e-05 6.2371604e-05 5.3015883e-05 -0.00013895608 4.114455e-06 -1.1549294e-05
3.368197e-05 6.459354e-07 -9.627625e-05 1.6293992e-05 -3.475055e-05 -0.0001140373 4.5291774e-05 -0.00010464957
-0.00012490877 5.289848e-07 -0.00018504552 6.655949e-05 -3.286971e-05 -0.000117959775 -3.3072673e-05 4.8154667e-05

exp_avg_sq f4 [256]
00000000: 4772 952d 53df b532 683a fa33 abf0 cd33
00000010: 07fe 3531 dbdd e931 a66f 7b33 04e6 792d
00000020: 5b49 c234 8143 7d34 b1cd 5334 1fc2 a230
00000030: d44d 0d34 c7de 3233 bd62 df34 55ac 4334
00000040: b29d d534 132f 3e34 7bba 8f30 7b88 2c32
00000050: 95aa 5531 8087 ed31 5579 cb31 71c8 d833
00000060: 78cd 992e 0881 c333 b432 2d31 1f01 2f32
00000070: 3682 6c30 5439 682e 0492 4934 70c2 7d32
00000080: 6b78 2432 8584 3234 0341 d732 49c0 f232
00000090: 0bb0 b333 3b39 ea33 9521 8634 e070 9434
000000a0: 3a29 9c34 4ad5 4033 32a5 7b34 c88f d933
000000b0: e3d6 a133 e462 e133 6493 5432 5baa 3134
000000c0: 28a6 9a34 03cf 1a31 279f 6333 0e91 8634
000000d0: 21f9 9234 4e86 9e30 197c 6332 32f4 d133
000000e0: 6eb0 da34 09c6 f62e 040a 2433 12c9 e934
000000f0: 131e 0534 0524 3834 b3bc cb33 fca7 1c34
00000100: 8905 4634 bf17 b134 f6d3 8f32 3177 9f31
00000110: 7ee5 b731 2b11 aa33 64f3 1a35 796d 4832
00000120: d27a 942f 7070 2334 85b4 a433 31c1 1b33
00000130: 47ef 9c32 ba86 c231 87d4 1434 7033 4733
00000140: 3aae f033 2524 b834 4219 d832 2795 9333
00000150: 3d89 eb30 8ac4 9634 2c35 8931 f39c 1a35
00000160: 8478 1732 ece1 8131 6551 7b2f 8a3e a233
00000170: e716 ba2e 2ff4 3b34 9185 0734 d8e7 2234
00000180: 9bed ac33 394b 2233 da41 8f32 d9a4 7534
00000190: b36d 7c33 528d 4633 2f15 9331 2e1e 1c32
000001a0: 10ba 5134 fcc9 aa32 e6c0 0f34 92a3 2d34
000001b0: 3216 a933 97fd 2f2f f2f4 8433 9e22 e830
000001c0: a60f 0a30 d544 9034 7804 6633 16ed 9933
000001d0: f415 1c33 fc32 b733 d2ad 2734 9f0c 4032
000001e0: 9539 f333 d4f9 b532 57df 9532 0dd2 1434
000001f0: 3577 2634 e471 c832 cc53 0e34 aa35 2f34
00000200: 2cab 9932 c6c6 1d31 53f9 c333 5e74 c230
00000210: 3790 1434 d9f6 6c34 0f9a 9833 8685 5a32
00000220: 93fb 4334 89fe c332 5da4 9a34 f238 2b31
00000230: b3df 2434 527d 4831 4d55 4534 3f40 3734
00000240: 3e7d 5034 1d94 0f30 066f 9634 56a6 3e33
00000250: 47de 5e32 8c6e 5034 2ed1 b92f 1296 5d32
00000260: a715 df32 276d bf34 10b3 6134 102f 8132
00000270: 3798 4433 6a9d 1d33 0f82 2b33 a3cc 7932
00000280: 5c80 3634 5088 d833 3c13 ad2e 21c2 a233
00000290: 3fd6 b734 441e 1133 d896 7d34 7c67 0c34
000002a0: 7e7b 8034 a58e 2331 99b2 0534 b652 dc34
000002b0: d001 0a33 b5e5 9232 1b21 8f33 0026 6f34
000002c0: 9c41 ad34 2eb9 932f b32f d033 cda1 0d35
000002d0: d8ce 9b34 298f c332 f636 2734 4e42 232f
000002e0: 1159 1634 f043 b72f 9182 8934 084d 8431
000002f0: b359 3c34 ea94 9332 97c5 0133 dcb3 8f33
00000300: 8e56 3c31 63bb cf34 b57c 9034 1f96 a833
00000310: fda7 9634 c7c4 cc33 8c86 c133 a0ce 9133
00000320: 52a1 d532 cdfe 7433 d8d8 0930 f36d 3632
00000330: 781d 0232 f3bb 0635 ee4c 0034 4ea1 0834
00000340: d538 8430 5991 4432 7785 b632 94cc e733
00000350: d027 6c34 7046 262f 1932 7c32 f2a9 9834
00000360: 870f 2733 d415 4934 6ace 8b30 e2c4 b932
00000370: 7de4 5333 00d0 7031 bde7 6934 01bf 4034
00000380: 24d0 c334 cd57 1234 9315 2a34 efe7 0534
00000390: 4cb8 0231 88bd 2c2f 597b 8432 6c5a 5734
000003a0: df47 4534 fc01 4f33 b54f 8a33 6fa9 9833
000003b0: db8b a233 a34e a734 2146 1231 477d ad31
000003c0: 2baf 2a33 2eae 4f2f 881a 4534 6797 9732
000003d0: 5cc9 9032 56e2 b834 2676 6a33 00d6 2134
000003e0: 6428 ad34 4ad6 bb31 f678 e434 78af 6834
000003f0: 94f0 8f32 b16c f133 6d21 4a33 fadd d733
1.6990088e-11 2.117273e-08 1.1652156e-07 9.5898336e-08 2.6483364e-09 6.8064145e-09 5.8542035e-08 1.4205085e-11
3.618869e-07 2.3587019e-07 1.9725736e-07 1.1842224e-09 1.3159962e-07 4.164647e-08 4.1608828e-07 1.8223484e-07
3.978908e-07 1.7712254e-07 1.045762e-09 1.004275e-08 3.1092544e-09 6.9130124e-09 5.9218714e-09 1.0094744e-07
6.994133e-11 9.103866e-08 2.5203635e-09 1.0186596e-08 8.604134e-10 5.280161e-11 1.8772704e-07 1.4770748e-08
9.573436e-09 1.6625752e-07 2.5058858e-08 2.8259949e-08 8.367359e-08 1.0906884e-07 2.498388e-07 2.7649276e-07
2.908726e-07 4.489747e-08 2.3436294e-07 1.01310036e-07 7.5362344e-08 1.0495367e-07 1.2373537e-08 1.6546385e-07
2.880563e-07 2.2527622e-09 5.2997304e-08 2.5064986e-07 2.7375884e-07 1.1534185e-09 1.3241356e-08 9.77674e-08
4.0734034e-07 1.1221963e-10 3.8193335e-08 4.354593e-07 1.2397531e-07 1.7149439e-07 9.487248e-08 1.4589745e-07
1.84422e-07 3.2986097e-07 1.674378e-08 4.6410595e-09 5.352091e-09 7.919365e-08 5.772365e-07 1.1666423e-08
2.7008312e-10 1.5221462e-07 7.6696814e-08 3.6264456e-08 1.8269601e-08 5.6614597e-09 1.3860891e-07 4.638008e-08
1.12075625e-07 3.429897e-07 2.5157195e-08 6.8723516e-08 1.7137506e-09 2.8082678e-07 3.9932697e-09 5.759786e-07
8.816759e-09 3.7800785e-09 2.2857234e-10 7.5550886e-08 8.462369e-11 1.7504566e-07 1.2621446e-07 1.517177e-07
8.052594e-08 3.778698e-08 1.6677337e-08 2.2877374e-07 5.8773093e-08 4.6228998e-08 4.2806714e-09 9.087257e-09
1.9532331e-07 1.9882457e-08 1.3388089e-07 1.6171387e-07 7.873713e-08 1.600625e-10 6.191284e-08 1.689006e-09
5.0226345e-10 2.6872172e-07 5.3555112e-08 7.1677434e-08 3.6341547e-08 8.5308756e-08 1.5616322e-07 1.1178741e-08
1.13260434e-07 2.1184782e-08 1.7447446e-08 1.385999e-07 1.5503322e-07 2.3334856e-08 1.3255266e-07 1.6317668e-07
1.7889384e-08 2.2959497e-09 9.125747e-08 1.4148431e-09 1.3836039e-07 2.2069015e-07 7.106075e-08 1.271963e-08
1.8252312e-07 2.2816737e-08 2.8804325e-07 2.4916145e-09 1.5355072e-07 2.9175067e-09 1.8378087e-07 1.7066576e-07
1.9417072e-07 5.223358e-10 2.8020457e-07 4.4389104e-08 1.2972641e-08 1.9411726e-07 3.3799935e-10 1.2898015e-08
2.5970463e-08 3.565594e-07 2.10199e-07 1.5038978e-08 4.5773245e-08 3.669758e-08 3.9932328e-08 1.4540237e-08
1.6996768e-07 1.0083079e-07 7.870546e-11 7.579025e-08 3.424229e-07 3.378797e-08 2.3617338e-07 1.3076163e-07
2.393171e-07 2.3800706e-09 1.2451564e-07 4.1038373e-07 3.2132277e-08 1.7101096e-08 6.664978e-08 2.2272434e-07
3.2271498e-07 2.6870722e-10 9.694431e-08 5.2762044e-07 2.9021498e-07 2.276609e-08 1.5573082e-07 1.484832e-10
1.4002241e-07 3.3335779e-10 2.5613238e-07 3.850463e-09 1.7541497e-07 1.718077e-08 3.021486e-08 6.6916726e-08
2.7406801e-09 3.8693096e-07 2.6912826e-07 7.8504165e-08 2.8061905e-07 9.535284e-08 9.011737e-08 6.7896735e-08
2.4869824e-08 5.7042417e-08 5.0148463e-10 1.0618794e-08 7.573696e-09 5.019239e-07 1.1948916e-07 1.272467e-07
9.620417e-10 1.144175e-08 2.1248281e-08 1.0793988e-07 2.1993696e-07 1.5122636e-10 1.4679721e-08 2.8435858e-07
3.889684e-08 1.8727525e-07 1.0172247e-09 2.1626366e-08 4.9335075e-08 3.504283e-09 2.1784122e-07 1.795088e-07
3.6473023e-07 1.3629251e-07 1.5840332e-07 1.2470967e-07 1.902225e-09 1.5710644e-10 1.5422915e-08 2.005633e-07
1.8373201e-07 4.8197748e-08 6.4406244e-08 7.1088714e-08 7.5691524e-08 3.116339e-07 2.128566e-09 5.049205e-09
3.9740524e-08 1.8888421e-10 1.8356707e-07 1.7647563e-08 1.6855374e-08 3.4437352e-07 5.4589826e-08 1.5072146e-07
3.225315e-07 5.466778e-09 4.255632e-07 2.1670519e-07 1.6756793e-08 1.1242208e-07 4.706219e-08 1.0052095e-07
