ml-agents-release_20/Result/Dino/Dino07/Dino/Dino-695864.onnx (onnx, 34598 bytes, 4 tensors)

action_model._discrete_distribution.branches.0.bias f4 [2]
00000000: 8991 213b 6d91 21bb
0.0024653396 -0.002465333

action_model._discrete_distribution.branches.0.weight f4 [2, 256]
00000000: fea5 7fbb 081e c6bc 08f1 52bd 070b 5cbd
00000010: 75d8 a5bc 0e0c 99bc 6aa3 44bd 3ca8 debb
00000020: 2ca8 ccbd e38e bdbd afc7 89bd 1af7 31bc
00000030: 08d5 57bd c3ee 383d 82fa f8bd 13e6 c4bd
00000040: ba56 02be 54c0 c6bd 855a 5dba 1582 f4bc
00000050: 8776 c63c 0068 b2bc 5387 8abc 6506 9b3d
00000060: d08d c5ba 09c0 85bd 5a8f 073c 5330 7fbc
00000070: 24e4 283b 15cf 3f3c a36c b4bd 2918 99bc
00000080: 71a9 2abc 7037 9f3d ce82 b63c 54f6 aebc
00000090: 08e2 0a3d 44e6 633d fa7d a9bd 841a ed3d
000000a0: 9562 dfbd cab8 12bd 9949 cd3d a3b0 adbd
000000b0: cf2e 263d e638 b5bd 376a 9d3c fe4b c8bd
000000c0: 5781 e2bd 0535 10bc 250d 683d 10e7 a5bd
000000d0: b6f5 babd d82b 533c 9a18 f2bc fd19 1a3d
000000e0: eed2 f9bd 3cac ffbb a40a d8bc 68d3 dfbd
000000f0: 6a14 afbd 4835 aebd a54c 313d 609b 46bd
00000100: 1a94 a6bd 64fa 9dbd 4be6 d3bc 5297 8fbc
00000110: 97ab 96bc e357 273d 2e20 073e 1344 80bc
00000120: efc5 65bc 83f2 a6bd 5a56 2fbd 203d 27bd
00000130: 8ec3 963c d6e8 74bc eb00 9b3d 67e2 62bd
00000140: e325 4abd 1571 e8bd 46b7 313d 365b 1b3d
00000150: ffa3 8cb9 83be e53d 4ac3 42bc 599d 0fbe
00000160: 16fd edbc c897 01bc 6b8a 693a bb80 88bd
00000170: 3ddf 1cbc e768 c0bd 95a3 ba3d 5e6c 883d
00000180: c4f8 2b3d 4ab1 0cbd 4938 13bd 5427 8bbd
00000190: b8fb 24bd 8a27 24bd 734a fb3c ddb9 8b3c
000001a0: 242f c9bd 7c65 9dbc bd17 9ebd f42c 89bd
000001b0: 8b5b 96bd 5435 7e3b cfb3 3f3d fe48 4ebc
000001c0: 1f50 f63b 2ff0 a5bd c993 e43c 37b4 3c3d
000001d0: b3ba 16bd a613 13bd f638 9cbd 5523 7cbc
000001e0: 2310 94bd 9067 b0bc 6e5b eb39 341d afbd
000001f0: f950 7fbd 19f2 b6bc 3a1e 443d 30c3 3d3d
00000200: 2246 ac3c 2eba 77bc 0b19 5abd b5b2 863b
00000210: 0821 c63d 3f1c d8bd 2db8 12bd b391 8dbc
00000220: 6806 c83d 90af 2fbd 2ed4 bbbd e986 4a3c
00000230: 9a96 7abd 5b3a c4bc 0c2e b3bd aa9f 9ebd
00000240: 95ee b9bd 22cc 1e3c 2414 b4bd cc57 463d
00000250: 1668 953c 4d42 d53d 800f 5db9 916c 7e3c
00000260: 68e8 603d d874 e53d e323 a0bd ff58 05bc
00000270: b216 5b3d 69a0 1ebd 0201 613d 6f5b cdbc
00000280: e081 4c3d 2f88 a63d e1df 8fbb b142 713d
00000290: b3f2 f3bd 3559 73bd dc28 cb3d 57db bd3d
000002a0: fa74 ddbd 0096 05bc 128e 98bd 751f d93d
000002b0: 3361 60bd c4db f1bc ed34 39bd 233f a63d
000002c0: edd3 f23d a471 0dbb 97e3 86bd d68a 193e
000002d0: cf8c d2bd 0c47 b93c 59a7 bdbd 9f5a 24bb
000002e0: 423b 843d c58f 51bc 0e0a bbbd 5d1d e5bc
000002f0: cc46 753d 5d0d e83c 2c83 e83c 1ca8 8bbd
00000300: 3626 55bc 2f48 e23d 59eb bd3d 2486 9d3d
00000310: 0939 dcbd b9f1 743d 7282 4c3d 9e64 65bd
00000320: 97a5 fbbc ca2f 823d f21b 00bc ddb6 0fbc
00000330: 5150 c6bc 9ff7 df3d 3693 1f3d b71e b3bd
00000340: cf59 3a3b ffe0 e2bc f2b4 1d3d c4f8 7dbd
00000350: 6959 edbd 4ad3 a23b 38a8 91bc 3860 f63d
00000360: a291 23bd 6799 a1bd 93dc 603b 2169 b63c
00000370: ac9e f73c d901 583b 8fce 913d 006d b93d
00000380: f7dc fb3d 1e9d 833d a864 843d 21d9 adbd
00000390: a404 8cbc 2a1a 2bbc 4de1 a83c 549f d1bd
000003a0: 3b39 c2bd d075 02bd b352 8abd 525b 5abd
000003b0: 1d8d 88bd cf52 e93d 6217 36bb 0f34 943c
000003c0: 586c 11bd 6d5f 36bc 8c4f 923d 14e3 4dbd
000003d0: d0e9 2a3d fd2a 9b3d 4dcf 03bd c7a1 ac3d
000003e0: b6d2 cf3d 1006 b9bb 8bb8 003e 70d7 aebd
000003f0: 071c 0c3d bd18 ac3d b45c 1e3d 662c 84bd
-0.003900885 -0.024184242 -0.051499397 -0.053721454 -0.020244816 -0.018682506 -0.048007406 -0.0067949574
-0.09993014 -0.09255769 -0.0672754 -0.010862136 -0.052693397 0.045149576 -0.121571556 -0.09614196
-0.12728396 -0.097046524 -0.00084439694 -0.029847184 0.02422644 -0.021778107 -0.01691023 0.07569579
-0.0015072171 -0.065307684 0.008273924 -0.015575486 0.0025770748 0.011707087 -0.08809783 -0.018688278
-0.010416375 0.07774246 0.02227917 -0.021357693 0.033906966 0.05563952 -0.08275981 0.11577323
-0.10907475 -0.03582076 0.10023803 -0.084809564 0.040571984 -0.08848743 0.019215686 -0.09780119
-0.11059826 -0.008801703 0.05665316 -0.08100712 -0.09128897 0.012888871 -0.029552747 0.03762244
-0.12198435 -0.0078025144 -0.026372261 -0.109289944 -0.085488155 -0.08506256 0.043285985 -0.04848802
-0.08133717 -0.07713774 -0.025866648 -0.01752821 -0.018392367 0.0408553 0.1319587 -0.01565746
-0.014024242 -0.08151724 -0.04280696 -0.040829778 0.018403795 -0.014948091 0.075685345 -0.055391695
-0.049352538 -0.11349694 0.043387674 0.037928782 -0.00026825067 0.11217978 -0.011887381 -0.14024867
-0.029051345 -0.007909723 0.00089088705 -0.066651784 -0.0095747085 -0.093950085 0.09113232 0.066612944
0.04198529 -0.034348764 -0.03594235 -0.067946106 -0.04027912 -0.04007677 0.030675149 0.0170564
-0.098234445 -0.01921343 -0.077193715 -0.06698027 -0.07341679 0.003878911 0.04680234 -0.012590645
0.0075168754 -0.08102452 0.0279025 0.046070304 -0.036799144 -0.03590741 -0.07628052 -0.015389283
-0.0722964 -0.021533757 0.00044890813 -0.08550492 -0.06233308 -0.022332238 0.04788039 0.046328723
0.021029536 -0.015120072 -0.05324654 0.004110659 0.09674269 -0.105522625 -0.035820175 -0.017281389
0.09766847 -0.04289204 -0.091713294 0.012361267 -0.06117878 -0.023953607 -0.08749017 -0.07745297
-0.09078709 0.009692224 -0.08792904 0.048423573 0.018238109 0.104130365 -0.00021081977 0.015528814
0.05490914 0.11203927 -0.07819345 -0.008138894 0.05348844 -0.038727198 0.0549326 -0.025068013
0.049928546 0.08131444 -0.004390702 0.058901493 -0.119115256 -0.059411246 0.09919903 0.092703514
-0.10813327 -0.008153439 -0.07448973 0.10601703 -0.054780196 -0.029523738 -0.04521649 0.08117511
0.11856828 -0.0021582628 -0.06586378 0.14994368 -0.10280763 0.022616886 -0.09260435 -0.0025078428
0.06456615 -0.012790625 -0.09132777 -0.027968103 0.05988197 0.028326685 0.02838286 -0.06819174
-0.0130095985 0.11048924 0.09273405 0.07691601 -0.10753066 0.059800837 0.04992909 -0.05600416
-0.030718608 0.06356771 -0.007819163 -0.008771625 -0.02420822 0.10935902 0.03895875 -0.08746093
0.0028434878 -0.027695177 0.03850264 -0.06200482 -0.11589319 0.0049690353 -0.017780408 0.12030071
-0.03993381 -0.07890587 0.003431116 0.022266926 0.030227028 0.0032960086 0.07119476 0.09053993
0.12298005 0.06426452 0.06464511 -0.0848868 -0.017092057 -0.01044325 0.020615244 -0.102354676
-0.09483572 -0.031850636 -0.06754055 -0.053309746 -0.0666754 0.113927476 -0.0027784933 0.01809123
-0.035503715 -0.01113115 0.071440786 -0.050265387 0.041726887 0.07576559 -0.03218012 0.08429294
0.10147612 -0.0056464747 0.12570398 -0.08537185 0.034206416 0.08403156 0.038662627 -0.06453781

network_body._body_endoder.seq_layers.0.bias f4 [256]
00000000: 1c16 20bd 4cf1 33ba 1cce 6c3c d184 703c
00000010: 119f 613c 064c 5abb 32cb 5f3c 7522 55bc
00000020: 71dd 313d 09cd c13c cc71 d93c 041a d2bb
00000030: be91 893c 72c7 013d 2e8b 103d 68b3 fd3c
00000040: 21b0 f13d 34d7 e53c d527 18bc a4b5 6d3c
00000050: 7f34 deb9 78b7 163d d599 293d 5396 533d
00000060: 0fdc 023c 8bae 433d e1b9 2bbb 45b8 98bb
00000070: f8f9 8b3b 8a01 363b 22a9 4a3d 5e4b 0ebb
00000080: a28b 5f39 376e 1e3d 2873 b83b 91b7 02ba
00000090: cb8b 8d3c 143c c33c 9a13 ca3c 19f5 923d
000000a0: 65a2 c63d 7017 683b 9786 833d 42bc 5c3c
000000b0: 6acf 283c 0bc9 513d 26a4 1b3c 7859 793d
000000c0: ffed b33c a4ad c2ba 2e80 1e3d 6802 c13c
000000d0: 0be2 f03c 21ab 6abc b1da 333d 25d8 593c
000000e0: 70ad 803d 2b9e 8a3c b9b5 783b f731 123d
000000f0: 1d16 e93c a42d c33c e2ca 973c 21ec 803c
00000100: 93ff 3c3d f608 073d 2f2a 293b f1ad bd3c
00000110: dab8 e2b9 93c9 6f3c 2afa 7a3d aaf3 22bb
00000120: 79a3 58bc 04ea 3c3d 1685 263c d1dc 223d
00000130: 8258 0c3c d575 f43c 0d8c e33c 6893 353c
00000140: a4b8 453c f2cd 863d 5bd0 003d 8e59 3e3c
00000150: 2c25 4b3b 03d5 293d 7098 0abc aa6b 8c3d
00000160: e045 aa3c 4b68 bfbb e1c1 3d3c ddb9 603d
00000170: d429 0fba e4e0 833d 4b37 573d 4e92 083d
00000180: d1f3 4e3c 92e1 763b 0180 713d 3a3a bc3c
00000190: 96d3 0d3c aa0e 063c a09a c33c 7438 08bb
000001a0: 3c5e 3a3d e394 923a bf9d 783c c00f b33c
000001b0: d4db c13c 1bf1 f33c a746 6b3c 5b97 3abc
000001c0: 6fc6 043d a871 e33c 8ff6 d53b 1676 073c
000001d0: efbd 183b ffcf 193c 8832 a83c 5c22 303b
000001e0: 8516 d93c 4cb4 bfba 909b 0038 5ce9 d23c
000001f0: 7227 ff3c 142b 2339 2db0 af3c 1683 933c
00000200: d2f0 343c c351 e1bb f8c5 b13c 21da 403d
00000210: f0c5 383d 9349 893d 5e27 e93a c4f3 933b
00000220: 98c6 6c3d e88f ac3c 2b3b 213d 1c6f 37bb
00000230: f403 a63c 2292 3aba cde5 f63c aa8f 6c3c
00000240: fbe5 423d e4fb 983c 60df dd3c 52c0 c73c
00000250: 2763 4e3c 599b 113d 5135 34bb 923f fd3b
00000260: dc82 a03d 1c34 403d 7205 c03c 3352 d33b
00000270: ef64 233d f3a8 163c 4397 9c3d 4a5a 75ba
00000280: a823 c93c 6ed6 f93c 1e93 4bb9 c6ab 483d
00000290: 0fec 1f3d 4468 933d c260 543d 7e9a 693d
000002a0: 89db 343d aad7 01bc 89af 793c cac5 303d
000002b0: e918 903c 4361 723b 7d8a 723c 1ef0 183d
000002c0: 9ec4 0a3e 4ebc 0d3c fcef 8b3c 7e8f 933d
000002d0: e66b 4b3d c20b dd3b b4fd 163d 3a20 58bb
000002e0: c387 a83c 3f6d d43c 6302 283d 369d e93c
000002f0: 947e a83c fc66 503c ee30 c73b 0bca bf3c
00000300: 3762 5ebc b8ea 1a3d 135f 053d 015c 883d
00000310: 2308 af3d de47 9b3d da75 993c 828d 5e3c
00000320: bb4c 2e3b ced0 e93c b59c 83bb af12 5bbb
00000330: 5e44 fe3c 31e3 2e3d 16fe 613c 06ad 443c
00000340: 9563 683c e254 fe3c 6b51 103d 54ca 4f3c
00000350: ac0e 413d cb61 c63a 1f4e eab9 ec5e 323d
00000360: 7c73 dd3b 4153 f03c b807 8fba e540 133c
00000370: a46d 013c dc53 0039 315a b83c aecd 263d
00000380: 0ff5 0b3d b73d c63c 4af6 bd3c 755e 353d
00000390: d41a 2a3c 01d8 01bc f7bd b83b 132e cc3c
000003a0: 4e8f c33c b22b 513b 27b3 b93c 9d5b 9e3c
000003b0: a3c5 2f3d ed22 4b3d cba6 6bbc 5787 573b
000003c0: 8dec a73b 938d e0bc 5c56 d93c b67c 7f3d
000003d0: 4677 673d 8060 f13c c4a7 223a 673a 3d3d
000003e0: c709 2a3d 9795 bfba 4db1 5b3d 1b8d ea3c
000003f0: 55c4 423c b778 973d a083 673c 0f50 953d
-0.039083585 -0.0006864264 0.014453437 0.014680103 0.013770835 -0.0033309474 0.013659285 -0.0130087035
0.043424074 0.023657339 0.02654352 -0.0064117927 0.016793128 0.031684346 0.035288982 0.030969337
0.11801172 0.028056718 -0.00928684 0.0145086385 -0.00042382252 0.036796063 0.04140647 0.051657032
0.007987036 0.04777388 -0.0026203322 -0.0046606385 0.004271742 0.0027771913 0.049477704 -0.0021712403
0.00021318955 0.038679328 0.005628962 -0.000498646 0.017278573 0.023832358 0.02466755 0.07175655
0.09698943 0.003541436 0.06422155 0.013472619 0.010303358 0.05121712 0.009499585 0.06087634
0.021964071 -0.0014852774 0.03869646 0.023560718 0.02940466 -0.014323027 0.043909732 0.013296162
0.062830806 0.016921123 0.0037950112 0.03569218 0.028452927 0.023825474 0.01852936 0.015737595
0.046142172 0.03296753 0.0025812497 0.02315423 -0.00043243804 0.014635461 0.06127373 -0.0024864473
-0.013222569 0.046121612 0.010163566 0.03976137 0.008566024 0.029841343 0.027776742 0.011082508
0.012067948 0.0658225 0.031448703 0.011618031 0.0030997498 0.04146291 -0.0084591955 0.06856473
0.020785272 -0.00584129 0.011581869 0.054864753 -0.000546125 0.06439379 0.052542966 0.033342652
0.012631373 0.0037671071 0.058959965 0.022976983 0.008656403 0.008182207 0.023877442 -0.0020785602
0.045500025 0.0011183288 0.015174328 0.021858096 0.023664393 0.029778054 0.014360107 -0.011388625
0.032415804 0.027764156 0.006529636 0.0082679 0.0023306569 0.009387969 0.020531908 0.0026875949
0.026499996 -0.0014625876 3.0662457e-05 0.02574604 0.031146739 0.00015560939 0.021446312 0.018006843
0.011043744 -0.006876202 0.021700844 0.047083024 0.045110643 0.06703486 0.0017788222 0.004515143
0.05780658 0.021064714 0.039363068 -0.002798981 0.020265557 -0.00071171124 0.030138874 0.014438549
0.047582608 0.018674798 0.027084053 0.024383698 0.012596882 0.03554854 -0.00274976 0.0077285254
0.078374594 0.046924695 0.023440097 0.006449008 0.03989118 0.009195554 0.076460384 -0.00093594624
0.024553135 0.030497756 -0.00019414394 0.04899194 0.039043482 0.071976215 0.051850088 0.0570321
0.044154678 -0.0079249535 0.015239605 0.043157376 0.017590003 0.0036984242 0.014803526 0.03733837
0.13551566 0.008650852 0.017082207 0.07205103 0.049663447 0.0067457864 0.036863044 -0.0032978193
0.020572549 0.025930999 0.0410179 0.028517347 0.02056817 0.012719866 0.006078831 0.023411771
-0.013573221 0.0378215 0.032561373 0.06658173 0.08546474 0.07582067 0.018732954 0.013583543
0.0026596028 0.028541949 -0.0040164837 -0.0033427884 0.03103846 0.042697135 0.013793489 0.012004143
0.014183898 0.031046335 0.035233896 0.012682516 0.047133133 0.0015135346 -0.00044690163 0.043547556
0.0067581516 0.029336574 -0.0010912335 0.00898764 0.0078996755 0.00012238271 0.022503944 0.040723495
0.034169253 0.02419935 0.023188729 0.044279534 0.010382373 -0.0079250345 0.00563788 0.024924314
0.023872044 0.0031916914 0.022668434 0.019330794 0.04291309 0.049593855 -0.014383028 0.0032887065
0.0051246346 -0.027411258 0.026530437 0.062374793 0.056510232 0.02946496 0.00062048086 0.046198275
0.04151323 -0.0014616725 0.053635884 0.028631737 0.0118876295 0.073960714 0.014130503 0.072906606

network_body._body_endoder.seq_layers.0.weight f4 [256, 29]
00000000: 80f1 3dbd f539 063e cab4 9e3d a694 d0be
00000010: d8a1 92be 6072 c5be 8b42 25be cb55 a63e
00000020: 2635 92bc 343a 37be d43c 0bbe ed82 d03c
00000030: 500b 60bd fe41 babe 4b07 953d 610e 973d
00000040: d57a 3ebd 2d4b 0bbe 8769 4bbe cc6f 1a3e
00000050: 8974 883c 0159 dc3d 6078 bd3d b0cc 2fbe
00000060: 241d 0dbe c0ed 33be 5d7d b9be f02b b2be
00000070: 846f 4cbe 17d3 85be 7aa3 96bc 1e41 1fbe
00000080: fbeb 793e a8a8 38bd 4f84 ea3e e329 1b3e
00000090: 3224 aabd 13c2 433e 46f9 b23d 07c3 533c
000000a0: a0a5 493e 0354 aa3d 2ce1 0ebe f1c0 2bbd
000000b0: 1d63 08be 6b31 153e 3573 bbbd 62b8 8cbe
000000c0: b753 be3e 46cc ea3d e0d3 0b3e 15ba b13d
000000d0: 0b3d 073e e6cf 14be e410 fbbc e4bb 6e3e
000000e0: 25ee 463e 9470 a3be 2f49 54be 0bc8 2b3e
000000f0: d1dc 053e d656 bebd 60f5 953e a6b0 373d
00000100: 5357 95be e56b b8bd 648d c73d 0bd1 133c
00000110: a56a 57be f25d 863c 90ab 023e ae16 cebd
00000120: a60b ce3d f627 b5bc 9015 f0bd b4fb 1ebe
00000130: 159a cb3e ef26 1bbd a75b c83c 69eb ea3c
00000140: 24f0 303e 4416 71bd de31 f83d 5164 a13c
00000150: f8af ce3e 4a3b 27bd d306 9b3e 1cdb 1b3e
00000160: 2f5f c0bd d6a8 093e 70ab 09be 60c0 413e
00000170: dda3 c83e fcc8 9abe e964 c5bd 7d5f 78be
00000180: 92f6 8f3d 8ea0 f13d edfb 723e 06b7 793c
00000190: 86c9 8d3e 7e2c 98bd 0890 36be 044e 843e
000001a0: 4514 d0be 86bb e1bd 57ad 443d c155 d43e
000001b0: 36b1 b43e e068 aabc 9829 5fbe 4cc5 84be
000001c0: 2101 003e 5fd8 a33e c6fa ae3d 409b 233e
000001d0: e77d fc3d e2b8 84bd f46d 3fbe 5fe0 24bc
000001e0: 3d0e 773e ea2f bf3e 31aa 203d 07e1 96be
000001f0: 961f d73d 53bb 3dbe ba58 d53d 3f9a 1d3d
00000200: 8f15 06be 230f 31bd 58e7 62be e230 7f3e
00000210: fe7e 313e fdaa 933e ccc9 243b 46b0 913d
00000220: c5fb 8d3c 7f54 7c3e 434e c8be 5213 433e
00000230: 0656 6bbe e662 353e 8458 43be 8073 1ebe
00000240: a3a7 ad3d c563 68be dcc1 82be c3d9 133e
00000250: c8a4 b63d 15c6 583d 6e7a fd3d 162f 09be
00000260: 7b75 933e eef5 7cbd 63af 9abd e2d8 2abe
00000270: aedc 1f3d ed8f 7f3e f592 183e 58b4 1ebb
00000280: 35b4 30bd 4909 923d afb4 f03d 00e7 973d
00000290: bb8e 80be 9bd5 66bd bd71 26bd 99e0 9d3e
000002a0: b6b9 d6be 2783 d1bc f472 473d d724 823d
000002b0: 222b a53e 7f90 00ba 6c25 f63d 0261 a3be
000002c0: baa7 853d 4fb4 2abd 2826 25be d52c 833e
000002d0: 95f3 d6bd 7055 773e 157e cb3c 51e4 b73e
000002e0: 13f9 2e3e b2b2 36be 0f5c d23d 4e3a c1bd
000002f0: 1e94 24be 4d58 6ebc 89d3 4abe 8a4d 16be
00000300: 17fa 78be 609f 523e 3828 a03e 68bc 953e
00000310: 1b40 b0be b953 9dbe 62e0 62be 7d7b ccbd
00000320: ffa4 dfbb f465 2a3d 8d16 ca3d 0ea5 00be
00000330: c02d 3ebe 4a45 c3bd 037d 3cbd 9135 49bd
00000340: 6646 53ba 4f06 cf3e 2202 2cbe c9cd 99be
00000350: 9b85 b43c 6143 e53d 1757 17be ede2 a03e
00000360: b3f2 f1bd b1e0 383e d658 55be 4e2c a6be
00000370: a66e bc3d 33a7 16bc cfdf dbbe d3f1 c4be
00000380: 604a cd3c 202f d73d c707 4ebe a350 503e
00000390: 367a 16be 9d5f 02bf 481e 94be d611 383d
000003a0: a7a8 ee3d 35c9 dd3d f0a3 b93e b184 643d
000003b0: c263 de3e 9342 963e 8511 9cbe f50a c3be
000003c0: 5dbc 17be 474c 5cbe 0efb a9be 9986 a9be
000003d0: 9abd a43d f0c2 b23d 79c6 3e3e d5d5 24be
000003e0: f7e1 48be fd42 483d 258e ac3e 9f82 51bd
000003f0: 6b26 a03e 9dc9 2c3e 897d 2bbe 74dc 15be
-0.04637289 0.13108046 0.077493265 -0.4073841 -0.28639102 -0.38563824 -0.16138665 0.3248733
-0.017847609 -0.17893296 -0.13597423 0.025453055 -0.05469829 -0.36378473 0.07276782 0.073757894
-0.04650386 -0.13602896 -0.19864474 0.1508171 0.01665713 0.10759164 0.09251475 -0.17167926
-0.13780648 -0.17571163 -0.36228457 -0.34799147 -0.19964415 -0.2613761 -0.018388499 -0.15552184
0.24406426 -0.045082718 0.45804068 0.15152697 -0.08307685 0.19117002 0.087389514 0.012924916
0.19692087 0.08316805 -0.13953084 -0.04193205 -0.13319059 0.14569633 -0.09152833 -0.27484423
0.37173244 0.11464743 0.13655043 0.086780705 0.1320688 -0.14532432 -0.030647703 0.23313862
0.19426782 -0.31921828 -0.20731042 0.16775529 0.13072516 -0.092939064 0.2928877 0.0448462
-0.29168186 -0.09004954 0.09743765 0.009022008 -0.21036775 0.016402218 0.12760758 -0.100629196
0.100608155 -0.022113781 -0.11722863 -0.15525705 0.39765993 -0.037878927 0.024457766 0.028676705
0.17279106 -0.058859125 0.121188864 0.019701155 0.40368629 -0.040828027 0.30278644 0.15220302
-0.09393155 0.13443312 -0.13444304 0.18921041 0.39187518 -0.30231464 -0.09638388 -0.24255176
0.070294514 0.117982015 0.23728915 0.01524139 0.27692813 -0.07430361 -0.17828381 0.2584077
-0.40640464 -0.110220954 0.048016872 0.41471675 0.3529145 -0.020801961 -0.2179321 -0.25931776
0.1250043 0.32001016 0.08543925 0.15977192 0.123287015 -0.06480576 -0.18694288 -0.01006326
0.24126525 0.37341243 0.039224807 -0.29468557 0.105040714 -0.1852849 0.10417314 0.03847718
-0.13094161 -0.043227326 -0.22158563 0.24920991 0.173336 0.2884139 0.0025144694 0.071136996
0.017331967 0.24641608 -0.3912221 0.19050339 -0.22982034 0.17713508 -0.19076735 -0.15473747
0.0847924 -0.22694309 -0.25538528 0.14438538 0.08918148 0.05292328 0.12376867 -0.13396868
0.28800568 -0.061757974 -0.075529836 -0.16684297 0.039028816 0.24957247 0.1489981 -0.002421638
-0.04314061 0.07130677 0.11753213 0.07417107 -0.25108895 -0.056356054 -0.040635813 0.30835417
-0.4193856 -0.025575234 0.048693612 0.06354683 0.3225947 -0.0004904344 0.120188564 -0.3190995
0.06526132 -0.041675862 -0.16127837 0.25620142 -0.10495678 0.24153686 0.024840394 0.3591638
0.17087202 -0.17841604 0.10271465 -0.09434949 -0.16072127 -0.01454742 -0.19807257 -0.14678016
-0.24314152 0.20568609 0.31280684 0.29245305 -0.3442391 -0.30727938 -0.22155908 -0.09984491
-0.006825089 0.041601136 0.098675825 -0.12562963 -0.1857214 -0.095347 -0.046017658 -0.04912335
-0.00080595014 0.404345 -0.16797689 -0.30039814 0.022036364 0.11194492 -0.14779316 0.3142313
-0.11813869 0.18054463 -0.2083467 -0.32455677 0.09200792 -0.009195137 -0.4294419 -0.38465747
0.025059879 0.10507035 -0.20120154 0.2034326 -0.14695057 -0.50927144 -0.28929353 0.044938885
0.11653262 0.10829393 0.36257887 0.055790607 0.43435484 0.29347667 -0.30482116 -0.38094297
-0.14817949 -0.21513472 -0.33199352 -0.33110502 0.08043976 0.087285876 0.18630399 -0.16097195
-0.19617449 0.04889201 0.33702198 -0.05114996 0.3127931 0.16873784 -0.16747107 -0.14634877
