ml-agents-release_20/Result/Dino/Dino07/Dino/Dino-768863.onnx (onnx, 34598 bytes, 4 tensors)

action_model._discrete_distribution.branches.0.bias f4 [2]
00000000: 062e c33a d22d c3ba
0.0014891035 -0.0014890975

action_model._discrete_distribution.branches.0.weight f4 [2, 256]
00000000: 61c6 48bb 90cc cebc f068 5abd 5c83 67bd
00000010: a7a7 bbbc 8b19 a7bc ba2a 54bd 7b52 ccbb
00000020: 8881 d4bd 6c36 c4bd 6ec7 8fbd f239 25bc
00000030: 9e5e 60bd 93d6 3f3d 1ba6 fdbd c82c c8bd
00000040: b365 07be 181d cebd fdd3 ceba 40f0 00bd
00000050: 28e1 de3c 1d64 cbbc 2b4b 9abc a314 a33d
00000060: 531e 96ba c5f9 8ebd 0716 243c 4c0b 84bc
00000070: e086 993b bef4 423c 8a32 bcbd dda0 a4bc
00000080: 7ff5 14bc dbed 9d3d 48c9 b33c e555 a2bc
00000090: 0e8f 093d 9590 683d 0f67 b0bd a4e6 f43d
000000a0: d2b7 e9bd 66ac 1bbd 0d3e d43d b5fe b3bd
000000b0: 34c1 283d b8c9 bbbd d69a a73c ce89 d2bd
000000c0: 8a36 e9bd 0814 41bc af24 763d a6f1 abbd
000000d0: f677 c2bd 1fcb 533c 654c 07bd 0292 1e3d
000000e0: fc15 02be 5693 02bc 7781 e3bc 2f4f e6bd
000000f0: d980 b7bd 43a3 b5bd c380 313d e708 51bd
00000100: e035 abbd 79cd a3bd 425d e5bc b221 94bc
00000110: 5952 adbc e00a 283d 5027 093e 541f 80bc
00000120: 26fd 56bc ef15 b1bd b04e 35bd 9f27 33bd
00000130: 9f53 9e3c 92aa 70bc ac8a 9e3d b4f8 72bd
00000140: f468 55bd faf2 f0bd 8d4c 3e3d 00cc 1b3d
00000150: 0c37 523a 5636 eb3d 8267 29bc fab5 13be
00000160: 5d12 05bd d2a4 0ebc 058b 8b3a 84fb 91bd
00000170: a967 10bc 4ece c9bd 36ec c33d ff31 8b3d
00000180: 65cf 2d3d 316a 07bd 8ddb 1abd efb2 90bd
00000190: 4b14 2bbd f784 31bd 81a7 0e3d adb8 8c3c
000001a0: 8529 d2bd 423a b1bc 141b a6bd 17d0 8dbd
000001b0: 8e7b 9bbd 61eb 983b 2719 453d bfbb 69bc
000001c0: 7b0c 0d3c 3004 acbd f030 e73c 0258 3f3d
000001d0: 575b 22bd 57a6 19bd 8b49 a3bd b682 91bc
000001e0: 5d84 99bd dd33 b4bc 4c0b 083b 6e34 b6bd
000001f0: 1089 7fbd 82b0 c2bc ce10 463d 2df6 3f3d
00000200: 2947 a53c cd0f 84bc 70ad 66bd a205 ac3b
00000210: 7afa cf3d 1487 e1bd f1e3 18bd c4c6 9fbc
00000220: 3300 ce3d e843 43bd ebd2 c4bd 34ef 493c
00000230: b882 80bd cf74 c0bc 037f babd 8d84 a2bd
00000240: dbde c2bd 5076 343c 3488 b8bd e4b4 543d
00000250: 4006 943c 3f2b dc3d 533a 10ba 5d8c 893c
00000260: a4e1 6b3d 5eb9 e93d 9227 a5bd 4855 eabb
00000270: cb47 683d 6573 27bd dc46 663d aba7 dbbc
00000280: e288 503d b6ca aa3d d888 8ebb 8a1f 7b3d
00000290: f3ec fcbd 29f8 7ebd b699 d03d d529 c63d
000002a0: 82b7 e6bd 375c 24bc a723 9fbd 6588 dc3d
000002b0: 5a17 6abd f38e eebc 4068 47bd 3003 aa3d
000002c0: 2823 f93d 6ab2 22bb c7d0 8abd 1ea4 1c3e
000002d0: 40a2 dabd be0f c03c eb95 c4bd 0b84 30bb
000002e0: 00e9 853d 7f84 4bbc 90cb c1bd 3f75 eabc
000002f0: 5426 773d e402 ec3c 5a8b ea3c f7cc 90bd
00000300: 78bd 60bc b160 e43d e008 c13d ce34 a63d
00000310: 8ade e5bd b969 773d c5c5 513d ec06 75bd
00000320: 2517 02bd b38c 863d d361 e1bb 4a47 1fbc
00000330: 9a81 d7bc 9bc8 e13d f7d3 1d3d 6f6f bcbd
00000340: a65c 4e3a 0d36 f3bc c3a5 303d 6d3e 81bd
00000350: 8380 f4bd e467 aa3b ea7f 99bc 5476 fa3d
00000360: 4bfb 2dbd 3f10 aabd 47b9 933b 6a3f b73c
00000370: e301 f73c cebe 483b f120 953d 4ec0 bd3d
00000380: fa74 ff3d f766 863d 2883 853d f4e7 b4bd
00000390: ffbd 89bc e601 2bbc 37e2 aa3c ff9a dabd
000003a0: da71 cbbd e776 08bd 1ada 92bd 8c88 68bd
000003b0: 5e74 92bd 85ed ec3d c497 3abb bd9d 9d3c
000003c0: 1fa9 1bbd 3e4a 2abc 43f6 953d 5912 53bd
000003d0: e4b6 333d 0d60 9e3d bdc5 0bbd 9129 b23d
000003e0: 8abd d33d 7f84 b2bb 42f1 033e 8593 b5bd
000003f0: 9f33 0f3d 7634 b63d b976 1f3d 11c8 8abd
-0.0030635821 -0.025244027 -0.053322732 -0.05652176 -0.022907091 -0.020397922 -0.05179856 -0.0062354184
-0.103762686 -0.09580693 -0.0702046 -0.010084616 -0.054777734 0.046835493 -0.12385198 -0.09774166
-0.13222389 -0.10064143 -0.001577973 -0.03147912 0.027206972 -0.024828011 -0.018834671 0.079629205
-0.0011453129 -0.069812335 0.010015017 -0.016118668 0.004685268 0.011899171 -0.09189327 -0.020096237
-0.009091734 0.07711383 0.021946564 -0.019816348 0.033583693 0.05677851 -0.08613407 0.11958054
-0.11412014 -0.03800621 0.10363398 -0.08788816 0.041199878 -0.09169334 0.020459574 -0.102801904
-0.113873556 -0.011784561 0.060093578 -0.083957 -0.09495537 0.012926846 -0.03303184 0.038713463
-0.12703699 -0.007969698 -0.027771695 -0.11245572 -0.089601226 -0.0886903 0.043335687 -0.05103388
-0.08359885 -0.07998175 -0.02799857 -0.018082473 -0.02115743 0.041025996 0.13393903 -0.015639938
-0.013121879 -0.086467616 -0.044264495 -0.043738957 0.019326983 -0.014689105 0.07741293 -0.059319213
-0.052102044 -0.11765094 0.046459723 0.038036346 0.0008019067 0.11484973 -0.01033962 -0.14424887
-0.032488216 -0.008706288 0.001064629 -0.07128051 -0.008813777 -0.098538026 0.09566538 0.067966454
0.042434115 -0.033060256 -0.037807036 -0.07065379 -0.0417674 -0.043339696 0.034827713 0.017177904
-0.102618255 -0.021634225 -0.081106335 -0.069244556 -0.075919256 0.004666731 0.04811969 -0.014265954
0.008608933 -0.08399236 0.028221577 0.04671479 -0.03963789 -0.03751215 -0.079730116 -0.017762523
-0.074959494 -0.021997387 0.0020758687 -0.08896719 -0.062386572 -0.023765806 0.04835587 0.04686563
0.020175533 -0.016120816 -0.056317747 0.005249695 0.101551965 -0.11012092 -0.037326757 -0.019503959
0.10058632 -0.047672182 -0.09610542 0.012325097 -0.062749326 -0.023493199 -0.09106257 -0.07935438
-0.095151626 0.011014536 -0.09010354 0.051930323 0.018069386 0.10750436 -0.0005501855 0.016790563
0.057588235 0.11412309 -0.08064188 -0.0071512796 0.056709092 -0.040881533 0.05621992 -0.026813349
0.05091179 0.08339445 -0.004349809 0.061309375 -0.12349882 -0.062248383 0.10185568 0.096759476
-0.1126547 -0.010031751 -0.07770472 0.10768203 -0.057151176 -0.029120898 -0.048683405 0.08301389
0.12164909 -0.0024825581 -0.06778102 0.1529698 -0.10675478 0.023445006 -0.09598907 -0.0026934172
0.06538582 -0.012421726 -0.094626546 -0.02862036 0.060339287 0.028809972 0.028630901 -0.07070344
-0.013717048 0.11151255 0.09425521 0.081155404 -0.112240866 0.06040356 0.051214 -0.059821054
-0.031760354 0.06569805 -0.0068781166 -0.0097215865 -0.026306916 0.110245906 0.038532224 -0.09200942
0.0007872082 -0.02968886 0.043126833 -0.06310735 -0.11938574 0.005200373 -0.018737752 0.122296005
-0.04247598 -0.0830388 0.0045081708 0.022369105 0.030152267 0.0030631307 0.07281674 0.09265195
0.124734834 0.06562608 0.06519157 -0.08833304 -0.01681423 -0.010437464 0.02085982 -0.106740944
-0.09933825 -0.03331652 -0.07170506 -0.056770846 -0.071511015 0.11568741 -0.0028471807 0.019240255
-0.038003083 -0.010393677 0.07322361 -0.05153117 0.04387559 0.07733164 -0.034124125 0.086993344
0.10338886 -0.0054479237 0.12885001 -0.08866028 0.03496134 0.08896725 0.038931582 -0.06776441

network_body._body_endoder.seq_layers.0.bias f4 [256]
00000000: ce93 25bd f3bb 2e3a cbfc 833c 23a8 913c
00000010: 6ee7 963c 8cf0 32ba c355 8d3c 459f 46bc
00000020: 8c2e 3f3d 05d6 d53c 826d ef3c 54c3 c8bb
00000030: 277a 9a3c 6d08 003d 9016 183d 733d 063d
00000040: 21cc fa3d e3cd f83c 0785 0dbc 39ed 953c
00000050: 6d75 5eb9 6248 2a3d 1ac3 3d3d a759 553d
00000060: 002f 213c ae1b 563d b110 2ebb a616 6ebb
00000070: 1757 8c3b 4da4 80b7 0189 583d 58c7 21b9
00000080: 20e8 d039 a81b 183d d2b2 993b 39f1 29ba
00000090: f6fe 823c 408f bd3c 5ba5 df3c 8781 943d
000000a0: 3858 d03d 356f bb3b 92fd 833d bd81 823c
000000b0: fbd2 183c 23be 5f3d 6e64 163c 7909 853d
000000c0: 8111 c73c a3e3 a23a d637 1e3d f9b2 d43c
000000d0: 41aa 053d 31c1 86bc 3b96 4b3d 8326 513c
000000e0: 839b 893d 1b28 a93c cd8d b13b c9eb 1c3d
000000f0: eb23 013d 188d d83c 776a 8d3c 0a3d 943c
00000100: 8395 453d 789d 113d 5167 aa3b 331c d03c
00000110: a52f 123b a691 5a3c 2ee0 783d a8bb fbba
00000120: 9fd4 5abc b07f 4f3d d3f7 3f3c 7014 313d
00000130: 81b9 f63b be1a 003d 257d df3c 2086 663c
00000140: 63fa 733c c5b1 8d3d a2ff fe3c 7e0f 333c
00000150: eae1 483b 4fdb 273d fe2f 09bc 7a3d 933d
00000160: c743 d33c 4623 a8bb 6651 233c 6c64 743d
00000170: e185 ec39 bfb4 8c3d e754 583d eee0 053d
00000180: ef5f 413c 3e76 8a3b 1d03 803d bd20 cf3c
00000190: fc2b 293c 9aa5 2c3c 9590 d03c cae7 66bb
000001a0: ceed 463d 3859 903b 4e22 933c 26db c43c
000001b0: e0cf d63c 5a38 e83c de8a 663c 9fe6 1fbc
000001c0: c7be fe3c 891e f73c 1996 b93b a871 f13b
000001d0: b70b b93b 168e 343c 1d04 bf3c 15a3 ca3b
000001e0: ac6b ee3c a5d4 24ba d9f9 0239 0e27 eb3c
000001f0: f2b6 033d 7a15 d13a 61bf a83c ec3f 8b3c
00000200: 7952 233c ac26 aebb 288c ca3c 1489 3b3d
00000210: 2c55 393d ea08 913d 9ab0 593b 309c f73b
00000220: 638a 6a3d 8a86 d33c c4a3 2e3d bd4d 74bb
00000230: 5e81 b33c d1de 8e3a d254 063d f7b9 833c
00000240: 9fed 533d 1bd5 923c 5316 ed3c 803c c63c
00000250: cf52 3d3c 00b3 103d 02c6 19bb f1c2 e13b
00000260: 5df5 9f3d 5492 3e3d b7cc d03c be90 dd3b
00000270: e30f 263d a545 383c 1554 9a3d c982 4e3a
00000280: a311 c43c 3873 f33c 1e84 cc3a eee5 493d
00000290: 1037 2c3d 3dce 9b3d 2a29 533d ab02 6d3d
000002a0: 3139 453d d69b 94bb 2361 923c 0f14 2e3d
000002b0: 1dd9 a83c aed7 953b fdb3 943c 4f51 173d
000002c0: c2a6 0a3e 6c0f 543c ee6a 9c3c 6c69 933d
000002d0: ce43 583d e7ed be3b 168c 213d c28e 2abb
000002e0: 195c a13c 2c85 e53c 5332 333d 9b73 033d
000002f0: 6dab a03c b2b0 423c 14c4 a83b 3c9a d63c
00000300: 6a75 4dbc 9364 173d 9078 023d 064a 8b3d
00000310: 4402 b83d 7ea5 983d 3d94 923c 8741 883c
00000320: c1d5 8a3b 4f56 e13c ecc3 80bb 6c02 07bb
00000330: 8245 123d f667 2b3d 0955 4f3c 5844 763c
00000340: 60f2 8a3c 352b 0e3d 0558 133d acfd 653c
00000350: 87fd 4c3d 8b94 6cba b732 623a a446 2f3d
00000360: 7945 1b3c 5ab7 043d 1fca b3ba af73 003c
00000370: 6751 e83b 6e85 a6ba 4c04 b73c d395 243d
00000380: 8e21 093d 13c7 c03c 940e b63c 24f0 413d
00000390: 4c36 4d3c 991d dabb d017 933b 5fe1 e53c
000003a0: 3de7 de3c 8092 9a3b 5f2a d83c daf6 bc3c
000003b0: 8503 433d 2cce 473d 7215 62bc ce4b 173b
000003c0: 534c ef3b 637d e0bc 59ec d63c 8b7c 863d
000003d0: bf4a 643d 8487 ee3c 16a5 2b3b abd8 3d3d
000003e0: f36d 273d 5acc b6ba 7aec 5c3d 788a 003d
000003f0: 7cdc 293c 86b4 993d 2afa 583c 505c 9b3d
-0.04042416 0.000666558 0.016111752 0.01778037 0.018420901 -0.00068260054 0.017252808 -0.012122934
0.04667525 0.026103029 0.029227022 -0.0061268006 0.018857075 0.031258035 0.037130892 0.032773446
0.12245966 0.030371612 -0.008637673 0.018301593 -0.00021215314 0.041572936 0.04632864 0.052087452
0.009837866 0.05227249 -0.0026560242 -0.0036329417 0.004282843 -1.5335298e-05 0.052865032 -0.00015428418
0.00039845798 0.03713575 0.0046905065 -0.00064827834 0.015990715 0.023139596 0.027300527 0.07251268
0.101730764 0.005720044 0.06444849 0.015931005 0.009327645 0.054624688 0.009179218 0.064959474
0.024300339 0.001242746 0.038627468 0.025964247 0.03263307 -0.016449543 0.049703818 0.01276553
0.06719115 0.020649007 0.0054185153 0.0383108 0.031528395 0.026434466 0.01726268 0.018095512
0.04823829 0.035550565 0.0052003046 0.025404071 0.002230623 0.013340389 0.06076067 -0.0019205706
-0.013356357 0.05065888 0.011716801 0.04323238 0.007529438 0.031275503 0.027281353 0.014070064
0.01489124 0.069186725 0.031127755 0.010928987 0.0030652233 0.040980633 -0.008373259 0.0718946
0.025789155 -0.005131158 0.009968137 0.059666082 0.00045113175 0.06870412 0.052815344 0.032685213
0.0118026575 0.0042255213 0.06250594 0.025284166 0.010325428 0.010537529 0.025459567 -0.0035233372
0.048566632 0.004405167 0.017960694 0.02403028 0.02622217 0.028347183 0.014071194 -0.009759574
0.03109683 0.030165927 0.005663645 0.007368285 0.0056471485 0.011020204 0.023317391 0.0061839917
0.029104076 -0.000628779 0.00012490842 0.028705146 0.032156892 0.0015951835 0.02059907 0.016998254
0.0099683935 -0.0053146686 0.024725035 0.045785025 0.04524724 0.07081778 0.0033216835 0.007556461
0.057260882 0.02582099 0.042636648 -0.003727778 0.021912273 0.0010900145 0.032795735 0.016079886
0.051740285 0.017923882 0.02894131 0.02419877 0.011555388 0.035326958 -0.002346397 0.006889694
0.07810471 0.046526268 0.02548824 0.0067616394 0.040542495 0.011247073 0.075355686 0.0007877765
0.023934191 0.029718027 0.0015603339 0.049291544 0.0420447 0.07607696 0.05155293 0.057863872
0.048150245 -0.0045351787 0.017868584 0.042499598 0.02061134 0.00457283 0.018152231 0.036942776
0.13540176 0.01294313 0.019093957 0.07197842 0.05279904 0.0058267 0.039440237 -0.0026025032
0.019697236 0.028017603 0.043749165 0.03209267 0.019612992 0.011882948 0.0051503275 0.026196592
-0.012540201 0.03696115 0.03185326 0.06801228 0.08984807 0.0745344 0.017892951 0.016632808
0.004236907 0.027506975 -0.0039296057 -0.0020600809 0.03571082 0.04184719 0.012654551 0.015030943
0.016961277 0.034709174 0.035972614 0.014037531 0.05004647 -0.000902482 0.0008628773 0.042791978
0.009477013 0.03240142 -0.0013716853 0.007840081 0.007089782 -0.001270456 0.022340916 0.040181946
0.033479266 0.023532426 0.022223748 0.047348157 0.012525152 -0.0066563603 0.0044889227 0.028061567
0.027209872 0.004717171 0.026387392 0.023066927 0.04761078 0.048780605 -0.013799058 0.0023085955
0.0073027997 -0.027403539 0.026235746 0.065667234 0.055735346 0.029117353 0.0026190928 0.04634921
0.04087634 -0.00139464 0.05393646 0.031382054 0.010367509 0.07505135 0.0132432375 0.075859666

network_body._body_endoder.seq_layers.0.weight f4 [256, 29]
00000000: ec11 36bd 49cc 073e 72f4 993d c0c4 d1be
00000010: b0a6 91be 58aa c7be f674 25be 3faa a53e
00000020: 3779 82bc ee24 36be f1b5 0dbe 15f4 bc3c
00000030: 5b44 58bd cfa5 bbbe baa4 933d b000 953d
00000040: 9af4 36bd a016 0abe b9e9 4dbe d7f4 173e
00000050: 09d5 6d3c ebb5 dd3d 995e bc3d 1ace 30be
00000060: db5e 0bbe 688b 32be 79bd babe 276a b3be
00000070: 846f 4cbe bdbe 84be b3e0 85bc 4e7a 1ebe
00000080: cbb2 7a3e 2ef4 30bd d19b ec3e 4b60 183e
00000090: 08dc abbd d7ea 453e 1812 b73d 53fc 5f3c
000000a0: 456b 4a3e 46dc ac3d 2e39 0cbe 61d4 33bd
000000b0: 7bf7 09be b038 173e b83f b7bd eb56 8cbe
000000c0: e7b5 be3e 4f18 ef3d c7b7 0c3e 3886 ae3d
000000d0: 0989 053e 9ce9 12be db38 eabc e27e 6f3e
000000e0: 44b2 473e 9470 a3be 182f 52be 19d2 2d3e
000000f0: 2ada 063e 2c5c bcbd 84ed 963e a910 483d
00000100: dea3 96be c5a0 b9bd b6c1 cb3d b4b4 333c
00000110: cf6f 56be 9e41 8e3c d53f 043e 4c32 c8bd
00000120: 684c ca3d 58ac bfbc 30f3 ebbd 9ff2 1cbe
00000130: 6117 cc3e 4738 17bd fe4d dd3c 2327 f23c
00000140: 6971 2f3e 60df 76bd b44a fc3d 6cbb b13c
00000150: 442d cf3e b34d 23bd d306 9b3e ec45 1e3e
00000160: 955f bbbd f0d8 0b3e 567b 07be 3a19 443e
00000170: 2c56 cb3e cfc1 9cbe 9573 c5bd abf4 75be
00000180: 60f4 943d 0201 f63d 362c 753e 3c6f 8d3c
00000190: 19b2 8f3e e8ac 9dbd e6d6 37be f381 853e
000001a0: 8ad3 cebe 615b ddbd 006e 4d3d 7c00 d63e
000001b0: 6673 b53e 3902 bcbc f8b1 60be c191 83be
000001c0: de82 023e 66f0 a43e 165b b33d 409b 233e
000001d0: 43d2 003e 0dfd 7dbd 9b89 3cbe b335 edbb
000001e0: 8b9f 793e 3686 c23e 0c0a 0d3d 2ab7 96be
000001f0: 3b46 dc3d e9d9 3abe 4319 db3d 0827 293d
00000200: d58e 03be 926d 1cbd fc19 66be a0f4 7d3e
00000210: ce0f 343e 0d1e 953e a243 ae3b 6c72 973d
00000220: 8762 b33c ebc0 7e3e 97a1 c9be dd81 413e
00000230: 90b6 68be 8445 383e 9179 40be d192 1bbe
00000240: a3a7 ad3d 59e3 65be fd5b 81be 0894 153e
00000250: 5719 ba3d 0c99 623d 55cf 043e e399 0dbe
00000260: 9a05 933e 3ff4 72bd 8b30 95bd 4d25 29be
00000270: 3abc 263d 26f1 803e 4bc1 1c3e 7f15 adbb
00000280: 200b 39bd 87d9 963d 1c58 f63d ee4b 9b3d
00000290: 0668 7fbe 3fd0 58bd 507c 1fbd d4ae 9c3e
000002a0: 27de d7be 42ee bdbc 05b7 523d c589 853d
000002b0: 7e05 a63e 7f90 00ba 7418 fb3d 8f0b a2be
000002c0: aedf 8a3d 5c44 20bd e8b8 22be f634 863e
000002d0: 3a56 dfbd 078b 773e 314a df3c 823b b93e
000002e0: d692 313e 7a17 34be a584 d63d 45a0 b8bd
000002f0: d962 27be e024 80bc ab5e 48be 0c9c 13be
00000300: 8560 76be dd39 553e 3bf3 a13e aa9d 963e
00000310: bf6a b1be 1006 9ebe c55c 60be 3b21 c7bd
00000320: a272 8cbb 12cf 343d 8d16 ca3d a938 fdbd
00000330: 9039 3cbe 4d6b c6bd 05c9 42bd c112 41bd
00000340: b341 dbba 3e21 d03e eed2 2bbe 88c9 98be
00000350: deb7 c33c 002e e13d f739 19be 03e7 a13e
00000360: 9f06 f2bd 58d8 393e b69b 54be 8e46 a5be
00000370: 1648 c03d fc77 38bc 1ce3 dcbe 02b9 c5be
00000380: 8693 dc3c 0bde d73d 3142 4dbe 8db1 513e
00000390: 0f8f 14be d8e6 02bf ff24 95be d611 383d
000003a0: ef3b f33d 4a5a e23d 37d9 ba3e e42e 6e3d
000003b0: c17b df3e 35b2 983e 1ce3 9dbe bac2 c2be
000003c0: ba72 15be d901 5abe 41c6 a8be 8451 a8be
000003d0: 088d a83d b07e ba3d 2f4a 3c3e 0583 25be
000003e0: 9598 46be 1c6f 513d f7c2 ad3e beda 47bd
000003f0: efef a13e bf0f 2e3e 6776 2dbe cad2 16be
-0.044450685 0.13261522 0.07517327 -0.4097042 -0.28447485 -0.3899715 -0.16157898 0.3235645
-0.01592694 -0.17787525 -0.13838936 0.023065606 -0.052799564 -0.3664994 0.072091535 0.07275522
-0.044666864 -0.13485193 -0.2010869 0.14839493 0.014516124 0.10825714 0.091977306 -0.17266122
-0.13610403 -0.17435992 -0.3647268 -0.35041925 -0.19964415 -0.25926772 -0.016342496 -0.15476343
0.24482267 -0.043201618 0.46212628 0.14880483 -0.08391577 0.19327866 0.08938998 0.013670999
0.19767483 0.08440451 -0.13693687 -0.043903712 -0.13473313 0.14767718 -0.089477 -0.27410063
0.37248155 0.11674558 0.1374198 0.08521694 0.13040556 -0.14346927 -0.028591564 0.23388246
0.19501597 -0.31921828 -0.20525777 0.16974677 0.1316916 -0.09197268 0.29478085 0.048844013
-0.29421896 -0.090638675 0.09949057 0.010968376 -0.20941089 0.017365273 0.12914975 -0.09775218
0.098778546 -0.02339761 -0.11520994 -0.15326928 0.39861587 -0.036918905 0.027014729 0.029559677
0.17133106 -0.06027162 0.12318936 0.021695815 0.40464222 -0.03986902 0.30278644 0.1545636
-0.0914909 0.13656974 -0.13230643 0.19150248 0.3971418 -0.30616614 -0.09641186 -0.24019115
0.07273173 0.12011911 0.23942646 0.017264955 0.28065565 -0.07698995 -0.17953071 0.26075706
-0.40395766 -0.10808445 0.050153732 0.41797245 0.35439605 -0.022950279 -0.2194289 -0.2569714
0.12745234 0.3221466 0.08757608 0.15977192 0.12580208 -0.062008906 -0.18411867 -0.0072390675
0.24377267 0.3799302 0.03443341 -0.29436618 0.10755583 -0.18247189 0.10698178 0.04129699
-0.12847455 -0.038190432 -0.2247085 0.24800348 0.17584154 0.2912449 0.005318121 0.07394871
0.021897567 0.2487828 -0.39381096 0.18897195 -0.22725892 0.17995268 -0.18796374 -0.15192725
0.0847924 -0.22450007 -0.25265494 0.1460725 0.090868644 0.055321738 0.12969716 -0.13828234
0.2871521 -0.059314962 -0.072846495 -0.16518135 0.04070685 0.25183982 0.1530811 -0.0052821035
-0.045176625 0.07365709 0.12028524 0.07582842 -0.24942026 -0.052932974 -0.038936913 0.30602133
-0.42161676 -0.0231849 0.051444072 0.06520418 0.32426065 -0.0004904344 0.122605234 -0.31649444
0.06780945 -0.039127693 -0.15890849 0.2621228 -0.10905118 0.24174128 0.027257057 0.36178213
0.1734117 -0.1758708 0.10474519 -0.09014944 -0.16346301 -0.015642583 -0.19567363 -0.14414996
-0.24060257 0.20822854 0.31630883 0.29417163 -0.34651753 -0.30864 -0.21910389 -0.09723135
-0.0042861262 0.04414279 0.098675825 -0.12364323 -0.18381333 -0.09688435 -0.04755499 -0.047137026
-0.0016727954 0.40650362 -0.16779682 -0.29841256 0.023891386 0.10995102 -0.14963518 0.3162156
-0.11817669 0.18148935 -0.20762524 -0.3228039 0.09388749 -0.011259075 -0.4314202 -0.38617712
0.026925813 0.10540398 -0.20044781 0.20477886 -0.14507698 -0.5113349 -0.29129788 0.044938885
0.11876666 0.110523775 0.36493847 0.058150187 0.43649104 0.2982346 -0.30837333 -0.3803919
-0.14594546 -0.21289767 -0.32963756 -0.3287469 0.082300246 0.09106195 0.18387674 -0.16163261
-0.19394143 0.051131353 0.3393781 -0.048792593 0.31628367 0.16998194 -0.16939698 -0.14728847
