ml-agents-release_20/Result/Dino/Dino07/Dino/Dino-768863.pt (torch, 205607 bytes, 21 tensors)

network_body._body_endoder.seq_layers.0.weight f4 [256, 29]
000000 ec 11 36 bd 49 cc 07 3e 72 f4 99 3d c0 c4 d1 be
       -0.044450685 0.13261522 0.07517327 -0.4097042
000010 b0 a6 91 be 58 aa c7 be f6 74 25 be 3f aa a5 3e
       -0.28447485 -0.3899715 -0.16157898 0.3235645
000020 37 79 82 bc ee 24 36 be f1 b5 0d be 15 f4 bc 3c
       -0.01592694 -0.17787525 -0.13838936 0.023065606
000030 5b 44 58 bd cf a5 bb be ba a4 93 3d b0 00 95 3d
       -0.052799564 -0.3664994 0.072091535 0.07275522
000040 9a f4 36 bd a0 16 0a be b9 e9 4d be d7 f4 17 3e
       -0.044666864 -0.13485193 -0.2010869 0.14839493
000050 09 d5 6d 3c eb b5 dd 3d 99 5e bc 3d 1a ce 30 be
       0.014516124 0.10825714 0.091977306 -0.17266122
000060 db 5e 0b be 68 8b 32 be 79 bd ba be 27 6a b3 be
       -0.13610403 -0.17435992 -0.3647268 -0.35041925
000070 84 6f 4c be bd be 84 be b3 e0 85 bc 4e 7a 1e be
       -0.19964415 -0.25926772 -0.016342496 -0.15476343
000080 cb b2 7a 3e 2e f4 30 bd d1 9b ec 3e 4b 60 18 3e
       0.24482267 -0.043201618 0.46212628 0.14880483
000090 08 dc ab bd d7 ea 45 3e 18 12 b7 3d 53 fc 5f 3c
       -0.08391577 0.19327866 0.08938998 0.013670999
0000a0 45 6b 4a 3e 46 dc ac 3d 2e 39 0c be 61 d4 33 bd
       0.19767483 0.08440451 -0.13693687 -0.043903712
0000b0 7b f7 09 be b0 38 17 3e b8 3f b7 bd eb 56 8c be
       -0.13473313 0.14767718 -0.089477 -0.27410063
0000c0 e7 b5 be 3e 4f 18 ef 3d c7 b7 0c 3e 38 86 ae 3d
       0.37248155 0.11674558 0.1374198 0.08521694
0000d0 09 89 05 3e 9c e9 12 be db 38 ea bc e2 7e 6f 3e
       0.13040556 -0.14346927 -0.028591564 0.23388246
0000e0 44 b2 47 3e 94 70 a3 be 18 2f 52 be 19 d2 2d 3e
       0.19501597 -0.31921828 -0.20525777 0.16974677
0000f0 2a da 06 3e 2c 5c bc bd 84 ed 96 3e a9 10 48 3d
       0.1316916 -0.09197268 0.29478085 0.048844013
000100 de a3 96 be c5 a0 b9 bd b6 c1 cb 3d b4 b4 33 3c
       -0.29421896 -0.090638675 0.09949057 0.010968376
000110 cf 6f 56 be 9e 41 8e 3c d5 3f 04 3e 4c 32 c8 bd
       -0.20941089 0.017365273 0.12914975 -0.09775218
000120 68 4c ca 3d 58 ac bf bc 30 f3 eb bd 9f f2 1c be
       0.098778546 -0.02339761 -0.11520994 -0.15326928
000130 61 17 cc 3e 47 38 17 bd fe 4d dd 3c 23 27 f2 3c
       0.39861587 -0.036918905 0.027014729 0.029559677
000140 69 71 2f 3e 60 df 76 bd b4 4a fc 3d 6c bb b1 3c
       0.17133106 -0.06027162 0.12318936 0.021695815
000150 44 2d cf 3e b3 4d 23 bd d3 06 9b 3e ec 45 1e 3e
       0.40464222 -0.03986902 0.30278644 0.1545636
000160 95 5f bb bd f0 d8 0b 3e 56 7b 07 be 3a 19 44 3e
       -0.0914909 0.13656974 -0.13230643 0.19150248
000170 2c 56 cb 3e cf c1 9c be 95 73 c5 bd ab f4 75 be
       0.3971418 -0.30616614 -0.09641186 -0.24019115
000180 60 f4 94 3d 02 01 f6 3d 36 2c 75 3e 3c 6f 8d 3c
       0.07273173 0.12011911 0.23942646 0.017264955
000190 19 b2 8f 3e e8 ac 9d bd e6 d6 37 be f3 81 85 3e
       0.28065565 -0.07698995 -0.17953071 0.26075706
0001a0 8a d3 ce be 61 5b dd bd 00 6e 4d 3d 7c 00 d6 3e
       -0.40395766 -0.10808445 0.050153732 0.41797245
0001b0 66 73 b5 3e 39 02 bc bc f8 b1 60 be c1 91 83 be
       0.35439605 -0.022950279 -0.2194289 -0.2569714
0001c0 de 82 02 3e 66 f0 a4 3e 16 5b b3 3d 40 9b 23 3e
       0.12745234 0.3221466 0.08757608 0.15977192
0001d0 43 d2 00 3e 0d fd 7d bd 9b 89 3c be b3 35 ed bb
       0.12580208 -0.062008906 -0.18411867 -0.0072390675
0001e0 8b 9f 79 3e 36 86 c2 3e 0c 0a 0d 3d 2a b7 96 be
       0.24377267 0.3799302 0.03443341 -0.29436618
0001f0 3b 46 dc 3d e9 d9 3a be 43 19 db 3d 08 27 29 3d
       0.10755583 -0.18247189 0.10698178 0.04129699
000200 d5 8e 03 be 92 6d 1c bd fc 19 66 be a0 f4 7d 3e
       -0.12847455 -0.038190432 -0.2247085 0.24800348
000210 ce 0f 34 3e 0d 1e 95 3e a2 43 ae 3b 6c 72 97 3d
       0.17584154 0.2912449 0.005318121 0.07394871
000220 87 62 b3 3c eb c0 7e 3e 97 a1 c9 be dd 81 41 3e
       0.021897567 0.2487828 -0.39381096 0.18897195
000230 90 b6 68 be 84 45 38 3e 91 79 40 be d1 92 1b be
       -0.22725892 0.17995268 -0.18796374 -0.15192725
000240 a3 a7 ad 3d 59 e3 65 be fd 5b 81 be 08 94 15 3e
       0.0847924 -0.22450007 -0.25265494 0.1460725
000250 57 19 ba 3d 0c 99 62 3d 55 cf 04 3e e3 99 0d be
       0.090868644 0.055321738 0.12969716 -0.13828234
000260 9a 05 93 3e 3f f4 72 bd 8b 30 95 bd 4d 25 29 be
       0.2871521 -0.059314962 -0.072846495 -0.16518135
000270 3a bc 26 3d 26 f1 80 3e 4b c1 1c 3e 7f 15 ad bb
       0.04070685 0.25183982 0.1530811 -0.0052821035
000280 20 0b 39 bd 87 d9 96 3d 1c 58 f6 3d ee 4b 9b 3d
       -0.045176625 0.07365709 0.12028524 0.07582842
000290 06 68 7f be 3f d0 58 bd 50 7c 1f bd d4 ae 9c 3e
       -0.24942026 -0.052932974 -0.038936913 0.30602133
0002a0 27 de d7 be 42 ee bd bc 05 b7 52 3d c5 89 85 3d
       -0.42161676 -0.0231849 0.051444072 0.06520418
0002b0 7e 05 a6 3e 7f 90 00 ba 74 18 fb 3d 8f 0b a2 be
       0.32426065 -0.0004904344 0.122605234 -0.31649444
0002c0 ae df 8a 3d 5c 44 20 bd e8 b8 22 be f6 34 86 3e
       0.06780945 -0.039127693 -0.15890849 0.2621228
0002d0 3a 56 df bd 07 8b 77 3e 31 4a df 3c 82 3b b9 3e
       -0.10905118 0.24174128 0.027257057 0.36178213
0002e0 d6 92 31 3e 7a 17 34 be a5 84 d6 3d 45 a0 b8 bd
       0.1734117 -0.1758708 0.10474519 -0.09014944
0002f0 d9 62 27 be e0 24 80 bc ab 5e 48 be 0c 9c 13 be
       -0.16346301 -0.015642583 -0.19567363 -0.14414996
000300 85 60 76 be dd 39 55 3e 3b f3 a1 3e aa 9d 96 3e
       -0.24060257 0.20822854 0.31630883 0.29417163
000310 bf 6a b1 be 10 06 9e be c5 5c 60 be 3b 21 c7 bd
       -0.34651753 -0.30864 -0.21910389 -0.09723135
000320 a2 72 8c bb 12 cf 34 3d 8d 16 ca 3d a9 38 fd bd
       -0.0042861262 0.04414279 0.098675825 -0.12364323
000330 90 39 3c be 4d 6b c6 bd 05 c9 42 bd c1 12 41 bd
       -0.18381333 -0.09688435 -0.04755499 -0.047137026
000340 b3 41 db ba 3e 21 d0 3e ee d2 2b be 88 c9 98 be
       -0.0016727954 0.40650362 -0.16779682 -0.29841256
000350 de b7 c3 3c 00 2e e1 3d f7 39 19 be 03 e7 a1 3e
       0.023891386 0.10995102 -0.14963518 0.3162156
000360 9f 06 f2 bd 58 d8 39 3e b6 9b 54 be 8e 46 a5 be
       -0.11817669 0.18148935 -0.20762524 -0.3228039
000370 16 48 c0 3d fc 77 38 bc 1c e3 dc be 02 b9 c5 be
       0.09388749 -0.011259075 -0.4314202 -0.38617712
000380 86 93 dc 3c 0b de d7 3d 31 42 4d be 8d b1 51 3e
       0.026925813 0.10540398 -0.20044781 0.20477886
000390 0f 8f 14 be d8 e6 02 bf ff 24 95 be d6 11 38 3d
       -0.14507698 -0.5113349 -0.29129788 0.044938885
0003a0 ef 3b f3 3d 4a 5a e2 3d 37 d9 ba 3e e4 2e 6e 3d
       0.11876666 0.110523775 0.36493847 0.058150187
0003b0 c1 7b df 3e 35 b2 98 3e 1c e3 9d be ba c2 c2 be
       0.43649104 0.2982346 -0.30837333 -0.3803919
0003c0 ba 72 15 be d9 01 5a be 41 c6 a8 be 84 51 a8 be
       -0.14594546 -0.21289767 -0.32963756 -0.3287469
0003d0 08 8d a8 3d b0 7e ba 3d 2f 4a 3c 3e 05 83 25 be
       0.082300246 0.09106195 0.18387674 -0.16163261
0003e0 95 98 46 be 1c 6f 51 3d f7 c2 ad 3e be da 47 bd
       -0.19394143 0.051131353 0.3393781 -0.048792593
0003f0 ef ef a1 3e bf 0f 2e 3e 67 76 2d be ca d2 16 be
       0.31628367 0.16998194 -0.16939698 -0.14728847

network_body._body_endoder.seq_layers.0.bias f4 [256]
000000 ce 93 25 bd f3 bb 2e 3a cb fc 83 3c 23 a8 91 3c
       -0.04042416 0.000666558 0.016111752 0.01778037
000010 6e e7 96 3c 8c f0 32 ba c3 55 8d 3c 45 9f 46 bc
       0.018420901 -0.00068260054 0.017252808 -0.012122934
000020 8c 2e 3f 3d 05 d6 d5 3c 82 6d ef 3c 54 c3 c8 bb
       0.04667525 0.026103029 0.029227022 -0.0061268006
000030 27 7a 9a 3c 6d 08 00 3d 90 16 18 3d 73 3d 06 3d
       0.018857075 0.031258035 0.037130892 0.032773446
000040 21 cc fa 3d e3 cd f8 3c 07 85 0d bc 39 ed 95 3c
       0.12245966 0.030371612 -0.008637673 0.018301593
000050 6d 75 5e b9 62 48 2a 3d 1a c3 3d 3d a7 59 55 3d
       -0.00021215314 0.041572936 0.04632864 0.052087452
000060 00 2f 21 3c ae 1b 56 3d b1 10 2e bb a6 16 6e bb
       0.009837866 0.05227249 -0.0026560242 -0.0036329417
000070 17 57 8c 3b 4d a4 80 b7 01 89 58 3d 58 c7 21 b9
       0.004282843 -1.5335298e-05 0.052865032 -0.00015428418
000080 20 e8 d0 39 a8 1b 18 3d d2 b2 99 3b 39 f1 29 ba
       0.00039845798 0.03713575 0.0046905065 -0.00064827834
000090 f6 fe 82 3c 40 8f bd 3c 5b a5 df 3c 87 81 94 3d
       0.015990715 0.023139596 0.027300527 0.07251268
0000a0 38 58 d0 3d 35 6f bb 3b 92 fd 83 3d bd 81 82 3c
       0.101730764 0.005720044 0.06444849 0.015931005
0000b0 fb d2 18 3c 23 be 5f 3d 6e 64 16 3c 79 09 85 3d
       0.009327645 0.054624688 0.009179218 0.064959474
0000c0 81 11 c7 3c a3 e3 a2 3a d6 37 1e 3d f9 b2 d4 3c
       0.024300339 0.001242746 0.038627468 0.025964247
0000d0 41 aa 05 3d 31 c1 86 bc 3b 96 4b 3d 83 26 51 3c
       0.03263307 -0.016449543 0.049703818 0.01276553
0000e0 83 9b 89 3d 1b 28 a9 3c cd 8d b1 3b c9 eb 1c 3d
       0.06719115 0.020649007 0.0054185153 0.0383108
0000f0 eb 23 01 3d 18 8d d8 3c 77 6a 8d 3c 0a 3d 94 3c
       0.031528395 0.026434466 0.01726268 0.018095512
000100 83 95 45 3d 78 9d 11 3d 51 67 aa 3b 33 1c d0 3c
       0.04823829 0.035550565 0.0052003046 0.025404071
000110 a5 2f 12 3b a6 91 5a 3c 2e e0 78 3d a8 bb fb ba
       0.002230623 0.013340389 0.06076067 -0.0019205706
000120 9f d4 5a bc b0 7f 4f 3d d3 f7 3f 3c 70 14 31 3d
       -0.013356357 0.05065888 0.011716801 0.04323238
000130 81 b9 f6 3b be 1a 00 3d 25 7d df 3c 20 86 66 3c
       0.007529438 0.031275503 0.027281353 0.014070064
000140 63 fa 73 3c c5 b1 8d 3d a2 ff fe 3c 7e 0f 33 3c
       0.01489124 0.069186725 0.031127755 0.010928987
000150 ea e1 48 3b 4f db 27 3d fe 2f 09 bc 7a 3d 93 3d
       0.0030652233 0.040980633 -0.008373259 0.0718946
000160 c7 43 d3 3c 46 23 a8 bb 66 51 23 3c 6c 64 74 3d
       0.025789155 -0.005131158 0.009968137 0.059666082
000170 e1 85 ec 39 bf b4 8c 3d e7 54 58 3d ee e0 05 3d
       0.00045113175 0.06870412 0.052815344 0.032685213
000180 ef 5f 41 3c 3e 76 8a 3b 1d 03 80 3d bd 20 cf 3c
       0.0118026575 0.0042255213 0.06250594 0.025284166
000190 fc 2b 29 3c 9a a5 2c 3c 95 90 d0 3c ca e7 66 bb
       0.010325428 0.010537529 0.025459567 -0.0035233372
0001a0 ce ed 46 3d 38 59 90 3b 4e 22 93 3c 26 db c4 3c
       0.048566632 0.004405167 0.017960694 0.02403028
0001b0 e0 cf d6 3c 5a 38 e8 3c de 8a 66 3c 9f e6 1f bc
       0.02622217 0.028347183 0.014071194 -0.009759574
0001c0 c7 be fe 3c 89 1e f7 3c 19 96 b9 3b a8 71 f1 3b
       0.03109683 0.030165927 0.005663645 0.007368285
0001d0 b7 0b b9 3b 16 8e 34 3c 1d 04 bf 3c 15 a3 ca 3b
       0.0056471485 0.011020204 0.023317391 0.0061839917
0001e0 ac 6b ee 3c a5 d4 24 ba d9 f9 02 39 0e 27 eb 3c
       0.029104076 -0.000628779 0.00012490842 0.028705146
0001f0 f2 b6 03 3d 7a 15 d1 3a 61 bf a8 3c ec 3f 8b 3c
       0.032156892 0.0015951835 0.02059907 0.016998254
000200 79 52 23 3c ac 26 ae bb 28 8c ca 3c 14 89 3b 3d
       0.0099683935 -0.0053146686 0.024725035 0.045785025
000210 2c 55 39 3d ea 08 91 3d 9a b0 59 3b 30 9c f7 3b
       0.04524724 0.07081778 0.0033216835 0.007556461
000220 63 8a 6a 3d 8a 86 d3 3c c4 a3 2e 3d bd 4d 74 bb
       0.057260882 0.02582099 0.042636648 -0.003727778
000230 5e 81 b3 3c d1 de 8e 3a d2 54 06 3d f7 b9 83 3c
       0.021912273 0.0010900145 0.032795735 0.016079886
000240 9f ed 53 3d 1b d5 92 3c 53 16 ed 3c 80 3c c6 3c
       0.051740285 0.017923882 0.02894131 0.02419877
000250 cf 52 3d 3c 00 b3 10 3d 02 c6 19 bb f1 c2 e1 3b
       0.011555388 0.035326958 -0.002346397 0.006889694
000260 5d f5 9f 3d 54 92 3e 3d b7 cc d0 3c be 90 dd 3b
       0.07810471 0.046526268 0.02548824 0.0067616394
000270 e3 0f 26 3d a5 45 38 3c 15 54 9a 3d c9 82 4e 3a
       0.040542495 0.011247073 0.075355686 0.0007877765
000280 a3 11 c4 3c 38 73 f3 3c 1e 84 cc 3a ee e5 49 3d
       0.023934191 0.029718027 0.0015603339 0.049291544
000290 10 37 2c 3d 3d ce 9b 3d 2a 29 53 3d ab 02 6d 3d
       0.0420447 0.07607696 0.05155293 0.057863872
0002a0 31 39 45 3d d6 9b 94 bb 23 61 92 3c 0f 14 2e 3d
       0.048150245 -0.0045351787 0.017868584 0.042499598
0002b0 1d d9 a8 3c ae d7 95 3b fd b3 94 3c 4f 51 17 3d
       0.02061134 0.00457283 0.018152231 0.036942776
0002c0 c2 a6 0a 3e 6c 0f 54 3c ee 6a 9c 3c 6c 69 93 3d
       0.13540176 0.01294313 0.019093957 0.07197842
0002d0 ce 43 58 3d e7 ed be 3b 16 8c 21 3d c2 8e 2a bb
       0.05279904 0.0058267 0.039440237 -0.0026025032
0002e0 19 5c a1 3c 2c 85 e5 3c 53 32 33 3d 9b 73 03 3d
       0.019697236 0.028017603 0.043749165 0.03209267
0002f0 6d ab a0 3c b2 b0 42 3c 14 c4 a8 3b 3c 9a d6 3c
       0.019612992 0.011882948 0.0051503275 0.026196592
000300 6a 75 4d bc 93 64 17 3d 90 78 02 3d 06 4a 8b 3d
       -0.012540201 0.03696115 0.03185326 0.06801228
000310 44 02 b8 3d 7e a5 98 3d 3d 94 92 3c 87 41 88 3c
       0.08984807 0.0745344 0.017892951 0.016632808
000320 c1 d5 8a 3b 4f 56 e1 3c ec c3 80 bb 6c 02 07 bb
       0.004236907 0.027506975 -0.0039296057 -0.0020600809
000330 82 45 12 3d f6 67 2b 3d 09 55 4f 3c 58 44 76 3c
       0.03571082 0.04184719 0.012654551 0.015030943
000340 60 f2 8a 3c 35 2b 0e 3d 05 58 13 3d ac fd 65 3c
       0.016961277 0.034709174 0.035972614 0.014037531
000350 87 fd 4c 3d 8b 94 6c ba b7 32 62 3a a4 46 2f 3d
       0.05004647 -0.000902482 0.0008628773 0.042791978
000360 79 45 1b 3c 5a b7 04 3d 1f ca b3 ba af 73 00 3c
       0.009477013 0.03240142 -0.0013716853 0.007840081
000370 67 51 e8 3b 6e 85 a6 ba 4c 04 b7 3c d3 95 24 3d
       0.007089782 -0.001270456 0.022340916 0.040181946
000380 8e 21 09 3d 13 c7 c0 3c 94 0e b6 3c 24 f0 41 3d
       0.033479266 0.023532426 0.022223748 0.047348157
000390 4c 36 4d 3c 99 1d da bb d0 17 93 3b 5f e1 e5 3c
       0.012525152 -0.0066563603 0.0044889227 0.028061567
0003a0 3d e7 de 3c 80 92 9a 3b 5f 2a d8 3c da f6 bc 3c
       0.027209872 0.004717171 0.026387392 0.023066927
0003b0 85 03 43 3d 2c ce 47 3d 72 15 62 bc ce 4b 17 3b
       0.04761078 0.048780605 -0.013799058 0.0023085955
0003c0 53 4c ef 3b 63 7d e0 bc 59 ec d6 3c 8b 7c 86 3d
       0.0073027997 -0.027403539 0.026235746 0.065667234
0003d0 bf 4a 64 3d 84 87 ee 3c 16 a5 2b 3b ab d8 3d 3d
       0.055735346 0.029117353 0.0026190928 0.04634921
0003e0 f3 6d 27 3d 5a cc b6 ba 7a ec 5c 3d 78 8a 00 3d
       0.04087634 -0.00139464 0.05393646 0.031382054
0003f0 7c dc 29 3c 86 b4 99 3d 2a fa 58 3c 50 5c 9b 3d
       0.010367509 0.07505135 0.0132432375 0.075859666

action_model._discrete_distribution.branches.0.weight f4 [2, 256]
000000 61 c6 48 bb 90 cc ce bc f0 68 5a bd 5c 83 67 bd
       -0.0030635821 -0.025244027 -0.053322732 -0.05652176
000010 a7 a7 bb bc 8b 19 a7 bc ba 2a 54 bd 7b 52 cc bb
       -0.022907091 -0.020397922 -0.05179856 -0.0062354184
000020 88 81 d4 bd 6c 36 c4 bd 6e c7 8f bd f2 39 25 bc
       -0.103762686 -0.09580693 -0.0702046 -0.010084616
000030 9e 5e 60 bd 93 d6 3f 3d 1b a6 fd bd c8 2c c8 bd
       -0.054777734 0.046835493 -0.12385198 -0.09774166
000040 b3 65 07 be 18 1d ce bd fd d3 ce ba 40 f0 00 bd
       -0.13222389 -0.10064143 -0.001577973 -0.03147912
000050 28 e1 de 3c 1d 64 cb bc 2b 4b 9a bc a3 14 a3 3d
       0.027206972 -0.024828011 -0.018834671 0.079629205
000060 53 1e 96 ba c5 f9 8e bd 07 16 24 3c 4c 0b 84 bc
       -0.0011453129 -0.069812335 0.010015017 -0.016118668
000070 e0 86 99 3b be f4 42 3c 8a 32 bc bd dd a0 a4 bc
       0.004685268 0.011899171 -0.09189327 -0.020096237
000080 7f f5 14 bc db ed 9d 3d 48 c9 b3 3c e5 55 a2 bc
       -0.009091734 0.07711383 0.021946564 -0.019816348
000090 0e 8f 09 3d 95 90 68 3d 0f 67 b0 bd a4 e6 f4 3d
       0.033583693 0.05677851 -0.08613407 0.11958054
0000a0 d2 b7 e9 bd 66 ac 1b bd 0d 3e d4 3d b5 fe b3 bd
       -0.11412014 -0.03800621 0.10363398 -0.08788816
0000b0 34 c1 28 3d b8 c9 bb bd d6 9a a7 3c ce 89 d2 bd
       0.041199878 -0.09169334 0.020459574 -0.102801904
0000c0 8a 36 e9 bd 08 14 41 bc af 24 76 3d a6 f1 ab bd
       -0.113873556 -0.011784561 0.060093578 -0.083957
0000d0 f6 77 c2 bd 1f cb 53 3c 65 4c 07 bd 02 92 1e 3d
       -0.09495537 0.012926846 -0.03303184 0.038713463
0000e0 fc 15 02 be 56 93 02 bc 77 81 e3 bc 2f 4f e6 bd
       -0.12703699 -0.007969698 -0.027771695 -0.11245572
0000f0 d9 80 b7 bd 43 a3 b5 bd c3 80 31 3d e7 08 51 bd
       -0.089601226 -0.0886903 0.043335687 -0.05103388
000100 e0 35 ab bd 79 cd a3 bd 42 5d e5 bc b2 21 94 bc
       -0.08359885 -0.07998175 -0.02799857 -0.018082473
000110 59 52 ad bc e0 0a 28 3d 50 27 09 3e 54 1f 80 bc
       -0.02115743 0.041025996 0.13393903 -0.015639938
000120 26 fd 56 bc ef 15 b1 bd b0 4e 35 bd 9f 27 33 bd
       -0.013121879 -0.086467616 -0.044264495 -0.043738957
000130 9f 53 9e 3c 92 aa 70 bc ac 8a 9e 3d b4 f8 72 bd
       0.019326983 -0.014689105 0.07741293 -0.059319213
000140 f4 68 55 bd fa f2 f0 bd 8d 4c 3e 3d 00 cc 1b 3d
       -0.052102044 -0.11765094 0.046459723 0.038036346
000150 0c 37 52 3a 56 36 eb 3d 82 67 29 bc fa b5 13 be
       0.0008019067 0.11484973 -0.01033962 -0.14424887
000160 5d 12 05 bd d2 a4 0e bc 05 8b 8b 3a 84 fb 91 bd
       -0.032488216 -0.008706288 0.001064629 -0.07128051
000170 a9 67 10 bc 4e ce c9 bd 36 ec c3 3d ff 31 8b 3d
       -0.008813777 -0.098538026 0.09566538 0.067966454
000180 65 cf 2d 3d 31 6a 07 bd 8d db 1a bd ef b2 90 bd
       0.042434115 -0.033060256 -0.037807036 -0.07065379
000190 4b 14 2b bd f7 84 31 bd 81 a7 0e 3d ad b8 8c 3c
       -0.0417674 -0.043339696 0.034827713 0.017177904
0001a0 85 29 d2 bd 42 3a b1 bc 14 1b a6 bd 17 d0 8d bd
       -0.102618255 -0.021634225 -0.081106335 -0.069244556
0001b0 8e 7b 9b bd 61 eb 98 3b 27 19 45 3d bf bb 69 bc
       -0.075919256 0.004666731 0.04811969 -0.014265954
0001c0 7b 0c 0d 3c 30 04 ac bd f0 30 e7 3c 02 58 3f 3d
       0.008608933 -0.08399236 0.028221577 0.04671479
0001d0 57 5b 22 bd 57 a6 19 bd 8b 49 a3 bd b6 82 91 bc
       -0.03963789 -0.03751215 -0.079730116 -0.017762523
0001e0 5d 84 99 bd dd 33 b4 bc 4c 0b 08 3b 6e 34 b6 bd
       -0.074959494 -0.021997387 0.0020758687 -0.08896719
0001f0 10 89 7f bd 82 b0 c2 bc ce 10 46 3d 2d f6 3f 3d
       -0.062386572 -0.023765806 0.04835587 0.04686563
000200 29 47 a5 3c cd 0f 84 bc 70 ad 66 bd a2 05 ac 3b
       0.020175533 -0.016120816 -0.056317747 0.005249695
000210 7a fa cf 3d 14 87 e1 bd f1 e3 18 bd c4 c6 9f bc
       0.101551965 -0.11012092 -0.037326757 -0.019503959
000220 33 00 ce 3d e8 43 43 bd eb d2 c4 bd 34 ef 49 3c
       0.10058632 -0.047672182 -0.09610542 0.012325097
000230 b8 82 80 bd cf 74 c0 bc 03 7f ba bd 8d 84 a2 bd
       -0.062749326 -0.023493199 -0.09106257 -0.07935438
000240 db de c2 bd 50 76 34 3c 34 88 b8 bd e4 b4 54 3d
       -0.095151626 0.011014536 -0.09010354 0.051930323
000250 40 06 94 3c 3f 2b dc 3d 53 3a 10 ba 5d 8c 89 3c
       0.018069386 0.10750436 -0.0005501855 0.016790563
000260 a4 e1 6b 3d 5e b9 e9 3d 92 27 a5 bd 48 55 ea bb
       0.057588235 0.11412309 -0.08064188 -0.0071512796
000270 cb 47 68 3d 65 73 27 bd dc 46 66 3d ab a7 db bc
       0.056709092 -0.040881533 0.05621992 -0.026813349
000280 e2 88 50 3d b6 ca aa 3d d8 88 8e bb 8a 1f 7b 3d
       0.05091179 0.08339445 -0.004349809 0.061309375
000290 f3 ec fc bd 29 f8 7e bd b6 99 d0 3d d5 29 c6 3d
       -0.12349882 -0.062248383 0.10185568 0.096759476
0002a0 82 b7 e6 bd 37 5c 24 bc a7 23 9f bd 65 88 dc 3d
       -0.1126547 -0.010031751 -0.07770472 0.10768203
0002b0 5a 17 6a bd f3 8e ee bc 40 68 47 bd 30 03 aa 3d
       -0.057151176 -0.029120898 -0.048683405 0.08301389
0002c0 28 23 f9 3d 6a b2 22 bb c7 d0 8a bd 1e a4 1c 3e
       0.12164909 -0.0024825581 -0.06778102 0.1529698
0002d0 40 a2 da bd be 0f c0 3c eb 95 c4 bd 0b 84 30 bb
       -0.10675478 0.023445006 -0.09598907 -0.0026934172
0002e0 00 e9 85 3d 7f 84 4b bc 90 cb c1 bd 3f 75 ea bc
       0.06538582 -0.012421726 -0.094626546 -0.02862036
0002f0 54 26 77 3d e4 02 ec 3c 5a 8b ea 3c f7 cc 90 bd
       0.060339287 0.028809972 0.028630901 -0.07070344
000300 78 bd 60 bc b1 60 e4 3d e0 08 c1 3d ce 34 a6 3d
       -0.013717048 0.11151255 0.09425521 0.081155404
000310 8a de e5 bd b9 69 77 3d c5 c5 51 3d ec 06 75 bd
       -0.112240866 0.06040356 0.051214 -0.059821054
000320 25 17 02 bd b3 8c 86 3d d3 61 e1 bb 4a 47 1f bc
       -0.031760354 0.06569805 -0.0068781166 -0.0097215865
000330 9a 81 d7 bc 9b c8 e1 3d f7 d3 1d 3d 6f 6f bc bd
       -0.026306916 0.110245906 0.038532224 -0.09200942
000340 a6 5c 4e 3a 0d 36 f3 bc c3 a5 30 3d 6d 3e 81 bd
       0.0007872082 -0.02968886 0.043126833 -0.06310735
000350 83 80 f4 bd e4 67 aa 3b ea 7f 99 bc 54 76 fa 3d
       -0.11938574 0.005200373 -0.018737752 0.122296005
000360 4b fb 2d bd 3f 10 aa bd 47 b9 93 3b 6a 3f b7 3c
       -0.04247598 -0.0830388 0.0045081708 0.022369105
000370 e3 01 f7 3c ce be 48 3b f1 20 95 3d 4e c0 bd 3d
       0.030152267 0.0030631307 0.07281674 0.09265195
000380 fa 74 ff 3d f7 66 86 3d 28 83 85 3d f4 e7 b4 bd
       0.124734834 0.06562608 0.06519157 -0.08833304
000390 ff bd 89 bc e6 01 2b bc 37 e2 aa 3c ff 9a da bd
       -0.01681423 -0.010437464 0.02085982 -0.106740944
0003a0 da 71 cb bd e7 76 08 bd 1a da 92 bd 8c 88 68 bd
       -0.09933825 -0.03331652 -0.07170506 -0.056770846
0003b0 5e 74 92 bd 85 ed ec 3d c4 97 3a bb bd 9d 9d 3c
       -0.071511015 0.11568741 -0.0028471807 0.019240255
0003c0 1f a9 1b bd 3e 4a 2a bc 43 f6 95 3d 59 12 53 bd
       -0.038003083 -0.010393677 0.07322361 -0.05153117
0003d0 e4 b6 33 3d 0d 60 9e 3d bd c5 0b bd 91 29 b2 3d
       0.04387559 0.07733164 -0.034124125 0.086993344
0003e0 8a bd d3 3d 7f 84 b2 bb 42 f1 03 3e 85 93 b5 bd
       0.10338886 -0.0054479237 0.12885001 -0.08866028
0003f0 9f 33 0f 3d 76 34 b6 3d b9 76 1f 3d 11 c8 8a bd
       0.03496134 0.08896725 0.038931582 -0.06776441

action_model._discrete_distribution.branches.0.bias f4 [2]
000000 06 2e c3 3a d2 2d c3 ba
       0.0014891035 -0.0014890975

exp_avg f4 [256, 29]
000000 88 05 60 b3 41 67 b9 b2 be 9a 41 33 be 9a 41 33
       -5.2159095e-08 -2.1583789e-08 4.507705e-08 4.507705e-08
000010 88 05 60 b3 57 f2 f4 31 a9 91 8c 32 38 e3 02 33
       -5.2159095e-08 7.1288855e-09 1.6364384e-08 3.0474638e-08
000020 88 05 60 b3 4d 3d c5 b2 c3 85 47 33 04 a2 2e 33
       -5.2159095e-08 -2.2961695e-08 4.6454954e-08 4.0659884e-08
000030 17 5c 60 b3 34 28 53 30 14 e2 c3 32 03 1b e6 32
       -5.223782e-08 7.6818485e-10 2.2803796e-08 2.6787808e-08
000040 37 36 67 b3 06 07 bd b2 47 9b 4a 33 a6 3e 3b 33
       -5.3833187e-08 -2.200569e-08 4.7173014e-08 4.359631e-08
000050 26 63 5f b3 40 00 25 30 66 61 c3 32 86 e4 de 32
       -5.201141e-08 6.0027006e-10 2.274528e-08 2.5948122e-08
000060 39 05 5b b3 00 69 d5 b2 47 9b 4a 33 2d ce 3c 33
       -5.099466e-08 -2.4844212e-08 4.7173014e-08 4.3959677e-08
000070 00 00 00 00 07 09 0f b5 9d 62 8a b5 41 0c ef 34
       0.0 -5.328479e-07 -1.0310501e-06 4.4526135e-07
000080 41 0c ef 34 07 09 0f b5 f9 54 2b b6 28 05 04 36
       4.4526135e-07 -5.328479e-07 -2.5530446e-06 1.9672534e-06
000090 dc 92 a3 35 07 09 0f b5 8c 10 92 b5 f5 e1 06 35
       1.2187188e-06 -5.328479e-07 -1.0882663e-06 5.02477e-07
0000a0 e4 04 df 34 25 b8 0d b5 9a 55 05 b6 2f 63 bb 35
       4.1540545e-07 -5.279456e-07 -1.986837e-06 1.3961452e-06
0000b0 a2 de b2 35 19 b4 14 b5 5e b4 90 b5 a6 d4 09 35
       1.3326828e-06 -5.5396373e-07 -1.078133e-06 5.134592e-07
0000c0 f6 b4 f6 34 e2 86 ad b4 c2 dd 12 b6 1d f9 ba 35
       4.5952737e-07 -3.23219e-07 -2.1884775e-06 1.3930581e-06
0000d0 52 d1 b3 35 98 d0 0e b5 20 a6 93 b5 a6 d4 09 35
       1.339746e-06 -5.3202666e-07 -1.1000702e-06 5.134592e-07
0000e0 93 1e fa 34 00 00 00 00 c5 5d 0a b6 1d 48 20 b6
       4.6588374e-07 0.0 -2.0618183e-06 -2.3883833e-06
0000f0 39 38 82 35 39 38 82 35 c5 5d 0a b6 65 c3 c7 b6
       9.702118e-07 9.702118e-07 -2.0618183e-06 -5.953409e-06
000100 62 2d 98 36 f4 27 3b 36 c5 5d 0a b6 b9 03 23 b6
       4.5352363e-06 2.7888427e-06 -2.0618183e-06 -2.429106e-06
000110 80 af 87 35 ea 24 69 35 df 83 09 b6 27 46 a3 b6
       1.0109361e-06 8.685298e-07 -2.049135e-06 -4.8659454e-06
000120 71 86 66 36 5f 7b 52 36 e4 e6 0c b6 40 48 21 b6
       3.4350926e-06 3.136425e-06 -2.0996022e-06 -2.4032925e-06
000130 c6 4a 89 35 43 9f 7b 35 72 3f f0 b5 39 bb ab b6
       1.0229057e-06 9.373654e-07 -1.7899858e-06 -5.1179927e-06
000140 66 0c 66 36 09 d2 55 36 0c 6d 08 b6 17 c2 25 b6
       3.4279888e-06 3.186173e-06 -2.0329053e-06 -2.469989e-06
000150 c6 4a 89 35 8a f7 7d 35 00 00 00 00 3a 10 04 b6
       1.0229057e-06 9.461006e-07 0.0 -1.9678978e-06
000160 64 1c 5b b6 ac e0 95 b5 ac e0 95 b5 3a 10 04 b6
       -3.2650069e-06 -1.1166753e-06 -1.1166753e-06 -1.9678978e-06
000170 dd 5b fe b6 fe aa 56 36 fd bb 8f 35 3a 10 04 b6
       -7.580484e-06 3.1988016e-06 1.0709042e-06 -1.9678978e-06
000180 73 a3 5e b6 8f d2 8e b5 2c 0b 93 b5 6f 2e 03 b6
       -3.3175718e-06 -1.0641105e-06 -1.0955605e-06 -1.954755e-06
000190 0f 5b cd b6 34 8f e7 35 8a 2d c2 35 5f 0e 05 b6
       -6.1200767e-06 1.7252519e-06 1.446738e-06 -1.982691e-06
0001a0 4d 10 5e b6 90 fc 8d b5 28 af 90 b5 4d c3 cd b5
       -3.3090066e-06 -1.0578824e-06 -1.0779813e-06 -1.533053e-06
0001b0 50 46 db b6 a2 a2 e6 35 e3 2c c8 35 bc 96 05 b6
       -6.534894e-06 1.7183668e-06 1.4914225e-06 -1.9906283e-06
0001c0 e8 87 5d b6 90 fc 8d b5 bf 45 90 b5 00 00 00 00
       -3.3010674e-06 -1.0578824e-06 -1.0749135e-06 0.0
0001d0 5e ee 1e b5 2b 53 9f b5 ab 0d f5 b4 ab 0d f5 b4
       -5.9206457e-07 -1.1870628e-06 -4.564475e-07 -4.564475e-07
0001e0 5e ee 1e b5 61 b6 0b b6 9a 58 eb 34 df 7d c9 32
       -5.9206457e-07 -2.0818773e-06 4.3836627e-07 2.345672e-08
0001f0 5e ee 1e b5 bc 78 a1 b5 57 77 ec b4 6d 5a fe b4
       -5.9206457e-07 -1.2030573e-06 -4.4045257e-07 -4.737698e-07
000200 a4 54 1e b5 63 2c fc b5 82 47 7a 34 86 d9 06 34
       -5.8982755e-07 -1.8788381e-06 2.3309079e-07 1.2558857e-07
000210 8d d1 1f b5 ed f3 a1 b5 42 c4 e8 b4 31 9c f4 b4
       -5.953705e-07 -1.2066427e-06 -4.3356164e-07 -4.5562186e-07
000220 4d b5 17 b5 44 62 ff b5 35 79 79 34 f9 dd 1a 34
       -5.651571e-07 -1.902758e-06 2.3234027e-07 1.4423121e-07
000230 7c a3 1d b5 f5 0a a3 b5 42 c4 e8 b4 e9 33 f3 b4
       -5.872496e-07 -1.2147635e-06 -4.3356164e-07 -4.5300047e-07
000240 00 00 00 00 36 9e 04 b5 8a f6 55 b5 c9 fe 82 34
       0.0 -4.940406e-07 -7.9707445e-07 2.4399768e-07
000250 c9 fe 82 34 36 9e 04 b5 85 46 06 b6 6c 51 c2 35
       2.4399768e-07 -4.940406e-07 -2.0008604e-06 1.4477823e-06
000260 1e 8f 64 35 36 9e 04 b5 bb 28 5e b5 2d 63 93 34
       8.514488e-07 -4.940406e-07 -8.2760715e-07 2.7453044e-07
000270 51 ab 51 34 92 99 03 b5 64 08 d3 b5 81 4a 88 35
       1.9526966e-07 -4.9024777e-07 -1.5723167e-06 1.0154473e-06
000280 eb 07 7f 35 62 33 09 b5 23 16 5c b5 54 68 98 34
       9.5006425e-07 -5.111125e-07 -8.19886e-07 2.8388115e-07
000290 e3 3e 7c 34 46 ad c1 b4 f8 1a e4 b5 92 fb 87 35
       2.3492207e-07 -3.6075124e-07 -1.6995173e-06 1.01315e-06
0002a0 97 d6 80 35 06 11 01 b5 7b 38 64 b5 54 68 98 34
       9.599197e-07 -4.808102e-07 -8.501881e-07 2.8388115e-07
0002b0 0f fb 80 34 00 00 00 00 c6 91 c7 b5 15 0c 3f b6
       2.4024527e-07 0.0 -1.4869081e-06 -2.846825e-06
0002c0 b1 0e c1 b5 b1 0e c1 b5 c6 91 c7 b5 ca 2f d8 b6
       -1.4383896e-06 -1.4383896e-06 -1.4869081e-06 -6.442865e-06
0002d0 22 cc 10 36 72 66 c3 34 c6 91 c7 b5 ac d1 40 b6
       2.1576493e-06 3.639612e-07 -1.4869081e-06 -2.8732275e-06
0002e0 79 83 bd b5 e2 43 c8 b5 89 f6 c5 b5 0e a6 af b6
       -1.4119861e-06 -1.4920918e-06 -1.4749395e-06 -5.2347377e-06
0002f0 3c ac 7b 35 fb ca 38 35 b9 67 c9 b5 12 53 40 b6
       9.375542e-07 6.8840717e-07 -1.5005854e-06 -2.8658583e-06
000300 c6 aa bc b5 6a 24 c3 b5 10 6c 9e b5 81 4d b9 b6
       -1.4056793e-06 -1.453923e-06 -1.1803368e-06 -5.5224523e-06
000310 e2 d2 79 35 bc 07 44 35 d5 58 c5 b5 84 5a 42 b6
       9.3066603e-07 7.3026945e-07 -1.4703497e-06 -2.896094e-06
000320 c6 aa bc b5 0a 71 c2 b5 00 00 00 00 21 78 19 b3
       -1.4056793e-06 -1.4487025e-06 0.0 -3.5732345e-08
000330 2c bf d3 b3 84 51 37 32 84 51 37 32 21 78 19 b3
       -9.860227e-08 1.06705365e-08 1.06705365e-08 -3.5732345e-08
000340 23 9f a5 b3 a8 ae 39 b2 0e 61 a9 30 21 78 19 b3
       -7.712358e-08 -1.08081295e-08 1.2323953e-09 -3.5732345e-08
000350 1f 77 ca b3 20 22 da 31 c0 73 bd b0 8c a2 19 b3
       -9.428026e-08 6.3485146e-09 -1.3784458e-09 -3.5770924e-08
000360 e7 87 bd b3 37 20 c8 2f 4d 9e 00 2f 8e 95 20 b3
       -8.825719e-08 3.6402678e-10 1.1697772e-10 -3.7388922e-08
000370 8e b0 c8 b3 b4 a4 f6 31 e9 dd 26 31 71 3b 29 b3
       -9.345341e-08 7.178267e-09 2.428232e-09 -3.940244e-08
000380 45 dd b5 b3 87 ec e9 2f 28 ce 34 2f e8 df 01 b3
       -8.468718e-08 4.2550516e-10 1.6444146e-10 -3.0238795e-08
000390 63 0b d8 b3 b4 a4 f6 31 7b 12 3e 31 00 00 00 00
       -1.0060355e-07 7.178267e-09 2.7659144e-09 0.0
0003a0 0e a2 94 b6 92 86 b6 b6 65 e0 36 b6 65 e0 36 b6
       -4.4296094e-06 -5.4396887e-06 -2.7250728e-06 -2.7250728e-06
0003b0 0e a2 94 b6 d4 84 60 b7 df 12 af 36 5e 28 b0 35
       -4.4296094e-06 -1.3382367e-05 5.2176033e-06 1.312477e-06
0003c0 0e a2 94 b6 ac 78 b4 b6 2f fc 3a b6 36 b7 3d b6
       -4.4296094e-06 -5.378466e-06 -2.786295e-06 -2.8269837e-06
0003d0 a2 b9 93 b6 33 04 3d b7 69 52 4e 36 89 ab 13 36
       -4.402552e-06 -1.1266256e-05 3.074436e-06 2.2004554e-06
0003e0 70 e7 94 b6 76 2e b4 b6 d5 05 3b b6 f8 8d 3c b6
       -4.4376866e-06 -5.369827e-06 -2.7868566e-06 -2.809682e-06
0003f0 92 18 8a b6 28 9c 41 b7 13 70 4d 36 bc 7c 1e 36
       -4.115581e-06 -1.1540054e-05 3.0612616e-06 2.361644e-06

exp_avg_sq f4 [256, 29]
000000 7b 18 40 2c de 1a 91 2b 35 24 d9 2d 35 24 d9 2d
       2.729843e-12 1.0310327e-12 2.4686123e-11 2.4686123e-11
000010 c5 42 41 2c e5 9d b5 2c 82 a0 b3 2d 85 73 bc 2d
       2.7464014e-12 5.1618592e-12 2.0421224e-11 2.1424426e-11
000020 93 62 40 2c 51 85 38 2c 29 9b ce 2d b8 d7 cf 2d
       2.733956e-12 2.6221978e-12 2.3488394e-11 2.3628974e-11
000030 ac e8 44 2c 5a 31 09 2d b6 45 96 2d a8 75 a5 2d
       2.7982434e-12 7.798507e-12 1.7083984e-11 1.8810578e-11
000040 63 ac 4b 2c ba 6d 24 2c dc ed cb 2d 5e b6 cc 2d
       2.894373e-12 2.3366712e-12 2.3184059e-11 2.3273102e-11
000050 75 b6 50 2d bc 81 be 2c 78 ec 45 2d d0 93 94 2d
       1.1863945e-11 5.414528e-12 1.125066e-11 1.6891294e-11
000060 62 af 84 2c 77 8a cd 2b dc ed cb 2d 15 5e cc 2d
       3.771137e-12 1.4604558e-12 2.3184059e-11 2.3233896e-11
000070 00 00 00 00 c2 e2 7b 2f af 01 c8 30 8a 69 01 33
       0.0 2.2908878e-10 1.4552394e-09 3.013114e-08
000080 8a 69 01 33 36 22 9d 2f 67 0c a4 32 d2 80 8c 32
       3.013114e-08 2.8582442e-10 1.9097753e-08 1.6356726e-08
000090 b5 f5 98 32 8b d4 7b 2f 43 7f dc 30 b5 3b 01 33
       1.7806864e-08 2.2903827e-10 1.6043277e-09 3.0089456e-08
0000a0 e5 1f 01 33 9b bf 2f 30 07 06 c5 32 4d bc 0c 32
       3.006416e-08 6.3936917e-10 2.293656e-08 8.191887e-09
0000b0 a6 e6 4e 32 05 1a 89 2f 7b e1 d7 30 fc dd 00 33
       1.20432215e-08 2.4938643e-10 1.5707394e-09 3.0004216e-08
0000c0 77 e2 00 33 db 37 98 32 07 8f 0f 32 22 3b b5 31
       3.000829e-08 1.7720529e-08 8.356216e-09 5.274516e-09
0000d0 6c 53 30 32 36 02 b5 2f c9 39 cc 30 fc dd 00 33
       1.0263516e-08 3.292528e-10 1.4859377e-09 3.0004216e-08
0000e0 10 e1 00 33 00 00 00 00 5f 50 7a 31 2b 57 0b 32
       3.0007016e-08 0.0 3.6425474e-09 8.110685e-09
0000f0 f3 75 32 34 f3 75 32 34 49 40 92 31 bf b9 eb 33
       1.6620452e-07 1.6620452e-07 4.2564676e-09 1.0976827e-07
000100 0d 22 b4 33 45 1f c8 33 af 41 7a 31 e1 41 18 32
       8.388097e-08 9.3189136e-08 3.6417125e-09 8.862544e-09
000110 19 30 32 34 fb 10 32 34 2b d3 d7 31 a8 32 01 34
       1.659504e-07 1.6583719e-07 6.2813306e-09 1.203249e-07
000120 11 12 59 33 b5 c8 90 33 88 01 7e 31 9b ce 14 32
       5.054068e-08 6.742031e-08 3.6962735e-09 8.6617105e-09
000130 ea e4 31 34 55 e0 31 34 e9 db d1 33 aa 42 35 33
       1.6567688e-07 1.6566021e-07 9.772322e-08 4.2202977e-08
000140 b2 c3 13 33 5a 1e 7d 33 3b 71 8c 31 f6 28 0d 32
       3.440409e-08 5.8933757e-08 4.087409e-09 8.216594e-09
000150 ea e4 31 34 2c e0 31 34 00 00 00 00 6d 21 2c 31
       1.6567688e-07 1.6565963e-07 0.0 2.5048295e-09
000160 da 9b 32 32 ec 31 eb 33 ec 31 eb 33 53 20 37 31
       1.03964e-08 1.0952121e-07 1.0952121e-07 2.664838e-09
000170 2c 27 d8 33 2e a2 0d 33 83 91 43 33 bb 20 2c 31
       1.0065409e-07 3.2976622e-08 4.5534318e-08 2.50479e-09
000180 90 dd 32 32 cf 2b eb 33 8f 2b eb 33 a6 65 68 31
       1.0411341e-08 1.0951009e-07 1.09509635e-07 3.3818224e-09
000190 7e dd ea 33 46 fb 21 32 8d 05 ca 32 6d 38 2c 31
       1.0936763e-07 9.428566e-09 2.351842e-08 2.5061369e-09
0001a0 c3 90 32 32 62 13 eb 33 e4 19 eb 33 c5 89 c2 33
       1.0393879e-08 1.0946566e-07 1.094775e-07 9.058889e-08
0001b0 64 c8 f5 32 9a f2 95 31 88 c5 99 32 4e 35 2c 31
       2.8612881e-08 4.3640513e-09 1.7901371e-08 2.5059594e-09
0001c0 b3 8e 32 32 62 13 eb 33 29 19 eb 33 00 00 00 00
       1.039341e-08 1.0946566e-07 1.0947617e-07 0.0
0001d0 14 41 59 2f 7d 76 87 30 be c2 04 31 be c2 04 31
       1.9759155e-10 9.856219e-10 1.9319226e-09 1.9319226e-09
0001e0 5c 1f 5b 2f 83 83 31 31 2c 08 02 30 43 d2 4b 30
       1.9929075e-10 2.5831646e-09 4.730534e-10 7.414977e-10
0001f0 f8 3f 59 2f cc fe 87 30 0f d1 04 31 f4 b9 04 31
       1.9758761e-10 9.89496e-10 1.9327364e-09 1.931423e-09
000200 fd df 62 2f c5 12 3a 31 4c 9e 2a 2f a0 38 d4 2f
       2.0634157e-10 2.7077232e-09 1.5517648e-10 3.860281e-10
000210 c1 1d 59 2f 2d fd 87 30 46 87 04 31 b0 8b 04 31
       1.9746606e-10 9.8945e-10 1.9285422e-09 1.9287931e-09
000220 47 b6 e8 30 2c 91 bd 30 d7 cd 5a 2e 2b 59 9f 2f
       1.6932028e-09 1.379282e-09 4.9750284e-11 2.898529e-10
000230 5e 33 5a 2f 6a 9d 87 30 46 87 04 31 f3 8a 04 31
       1.9845234e-10 9.867283e-10 1.9285422e-09 1.9287512e-09
000240 00 00 00 00 20 32 1e 2f 32 e7 0b 30 8b ec fd 31
       0.0 1.4387824e-10 5.0896454e-10 7.390161e-09
000250 8b ec fd 31 24 a7 25 2f a7 65 cb 31 0d 72 5c 31
       7.390161e-09 1.5066043e-10 5.919634e-09 3.2079044e-09
000260 d4 ce 84 31 b5 2f 1e 2f 85 72 1a 30 ad d7 fd 31
       3.8652193e-09 1.4386965e-10 5.6187616e-10 7.3877886e-09
000270 24 8b fd 31 8b 34 39 2f ab c0 de 31 c0 27 e3 30
       7.3790876e-09 1.6844319e-10 6.482954e-09 1.6527721e-09
000280 6e 60 2d 31 dc b7 23 2f 64 2e 18 30 5a 55 fd 31
       2.5229627e-09 1.4890084e-10 5.5363203e-10 7.3729725e-09
000290 da 3b fd 31 90 44 c7 31 0d f2 b8 30 0a ad ab 30
       7.3700734e-09 5.799457e-09 1.3456557e-09 1.2491068e-09
0002a0 b2 0d 14 31 a5 6b 44 2f eb d1 0e 30 5a 55 fd 31
       2.154462e-09 1.7864339e-10 5.195761e-10 7.3729725e-09
0002b0 bb 40 fd 31 00 00 00 00 62 80 ba 30 e7 9f ee 31
       7.370628e-09 0.0 1.356977e-09 6.9448904e-09
0002c0 3b a3 82 33 3b a3 82 33 77 db c2 30 6c 73 74 33
       6.083288e-08 6.083288e-08 1.4177733e-09 5.6915653e-08
0002d0 40 b8 97 32 dd e7 da 32 cd 7f ba 30 a9 c9 f0 31
       1.76625e-08 2.548398e-08 1.3569604e-09 7.0078454e-09
0002e0 32 a4 82 33 1a 9b 82 33 51 7f 03 31 a9 a7 85 33
       6.083464e-08 6.0818095e-08 1.913538e-09 6.223792e-08
0002f0 ff 71 97 31 32 8e 58 32 5c e5 ba 30 35 5a f0 31
       4.4076383e-09 1.2605186e-08 1.3598469e-09 6.9951747e-09
000300 f7 95 82 33 ae 93 82 33 21 0c 62 33 17 ca 8a 32
       6.080875e-08 6.0804595e-08 5.2630757e-08 1.6157214e-08
000310 c1 c8 94 30 1f 01 1f 32 e0 02 bf 30 b4 04 ef 31
       1.0825475e-09 9.255273e-09 1.3897896e-09 6.95635e-09
000320 f7 95 82 33 e5 93 82 33 00 00 00 00 08 d5 a9 2b
       6.080875e-08 6.0804986e-08 0.0 1.20673e-12
000330 7b 61 75 2d ad 8d 1b 2d ad 8d 1b 2d c1 d2 a9 2b
       1.3948283e-11 8.842188e-12 8.842188e-12 1.2066668e-12
000340 28 e7 98 2d 0a d6 cc 2c de 4b dd 2c c4 f2 a9 2b
       1.7383053e-11 5.821792e-12 6.2896207e-12 1.2075553e-12
000350 df c6 8c 2d a1 70 dc 2c 61 e9 ed 2c 38 6d aa 2b
       1.6004474e-11 6.2652804e-12 6.7618554e-12 1.2109541e-12
000360 9b d6 a1 2d 4d cd 87 2c e1 46 af 2c 47 2d cf 2b
       1.8398885e-11 3.8597237e-12 4.9816683e-12 1.4720802e-12
000370 67 12 8d 2d 45 74 d4 2c 22 44 db 2c 04 3d c5 2c
       1.6038016e-11 6.038311e-12 6.2319186e-12 5.605851e-12
000380 ce 83 7e 2d dc 93 79 2c e6 29 a0 2c 7f 8f 68 2c
       1.4467495e-11 3.5467107e-12 4.552125e-12 3.304884e-12
000390 6a 12 82 2d 45 74 d4 2c 1f b8 d8 2c 00 00 00 00
       1.4787466e-11 6.038311e-12 6.159531e-12 0.0
0003a0 bd 31 75 32 d4 02 12 33 c4 c9 e9 34 c4 c9 e9 34
       1.4272186e-08 3.3995846e-08 4.3546436e-07 4.3546436e-07
0003b0 04 e9 85 32 89 a1 e1 34 ad 8e cb 33 c4 60 21 34
       1.5589201e-08 4.2027048e-07 9.478877e-08 1.5029497e-07
0003c0 0e 2f 75 32 f8 cb 12 33 8c c0 e9 34 7d b6 e9 34
       1.4271576e-08 3.4178782e-08 4.3539728e-07 4.353241e-07
0003d0 23 b4 ad 32 04 59 e4 34 bd ae 1d 33 8b 74 a9 33
       2.0221767e-08 4.2533077e-07 3.6713335e-08 7.890875e-08
0003e0 7e cb 74 32 fe a3 12 33 e0 be e9 34 fd b7 e9 34
       1.4248938e-08 3.4142424e-08 4.3538512e-07 4.35335e-07
0003f0 0e 01 c1 34 c2 33 ea 33 c6 81 81 32 81 60 82 33
       3.594982e-07 1.0905889e-07 1.507659e-08 6.071151e-08

exp_avg f4 [256]
000000 d7 09 f6 b2 d4 1b 96 b5 f1 70 69 b6 6d 10 d5 b6
       -2.8642644e-08 -1.118397e-06 -3.4785446e-06 -6.349807e-06
000010 ac 02 16 b6 de 83 8c b5 14 a2 c1 b6 fc bc 04 b4
       -2.2353297e-06 -1.0469191e-06 -5.7707166e-06 -1.236221e-07
000020 19 65 53 b7 f6 6e d9 b6 82 bf f2 b6 1b 01 b2 b4
       -1.2600119e-05 -6.4800215e-06 -7.2344565e-06 -3.3155888e-07
000030 17 4f 96 b6 66 16 9a 35 50 87 fc b6 9c 3f 79 b6
       -4.4795556e-06 1.1480413e-06 -7.5259377e-06 -3.7140917e-06
000040 92 8d 81 b7 f4 da ec b6 ca fd f0 b3 71 69 f6 b5
       -1.5443922e-05 -7.0588376e-06 -1.1222035e-07 -1.8359116e-06
000050 b1 8a 44 33 fa 0a 3a b6 b8 4f 36 b6 e4 d9 16 b4
       4.5760945e-08 -2.772255e-06 -2.7166516e-06 -1.4049107e-07
000060 fa ba 80 b4 47 49 08 b7 08 99 3b 34 e9 98 bc b4
       -2.39779e-07 -8.123293e-06 1.7471405e-07 -3.5128986e-07
000070 f5 bf d3 b3 86 d1 c6 34 7b 66 c0 b6 9c f9 91 b5
       -9.86037e-08 3.7032822e-07 -5.733976e-06 -1.0875988e-06
000080 b5 f7 be b2 9a c3 df 36 d2 ef a2 35 ca 3a 3e b5
       -2.2231555e-08 6.668689e-06 1.2139737e-06 -7.0866065e-07
000090 47 89 30 36 15 74 79 35 61 a4 12 b7 d7 76 00 b6
       2.630595e-06 9.292865e-07 -8.740551e-06 -1.914266e-06
0000a0 67 d5 5a b7 d3 d9 44 b6 72 cb ab b6 03 b4 d4 b6
       -1.3043499e-05 -2.9333066e-06 -5.1198813e-06 -6.3390485e-06
0000b0 f9 9c 90 35 de 7a 8b b6 81 e7 64 34 76 5d 2a b7
       1.0774521e-06 -4.1568264e-06 2.1318375e-07 -1.015455e-05
0000c0 df ff f5 b6 da 0a ae b5 ad 21 ec 32 d3 d2 cd b6
       -7.3313563e-06 -1.2967168e-06 2.748933e-08 -6.1340193e-06
0000d0 45 b6 37 b7 d1 1d d3 35 0a e6 8b b6 b6 b8 e0 b5
       -1.0950088e-05 1.5729403e-06 -4.169303e-06 -1.6743058e-06
0000e0 46 7b 9b b7 ef 90 14 b5 9c a3 eb b5 c2 f2 01 b7
       -1.8534844e-05 -5.53452e-07 -1.7556481e-06 -7.745521e-06
0000f0 1e d1 c6 b6 c5 b1 b8 b6 4f 61 29 36 90 8d bb b6
       -5.9252043e-06 -5.5043224e-06 2.5239603e-06 -5.5895143e-06
000100 f0 f6 a5 b5 d8 77 01 b7 9f 59 30 b5 93 be ca b5
       -1.2365326e-06 -7.7169025e-06 -6.5695525e-07 -1.5105637e-06
000110 71 a0 e7 b5 eb 03 32 36 d3 d1 59 36 26 c9 19 b4
       -1.7257536e-06 2.6526347e-06 3.2457654e-06 -1.4322413e-07
000120 72 ea f1 b3 78 9b 19 b7 7f 76 c0 b5 37 53 ab b6
       -1.12650824e-07 -9.1557085e-06 -1.4339602e-06 -5.1058846e-06
000130 45 d9 33 35 76 66 59 b5 1d 3c 1f 35 7e ef 91 b6
       6.6998865e-07 -8.09879e-07 5.931959e-07 -4.3492173e-06
000140 aa d8 a8 b6 ca 4c 5a b7 3f ca 6d b4 8d 95 9a 34
       -5.032013e-06 -1.3011691e-05 -2.2145922e-07 2.8793548e-07
000150 63 0b 22 33 b4 af 3d 36 5d 5b 4e b4 f6 46 3f b7
       3.772892e-08 2.8265467e-06 -1.9218483e-07 -1.1401009e-05
000160 8e 8b 46 b6 a7 c1 04 b5 e0 96 8a 34 49 69 07 b7
       -2.958553e-06 -4.9455633e-07 2.581428e-07 -8.071141e-06
000170 5c da a2 b4 d8 b3 39 b7 46 71 04 b6 83 cb f5 35
       -3.033373e-07 -1.1068732e-05 -1.9735467e-06 1.8313152e-06
000180 31 e1 9d 35 bf 41 ec b4 08 6f 32 b6 33 67 c4 b6
       1.1762951e-06 -4.4006262e-07 -2.6588696e-06 -5.853269e-06
000190 eb 71 fa b5 b4 5c 82 b6 94 27 f9 b4 a7 50 3a 35
       -1.8659606e-06 -3.885094e-06 -4.640866e-07 6.9407764e-07
0001a0 22 a9 19 b7 2f 89 0e b6 ec fb df b6 ff e0 97 b6
       -9.15889e-06 -2.12395e-06 -6.6752455e-06 -4.5263437e-06
0001b0 b0 12 4e b6 1c a2 9e 34 0e a3 cd b5 4f d2 3d b5
       -3.070727e-06 2.9547743e-07 -1.5321145e-06 -7.0714026e-07
0001c0 85 84 bc 34 1b 3b e5 b6 1a cf dc b3 52 14 61 35
       3.511415e-07 -6.8316126e-06 -1.028222e-07 8.38486e-07
0001d0 a7 60 64 b6 05 04 07 b6 49 5e d7 b6 0a d0 17 b6
       -3.4030907e-06 -2.0118907e-06 -6.4184756e-06 -2.2621848e-06
0001e0 91 ec b9 b6 ab cc 06 b5 97 9c 1e b3 5b c0 03 b7
       -5.5409696e-06 -5.021672e-07 -3.692966e-08 -7.852995e-06
0001f0 bd 94 f9 b5 04 0f c7 b5 7e 3d 65 35 89 26 32 36
       -1.8595234e-06 -1.4831026e-06 8.539863e-07 2.6546497e-06
000200 cb af 51 35 4a 87 39 b5 63 e4 99 b6 d7 43 fa 34
       7.811438e-07 -6.911474e-07 -4.586343e-06 4.661549e-07
000210 43 0d 16 b5 6c 6c 26 b7 0a 12 ea b5 b5 06 b7 b5
       -5.589865e-07 -9.919615e-06 -1.7439609e-06 -1.3636514e-06
000220 c8 2e a4 35 4a 04 a3 b6 57 ae 53 b7 04 59 04 34
       1.2232567e-06 -4.858278e-06 -1.2617172e-05 1.2325842e-07
000230 8f 39 56 b6 2a 8e 63 b5 6f 63 1b b7 10 b9 aa b6
       -3.1921988e-06 -8.4770966e-07 -9.261871e-06 -5.087939e-06
000240 2f 2e 35 b7 7f b8 0f 34 4a ba a6 b6 0e 66 9b 33
       -1.0799194e-05 1.3385032e-07 -4.9688724e-06 7.2363136e-08
000250 38 8b 9f 35 b5 69 a4 b5 a4 58 de b3 2f ff 3b b2
       1.1886941e-06 -1.2249717e-06 -1.0353804e-07 -1.0942855e-08
000260 e6 85 9f 35 09 07 d7 35 bf e9 d8 b6 93 5f 60 32
       1.1885393e-06 1.6020796e-06 -6.4645133e-06 1.3060247e-08
000270 dc 19 bc b5 c0 cd 77 b6 05 19 19 36 44 67 98 b5
       -1.4014618e-06 -3.692563e-06 2.281334e-06 -1.1354937e-06
000280 89 9f b0 34 f0 32 8f 36 c3 a0 56 b4 21 c2 f9 34
       3.2898632e-07 4.267662e-06 -1.9988788e-07 4.6521112e-07
000290 8f e9 47 b7 01 b8 85 b6 25 32 5a b6 c7 e4 06 b6
       -1.1915704e-05 -3.9851298e-06 -3.251372e-06 -2.0100722e-06
0002a0 62 c8 19 b7 60 66 5d b5 76 1a 79 b6 49 28 70 36
       -9.166166e-06 -8.247789e-07 -3.7119294e-06 3.5786236e-06
0002b0 f0 dc 47 b6 2a d6 ba b5 fa 77 af b6 80 4f 54 b6
       -2.9781913e-06 -1.392041e-06 -5.2293735e-06 -3.1636737e-06
0002c0 84 e4 62 b6 85 56 4d b5 ef 70 6f b6 74 d4 cb b5
       -3.3809638e-06 -7.6494354e-07 -3.5679511e-06 -1.5186511e-06
0002d0 2b fe 2c b7 75 2d cc 32 e5 e1 0e b7 0b f8 42 b4
       -1.0311177e-05 2.3769397e-08 -8.516455e-06 -1.8157895e-07
0002e0 d3 ae df 35 07 5a fd b4 e9 87 32 b7 53 63 a1 b5
       1.6665675e-06 -4.7190426e-07 -1.0641271e-05 -1.2024342e-06
0002f0 14 87 12 36 81 ca 5c 35 7c d7 0e 35 8d fe 7a b6
       2.1834321e-06 8.225107e-07 5.3212693e-07 -3.740107e-06
000300 d3 23 18 b5 5a 86 10 36 c4 22 54 36 23 66 80 b6
       -5.6676544e-07 2.1535875e-06 3.1610698e-06 -3.8265875e-06
000310 79 f4 5b b7 1c 75 78 36 f9 6c 7d 35 6f 80 8f b6
       -1.3110338e-05 3.7023046e-06 9.440842e-07 -4.2766837e-06
000320 ff 6a c4 b5 94 c7 44 36 88 7b 1c b4 59 31 28 b5
       -1.4634278e-06 2.9322446e-06 -1.4573573e-07 -6.265669e-07
000330 48 e3 5a b6 30 06 8a 36 4b 4c 4e 36 a9 80 b7 b6
       -3.2616827e-06 4.113441e-06 3.07408e-06 -5.468803e-06
000340 23 d5 69 b5 ab 71 3e b6 ba e0 7f b5 b8 5e 5d b6
       -8.710942e-07 -2.837837e-06 -9.532192e-07 -3.29867e-06
000350 6b 7f 09 b7 c0 7e 0d 35 2c 50 15 b5 c7 ba ac 36
       -8.195503e-06 5.271104e-07 -5.562349e-07 5.147743e-06
000360 54 b4 50 b6 b0 c5 2b b7 8b 6d b4 34 09 79 15 35
       -3.109938e-06 -1.0238422e-05 3.3607316e-07 5.5682955e-07
000370 f8 ef 39 34 56 47 e2 34 8c ab 70 b6 37 21 1b 36
       1.7316768e-07 4.2147684e-07 -3.586264e-06 2.3116133e-06
000380 6c 11 24 36 86 85 e9 33 0c 2c 0a 36 19 80 0e b7
       2.4448045e-06 1.0874196e-07 2.058924e-06 -8.493685e-06
000390 80 ae 88 b5 8a 8c e0 b4 33 aa 39 35 8d 4e 11 b7
       -1.0183576e-06 -4.1825507e-07 6.9165543e-07 -8.6609625e-06
0003a0 e7 da 0d b7 45 b0 33 b6 2c 36 9f b6 8f 83 aa b6
       -8.455222e-06 -2.677568e-06 -4.7448757e-06 -5.0817102e-06
0003b0 ae bd fd b6 99 fb 8b 35 56 99 6b b4 c5 c6 33 34
       -7.562069e-06 1.0429532e-06 -2.1941864e-07 1.6742986e-07
0003c0 ad e0 34 b6 2e 20 57 b4 1c 57 50 b6 3f 4e c9 b5
       -2.6952869e-06 -2.0035142e-07 -3.104512e-06 -1.499844e-06
0003d0 60 50 9d 35 97 32 0f b6 c0 0b 20 b6 0c c9 9e b5
       1.1720804e-06 -2.1338108e-06 -2.3848697e-06 -1.183043e-06
0003e0 d2 af e1 35 17 ad 8b b2 b4 37 f0 b6 5c c9 f4 b6
       1.6814977e-06 -1.6260442e-08 -7.159042e-06 -7.295208e-06
0003f0 49 7f 9b 35 2b 90 2e b6 b4 f1 80 35 ea 98 d9 b6
       1.1585445e-06 -2.6011937e-06 9.607088e-07 -6.4849055e-06
