ml-agents-release_20/Result/Dino/Dino05/Dino/checkpoint.pt (torch, 205607 bytes, 21 tensors)

network_body._body_endoder.seq_layers.0.weight f4 [256, 29]
000000 c0 53 df be 26 e9 88 be c2 78 d6 3c fa cd 4d 3d
       -0.43618584 -0.26740378 0.026180629 0.050245263
000010 11 d1 6d 3e 04 e4 18 3e cb ed 87 3c 50 20 91 be
       0.23224284 0.14930731 0.01659288 -0.28344965
000020 f8 9c b9 3d 2f e0 44 bc 0a 25 3a bd 77 60 62 3e
       0.090631425 -0.01201634 -0.04544548 0.22107111
000030 af ab 04 3f ae da 8c bc e4 74 0d bd af 5f 35 be
       0.5182447 -0.017194118 -0.034535304 -0.17712282
000040 49 4d 34 be f4 35 8c bd 50 da 46 be 48 a0 66 bc
       -0.17607607 -0.06846228 -0.19419217 -0.0140763
000050 19 58 2a 3e 59 12 04 3f 36 ae 61 be 5c 6d 96 bd
       0.16635169 0.51590496 -0.22039112 -0.073450774
000060 23 07 8a be e4 a3 df bc 65 e5 00 3e 3b 59 27 3e
       -0.2695857 -0.027299829 0.12587507 0.16342632
000070 82 2a ec 3d 56 03 0c 3c 44 dd d9 bd 2b 2a d4 bc
       0.11531545 0.008545717 -0.10637906 -0.025899014
000080 bb 20 08 bb 9e f4 a1 bd c6 ba f6 3c 55 9d 62 3c
       -0.0020771462 -0.07907985 0.030118357 0.013831456
000090 4d 66 ca 3d 4f 3e 92 be d9 9a ce 3d 21 32 77 be
       0.098827936 -0.28563163 0.100881286 -0.24140216
0000a0 56 fa 24 3d fd 2b 0b 3e 67 f1 ca be 90 7c 4a bd
       0.0402778 0.13590999 -0.396373 -0.0494352
0000b0 6b 40 7e 3e 00 52 11 3e 4e c1 1f bd a6 40 59 bd
       0.24829261 0.14191437 -0.03900271 -0.05304017
0000c0 fe 20 27 be a9 9d 19 3c 32 de 05 be 63 eb 13 bd
       -0.1632118 0.009375968 -0.13073042 -0.036113154
0000d0 79 83 3a 3d d6 da cf 3d c1 43 6f 3d ca 87 57 3e
       0.04553554 0.101491615 0.058414225 0.21047893
0000e0 75 c0 cd 3d 68 8d 1f be 8a a3 54 be 15 3d bf bd
       0.10046474 -0.15581286 -0.2076551 -0.09337822
0000f0 3d 11 5d 3d d2 15 18 be 94 50 b8 3d 1a bf 37 3e
       0.053971518 -0.14852074 0.08999744 0.17943993
000100 c7 e4 0b 3e 85 ca 85 bd cd 1c 58 be 16 fe b0 bd
       0.1366149 -0.06532768 -0.21104737 -0.08642213
000110 72 3a 50 bb e9 14 b1 bd 60 15 a8 3e 34 2e 5c bd
       -0.0031773117 -0.086465664 0.32828808 -0.053755
000120 e4 3d 26 3d da 5f fb bd 11 6b 66 bd 3e da 1d be
       0.040586367 -0.122741416 -0.05625445 -0.15415284
000130 2d 3a ee be a4 5d 35 3e 6a 25 30 3e 29 7b 14 be
       -0.4652876 0.17711502 0.17201772 -0.14500107
000140 19 b9 49 be 4e bb b1 3c 87 5b d8 3e d2 e0 85 3d
       -0.19699515 0.02169576 0.4225733 0.06537022
000150 58 99 14 3d ae 50 60 be 7f c6 fb bc c4 0f 7f be
       0.036279052 -0.21905777 -0.030734299 -0.24908358
000160 05 5b 7d 3e da db ea 3d 1e 14 4b 3c 33 57 c7 be
       0.24741752 0.114677146 0.012394933 -0.38933715
000170 d1 9e 10 be 11 59 89 be 60 c6 65 be 3e 9f bd b9
       -0.14123084 -0.26825765 -0.22438955 -0.00036167534
000180 89 fd d6 3d 2d 6e 95 3e 15 63 36 be 75 f3 51 3e
       0.10497577 0.2918562 -0.17811234 0.20503028
000190 c1 ed aa 3d de 09 4a be 4b 11 4f bd 48 c3 eb 3c
       0.08346129 -0.19730327 -0.0505536 0.02877964
0001a0 fd 1e df bd 8d 0c a9 bc c1 6c 7b be 1d 6b 8e bd
       -0.108945824 -0.020635867 -0.24553205 -0.06954024
0001b0 72 23 95 be d7 87 3a 3d 37 72 30 be da da d3 bd
       -0.29128605 0.045539703 -0.1723107 -0.10344477
0001c0 77 34 6d 3e 3c ba 29 be 21 a5 13 bb 96 10 93 bd
       0.23164545 -0.16574949 -0.0022528844 -0.07180898
0001d0 fa ef 64 be cb 87 a7 bd 7c a3 45 be 90 ad d2 3d
       -0.22357169 -0.08180197 -0.19300646 0.10287011
0001e0 ed 35 28 be 5f 18 15 be a3 d4 8e 3c a9 c4 41 3e
       -0.16426821 -0.14560078 0.017435377 0.18922676
0001f0 96 d9 5c 3d 59 57 9a 3e 57 e9 3f 3d 10 fc c4 be
       0.053918444 0.30144766 0.04685339 -0.38473558
000200 03 d3 c5 3d 77 d6 ea 3d bb 0a 71 bd 53 52 36 3e
       0.09659388 0.11466687 -0.058848124 0.17804842
000210 2f c9 a0 3e 8a 5e fe 3d 6f 91 32 3e 54 55 43 3e
       0.3140349 0.12420376 0.17438291 0.19075519
000220 81 52 80 3d 19 d5 83 be 8d 01 86 3e 62 ea 6e 3e
       0.06265736 -0.25748518 0.26173058 0.23331597
000230 ac 45 ad 3c 63 be a1 be 22 4a 10 3e c8 49 7b 3d
       0.021151386 -0.31590566 0.1409078 0.06134966
000240 df c8 bb 3d 32 d1 f8 bd ea 17 90 3e 93 c1 e4 3d
       0.091691725 -0.12149276 0.28143245 0.11169734
000250 11 60 33 bc e6 49 cb 3e 2a 72 58 be b8 61 77 3e
       -0.010948197 0.39704818 -0.211373 0.2415837
000260 86 8d 8b 3e 8b f8 85 3e 86 9e 17 3d a7 b4 34 3e
       0.2725641 0.26166186 0.037016414 0.17647038
000270 85 d0 a6 3e 2e 99 21 3e 4a e0 48 bb 4f 82 ab bd
       0.32580963 0.1578109 -0.0030651265 -0.08374464
000280 99 37 30 3e f7 92 35 3e 71 a9 ff bd bd 26 c2 bc
       0.17208709 0.17731844 -0.1248349 -0.023700112
000290 da b2 88 be 36 a9 67 3e f9 9e a9 3d 91 0b 0b bd
       -0.26698953 0.22623143 0.08282275 -0.033946577
0002a0 30 c4 93 be 61 cb 2b 3d fe 0a ba 3c d6 31 0a be
       -0.28860617 0.041942004 0.02271032 -0.13495573
0002b0 5d 8a 0e be 9e 44 00 3e 99 42 00 be 03 b5 34 bd
       -0.13919969 0.12526175 -0.12525405 -0.04411794
0002c0 92 fd 72 3e 0b fa 8d 3e 69 b3 b4 be 26 1c 0d 3f
       0.23729542 0.2772983 -0.3529313 0.55121076
0002d0 2d 52 2c be 58 d6 92 3e 4a 1b 87 ba ce d3 13 3e
       -0.16828223 0.28679156 -0.0010307815 0.14436266
0002e0 12 7f 03 3e 76 14 01 be 74 7c c1 3c 01 fb bc 3e
       0.12841442 -0.12605461 0.023618914 0.3691025
0002f0 ed a5 06 bd e9 fb dd 3d 28 ec 4a 3d 5c 5b 22 3e
       -0.032873083 0.10839064 0.049541622 0.15855163
000300 f1 62 34 be d0 f7 53 be c0 bb 8d bd 1f a9 d1 3d
       -0.17615868 -0.20700002 -0.06920576 0.102373354
000310 65 f1 d0 bd 39 46 00 be 95 4f 0d be c2 cb c7 bd
       -0.10202292 -0.12526788 -0.1379989 -0.097556606
000320 9d 06 a6 3e 14 85 32 3d 94 52 9c 3e 0a 9c 3e 3c
       0.3242692 0.043583944 0.30531752 0.011633882
000330 f2 e3 01 be 67 aa ee 3b 3b 88 2d 3e 00 5a da 3d
       -0.1268461 0.007283497 0.16946499 0.106616974
000340 e2 23 38 be 64 1b 0f 3e f2 6d 50 3e a6 76 ef be
       -0.17982438 0.13975292 0.20354441 -0.4677021
000350 c7 e1 fd 3d 0a da fe bc 88 e6 1c be 9e 75 d5 bd
       0.12396579 -0.031109829 -0.15322316 -0.10422824
000360 cb 73 15 bd da 2f cd bd 55 d4 4a 3e ff 88 bc be
       -0.036487382 -0.100188926 0.1980756 -0.3682327
000370 70 4b a6 3c 89 80 dc bd ff a5 70 3e a4 13 90 3d
       0.020299643 -0.10766704 0.23500822 0.07034996
000380 22 ad d8 ba c4 ae 0d 3e a5 3e 05 3e 4d 4a 25 3e
       -0.001653109 0.13836199 0.13012178 0.16141625
000390 15 1f 7e be 93 91 ba bc 2b 6e 8c 3e 68 e1 5e bd
       -0.24816544 -0.022774493 0.274278 -0.054414183
0003a0 92 97 c1 3d 7d 77 4d be 5a d1 f1 3d 8d 19 b1 bd
       0.09452738 -0.20065112 0.11807509 -0.086474515
0003b0 af 96 df be 89 b9 5a be d1 28 05 3f 94 92 06 3f
       -0.4366965 -0.21359839 0.52015406 0.5256741
0003c0 f5 56 fe 3d 56 75 10 be bf 07 be be f8 0f 30 3d
       0.124189295 -0.1410726 -0.37115285 0.04298398
0003d0 42 c0 98 bc 33 4c 9d 3e 03 fb aa be b1 86 c6 3e
       -0.018646363 0.30722198 -0.33394632 0.38774636
0003e0 d0 16 03 bf 75 1f c6 3c 9a d4 38 be c6 36 07 be
       -0.51206684 0.024184922 -0.18049851 -0.13204488
0003f0 79 23 d7 3e 02 24 26 3e 84 00 9d be 1f ad 24 be
       0.4201925 0.16224673 -0.30664456 -0.16081665

network_body._body_endoder.seq_layers.0.bias f4 [256]
000000 67 3d 80 3c 6c cb 93 3b fa bd 8c 3c 2a 47 0e 3d
       0.015654279 0.0045103338 0.017180432 0.034735836
000010 9e 40 b8 3b 26 cb 9e 3c 25 6d 9b 3a 6e 3c 22 3c
       0.0056229373 0.019383978 0.0011858089 0.009902103
000020 ee 89 4a 3d a3 b5 74 3c a2 1c fa 3c 6f 14 8d 3c
       0.049447946 0.014935884 0.030531231 0.017221658
000030 b9 10 d7 3c 7a 18 ac 3c b1 52 b6 3c d9 a8 aa 3c
       0.026253091 0.021007765 0.022256227 0.020832466
000040 bc 6c 15 3d b7 6b 57 3c 01 33 85 3c 67 61 1c 3d
       0.03648065 0.01314824 0.016259672 0.038178828
000050 0b 15 1c 3c 84 f6 af 3c 09 c4 1e 3c 4f 4b 1e 3c
       0.009526501 0.021479852 0.009690293 0.00966151
000060 7c a4 ad 3c 24 21 d3 3c db e7 3f 3d fc 62 37 3c
       0.021196596 0.025772639 0.046851974 0.011193033
000070 9d d6 87 3c 77 cc 7a 3b f1 63 f5 3c 9a 85 08 3d
       0.016581828 0.0038268843 0.029954882 0.033330537
000080 a5 08 e7 3c 4a 36 9a 3c d4 36 95 3c d0 65 1e 3c
       0.028202364 0.018824715 0.01821462 0.009667829
000090 67 f9 92 3c 03 9e eb 3c 09 8f 0f 3c 6e 16 d9 3c
       0.01794119 0.02876187 0.00876213 0.026499953
0000a0 99 9c 10 3c db fb 65 3d ae b0 0a bc 95 be fa 3a
       0.008826398 0.05614839 -0.008464975 0.0019130284
0000b0 58 3c d4 3c 58 bf 3d 3d bd 72 b8 3c 1d 77 7b 3a
       0.02590768 0.046325058 0.022515649 0.00095926394
0000c0 16 a9 9f 3c 64 40 d5 3c f1 72 81 3c 1b 85 31 3c
       0.019489806 0.02603168 0.015801879 0.0108349575
0000d0 33 5b 09 3d 28 b2 56 3d 94 66 62 3b f2 91 94 3c
       0.03353424 0.052415997 0.0034546005 0.018135998
0000e0 ee d5 12 bb ae af 8a bb 0e 1a 5a 3c 2d bf 0e bc
       -0.0022405344 -0.0042323684 0.013311876 -0.008712572
0000f0 7e 4b a3 3c f2 11 bf 3c df 40 ff 3b 6f 1a c4 bb
       0.019933458 0.023323987 0.0077897157 -0.0059845964
000100 63 fd 4f 3b 81 a8 31 3d aa 3a c1 3c 85 e5 e7 3c
       0.0031736724 0.04337359 0.023587544 0.028307686
000110 3d b7 9c 3c a0 98 91 ba 5c fa c2 39 4c a3 a1 bc
       0.019130344 -0.0011108108 0.00037189096 -0.019731186
000120 07 1b bf 3c 8d b9 f5 3c f2 b8 60 3d 8f 64 d0 3c
       0.023328317 0.029995704 0.054863878 0.025438575
000130 50 97 30 3d 91 66 be bb 73 9a 1f 3c 1b f8 7c 3c
       0.043113053 -0.0058105667 0.009741413 0.015440012
000140 77 19 9d 3c 80 90 95 3c fd db 02 3d 74 06 0e 3d
       0.019177182 0.01825738 0.03194808 0.034674123
000150 7b c2 4e 3b 54 14 4b 3d 83 2a b8 3c 45 23 e0 3b
       0.0031549025 0.049579933 0.022481209 0.006840142
000160 d8 61 28 3d ca 10 6e 3b 23 97 41 3c 00 81 76 3c
       0.041108936 0.0036325925 0.011815819 0.015045404
000170 fc 46 2f 3d 96 53 11 3d f0 d7 ee ba f5 da 06 3d
       0.042792305 0.035480104 -0.0018222313 0.032923657
000180 52 50 ac 3c d6 19 49 3c e6 3c 56 3d a5 ae 6c 3c
       0.021034393 0.012274226 0.05230417 0.014445935
000190 8d 1b 8a 3c 88 42 8c 3d 63 9f 22 bc 28 28 73 3c
       0.01685884 0.06848627 -0.009925696 0.014841117
0001a0 a7 ff 6b bb e3 cd 3a 3a 0c 8d d5 3b 10 3d 28 3b
       -0.0036010535 0.00071260164 0.0065170582 0.0025671162
0001b0 e2 18 48 3c 97 a5 20 3d 47 76 b5 3c b7 a5 4a 3c
       0.012212964 0.03922042 0.022151126 0.012368611
0001c0 bf 96 5a bb 66 c1 8a bc 14 d2 82 3c 2f 3c 91 3c
       -0.0033354012 -0.016937923 0.015969314 0.017728893
0001d0 9a 6e 2a 3d 82 c6 fd 3c 8c bf b8 ba 55 bb d4 3c
       0.041609384 0.030978445 -0.0014095171 0.025968233
0001e0 1e 1e db 3c fe ee 32 3d 80 35 e2 3c 28 57 20 3d
       0.02674776 0.043684952 0.027613401 0.03914562
0001f0 97 06 38 3d 80 1f ac 3c aa 6e 51 3d a5 74 55 3b
       0.04492816 0.021011114 0.051130928 0.0032570746
000200 12 97 08 bc bb 1c 61 3c 1c 70 a8 3c 01 10 1f 3c
       -0.008336799 0.01373976 0.02056127 0.0097084055
000210 e5 2c 98 3c 88 f2 ef 3c ae d5 ef 3c c4 e4 99 3c
       0.018576095 0.029290453 0.029276695 0.018785842
000220 c9 bc a0 3a c9 71 66 bb 4f ef 9b bc 67 bf e9 3c
       0.0012263294 -0.0035163036 -0.01903501 0.02853365
000230 1a 7a 52 3c 09 4b 90 3d 5a a2 e7 3b 48 ed a1 3c
       0.012846494 0.07045562 0.0070689144 0.019766465
000240 99 76 44 3d 61 df e6 3c c2 76 98 3c 1a 8d 8a 3b
       0.047964666 0.028182687 0.018611316 0.0042282464
000250 cc 60 1e 3b 39 0c d3 3c 8f 85 93 39 df c7 9f bb
       0.0024166582 0.025762664 0.00028137534 -0.0048761214
000260 a4 f1 97 3c 84 aa dc ba d5 2e 32 3c 0e ab e0 3b
       0.01854784 -0.0016835486 0.010875423 0.006856329
000270 79 a1 50 3c 97 ad 96 3c b1 fd 84 3d e0 bc 85 3d
       0.012733811 0.018393321 0.064937 0.06530166
000280 e3 30 33 3c a6 d4 58 bc 79 61 c8 3c 6a 30 17 3d
       0.0109369485 -0.013234293 0.024460541 0.036911406
000290 83 cb 3b 3c dc 3e 0a 3d 8b ee 30 3c 6c a1 3f 3d
       0.011462095 0.033751354 0.010799061 0.046784803
0002a0 cb f3 59 3c 95 a2 31 bc d3 83 c1 3c e0 ce aa 3c
       0.013302754 -0.010841985 0.023622429 0.020850599
0002b0 05 38 7b 3c 19 a1 3b 3b c7 a0 d3 3b 9c 4e 80 ba
       0.01533318 0.0028629957 0.006458375 -0.0009789052
0002c0 f0 a1 2b 3d 61 94 4a 3d cb 4f d7 3c 3f 49 7e 3c
       0.041902483 0.04945791 0.026283165 0.015520393
0002d0 56 30 77 3c f7 3d 71 3d 22 d9 16 ba a4 fa 95 3a
       0.015087208 0.058896985 -0.0005754401 0.0011442495
0002e0 20 24 77 bb 15 12 82 bc c6 7b 9c 3c 8a 06 0c 3d
       -0.003771074 -0.015877763 0.019101989 0.034185924
0002f0 28 3b 60 3c 1a 2c 54 3d f9 2e 56 3c 36 5a 99 3c
       0.013685979 0.05179987 0.013072723 0.018719774
000300 1b 7f 1e 3d d0 8b cb b7 de 08 37 39 24 6f 07 3d
       0.038695436 -2.4264591e-05 0.00017455543 0.033064976
000310 c9 09 09 3d f4 3e c3 3c 4c 3d 13 3c 7f 50 11 bb
       0.033456597 0.02383373 0.008986782 -0.0022173224
000320 23 3d df bb 09 7b 6e 3d 27 b9 0e 3d 53 a8 bd 3c
       -0.006812708 0.058222804 0.034844544 0.023151552
000330 f3 1c e3 3b 49 63 0b 3d b0 19 b2 3c 1a 18 b0 3b
       0.0069309413 0.034030233 0.021740764 0.005373967
000340 b7 a7 34 3d a1 09 ba 3c 5b fa 2d 3d fc 21 22 3d
       0.044105258 0.02270967 0.042475086 0.03958319
000350 4a 9c 81 3c ff 2a 58 b9 43 36 c1 3c 7c c5 a7 3b
       0.015821595 -0.00020615383 0.023585444 0.0051199775
000360 8c 57 70 3d 2d 64 76 3c 78 70 a2 3c 1a ae c8 3c
       0.05867724 0.015038532 0.01982902 0.02449708
000370 6e 40 4d 3c d3 f2 0d 3d 66 a9 3c 3d bb f3 86 3c
       0.012527568 0.034655403 0.04605999 0.016473642
000380 75 0e d4 3c 8a 0f ef 3b 0b 21 b8 3c ce 05 c7 3c
       0.0258858 0.0072955536 0.022476694 0.02429476
000390 ac 72 8a 3c 79 21 df 3c b2 d5 04 3d 41 e0 17 3d
       0.016900383 0.02723764 0.03243036 0.0370791
0003a0 e7 f1 0a 3d fd 20 9a 3c 8b af 56 3c 96 b9 bf 3c
       0.033922102 0.018814558 0.013103376 0.023403924
0003b0 25 54 db 3b d7 cb b2 3c 9d 14 8d 3c c0 30 f5 3c
       0.0066933804 0.021825714 0.017221743 0.029930472
0003c0 0d 37 91 3c b9 aa 0e ba ab 0a ae 3b 45 ac 07 3c
       0.017726446 -0.000544231 0.0053113303 0.008280818
0003d0 33 81 bd 3c 04 1d 07 3d a3 96 9e 3c 1e cf d2 ba
       0.023132896 0.032986656 0.019358939 -0.0016083454
0003e0 37 b7 67 3d a1 04 4b 3c 27 f0 f5 3b b7 1e 77 3d
       0.05657121 0.01239124 0.007505435 0.060332026
0003f0 f5 2f d9 bc 59 dc e2 3c 1e 02 bc bc 82 a4 2a 3c
       -0.026512126 0.02769296 -0.022950228 0.010415198

action_model._discrete_distribution.branches.0.weight f4 [2, 256]
000000 2b 38 3b bd 67 2b 62 bc 3d ba 7a bc 27 f3 12 bb
       -0.045707863 -0.013804293 -0.015303192 -0.0022422762
000010 70 ef 07 3d 84 f9 73 3d d9 5d b9 bc 59 4f 33 3d
       0.03318733 0.05956413 -0.022627758 0.043776844
000020 9b b2 0d 3e 27 72 38 bc 44 18 c8 bc a6 1a 34 bd
       0.13837664 -0.011257685 -0.024425633 -0.043970726
000030 96 d1 86 3d 49 4a a0 bd f9 ef f7 bb 94 36 1b bd
       0.06582944 -0.07826669 -0.0075664488 -0.037893847
000040 94 76 ae 3d e5 8d 2c bd ad 06 a7 3c 83 a9 53 3d
       0.08518711 -0.04212751 0.020388925 0.05167533
000050 a9 34 cb 3c 64 a6 4f 3c e2 95 e8 bc fe 49 3b bd
       0.024805384 0.012673948 -0.028391782 -0.04572486
000060 f2 ea ce bc f3 49 78 bd c1 f0 c2 bd 81 c9 22 3d
       -0.025258515 -0.0606174 -0.095185764 0.03974295
000070 4f 2d 77 3d f5 35 c7 bc c0 90 32 bd 80 2d 5d 3d
       0.060345944 -0.02431772 -0.043595076 0.05399847
000080 29 59 d4 bd 46 9a 68 bd fa f6 59 bd 9e 2a 06 bd
       -0.103685685 -0.05678775 -0.05321405 -0.032755487
000090 f1 b1 7a bd 99 ae ae 3d 96 51 e1 bc ad 7d 85 bd
       -0.061204854 0.085293956 -0.027504724 -0.065181114
0000a0 cd f0 11 bd 3f 6c 89 bd 1e 11 d4 38 7c 99 93 3c
       -0.035630036 -0.067100994 0.00010112136 0.018017523
0000b0 84 04 bc bc 35 ef 0c 3e 02 cd 9c bd c7 04 57 bc
       -0.022951372 0.13763125 -0.0765629 -0.013123698
0000c0 72 a6 8a 3d 45 91 72 bd dc 96 2c bd 96 a9 10 bc
       0.06770028 -0.05922057 -0.04213606 -0.008829495
0000d0 88 39 a2 bd d0 20 9b bd 03 4d 95 bc 23 6f 6f bd
       -0.079211295 -0.07574618 -0.018225199 -0.058455598
0000e0 e0 9c 59 3c 47 5d 37 bc 37 01 cd bc f9 07 86 bc
       0.013282031 -0.011191673 -0.025024993 -0.016361224
0000f0 91 1c 41 bd 41 2a 54 bc 23 00 5b 3b 6a 0f 47 bb
       -0.047146384 -0.012949527 0.003341683 -0.0030374178
000100 09 f3 b6 3c be 02 df bd 7a 67 6f bd f8 d4 86 3d
       0.022332685 -0.10889195 -0.058448292 0.06583589
000110 37 67 86 3d c3 b8 c3 3c e6 c1 94 3c 05 54 06 3b
       0.065626554 0.023891812 0.018158864 0.0020496857
000120 11 2e 54 bd 23 6f ef 3d 22 b8 05 3d 3b 96 59 bd
       -0.051801745 0.116911195 0.032646306 -0.053121787
000130 bd af 90 bd 47 d4 9f bb 84 0b 1f 3d 0f 1f 65 3d
       -0.070647694 -0.0048776004 0.03882934 0.055937823
000140 c6 58 7d bd 61 1b 8c bc e0 1b e9 bc 3d ed 8d bd
       -0.06185224 -0.017102899 -0.028455675 -0.06930015
000150 a0 85 9d bc 29 35 c1 bc fd fc af bc 13 4e 17 3d
       -0.019228756 -0.023584919 -0.021482939 0.03693969
000160 69 dc c3 bd b4 49 fc 3c ec 1b 21 bd cc 7b 0e bd
       -0.09563524 0.030796863 -0.03933327 -0.03478603
000170 64 f6 39 bd 37 76 99 bd aa 2e b2 3c 08 bc c6 3d
       -0.045400992 -0.07493251 0.021750767 0.09703833
000180 d2 8b 8f bd d4 de 2b 3d 98 ba 8e 3d ee ea 54 bd
       -0.070090905 0.041960552 0.06969184 -0.05198186
000190 0f ff 60 3d 83 cd 69 bc 6b 43 a9 bc 32 1d d8 bc
       0.054930743 -0.014270189 -0.02066203 -0.026381109
0001a0 2b 87 7a bb 04 eb 5c bc 4c 51 d3 3c 63 c3 8a bc
       -0.003822754 -0.0134837665 0.025795601 -0.01693887
0001b0 d8 a1 c1 bc b5 13 de 3d 18 9d 2b bd 78 cd 6f bd
       -0.023636743 0.108436026 -0.041897863 -0.05854556
0001c0 17 d7 25 bc db 30 cc 3b dc 5d 03 3d 80 d5 80 bd
       -0.010122082 0.00623141 0.032071933 -0.06290722
0001d0 92 ad a3 bd a4 c1 3d bd be 82 16 bc fc a7 c2 bc
       -0.0799209 -0.04632725 -0.009186445 -0.023761742
0001e0 80 a5 58 3d b5 00 3e 3d 7b 5b 60 bd f1 6d b7 3d
       0.052892208 0.046387393 -0.054774743 0.089565165
0001f0 3a 3a e2 bd bc 39 15 3c 4b d1 71 3d d6 c8 bc bb
       -0.11046262 0.009108003 0.059037488 -0.005761246
000200 ae fd 1b 3b e0 a6 37 bd d7 1e 49 3d 84 10 4e 3d
       0.0023802328 -0.04483688 0.049101677 0.05030872
000210 a5 98 fd 3c e0 80 85 3d 95 b1 b3 bd cf 11 51 bd
       0.030956576 0.065187216 -0.087741055 -0.051042374
000220 80 84 c5 3c 1e 0e a7 3b 22 66 05 bc 61 6d 8d bd
       0.024111032 0.0050981184 -0.008142026 -0.06905628
000230 3c cc 07 bd 57 06 2d bd 19 83 00 3d 30 17 6e 3d
       -0.033153757 -0.042242374 0.031375024 0.058127582
000240 a9 b3 15 bd 30 fd 2d bc 79 a9 70 3d 5b 38 28 bc
       -0.03654829 -0.010619447 0.05875537 -0.010267342
000250 fa 55 fe bc 85 04 84 bd e3 43 28 bc e1 b2 8e bb
       -0.031046856 -0.064461745 -0.010270092 -0.00435482
000260 07 4a 85 bc e2 97 8b 3c 90 4a 4f 3d 19 32 3a bb
       -0.01627065 0.017040197 0.050608218 -0.0028411208
000270 72 81 24 bd df 70 64 bd a2 8f c5 bd f7 9c 44 bd
       -0.04016251 -0.055771705 -0.096465364 -0.048001256
000280 5c 03 f0 3c a8 a9 dd 3b 42 b4 81 3d f3 cf 96 3d
       0.029298477 0.0067646094 0.063332096 0.07363882
000290 24 54 5a bd 2b 9b b3 bc 98 3a 4b 3d d7 45 08 3e
       -0.0533029 -0.021924576 0.049616426 0.13307892
0002a0 3f 5b db bc 94 a8 fd bb 37 bc 80 3d 8a 90 e3 bc
       -0.026776908 -0.0077410433 0.06285899 -0.027778883
0002b0 60 5b 59 bd cd d9 a9 3c db da ef bc bc 09 63 bb
       -0.053065658 0.020733738 -0.029279163 -0.0034643253
0002c0 03 93 b3 3d e6 f1 3d 3d d4 34 94 3d fd 1e 5b bd
       0.08768275 0.04637327 0.07236639 -0.05349635
0002d0 bf b4 21 3d 19 4c 9b 3d 1e 16 50 3c 35 5f 64 3c
       0.039479014 0.07582874 0.012700586 0.013938715
0002e0 a0 0d 81 bc 02 f7 3e 3c 8a 9b 1c bd 00 98 8f bd
       -0.015753567 0.011655571 -0.03823427 -0.070114136
0002f0 e0 a1 e2 3c a0 f7 af bd 45 31 ec bc 38 17 1d bd
       0.027665079 -0.085921526 -0.028832087 -0.03835222
000300 e8 50 b6 bc ef ec 76 bc e2 66 92 3b 9c d4 92 bd
       -0.022255376 -0.015071138 0.004467831 -0.07169458
000310 c3 07 8d bd 01 28 26 bd f4 fc 68 3c 73 97 6f bc
       -0.06886246 -0.040565494 0.014220465 -0.014623511
000320 42 c0 bc 3c e0 35 b4 bd 56 f0 90 bc 7d 2f e1 bc
       0.023040894 -0.08799338 -0.017692726 -0.027488464
000330 2b 52 a6 bc 86 53 be bd 6f 8a 81 3d e9 62 65 bc
       -0.020302853 -0.092932746 0.06325232 -0.014000633
000340 1e 8b 1c bd 44 cd c6 bc e3 7d b6 bd ca e0 a0 bd
       -0.03821861 -0.0242678 -0.0891073 -0.07855375
000350 85 38 38 bc fd cb 8c 3c ec 8c ad bd 10 52 76 3c
       -0.011243944 0.017187113 -0.08474144 0.015034214
000360 74 57 03 3e 8f f9 14 3d 81 15 40 bd f4 aa 7b bc
       0.1282633 0.03637081 -0.046895508 -0.015360583
000370 60 b6 22 bb ac a5 b7 3d 2a 98 d4 bd b5 87 7c 3d
       -0.0024827942 0.08967146 -0.103805855 0.061652858
000380 c6 52 c4 3d 28 1b b4 bc 6b ab a1 bd 06 00 89 3d
       0.095861 -0.021985605 -0.078940235 0.066894576
000390 8f c8 e7 bc 16 d0 9d 3d e0 39 89 bc c6 fe ba bd
       -0.028293876 0.07705705 -0.01675123 -0.091306254
0003a0 2b cd b2 bc 5e 07 92 3d e6 ab 2f bd c4 d1 6d bd
       -0.021826347 0.071303114 -0.042888544 -0.058061376
0003b0 49 ec 11 bd 1c 01 a0 3d 26 74 8e 3d 47 55 d9 3d
       -0.03562573 0.078127116 0.06955747 0.106119685
0003c0 4e 10 44 bd 84 a3 3f bc 9c 86 4e 3d 1b 68 28 bd
       -0.04786711 -0.0116967 0.050421342 -0.041114908
0003d0 c4 38 1c bd 6f 6e 7b 3d e9 ab 3b 3d 20 c1 b7 3c
       -0.038140073 0.061384615 0.045818243 0.022430956
0003e0 15 62 ce bd 2a 78 3f 3d a9 bf 1b 3d 7a ee c6 bc
       -0.100773014 0.046745457 0.03802458 -0.024283636
0003f0 f6 59 02 3c c2 8e ca bc 00 dd 4d 3c 71 a5 37 bd
       0.007956019 -0.024726275 0.012564898 -0.04483551

action_model._discrete_distribution.branches.0.bias f4 [2]
000000 fe 10 ad 39 49 11 ad b9
       0.00033009792 -0.0003301001

exp_avg f4 [256, 29]
000000 df a2 a1 b6 88 a2 a2 b6 6f 0e 5d b9 6f 0e 5d b9
       -4.8171346e-06 -4.8468974e-06 -0.0002108158 -0.0002108158
000010 c1 82 c1 37 18 4d 94 b9 e7 e4 24 38 77 b1 ee b8
       2.306828e-05 -0.000282862 3.931383e-05 -0.0001138178
000020 d1 9f a1 b6 4e c3 7b 35 62 1f 63 b9 15 28 60 b9
       -4.816779e-06 9.378899e-07 -0.00021660098 -0.00021377236
000030 d4 ed 6a b8 6d 83 55 b9 10 39 24 38 10 6d 44 b8
       -5.6011442e-05 -0.00020362223 3.915379e-05 -4.6831614e-05
000040 7f 36 99 b6 af 05 f6 b5 df 7a 60 b9 30 3b 5f b9
       -4.5660995e-06 -1.8330082e-06 -0.00021408078 -0.00021288986
000050 3a 74 84 b9 50 fc 9b 37 ec 84 63 37 d4 10 db b7
       -0.00025263597 1.8594932e-05 1.3561203e-05 -2.611467e-05
000060 1f ac f4 33 75 ce eb b6 be f0 5f b9 6c 38 5f b9
       1.1393444e-07 -7.0275805e-06 -0.0002135662 -0.00021287956
000070 00 00 00 00 7f 1b 8e b4 32 86 04 b4 ba 9a 59 b6
       0.0 -2.6469567e-07 -1.2342278e-07 -3.2425583e-06
000080 ba 9a 59 b6 e0 51 10 35 5f b7 1c b7 3b 91 ad 36
       -3.2425583e-06 5.3763324e-07 -9.341019e-06 5.172709e-06
000090 93 b2 ba 33 3d ff 8d b4 0b 77 08 36 d8 2e b5 b6
       8.6937824e-08 -2.6449007e-07 2.0334871e-06 -5.3996737e-06
0000a0 54 60 8f b6 d4 4b 1f b6 8b 04 d5 b6 31 d7 aa 36
       -4.272946e-06 -2.3736984e-06 -6.3484235e-06 5.0914464e-06
0000b0 85 0b 19 36 ec ce 62 b3 d4 ff c3 35 9e 0d a9 b6
       2.2805482e-06 -5.280792e-08 1.4603088e-06 -5.0381777e-06
0000c0 e5 98 95 b6 6a 85 e8 b6 54 d6 89 34 7d 29 4c 36
       -4.4583453e-06 -6.9296702e-06 2.5674183e-07 3.0422518e-06
0000d0 d8 66 42 36 e5 14 de 35 e2 ee b1 b4 90 39 a6 b6
       2.8968116e-06 1.654637e-06 -3.314263e-07 -4.9538867e-06
0000e0 4d ab 98 b6 00 00 00 00 26 e5 14 b6 27 29 7f b5
       -4.549895e-06 0.0 -2.21871e-06 -9.5054787e-07
0000f0 bd 81 ee b7 bd 81 ee b7 42 08 1e 36 25 56 47 b8
       -2.8432225e-05 -2.8432225e-05 2.3548641e-06 -4.7525526e-05
000100 2a a7 63 37 a5 5a 4a b7 ed d6 14 b6 52 43 cf 36
       1.3569175e-05 -1.2061243e-05 -2.2178822e-06 6.176918e-06
000110 d0 26 15 b8 00 f2 04 b8 82 3f 4b b7 2b 0b 08 b8
       -3.5560515e-05 -3.1696633e-05 -1.2114529e-05 -3.2435328e-05
000120 cf 3c 59 37 21 7c 88 b5 2c 61 c6 b5 f8 54 94 36
       1.2948366e-05 -1.0168916e-06 -1.478043e-06 4.4206354e-06
000130 6b e3 10 b8 bd 61 08 b8 1a c4 26 b8 75 9e 21 35
       -3.4544075e-05 -3.2515953e-05 -3.9760118e-05 6.020776e-07
000140 4b 8e fd 36 c1 7d 10 36 69 75 94 36 cd c6 e1 b5
       7.5565526e-06 2.153087e-06 4.424412e-06 -1.6821665e-06
000150 4b 0c 10 b8 c8 fe 09 b8 00 00 00 00 a8 64 09 b5
       -3.4343724e-05 -3.290063e-05 0.0 -5.118295e-07
000160 56 8e 93 b5 36 b7 cc b7 36 b7 cc b7 7b 6d d1 35
       -1.0993779e-06 -2.440401e-05 -2.440401e-05 1.5603576e-06
000170 ee 6c f5 b7 24 ad e1 35 ff b1 6a b7 7d 57 09 b5
       -2.9257e-05 1.6814197e-06 -1.398893e-05 -5.116379e-07
000180 5b 87 11 34 95 13 d7 b7 56 63 d2 b7 86 a5 cb b6
       1.355342e-07 -2.5639116e-05 -2.5080208e-05 -6.069141e-06
000190 69 a2 b3 b7 58 08 c5 35 6c 28 f0 b6 ba a9 b9 b4
       -2.1414091e-05 1.4680072e-06 -7.157263e-06 -3.4582428e-07
0001a0 c8 cb 49 b5 3c 06 d1 b7 5d 67 cf b7 c7 90 e4 b7
       -7.5174876e-07 -2.4917645e-05 -2.4724455e-05 -2.7247135e-05
0001b0 a0 12 92 34 bb d3 80 35 4c 05 aa b6 4c 93 bc 34
       2.720817e-07 9.598365e-07 -5.0670114e-06 3.51249e-07
0001c0 fa 79 d6 b5 ed c5 cf b7 49 f6 ce b7 00 00 00 00
       -1.5979742e-06 -2.476849e-05 -2.46718e-05 0.0
0001d0 fc 6c 74 36 b2 18 0c 36 ca 1d d0 38 ca 1d d0 38
       3.642227e-06 2.0876e-06 9.9237615e-05 9.9237615e-05
0001e0 57 b8 0b b7 6f ab 51 39 dd bd b5 b8 92 af e2 37
       -8.327966e-06 0.00019995657 -8.666117e-05 2.7023056e-05
0001f0 d8 2a 74 36 b1 d6 05 b8 fc b5 0b 39 09 c3 f1 38
       3.6383772e-06 -3.1909618e-05 0.00013323867 0.00011528104
000200 88 eb 05 38 2d ac 27 39 25 2c b6 b8 13 b3 b8 b7
       3.1929027e-05 0.00015990502 -8.686659e-05 -2.2017897e-05
000210 5c 30 db 34 38 75 c7 b7 0c 92 06 39 bf 71 f9 38
       4.0827115e-07 -2.3777233e-05 0.00012833643 0.00011894432
000220 c6 68 2d 39 ba 2b 05 b7 36 14 5c b8 69 f4 1b b8
       0.00016537597 -7.937599e-06 -5.247091e-05 -3.7182504e-05
000230 ac a4 e0 b7 f1 48 a6 36 4a f3 04 39 c2 3c fc 38
       -2.6779562e-05 4.955677e-06 0.00012679133 0.000120276134
000240 00 00 00 00 7c e6 53 37 ae fa d6 36 da 89 46 39
       0.0 1.2630244e-05 6.40688e-06 0.00018934105
000250 da 89 46 39 65 d2 d3 b7 07 fd c3 39 a8 ff 12 b9
       0.00018934105 -2.5251133e-05 0.00037381818 -0.00014018884
000260 23 44 8e 38 9b c6 53 37 3f 12 47 b8 3c 08 7f 39
       6.783779e-05 1.26228215e-05 -4.746229e-05 0.00024321763
000270 39 a1 61 39 db 06 75 38 ed 0f 98 39 7c e1 12 b9
       0.00021517732 5.8418937e-05 0.00029003565 -0.00014007644
000280 11 7b b4 b7 5b c6 ed 36 ee b3 ea b7 61 68 70 39
       -2.151498e-05 7.086242e-06 -2.797876e-05 0.00022927068
000290 ff 26 62 39 74 82 9a 39 93 34 4d b7 09 63 9b b8
       0.00021567567 0.00029470364 -1.2231193e-05 -7.409423e-05
0002a0 b0 19 4e b8 ad 13 16 b8 ed f5 99 37 44 c6 6c 39
       -4.913815e-05 -3.578111e-05 1.835354e-05 0.00022580574
0002b0 b2 62 63 39 00 00 00 00 cb cb 84 b5 8d d2 88 b6
       0.00021685174 0.0 -9.894078e-07 -4.077627e-06
0002c0 f5 96 22 b9 f5 96 22 b9 14 4c 00 37 14 5c 65 b9
       -0.0001550576 -0.0001550576 7.647108e-06 -0.00021873444
0002d0 c1 c0 55 38 aa 27 96 b8 12 85 84 b5 c5 02 89 37
       5.0962673e-05 -7.1599454e-05 -9.873495e-07 1.6332962e-05
0002e0 6f fe 37 b9 26 d1 2c b9 8b e3 1e b8 f4 b3 36 b9
       -0.00017547024 -0.00016481112 -3.788205e-05 -0.0001742391
0002f0 d5 16 5a 38 6f 48 96 b7 fd 32 4e 35 bc 5f 29 37
       5.1996514e-05 -1.7915123e-05 7.681518e-07 1.0095475e-05
000300 4f 4b 33 b9 5f b7 2d b9 1e 64 54 b9 ed d5 52 37
       -0.00017098825 -0.00016566877 -0.00020255192 1.2566784e-05
000310 f0 7c fa 37 2d 09 65 b5 02 0c 8e 37 33 d2 e6 b6
       2.9860501e-05 -8.53225e-07 1.693331e-05 -6.8790046e-06
000320 10 72 32 b9 c6 96 2e b9 00 00 00 00 18 41 ff 35
       -0.00017017894 -0.000166501 0.0 1.9017925e-06
000330 7d 6e 11 36 c9 14 05 39 c9 14 05 39 bd 8f 9a b7
       2.1670996e-06 0.00012691611 0.00012691611 -1.8425164e-05
000340 26 30 8e 39 9d 6a ff b8 be 99 07 38 0d cf fe 35
       0.00027120224 -0.00012179206 3.232969e-05 1.8984734e-06
000350 2e 85 3e b8 b2 fc 36 39 46 7b 1c 39 ab 46 15 38
       -4.5423563e-05 0.00017451009 0.00014923242 3.5590183e-05
000360 f5 ce 64 39 9b c7 00 b9 a9 97 0f b8 12 b0 fe b5
       0.00021820872 -0.0001228139 -3.42351e-05 -1.8975718e-06
000370 b3 47 0c b8 53 68 2e 39 3e bc 20 39 5c 44 64 39
       -3.3445376e-05 0.00016632797 0.00015328915 0.0002176924
000380 a1 8a 75 b7 5a 25 97 b8 fc 0b 67 b8 52 0c 2c b8
       -1.4635415e-05 -7.207198e-05 -5.5085853e-05 -4.101947e-05
000390 e5 5e 06 37 2b f6 2b 39 4e 97 22 39 00 00 00 00
       8.009117e-06 0.00016399536 0.0001550589 0.0
0003a0 8d a8 3d 37 c0 c5 73 37 51 0c 18 3a 51 0c 18 3a
       1.1304522e-05 1.4529971e-05 0.0005800175 0.0005800175
0003b0 93 ae b2 b7 21 0e 80 3a 87 69 b7 b9 8c d8 5d 39
       -2.1300546e-05 0.0009769836 -0.00034983104 0.00021156872
0003c0 27 72 3d 37 23 fc f5 b8 c6 9b 3a 3a 39 6c 28 3a
       1.1291856e-05 -0.000117294745 0.0007118549 0.0006424818
0003d0 ad 8d 0d 39 53 1b 58 3a 68 59 b9 b9 fe 42 ee b7
       0.00013499586 0.0008243818 -0.00035352563 -2.8403007e-05
0003e0 4d 92 43 36 e9 b4 a9 b8 15 45 33 3a 5a 1b 2a 3a
       2.9142423e-06 -8.092245e-05 0.0006838602 0.0006489061
0003f0 9c 2c 58 3a 21 59 24 b8 ff 53 3c b9 49 b0 dd b8
       0.00082463934 -3.9183655e-05 -0.00017960368 -0.00010570937

exp_avg_sq f4 [256, 29]
000000 c9 02 0f 31 b4 bb 12 31 0c d7 67 34 0c d7 67 34
       2.0810822e-09 2.1352493e-09 2.1591785e-07 2.1591785e-07
000010 4e 02 8b 32 c6 d8 44 34 b7 c8 fe 32 27 1b 86 33
       1.6182778e-08 1.8332784e-07 2.9660766e-08 6.2448e-08
000020 86 fc 0e 31 39 56 1e 31 a7 30 68 34 1d 0c 68 34
       2.0807263e-09 2.3041038e-09 2.1624383e-07 2.161109e-07
000030 cd ee 05 33 b8 53 41 34 32 f5 7a 32 a7 51 05 33
       3.1183664e-08 1.8004982e-07 1.4607666e-08 3.1040738e-08
000040 cc 2a 0f 31 1b 41 20 31 32 49 68 34 a1 29 68 34
       2.0833566e-09 2.3320073e-09 2.1633312e-07 2.1621828e-07
000050 d0 fe 1a 34 e8 7b aa 33 f8 c1 5b 31 f1 c3 bf 32
       1.4435068e-07 7.93878e-08 3.1978953e-09 2.232443e-08
000060 d3 a6 10 31 0b c4 1d 31 df 64 68 34 f5 40 68 34
       2.1049587e-09 2.2957944e-09 2.164338e-07 2.1630315e-07
000070 00 00 00 00 a6 f7 24 2f 08 c2 2b 2e 63 fe 93 31
       0.0 1.5003696e-10 3.9053233e-11 4.3071835e-09
000080 63 fe 93 31 77 01 9c 2f de 23 e8 30 62 df 36 31
       4.3071835e-09 2.8377276e-10 1.6890416e-09 2.6611464e-09
000090 17 2d 46 31 c1 83 24 2f 37 1b 88 2f 7f 19 90 31
       2.8838423e-09 1.4962521e-10 2.4757593e-10 4.19385e-09
0000a0 e3 bb 8f 31 2e 3f 5c 30 88 69 f2 30 c1 11 09 31
       4.183208e-09 8.012532e-10 1.7637811e-09 1.9946216e-09
0000b0 d2 f0 24 31 88 7d 3a 2f cd 28 88 2f aa 5f 8f 31
       2.4002031e-09 1.6961199e-10 2.4767247e-10 4.1727235e-09
0000c0 21 f3 8e 31 4f 25 34 31 38 a8 42 30 11 85 92 30
       4.1603845e-09 2.6214655e-09 7.081584e-10 1.0660718e-09
0000d0 d4 c9 0c 31 c9 29 8f 2f e1 ac 1f 2f 90 ce 8f 31
       2.0487407e-09 2.6041239e-10 1.4522385e-10 4.185331e-09
0000e0 c1 42 8f 31 00 00 00 00 b6 88 17 30 86 a6 09 2f
       4.169437e-09 0.0 5.512776e-10 1.2519238e-10
0000f0 96 ed 95 31 96 ed 95 31 54 46 81 30 9c 49 64 31
       4.363481e-09 4.363481e-09 9.405974e-10 3.3220209e-09
000100 21 09 93 30 af b6 e0 30 65 70 17 30 ea cd 8b 2f
       1.0698252e-09 1.6350067e-09 5.50932e-10 2.5430263e-10
000110 eb 67 92 31 ef ca 92 31 ee 89 d5 30 2c 93 4f 31
       4.2609734e-09 4.27223e-09 1.5536992e-09 3.0206122e-09
000120 26 29 34 30 8f aa 8a 30 db 5d 1b 30 12 30 8a 2f
       6.5542094e-10 1.0089297e-09 5.652205e-10 2.513621e-10
000130 e6 1c 92 31 b3 23 92 31 f6 38 95 31 bb 4e 15 30
       4.2524446e-09 4.253218e-09 4.3429464e-09 5.4317767e-10
000140 d7 7b 7f 2f 1b 11 54 30 17 b3 2d 30 14 d7 3c 2f
       2.3236112e-10 7.714946e-10 6.3191535e-10 1.7174911e-10
000150 55 58 92 31 80 30 92 31 00 00 00 00 48 e2 ac 2d
       4.2592014e-09 4.254673e-09 0.0 1.9654625e-11
000160 f1 10 0b 2f c2 e4 8f 30 c2 e4 8f 30 75 a2 a9 2e
       1.2647995e-10 1.0469636e-09 1.0469636e-09 7.7140884e-11
000170 b8 3c 98 30 e5 42 19 2e 78 10 8e 2f 2d cb ac 2d
       1.1076713e-09 3.4847587e-11 2.584135e-10 1.9644364e-11
000180 1b 8b 16 2f 1c a1 8f 30 01 4d 8f 30 09 de 31 2f
       1.3691841e-10 1.0450409e-09 1.0426505e-09 1.6176939e-10
000190 31 8e 8d 30 d1 be a8 2d 3d 43 d2 2e 94 e2 af 2d
       1.0299513e-09 1.9184128e-11 9.561638e-11 1.9995818e-11
0001a0 10 8d 17 2f 63 bb 8f 30 46 6c 8f 30 7b a5 85 30
       1.3783485e-10 1.0457878e-09 1.0435393e-09 9.724056e-10
0001b0 d2 e0 8f 2f 22 05 91 2d de c0 83 2e 1b a0 b4 2d
       2.6171293e-10 1.6486871e-11 5.9914504e-11 2.0534732e-11
0001c0 44 5d 17 2f 35 01 90 30 52 a2 8f 30 00 00 00 00
       1.3766505e-10 1.0477722e-09 1.0450754e-09 0.0
0001d0 e6 f9 86 30 68 b7 9c 2f de 8b cb 33 de 8b cb 33
       9.820809e-10 2.8506553e-10 9.478366e-08 9.478366e-08
0001e0 1b c6 68 31 20 a1 85 33 29 5a 2b 33 e6 10 59 33
       3.3873053e-09 6.2226036e-08 3.989604e-08 5.053962e-08
0001f0 ab ce 86 30 69 70 41 31 5d bc c8 33 45 9c c8 33
       9.808522e-10 2.8149094e-09 9.347489e-08 9.341651e-08
000200 0b 7e ee 31 da c6 8e 33 b7 f5 f5 32 b4 ce 1f 33
       6.941041e-09 6.648561e-08 2.8633492e-08 3.7208068e-08
000210 f9 72 9c 30 82 0c 3d 31 78 dc c8 33 83 7c c8 33
       1.1383171e-09 2.751023e-09 9.353329e-08 9.335874e-08
000220 a7 71 9b 33 43 bb 57 32 92 93 7f 32 23 e7 04 33
       7.238423e-08 1.25572255e-08 1.4876507e-08 3.0943863e-08
000230 f3 51 14 31 a4 94 ea 30 5c 3a c9 33 a7 a7 c8 33
       2.1583417e-09 1.7067987e-09 9.3704074e-08 9.3437215e-08
000240 00 00 00 00 0b 82 47 32 4e 2a 42 31 94 48 b5 34
       0.0 1.1612893e-08 2.8254763e-09 3.3766685e-07
000250 94 48 b5 34 3e 20 17 33 9d a8 67 34 b3 2c 0d 34
       3.3766685e-07 3.518675e-08 2.1574893e-07 1.314791e-07
000260 b5 59 33 34 5f 5b 47 32 ce 17 1b 32 6d dc b3 34
       1.670331e-07 1.16041e-08 9.0276e-09 3.350173e-07
000270 74 b1 b3 34 df 77 5a 33 1c be 7c 34 b7 12 b5 33
       3.3470462e-07 5.0866102e-08 2.353849e-07 8.4318735e-08
000280 69 ae fb 33 f4 4a 4f 32 a9 33 1e 32 51 fa b3 34
       1.1719823e-07 1.2066028e-08 9.208557e-09 3.3523477e-07
000290 1e a4 b3 34 b1 ad 93 34 ea 66 6d 33 94 d7 0b 33
       3.346076e-07 2.750726e-07 5.5274462e-08 3.2559527e-08
0002a0 b2 27 c9 33 37 99 73 32 8e c7 f1 31 03 55 b4 34
       9.3670124e-08 1.4179299e-08 7.03671e-09 3.3589467e-07
0002b0 fb d6 b3 34 00 00 00 00 81 df 9e 2e 13 f1 06 31
       3.3497767e-07 0.0 7.2247104e-11 1.9636601e-09
0002c0 90 d9 e4 33 90 d9 e4 33 0a e0 b4 30 56 86 c0 33
       1.0656652e-07 1.0656652e-07 1.3160399e-09 8.965132e-08
0002d0 4e d6 d0 32 f4 c8 30 33 86 ee 9f 2e ff 24 4e 31
       2.4311841e-08 4.116096e-08 7.272853e-11 2.9997975e-09
0002e0 ac c4 e4 33 27 5e e4 33 ae 2b b4 31 46 5f cb 33
       1.0652852e-07 1.06342036e-07 5.2436553e-09 9.470254e-08
0002f0 f7 e2 57 32 0a 00 c4 32 d7 62 07 2f 4c 7a 50 31
       1.2566253e-08 2.281742e-08 1.2313293e-10 3.0337501e-09
000300 b2 cc e4 33 03 6e e4 33 0f a7 9d 33 7b ac 0c 33
       1.0654311e-07 1.06370884e-07 7.34127e-08 3.275316e-08
000310 78 25 cd 31 f0 d9 95 32 bd da 0b 30 ef b7 34 31
       5.970545e-09 1.744499e-08 5.087875e-10 2.6298002e-09
000320 d0 fc e4 33 30 8f e4 33 00 00 00 00 25 ce 8a 2f
       1.0663064e-07 1.0643123e-07 0.0 2.5248528e-10
000330 64 b8 b1 2f 8f 35 55 34 8f 35 55 34 ab 47 f2 31
       3.232713e-10 1.9856655e-07 1.9856655e-07 7.0512747e-09
000340 bc dc 07 34 5e b9 b3 33 19 11 e1 33 17 b5 8a 2f
       1.2653157e-07 8.369055e-08 1.0480489e-07 2.5230726e-10
000350 b4 b9 ab 31 41 d4 52 34 86 a4 52 34 fe f8 61 32
       4.997867e-09 1.9634992e-07 1.9617627e-07 1.3153338e-08
000360 28 76 14 34 2c 0b 7e 33 ae 8e a5 33 19 ff f7 2f
       1.3826559e-07 5.9149144e-08 7.7093645e-08 4.5110296e-10
000370 ae 23 ad 31 89 fb 52 34 96 8f 52 34 e8 2d 18 34
       5.039019e-09 1.9649282e-07 1.961001e-07 1.4172804e-07
000380 ae 5c 1c 33 90 ae f4 32 ff 08 89 33 e9 c6 2d 31
       3.6405872e-08 2.848472e-08 6.381196e-08 2.528788e-09
000390 2a ca 4f 31 96 57 53 34 7c bc 52 34 00 00 00 00
       3.0237381e-09 1.968277e-07 1.9626344e-07 0.0
0003a0 28 f8 42 32 f8 ef 97 32 78 cb 29 36 78 cb 29 36
       1.134871e-08 1.7687839e-08 2.5301397e-06 2.5301397e-06
0003b0 16 20 04 33 f6 53 e8 35 4b 6e 8c 35 4b aa b5 35
       3.0762827e-08 1.7309783e-06 1.0462912e-06 1.3535113e-06
0003c0 9e ba 42 32 2c 64 8d 33 df c7 28 36 7b 72 28 36
       1.1334718e-08 6.584045e-08 2.515029e-06 2.5100587e-06
0003d0 bb 2c ce 33 25 1b 07 36 12 43 1e 35 92 3e 72 35
       9.600759e-08 2.0132368e-06 5.8957187e-07 9.0243077e-07
0003e0 86 f5 55 32 45 1e 91 33 6e e3 28 36 83 7e 28 36
       1.2454057e-08 6.757595e-08 2.5166332e-06 2.510759e-06
0003f0 a2 28 07 36 5c ed ef 34 f3 8a 47 34 cc 59 3b 35
       2.014022e-06 4.468992e-07 1.8583869e-07 6.97936e-07

exp_avg f4 [256]
000000 31 2f 67 b9 77 ba 73 b6 3f 91 04 b8 18 3c da b7
       -0.00022047457 -3.6318359e-06 -3.1606523e-05 -2.6015608e-05
000010 ea 18 dc 38 5c 8a 5a 39 b1 e8 27 b9 f0 53 09 39
       0.00010495058 0.00020841643 -0.00016013045 0.00013096607
000020 15 cc 1e 3a 21 fc 17 b8 71 c2 88 b8 34 66 8b b9
       0.0006057632 -3.623602e-05 -6.521203e-05 -0.00026588293
000030 75 0b c0 39 2d 91 bb b9 2c 3a b2 b7 65 05 26 b9
       0.0003662963 -0.00035775584 -2.1246342e-05 -0.00015833003
000040 f4 d5 4d 39 96 e3 68 b9 21 ec 3c 38 bc 1d be 38
       0.00019630027 -0.00022210027 4.5042605e-05 9.0654445e-05
000050 67 77 30 39 5e 1f df 37 15 77 42 b9 5c 22 0a b9
       0.00016829149 2.6598278e-05 -0.00018545643 -0.00013173505
000060 4d 0e 74 b7 ec b3 af b9 d4 27 20 ba ef bf a6 38
       -1.4546863e-05 -0.00033512653 -0.00061094505 7.951247e-05
000070 7c 41 87 39 be d3 f9 b8 e1 35 19 b8 f1 97 18 39
       0.00025797996 -0.00011912685 -3.652822e-05 0.00014552452
000080 36 80 14 ba d4 66 33 b9 8c f3 85 b9 37 7d da b8
       -0.0005664857 -0.00017109077 -0.00025549193 -0.00010418373
000090 52 92 a7 b9 09 dd af 39 3f 00 2b b9 d5 e9 e6 b9
       -0.0003196174 0.00033543285 -0.00016307922 -0.00044043237
0000a0 d5 10 1c b9 fc de 95 b9 34 4b c9 36 aa c4 11 38
       -0.0001488359 -0.0002858563 5.9990216e-06 3.475385e-05
0000b0 05 ae ff b7 d0 d4 00 3a a4 04 ca b9 cc 63 48 b8
       -3.0479403e-05 0.0004914524 -0.000385319 -4.777666e-05
0000c0 55 48 13 39 6c a9 c3 b9 41 a9 33 b9 25 6d 74 b5
       0.00014045958 -0.00037319527 -0.00017133822 -9.105591e-07
0000d0 f0 ee d9 b9 cd eb e7 b9 60 fa ab b8 a0 53 cc b9
       -0.00041567488 -0.0004423544 -8.2005514e-05 -0.00038972218
0000e0 ca 51 f1 38 d6 93 08 b8 35 1e 83 b8 99 04 99 b8
       0.0001150701 -3.256261e-05 -6.252193e-05 -7.296465e-05
0000f0 3e 55 31 b9 8c 25 e4 b7 4e 14 02 37 4c 2c 1a b6
       -0.0001691179 -2.7197202e-05 7.753331e-06 -2.2973572e-06
000100 52 96 27 39 dc 1e 0b ba 1f 1c ce b9 19 60 a6 39
       0.0001598236 -0.00053070276 -0.00039312334 0.00031733586
000110 c8 73 84 39 31 ae d2 38 d1 fb cb 38 a9 4e 18 37
       0.00025263266 0.00010046026 9.726699e-05 9.0782205e-06
000120 f1 39 98 b9 c8 84 e6 39 04 bb 18 38 aa c4 b8 b8
       -0.0002903487 0.00043967948 3.6413796e-05 -8.810435e-05
000130 e6 44 8b b9 30 13 8a b7 c4 8b 2e 39 df 31 38 39
       -0.0002656348 -1.6459817e-05 0.00016646 0.00017566186
000140 3c 61 8c b9 09 2d 17 b8 7f ac 16 b9 bc 07 92 b9
       -0.00026775326 -3.6043148e-05 -0.00014369375 -0.00027853053
000150 cd 0c 8d b8 d2 de 03 b9 c6 93 7d b8 9a 26 a2 38
       -6.725788e-05 -0.0001257614 -6.0457525e-05 7.731952e-05
000160 82 d6 0e ba 17 58 4c 39 11 bd 99 b9 86 74 23 b8
       -0.0005448834 0.00019487772 -0.000293233 -3.897075e-05
000170 24 34 16 b9 76 df 1b ba 95 cf 29 39 81 02 94 39
       -0.00014324539 -0.0005946079 0.00016194426 0.00028230625
000180 70 5b 85 b9 17 23 94 39 80 76 c8 38 fa 1f 5f b9
       -0.00025435863 0.00028254904 9.5588155e-05 -0.0002127885
000190 ca 17 2a 39 31 4b b5 b7 e9 45 a6 b8 4d cd ae b8
       0.00016221325 -2.1611895e-05 -7.9285186e-05 -8.335207e-05
0001a0 f5 9f 37 b8 14 d1 3c b8 e6 ee 52 38 3c 96 b4 b7
       -4.377957e-05 -4.5017412e-05 5.0290393e-05 -2.152763e-05
0001b0 a8 1d 59 b7 b8 a9 78 39 96 34 94 b9 07 d7 d6 b9
       -1.2941113e-05 0.00023714348 -0.0002826794 -0.0004097747
0001c0 c3 4f 2f b8 b0 96 6a 34 4e 80 0b 38 5f 88 e8 b9
       -4.1797535e-05 2.1847768e-07 3.3259676e-05 -0.00044352093
0001d0 3b 81 14 ba 25 76 09 b9 bd 92 e2 b7 08 ce 9a b8
       -0.0005665009 -0.0001310935 -2.700963e-05 -7.3816685e-05
0001e0 b8 11 4f 38 17 1c 9e 38 e7 97 24 b9 eb 71 b0 39
       4.9369148e-05 7.539259e-05 -0.00015696847 0.0003365421
0001f0 39 01 27 ba ea a1 24 36 e7 73 7d 39 c7 c2 0f b6
       -0.00063707266 2.453215e-06 0.00024171137 -2.1422036e-06
000200 fc 1d 26 36 62 31 1d b9 20 27 3b 39 b2 a0 64 39
       2.475338e-06 -0.00014991083 0.00017848285 0.00021803638
000210 f2 41 6b 38 41 35 61 39 e0 3b 00 ba af bb 6c b9
       5.6089782e-05 0.00021477511 -0.00048917346 -0.00022576631
000220 e9 ce 0d 39 8c d0 46 35 4d 1e 04 b8 f4 a5 87 b9
       0.00013523888 7.4064224e-07 -3.1499472e-05 -0.0002587285
000230 0f 23 6b b9 70 e8 e1 b8 9c ed 3f 38 68 72 0a 39
       -0.00022424407 -0.00010772131 4.575924e-05 0.00013203325
000240 3e 74 1f b9 5a c4 cc b7 f6 00 58 39 d7 7b 2d b8
       -0.00015206725 -2.4410128e-05 0.00020599723 -4.136175e-05
000250 04 20 2c b9 3d 1d a4 b9 41 c4 ed b7 04 63 04 b6
       -0.00016415125 -0.00031302302 -2.834399e-05 -1.9727167e-06
000260 c8 7e 01 b7 2a c4 7b 38 67 17 46 39 90 af 67 b7
       -7.718518e-06 6.0025755e-05 0.0001889147 -1.3809549e-05
000270 3e f0 70 b9 54 8a a2 b9 ad 3c 06 ba 04 e2 55 b9
       -0.00022977681 -0.0003100211 -0.0005120736 -0.0002039746
000280 d1 5e 1f 39 e1 31 d1 37 8f c1 a4 39 7a 64 c3 39
       0.00015198743 2.4937968e-05 0.0003142473 0.0003726816
000290 1d 95 85 b9 e6 25 5c b8 ee 6b 56 39 2e 9d e5 39
       -0.00025478835 -5.2487383e-05 0.00020448837 0.00043795392
0002a0 07 52 0a b9 25 96 1a b2 a0 7f 80 39 23 46 1a b9
       -0.00013191263 -8.998119e-09 0.0002450915 -0.00014712712
0002b0 b9 21 8d b9 40 16 f5 38 6d d7 33 b9 06 57 4b b7
       -0.0002691874 0.00011686655 -0.00017151023 -1.2120005e-05
0002c0 62 e9 c2 39 11 7f 07 39 73 72 ac 39 52 f6 3b b9
       0.00037176447 0.00012921939 0.00032891668 -0.00017925471
0002d0 ab f5 1b 39 06 57 c2 39 56 6b ee 38 b8 6b eb 36
       0.0001487347 0.000370674 0.00011368717 7.016086e-06
0002e0 46 52 f5 b8 70 7c 83 38 68 d2 34 b9 47 6a e3 b9
       -0.00011697835 6.269745e-05 -0.0001724452 -0.00043375997
0002f0 f3 de 30 38 73 30 ab b9 7a e8 51 b9 b3 ab 91 b9
       4.2169308e-05 -0.0003265176 -0.00020018397 -0.0002778448
000300 85 f1 90 b7 e4 c0 10 b8 09 68 73 35 18 b7 62 b9
       -1.7278604e-05 -3.451192e-05 9.0675945e-07 -0.00021621247
000310 82 c5 b1 b9 93 1b 03 b9 c6 d2 26 38 e1 28 b6 b8
       -0.00033907226 -0.00012503406 3.9773782e-05 -8.6860506e-05
000320 09 07 e0 38 93 23 ed b9 b8 1b b3 b6 0c a4 a8 b8
       0.00010682463 -0.00045230667 -5.3378426e-06 -8.0414204e-05
000330 2a 1b c4 b8 ee d7 0f ba 48 be 2f 39 c7 26 37 b7
       -9.351068e-05 -0.0005487193 0.00016760186 -1.0916679e-05
000340 33 c1 4c b9 f8 52 49 b8 d1 c5 c6 b9 c8 29 d1 b9
       -0.00019526928 -4.7999405e-05 -0.00037912888 -0.00039894716
000350 d2 97 14 b8 2a 32 a9 38 3e c9 d0 b9 89 9d 50 38
       -3.5427343e-05 8.067892e-05 -0.0003982279 4.973778e-05
000360 f3 a5 1b 3a e0 fc 04 39 98 8e 65 b9 16 65 13 b8
       0.0005937509 0.00012682704 -0.00021892262 -3.5141675e-05
000370 2a 57 47 b7 51 3d 6c 39 a5 48 15 ba 24 b2 77 39
       -1.1881619e-05 0.00022529556 -0.0005694724 0.00023622118
000380 82 74 c5 39 f1 2a e9 b8 43 e9 9a b9 75 da a8 39
       0.00037661573 -0.00011118304 -0.00029546962 0.0003220622
000390 6d e6 10 b9 5f 26 83 39 18 5e ef b7 8d 6f 08 ba
       -0.0001381875 0.00025014856 -2.8534836e-05 -0.00052046106
0003a0 50 24 3f b8 f8 21 c2 39 6a a1 1d b9 84 70 e2 b9
       -4.5571767e-05 0.00037027872 -0.00015032818 -0.0004318991
0003b0 79 91 38 b9 5e f0 8a 39 1c 68 75 39 09 8f dd 39
       -0.000176018 0.000265005 0.00023403805 0.00042258974
0003c0 db fe b3 b9 ca 22 a3 b8 00 d6 7d 39 44 0c 86 b9
       -0.00034331423 -7.778926e-05 0.00024207681 -0.0002556761
0003d0 a6 34 59 b9 98 0c 5b 39 b7 01 3c 39 cc 2d 5f 38
       -0.00020714346 0.00020890159 0.00017929716 5.3209995e-05
0003e0 6e fb 16 ba 2c 7d 73 39 ff a4 57 39 d0 19 f8 b7
       -0.0005759512 0.00023220916 0.00020565464 -2.9575924e-05
0003f0 0e 3f 9b b6 41 71 d6 b8 93 24 00 34 78 8f 94 b9
       -4.6267005e-06 -0.000102254104 1.1934235e-07 -0.00028335652
