ml-agents-release_20/Result/Dino/Dino05/Dino/Dino-499940.onnx (onnx, 34598 bytes, 4 tensors)

action_model._discrete_distribution.branches.0.bias f4 [2]
0	0x3a61ba0f	0.0008610794
1	0xba61ba1e	-0.00086108025

action_model._discrete_distribution.branches.0.weight f4 [2, 256]
0	0xbd131ab2	-0.03591413
1	0xbce0354e	-0.027369168
2	0xbc76ab67	-0.015055514
3	0xba06b3f2	-0.0005138508
4	0x3cb50ada	0.022099901
5	0x3d0edb73	0.03487725
6	0xbc4253c3	-0.011860791
7	0x3ce96bc6	0.028493773
8	0x3ddd4b80	0.10805416
9	0xbba7dc74	-0.0051227156
10	0xbca53f56	-0.020171802
11	0xbd048bc9	-0.032359872
12	0x3d53e6fd	0.05173396
13	0xbd584108	-0.052796394
14	0xbb9cbc9d	-0.0047832266
15	0xbd17be0f	-0.03704649
16	0x3d4fe1ce	0.050752454
17	0xbce8c450	-0.028413922
18	0x3c49b5d8	0.012311421
19	0x3c882077	0.016617043
20	0x3cded4f2	0.02720115
21	0x3c790bed	0.015200597
22	0xbc89cd47	-0.016821517
23	0xbd2ba4a1	-0.04190505
24	0xbce3a023	-0.02778632
25	0xbcfe8d04	-0.0310731
26	0xbd986767	-0.074415974
27	0x3c64ac62	0.013957115
28	0x3d305df5	0.043058354
29	0xbcb7bf98	-0.022430226
30	0xbd55e49a	-0.052219965
31	0x3d0e637c	0.034762844
32	0xbda3837d	-0.07984064
33	0xbd877f92	-0.06616129
34	0xbd2a6c19	-0.041606996
35	0xbc9645ef	-0.018343894
36	0xbd30cd2b	-0.043164413
37	0x3d815fe1	0.063171156
38	0xbcb34120	-0.02188164
39	0xbd2f0e7c	-0.042738423
40	0xbcf5e212	-0.030015025
41	0xbd5d94b8	-0.054096907
42	0xbaf19d6c	-0.0018433756
43	0x3c607920	0.013700753
44	0xbc7afd9b	-0.015319253
45	0x3df646b3	0.120252036
46	0xbd70afdd	-0.058761466
47	0xbc4ce698	-0.01250615
48	0x3c9a9f08	0.01887466
49	0xbd31bc00	-0.04339218
50	0xbd08f141	-0.033433203
51	0xbc23865b	-0.009980763
52	0xbd5de283	-0.054171097
53	0xbd32a778	-0.043616742
54	0xbc1fba85	-0.00974906
55	0xbd4020ee	-0.046906404
56	0x3c9a0dd5	0.018805424
57	0xbca459db	-0.020062378
58	0xbd13a1c1	-0.036042932
59	0xbc39bb6c	-0.011336189
60	0xbd12fe47	-0.03588703
61	0xbbb0dc9f	-0.005397394
62	0x3a48a178	0.0007653455
63	0xbb925e63	-0.004466818
64	0x3cb71616	0.022349399
65	0xbdb81eff	-0.08990287
66	0xbd39114e	-0.04518252
67	0x3d5daa3c	0.054117426
68	0x3d3e08f9	0.046395276
69	0x3c88d544	0.016703255
70	0x3c4de3b6	0.012566498
71	0x39aa47b6	0.00032478356
72	0xbd154c84	-0.036449924
73	0x3dbbda48	0.09172493
74	0x3c97754a	0.018488545
75	0xbd6c6da7	-0.05772176
76	0xbd72d454	-0.059284523
77	0x3bef1650	0.007296361
78	0x3ceebb1f	0.02914196
79	0x3d5bce93	0.0536638
80	0xbd4aaf02	-0.049483307
81	0xbc8d17c1	-0.01722324
82	0xbc3e8505	-0.011628394
83	0xbd83f410	-0.064430356
84	0xbc191c01	-0.009345056
85	0xbc259200	-0.01010561
86	0xbbeb12a4	-0.007173853
87	0x3ceca1ba	0.028885711
88	0xbd94ff6c	-0.0727528
89	0x3cad3dfa	0.021147717
90	0xbc8ad330	-0.016946405
91	0xbd0c65fa	-0.03427694
92	0xbd283b74	-0.041072324
93	0xbd2eca50	-0.04267341
94	0x3c56c38e	0.013108147
95	0x3da36fea	0.0798033
96	0xbd84d599	-0.06486053
97	0x3d0da1a5	0.034577984
98	0x3d28c400	0.041202545
99	0xbd1a9693	-0.037741255
100	0x3d133f9b	0.03594933
101	0xbc634055	-0.013870318
102	0xbc7bec5e	-0.015376179
103	0xbcd7fc37	-0.026365383
104	0xbab83047	-0.0014052474
105	0xbb3d0e84	-0.0028847763
106	0x3cb74656	0.022372406
107	0xbcc5a078	-0.024124369
108	0xbd1ca678	-0.038244694
109	0x3d8e0342	0.06934215
110	0xbcbfe8e0	-0.023426473
111	0xbd1c90c8	-0.03822401
112	0xbc1f7f4e	-0.009734942
113	0x3b819b60	0.0039552897
114	0x3cb724f9	0.022356497
115	0xbd48fb4f	-0.04906779
116	0xbd4153c6	-0.047199033
117	0xbd0702c6	-0.03296163
118	0xbb7c085c	-0.003845713
119	0xbc856afc	-0.016286366
120	0x3c8e58c1	0.017376306
121	0x3c95fe6d	0.018309796
122	0xbd36a948	-0.044595033
123	0x3d630fb0	0.055434883
124	0xbd9d387d	-0.0767679
125	0x3b152ab4	0.0022761049
126	0x3d542fcf	0.051803406
127	0xbc54f75e	-0.01299843
128	0x3a0b5c8e	0.0005316221
129	0xbceed49e	-0.029154118
130	0x3cf28a48	0.029606953
131	0x3d1dec41	0.038555387
132	0x3ca48808	0.020084396
133	0x3d4550ec	0.048172876
134	0xbd91e3d2	-0.071235314
135	0xbcbc4f0c	-0.022986911
136	0x3c9911c8	0.018685237
137	0x3bed9ea2	0.0072515765
138	0xba02259f	-0.00049647124
139	0xbd38cf4d	-0.045119572
140	0xbc7a34cc	-0.015271377
141	0xbd00cffa	-0.031448342
142	0x3c993dd2	0.018706236
143	0x3ce561ca	0.028000731
144	0xbcafb0ea	-0.021446664
145	0xbc019308	-0.00790859
146	0x3d01b2f6	0.03166481
147	0xbc6e8dee	-0.014560206
148	0xbc8a465e	-0.016879257
149	0xbd38634b	-0.04501657
150	0xbc18a3fa	-0.009316439
151	0xbbdaecf9	-0.0066810814
152	0xbc742fac	-0.014903944
153	0x3c97f8fc	0.018551342
154	0x3ca8310b	0.020531198
155	0xbb74e4ac	-0.0037367744
156	0xbca1ddcc	-0.019759081
157	0xbd225490	-0.039631426
158	0xbd98dda2	-0.07464148
159	0xbd0ed9c2	-0.03487564
160	0x3ca17bc5	0.019712338
161	0x3b901910	0.004397519
162	0x3d4f19a3	0.05056156
163	0x3d76405b	0.060119968
164	0xbd1f7700	-0.038931847
165	0xbccb3bcd	-0.024808789
166	0x3d373a81	0.044733528
167	0x3dd170c1	0.10226584
168	0xbc4f127d	-0.012638685
169	0xbc0b08b9	-0.008485966
170	0x3d62f039	0.055404875
171	0xbc923188	-0.017845884
172	0xbce92562	-0.028460208
173	0x3ca9f1cb	0.020745179
174	0xbcd9554e	-0.026529934
175	0x3c074f57	0.008258662
176	0x3d9bbb9b	0.07604142
177	0x3cab05de	0.020876821
178	0x3d8c5397	0.06851881
179	0xbce7463a	-0.028231729
180	0x3c905419	0.017618226
181	0x3d68dc9d	0.05685102
182	0x3c622726	0.013803279
183	0x3b6b58f5	0.0035911177
184	0xbc04a8bd	-0.008096871
185	0x3c04edef	0.008113368
186	0xbcf89df7	-0.030348761
187	0xbd569d1d	-0.05239593
188	0x3cc1a97c	0.023640387
189	0xbd650f33	-0.0559227
190	0xbc679fea	-0.014137248
191	0xbcafa086	-0.021438848
192	0xbce87b18	-0.028379008
193	0xbc833fcd	-0.016021634
194	0xbb258bda	-0.002526036
195	0xbd75e708	-0.06003478
196	0xbd30eeef	-0.043196615
197	0xbcf3d5e5	-0.029765079
198	0x3b97b3fd	0.0046296106
199	0xbba2ed59	-0.0049721417
200	0x3c61fb9b	0.013792898
201	0xbd601faa	-0.054717697
202	0xbc92d832	-0.017925356
203	0xbcc2e7ce	-0.023792174
204	0xbbbdf293	-0.0057967394
205	0xbda9bb66	-0.082876965
206	0x3ccb0182	0.024780992
207	0xbcb5f3f6	-0.022211056
208	0xbcb540e4	-0.022125669
209	0xbcb2e309	-0.021836774
210	0xbd89fe6f	-0.067379825
211	0xbd6df9f5	-0.058099706
212	0xbc13458e	-0.008988751
213	0x3c80fc00	0.015745163
214	0xbd82d29d	-0.063878275
215	0x3c51df85	0.012809639
216	0x3dd94a2f	0.106098525
217	0x3c87070a	0.016482849
218	0xbd14e2fe	-0.03634929
219	0xbc382d9c	-0.011241343
220	0xbbbbc43b	-0.0057301796
221	0x3d4c8f4b	0.049941342
222	0xbd9d2a2c	-0.07674059
223	0x3d4e931e	0.05043327
224	0x3d97da0e	0.074146375
225	0xbad76c88	-0.0016435543
226	0xbd80aa58	-0.062824905
227	0x3d791259	0.060808513
228	0xbc869d1c	-0.016432337
229	0x3d8ab4f0	0.06772792
230	0xbc946f29	-0.018119412
231	0xbd7398f7	-0.05947205
232	0xbc9fc7d9	-0.019504474
233	0x3d5b85d2	0.053594418
234	0xbd13a1a4	-0.036042824
235	0xbcd88a79	-0.026433216
236	0xbd0c8de2	-0.034314997
237	0x3d91145b	0.070839606
238	0x3d610123	0.054932725
239	0x3dbc2675	0.091870226
240	0xbd17331d	-0.03691398
241	0xbac63990	-0.0015123356
242	0x3d2b06b7	0.04175445
243	0xbc2b07e7	-0.010438896
244	0xbc74cdbe	-0.014941631
245	0x3d33cc04	0.043895736
246	0x3d0b92f3	0.03407569
247	0x3cf22602	0.02955914
248	0xbd916441	-0.070992
249	0x3d1a8996	0.03772887
250	0x3cf1393e	0.02944624
251	0xbcb324ff	-0.021868227
252	0x3bcb519e	0.006204798
253	0xbc301d24	-0.010749135
254	0x3c1a998f	0.009436025
255	0xbcf1a7eb	-0.029499015

network_body._body_endoder.seq_layers.0.bias f4 [256]
0	0x3c253fb0	0.010085985
1	0x3c0c3d74	0.008559573
2	0x3c867d0c	0.016417049
3	0x3c928dec	0.01788994
4	0x3b25b634	0.0025285603
5	0x3c39e0d4	0.011345107
6	0xbb4794ec	-0.0030453755
7	0x3ba3e1c5	0.005001279
8	0x3d22563c	0.03963302
9	0x3bc0dcb3	0.0058856844
10	0x3cd3c532	0.025850866
11	0x3c5b5889	0.013387808
12	0x3cc326ff	0.023822306
13	0x3c534154	0.012893993
14	0x3c6be8b6	0.014398744
15	0x3ca97d4a	0.020689625
16	0x3cc9bd59	0.02462642
17	0x3b9e41b5	0.00482961
18	0x3c32dfbd	0.010917601
19	0x3c6e1738	0.014531903
20	0x3c3acbba	0.011401111
21	0x3cc26be5	0.023733089
22	0x3b988813	0.004654893
23	0x3bfd1a6b	0.0077240965
24	0x3c956d18	0.018240497
25	0x3b2b9604	0.0026181946
26	0x3d16fb11	0.03686053
27	0x3ac6c170	0.001516385
28	0x3c4b74cc	0.012417983
29	0x3b082cdb	0.002077869
30	0x3d0d88e4	0.034554377
31	0x3ccb3b77	0.024808628
32	0x3ca7ce0a	0.02048399
33	0x3cb03144	0.021507867
34	0x3c56368e	0.01307453
35	0xba4dbe75	-0.00078485097
36	0x3c38bf45	0.011276071
37	0x3cb9421d	0.022614533
38	0x3bcabdcd	0.006187177
39	0x3c820677	0.015872223
40	0x3bbb4c02	0.005715848
41	0x3d40b941	0.047051672
42	0xbbfbc2c6	-0.007683131
43	0x3ad921bf	0.0016565843
44	0x3c93558c	0.017985128
45	0x3d2bb12f	0.041917022
46	0x3c77d0a3	0.015125426
47	0xbaa0d3fa	-0.0012270205
48	0x39dadbdf	0.00041744017
49	0x3c986ed8	0.018607542
50	0x3c232bf7	0.0099592125
51	0x3c540773	0.012941229
52	0x3cc28727	0.023746086
53	0x3d1041e2	0.03521908
54	0xbc1706f8	-0.00921797
55	0x3c5a3e25	0.0133204805
56	0x3a6f5431	0.0009129672
57	0xbb08aecd	-0.0020856143
58	0x3c81fe5d	0.01586836
59	0xbc36ec16	-0.011164686
60	0x3c74452e	0.014909072
61	0x3bcb6b5d	0.006207867
62	0x3c08b438	0.008343749
63	0xbbe4f29b	-0.0069869286
64	0x3b85e612	0.0040862644
65	0x3d13296e	0.035928182
66	0x3c92d73a	0.017924894
67	0x3cd041e1	0.025422039
68	0x3c58f69b	0.013242389
69	0xbb39144f	-0.0028240865
70	0xb9a4d36f	-0.00031438048
71	0xbc99b91d	-0.018765027
72	0x3c7935d0	0.015210584
73	0x3cca4340	0.02469027
74	0x3d1cc676	0.038275205
75	0x3cd03d04	0.02541972
76	0x3d140887	0.036140945
77	0xbb83b159	-0.004018944
78	0x3bede4fa	0.007259962
79	0x3c7c74ff	0.015408753
80	0x3c700c06	0.014651304
81	0x3c3cded3	0.011527735
82	0x3c8b0163	0.016968435
83	0x3cfeba53	0.031094706
84	0xbb8534ba	-0.0040651234
85	0x3ce89bf4	0.028394677
86	0x3b01bdc6	0.0019796952
87	0x3bc3e858	0.0059786253
88	0x3cfb1c19	0.030653046
89	0x3b10a7e7	0.0022072734
90	0x3b394f64	0.002827608
91	0x3c7af249	0.015316554
92	0x3d1d4691	0.038397375
93	0x3c9f1d2d	0.019423092
94	0xbb29525a	-0.002583644
95	0x3ce8729c	0.028374963
96	0x3c94c25b	0.018159082
97	0x3c266674	0.010156263
98	0x3d17843c	0.036991343
99	0x3c0ce7eb	0.008600215
100	0x3c2fa160	0.010719627
101	0x3d848482	0.06470586
102	0xbc69d49c	-0.014271881
103	0x3c609d17	0.013709328
104	0xbb9084c7	-0.0044103595
105	0xbad6bb59	-0.0016382738
106	0x3bb39266	0.0054800985
107	0x3b92199e	0.00445862
108	0x3cba4b7f	0.022741077
109	0x3cce9195	0.025215903
110	0x3c367e42	0.011138501
111	0x3bc2b0ca	0.005941485
112	0xbb7a126a	-0.0038157948
113	0xbc8bac8b	-0.017050048
114	0x3c3fb4d9	0.011700832
115	0x3c556e44	0.013026778
116	0x3cd86434	0.026414968
117	0x3cba9b92	0.02277926
118	0xbbe9c94d	-0.0071345926
119	0x3c8e8360	0.017396629
120	0x3c017d86	0.007903462
121	0x3cc40dde	0.023932394
122	0x3cb870c4	0.022514708
123	0x3cfaf549	0.03063454
124	0x3cf751eb	0.030190429
125	0x3baccc1d	0.0052733556
126	0x3d4e0add	0.05030333
127	0x3b8e012c	0.004333636
128	0xbbf567e9	-0.0074891937
129	0x3bfa027d	0.007629691
130	0x3c60ff37	0.013732723
131	0x3be0b9b8	0.006858077
132	0x3c6246cf	0.013810827
133	0x3cbdccc7	0.023168935
134	0x3cbd9562	0.02314252
135	0x38d10e20	9.9685276e-05
136	0x3a998d88	0.0011715153
137	0xbb2a2883	-0.0025964088
138	0xbcbaa495	-0.022783557
139	0x3c8693e9	0.016427951
140	0x3bb1989d	0.0054198042
141	0x3d6b03d1	0.057376686
142	0x3b49cc93	0.0030792102
143	0x3c12aca2	0.008952292
144	0x3d06deb8	0.032927245
145	0x3cb3b900	0.0219388
146	0x3c3a9a12	0.011389272
147	0x3b7e7851	0.0038829038
148	0xbbb0c01d	-0.0053939954
149	0x3c9355be	0.017985221
150	0x39622144	0.00021565432
151	0xbbb0b2cc	-0.005392408
152	0x3c71789a	0.014738226
153	0xb8d6fb6e	-0.000102511476
154	0x3a9cfd1f	0.0011977291
155	0x3bf00c71	0.007325702
156	0x3b22e563	0.0024855963
157	0x3c0f069a	0.008729601
158	0x3d67305f	0.056442615
159	0x3d669749	0.05629662
160	0x3c10a858	0.008829199
161	0xbc5ba126	-0.01340512
162	0x3cb36c02	0.021902088
163	0x3d0c71eb	0.03428833
164	0x3bde2f51	0.006780543
165	0x3d0cd248	0.034380227
166	0x3c291bad	0.01032154
167	0x3d1ac2b4	0.03778334
168	0x3c0969b0	0.008387014
169	0xbc1eea12	-0.009699361
170	0x3cb3fdf4	0.02197168
171	0x3c0d8878	0.008638494
172	0x3baa0bab	0.005189379
173	0x3b8250e7	0.0039769295
174	0x3b9aa1c3	0.0047189905
175	0x386e1c33	5.6769884e-05
176	0x3d20abc3	0.039226305
177	0x3d11dc64	0.03561057
178	0x3cd51470	0.026010722
179	0x3bd4d205	0.006494763
180	0x3bed7ded	0.0072476775
181	0x3d59fd7b	0.053220253
182	0x3a64424a	0.00087073876
183	0xba9c818b	-0.0011940462
184	0xbb8bf164	-0.0042707194
185	0xbc8132ac	-0.015771233
186	0x3c67fc2e	0.014159245
187	0x3cb1d1da	0.02170651
188	0x3c458bb9	0.012057238
189	0x3d1744f9	0.03693101
190	0x3bf2a1cd	0.007404542
191	0x3c109d3d	0.008826551
192	0x3d2c8da3	0.042127263
193	0xba6965be	-0.00089034054
194	0xbbaa04a2	-0.0051885406
195	0x3cda88ce	0.026676562
196	0x3cb5fb26	0.022214483
197	0x3c8140f1	0.015778037
198	0x3b26e80c	0.00254679
199	0xbbf55410	-0.0074868277
200	0xbbe5ec69	-0.0070167077
201	0x3d26ebf4	0.040752366
202	0x3d0c8a60	0.034311652
203	0x3c9c3814	0.019069709
204	0xbb848bc3	-0.004044981
205	0x3cf53576	0.029932719
206	0x3c0924d2	0.008370595
207	0x3bfe91ff	0.007768869
208	0x3cf92f21	0.03041798
209	0x3c97f822	0.018550936
210	0x3d0ac88b	0.03388266
211	0x3d04c96c	0.032418653
212	0x3b128649	0.0022357872
213	0x3a1ceeea	0.00059865287
214	0x3c80a520	0.015703738
215	0x3bb9fb4b	0.0056757084
216	0x3d58f171	0.05296463
217	0x3bc6d2d6	0.006067614
218	0x3c74fb3f	0.01495248
219	0x3c7a4365	0.015274857
220	0x3c4f78b6	0.012663057
221	0x3ca8d3da	0.020608831
222	0x3d104ced	0.035229612
223	0x3c5bc7de	0.013414351
224	0x3ca03d94	0.019560613
225	0x3b1f5b4f	0.0024315899
226	0x3c7bb8b7	0.015363864
227	0x3cbe8480	0.02325654
228	0x3c44d8e0	0.012014598
229	0x3cca2218	0.02467446
230	0x3cfe4f6d	0.031043733
231	0x3cb264e3	0.021776622
232	0x3cdd9629	0.027049141
233	0x3c6ad629	0.014333286
234	0x3c1df57e	0.009641049
235	0x3c2bbdde	0.01048228
236	0x3bc4ab0f	0.006001837
237	0x3cb0728c	0.021538995
238	0x3c5b38ee	0.013380272
239	0x3cddd242	0.027077798
240	0x3c595b9f	0.013266473
241	0xbc0816ac	-0.008306187
242	0x3b79e7c2	0.0038132523
243	0xbc1ee0d9	-0.009697163
244	0x3c17e312	0.009270446
245	0x3cd3babd	0.02584588
246	0x3c83a4cc	0.016069792
247	0x3ab33518	0.0013672439
248	0x3d1a7dad	0.03771751
249	0x3c3ad145	0.011402433
250	0x3bbdadd4	0.005788544
251	0x3d5ca149	0.05386475
252	0xbce10844	-0.027469762
253	0x3bc1a72b	0.0059098206
254	0xbcbaa5a2	-0.022784058
255	0x3b5ee0a4	0.0034008408

network_body._body_endoder.seq_layers.0.weight f4 [256, 29]
0	0xbedfbbe6	-0.43698043
1	0xbe846573	-0.2585865
2	0x3c9cb9fa	0.01913165
3	0x3d30ee92	0.04319627
4	0x3e76e183	0.24109463
5	0x3df7b95e	0.12095903
6	0x3d590739	0.052985404
7	0xbe8ca38e	-0.27468532
8	0x3db7f6b4	0.08982602
9	0xbb8051ce	-0.003916002
10	0xbd567d9d	-0.052365888
11	0x3e5b3e8a	0.21410576
12	0x3f025ea0	0.50925636
13	0xbce3ad8f	-0.02779272
14	0xbbc2904d	-0.005937612
15	0xbe21ddf1	-0.1580732
16	0xbe34f7a9	-0.176726
17	0xbd7b3542	-0.061330087
18	0xbe4dd210	-0.20099664
19	0xbcab6829	-0.02092369
20	0x3e26e15c	0.16296905
21	0x3f03ecde	0.51533306
22	0xbe71fea7	-0.23632298
23	0xbd59f974	-0.053216413
24	0xbe8aae9e	-0.27086347
25	0xbca3586d	-0.019939626
26	0x3df3f4fb	0.11911961
27	0x3e206286	0.15662584
28	0x3dec2a82	0.11531545
29	0x3bdaa8be	0.0066729477
30	0xbdca52c0	-0.098790646
31	0xbcb6660d	-0.022265458
32	0x3acc0123	0.0015564304
33	0xbd9afad3	-0.07567372
34	0x3bb00442	0.0053716013
35	0x3d17409d	0.036926854
36	0x3de639d1	0.11241496
37	0xbe933b02	-0.28755957
38	0x3dcf6f29	0.10128624
39	0xbe72a5b8	-0.23696029
40	0x3d365f78	0.04452464
41	0x3e035a0d	0.1282732
42	0xbecb66d0	-0.39726877
43	0xbd196236	-0.037447177
44	0x3e872535	0.26395574
45	0x3e1032ce	0.1408188
46	0xbd26363a	-0.04057906
47	0xbd45b0bc	-0.04826425
48	0xbe226778	-0.15859783
49	0x3cd08612	0.025454555
50	0xbe08f4c6	-0.13374624
51	0xbd49edf7	-0.049299207
52	0x3d727540	0.05919385
53	0x3dc9940e	0.09842692
54	0x3d6ea626	0.05826392
55	0x3e5c9abb	0.215434
56	0x3dd79128	0.10525733
57	0xbe1f8d68	-0.15581286
58	0xbe555ace	-0.2083542
59	0xbdb0b157	-0.08627575
60	0x3d530ad0	0.051523983
61	0xbe1a976b	-0.15096824
62	0x3dc0cde8	0.094142735
63	0x3e19d9ac	0.15024441
64	0x3e302851	0.1720288
65	0xbd546d6e	-0.051862173
66	0xbe58e048	-0.21179307
67	0xbda811d4	-0.082065254
68	0xbba5ec53	-0.0050635724
69	0xbdb548b3	-0.08851757
70	0x3ea49560	0.32145214
71	0xbd7f450a	-0.0623217
72	0x3d894beb	0.06703933
73	0xbdcd6ba6	-0.10030298
74	0xbd682607	-0.05667689
75	0xbe1b3327	-0.15156232
76	0xbeeefc6c	-0.46676958
77	0x3e33ae87	0.17547046
78	0x3e31e3e9	0.17372097
79	0xbe1204bc	-0.14259619
80	0xbe5624cb	-0.20912473
81	0x3d337503	0.043812763
82	0x3ed79bb0	0.42110968
83	0x3d8e9431	0.06961859
84	0x3d0f131a	0.034930326
85	0xbe61d93b	-0.22055523
86	0xbcfbc67f	-0.030734299
87	0xbe7f95b7	-0.24959455
88	0x3e825350	0.25454187
89	0x3dacd6a4	0.08439377
90	0xbc928aa2	-0.01788837
91	0xbec3ab8b	-0.38216814
92	0xbe287c20	-0.164536
93	0xbe7ce1eb	-0.24695556
94	0xbe81d989	-0.2536128
95	0xba72a662	-0.00092563604
96	0x3de4d972	0.11174287
97	0x3e85f7e3	0.26165685
98	0xbe553e66	-0.20824584
99	0x3e47a7b0	0.19497561
100	0x3d90ab5b	0.070639335
101	0xbe4f7a3f	-0.20261477
102	0xbd93d1d7	-0.07217758
103	0x3ce78496	0.028261464
104	0xbdd2c7d0	-0.102920175
105	0xbd4e3ff3	-0.050353955
106	0xbe8cf25e	-0.2752866
107	0xbdccc51a	-0.09998532
108	0xbe918884	-0.28424466
109	0x3d15ecda	0.036602832
110	0xbe441864	-0.1914993
111	0xbdd5376b	-0.10410961
112	0x3e73474e	0.2375767
113	0xbe47f9b0	-0.19528842
114	0xbd028458	-0.031864494
115	0xbd931096	-0.07180898
116	0xbe64770b	-0.22311036
117	0xbdbbd96e	-0.09172331
118	0xbe47e485	-0.19520767
119	0x3dce2b7b	0.10066887
120	0xbe2fdca1	-0.17174007
121	0xbddc7005	-0.107635535
122	0xbcb377ff	-0.021907805
123	0x3e2db70b	0.16964357
124	0x3d5f66a2	0.054541238
125	0x3e9953b7	0.29946682
126	0x3d3425c1	0.043981317
127	0xbec66042	-0.38745314
128	0x3ddcdf09	0.10784728
129	0x3df68c16	0.12038438
130	0xbda1ffec	-0.07910141
131	0x3e1cec51	0.15324523
132	0x3ea09bb1	0.31368783
133	0x3dfff4bd	0.12497852
134	0x3e2f3d30	0.17113185
135	0x3e40276a	0.18765035
136	0x3d40cc18	0.04706964
137	0xbe83c5aa	-0.25736743
138	0x3e8f4de9	0.27989128
139	0x3e57d24e	0.21076319
140	0x3cc261c7	0.023728264
141	0xbea26dac	-0.31724298
142	0x3e0cc46a	0.13746801
143	0x3d6dcb60	0.05805528
144	0x3dbbc8df	0.091691725
145	0xbdf81cc9	-0.12114865
146	0x3e8b606f	0.2722201
147	0x3dd696f4	0.10478011
148	0xbc925ac2	-0.017865542
149	0x3ec7d198	0.39027095
150	0xbe34baed	-0.17649432
151	0x3e4a8bab	0.19779842
152	0x3e7e24f0	0.24818778
153	0x3e8631e3	0.26209936
154	0x3d011aa4	0.031519547
155	0x3e2d1e20	0.16906023
156	0x3ea311a3	0.31849393
157	0x3e2906f8	0.16506565
158	0xba67e5be	-0.0008846185
159	0xbde3aab8	-0.111165464
160	0x3e10271d	0.1407742
161	0x3e3588c1	0.17727949
162	0xbe01f1fc	-0.12689966
163	0xbd01cacf	-0.031687554
164	0xbe8cb7b6	-0.2748391
165	0x3e55a33f	0.20863055
166	0x3da6b1c0	0.08139372
167	0xbc79e904	-0.015253309
168	0xbea30fea	-0.3184808
169	0x3d317d60	0.043332458
170	0x3ca00b39	0.019536601
171	0xbe129809	-0.1431581
172	0xbe16c998	-0.1472534
173	0x3e00449e	0.12526175
174	0xbe004223	-0.12525229
175	0xbd1c7409	-0.038196597
176	0x3e6d229a	0.2315773
177	0x3e8b0c98	0.27158046
178	0xbeb05334	-0.3443848
179	0x3f0694a5	0.52570564
180	0xbe10e443	-0.14149575
181	0x3e96a99d	0.2942628
182	0xbaab524f	-0.0013070795
183	0x3e185638	0.1487664
184	0x3dfbea84	0.1230059
185	0xbe06b3c5	-0.13154514
186	0x3c3c34af	0.01148717
187	0x3eb8a13a	0.36060506
188	0xbc6e22ba	-0.014534647
189	0x3dfb352f	0.12266003
190	0x3d4f15d4	0.050557926
191	0x3e2556b3	0.16146354
192	0xbe39a5d3	-0.18129663
193	0xbe5951af	-0.21222566
194	0xbd91419b	-0.070925914
195	0x3dd45c49	0.103691645
196	0xbdea3c3a	-0.114372686
197	0xbde32de8	-0.1109274
198	0xbe0ff8d9	-0.14059772
199	0xbdc04799	-0.09388656
200	0x3ea36f15	0.31920686
201	0x3d1d7275	0.038439233
202	0x3e9c5294	0.30531752
203	0x3c4374e8	0.011929728
204	0xbe0b62a1	-0.13611843
205	0x3b48aded	0.0030621246
206	0x3e2935a6	0.16524372
207	0x3dc3d506	0.09562115
208	0xbe1410dd	-0.14459558
209	0x3dcf4327	0.1012023
210	0x3e3b858e	0.18312666
211	0xbeef2ba9	-0.46712998
212	0x3dfcf100	0.123506546
213	0xbd134356	-0.03595289
214	0xbe21aca7	-0.15788518
215	0xbdc19ef7	-0.09454148
216	0xbd00fae0	-0.031489253
217	0xbdf90293	-0.12158694
218	0x3e30aeb2	0.17254141
219	0xbebd3cac	-0.3696035
220	0x3cbc55fe	0.022990223
221	0xbde74678	-0.11292738
222	0x3e6b6e7e	0.22991368
223	0x3d52a05c	0.051422462
224	0xba4178dc	-0.0007380375
225	0x3e1fd9ea	0.15610471
226	0x3dda42fb	0.10657307
227	0x3e28c045	0.16479595
228	0xbe7d1086	-0.24713334
229	0xbce72374	-0.028215148
230	0x3e89ba29	0.2689984
231	0xbd5ee168	-0.054414183
232	0x3dc3077b	0.09522911
233	0xbe571f15	-0.2100795
234	0x3de03d24	0.10949162
235	0xbdc2adc3	-0.09505799
236	0xbee2c814	-0.44293272
237	0xbe358b5a	-0.1772894
238	0x3ef2d0a6	0.4742481
239	0x3eff4ae2	0.4986182
240	0x3e000dfa	0.12505332
241	0xbe14c9c5	-0.14530094
242	0xbec2bf4e	-0.3803658
243	0x3d0b1257	0.033953037
244	0xbb5e2fe9	-0.0033903068
245	0x3e9e0bb0	0.30868292
246	0xbebafba5	-0.36520115
247	0x3eb4d9c0	0.3532238
248	0xbf0311d2	-0.51199067
249	0x3cb80503	0.022463327
250	0xbe42add1	-0.19011618
251	0xbe10e5be	-0.1415014
252	0x3ecd27ad	0.40069333
253	0x3e2588f1	0.1616552
254	0xbe932695	-0.28740373
255	0xbe4752ec	-0.19465226
