ml-agents-release_20/Result/Dino/Dino05/Dino/Dino-1000005.onnx (onnx, 34598 bytes, 4 tensors)

action_model._discrete_distribution.branches.0.bias f4 [2]
000000 fe 10 ad 39 49 11 ad b9
       0.00033009792 -0.0003301001

action_model._discrete_distribution.branches.0.weight f4 [2, 256]
000000 2b 38 3b bd 67 2b 62 bc 3d ba 7a bc 27 f3 12 bb
       -0.045707863 -0.013804293 -0.015303192 -0.0022422762
000010 70 ef 07 3d 84 f9 73 3d d9 5d b9 bc 59 4f 33 3d
       0.03318733 0.05956413 -0.022627758 0.043776844
000020 9b b2 0d 3e 27 72 38 bc 44 18 c8 bc a6 1a 34 bd
       0.13837664 -0.011257685 -0.024425633 -0.043970726
000030 96 d1 86 3d 49 4a a0 bd f9 ef f7 bb 94 36 1b bd
       0.06582944 -0.07826669 -0.0075664488 -0.037893847
000040 94 76 ae 3d e5 8d 2c bd ad 06 a7 3c 83 a9 53 3d
       0.08518711 -0.04212751 0.020388925 0.05167533
000050 a9 34 cb 3c 64 a6 4f 3c e2 95 e8 bc fe 49 3b bd
       0.024805384 0.012673948 -0.028391782 -0.04572486
000060 f2 ea ce bc f3 49 78 bd c1 f0 c2 bd 81 c9 22 3d
       -0.025258515 -0.0606174 -0.095185764 0.03974295
000070 4f 2d 77 3d f5 35 c7 bc c0 90 32 bd 80 2d 5d 3d
       0.060345944 -0.02431772 -0.043595076 0.05399847
000080 29 59 d4 bd 46 9a 68 bd fa f6 59 bd 9e 2a 06 bd
       -0.103685685 -0.05678775 -0.05321405 -0.032755487
000090 f1 b1 7a bd 99 ae ae 3d 96 51 e1 bc ad 7d 85 bd
       -0.061204854 0.085293956 -0.027504724 -0.065181114
0000a0 cd f0 11 bd 3f 6c 89 bd 1e 11 d4 38 7c 99 93 3c
       -0.035630036 -0.067100994 0.00010112136 0.018017523
0000b0 84 04 bc bc 35 ef 0c 3e 02 cd 9c bd c7 04 57 bc
       -0.022951372 0.13763125 -0.0765629 -0.013123698
0000c0 72 a6 8a 3d 45 91 72 bd dc 96 2c bd 96 a9 10 bc
       0.06770028 -0.05922057 -0.04213606 -0.008829495
0000d0 88 39 a2 bd d0 20 9b bd 03 4d 95 bc 23 6f 6f bd
       -0.079211295 -0.07574618 -0.018225199 -0.058455598
0000e0 e0 9c 59 3c 47 5d 37 bc 37 01 cd bc f9 07 86 bc
       0.013282031 -0.011191673 -0.025024993 -0.016361224
0000f0 91 1c 41 bd 41 2a 54 bc 23 00 5b 3b 6a 0f 47 bb
       -0.047146384 -0.012949527 0.003341683 -0.0030374178
000100 09 f3 b6 3c be 02 df bd 7a 67 6f bd f8 d4 86 3d
       0.022332685 -0.10889195 -0.058448292 0.06583589
000110 37 67 86 3d c3 b8 c3 3c e6 c1 94 3c 05 54 06 3b
       0.065626554 0.023891812 0.018158864 0.0020496857
000120 11 2e 54 bd 23 6f ef 3d 22 b8 05 3d 3b 96 59 bd
       -0.051801745 0.116911195 0.032646306 -0.053121787
000130 bd af 90 bd 47 d4 9f bb 84 0b 1f 3d 0f 1f 65 3d
       -0.070647694 -0.0048776004 0.03882934 0.055937823
000140 c6 58 7d bd 61 1b 8c bc e0 1b e9 bc 3d ed 8d bd
       -0.06185224 -0.017102899 -0.028455675 -0.06930015
000150 a0 85 9d bc 29 35 c1 bc fd fc af bc 13 4e 17 3d
       -0.019228756 -0.023584919 -0.021482939 0.03693969
000160 69 dc c3 bd b4 49 fc 3c ec 1b 21 bd cc 7b 0e bd
       -0.09563524 0.030796863 -0.03933327 -0.03478603
000170 64 f6 39 bd 37 76 99 bd aa 2e b2 3c 08 bc c6 3d
       -0.045400992 -0.07493251 0.021750767 0.09703833
000180 d2 8b 8f bd d4 de 2b 3d 98 ba 8e 3d ee ea 54 bd
       -0.070090905 0.041960552 0.06969184 -0.05198186
000190 0f ff 60 3d 83 cd 69 bc 6b 43 a9 bc 32 1d d8 bc
       0.054930743 -0.014270189 -0.02066203 -0.026381109
0001a0 2b 87 7a bb 04 eb 5c bc 4c 51 d3 3c 63 c3 8a bc
       -0.003822754 -0.0134837665 0.025795601 -0.01693887
0001b0 d8 a1 c1 bc b5 13 de 3d 18 9d 2b bd 78 cd 6f bd
       -0.023636743 0.108436026 -0.041897863 -0.05854556
0001c0 17 d7 25 bc db 30 cc 3b dc 5d 03 3d 80 d5 80 bd
       -0.010122082 0.00623141 0.032071933 -0.06290722
0001d0 92 ad a3 bd a4 c1 3d bd be 82 16 bc fc a7 c2 bc
       -0.0799209 -0.04632725 -0.009186445 -0.023761742
0001e0 80 a5 58 3d b5 00 3e 3d 7b 5b 60 bd f1 6d b7 3d
       0.052892208 0.046387393 -0.054774743 0.089565165
0001f0 3a 3a e2 bd bc 39 15 3c 4b d1 71 3d d6 c8 bc bb
       -0.11046262 0.009108003 0.059037488 -0.005761246
000200 ae fd 1b 3b e0 a6 37 bd d7 1e 49 3d 84 10 4e 3d
       0.0023802328 -0.04483688 0.049101677 0.05030872
000210 a5 98 fd 3c e0 80 85 3d 95 b1 b3 bd cf 11 51 bd
       0.030956576 0.065187216 -0.087741055 -0.051042374
000220 80 84 c5 3c 1e 0e a7 3b 22 66 05 bc 61 6d 8d bd
       0.024111032 0.0050981184 -0.008142026 -0.06905628
000230 3c cc 07 bd 57 06 2d bd 19 83 00 3d 30 17 6e 3d
       -0.033153757 -0.042242374 0.031375024 0.058127582
000240 a9 b3 15 bd 30 fd 2d bc 79 a9 70 3d 5b 38 28 bc
       -0.03654829 -0.010619447 0.05875537 -0.010267342
000250 fa 55 fe bc 85 04 84 bd e3 43 28 bc e1 b2 8e bb
       -0.031046856 -0.064461745 -0.010270092 -0.00435482
000260 07 4a 85 bc e2 97 8b 3c 90 4a 4f 3d 19 32 3a bb
       -0.01627065 0.017040197 0.050608218 -0.0028411208
000270 72 81 24 bd df 70 64 bd a2 8f c5 bd f7 9c 44 bd
       -0.04016251 -0.055771705 -0.096465364 -0.048001256
000280 5c 03 f0 3c a8 a9 dd 3b 42 b4 81 3d f3 cf 96 3d
       0.029298477 0.0067646094 0.063332096 0.07363882
000290 24 54 5a bd 2b 9b b3 bc 98 3a 4b 3d d7 45 08 3e
       -0.0533029 -0.021924576 0.049616426 0.13307892
0002a0 3f 5b db bc 94 a8 fd bb 37 bc 80 3d 8a 90 e3 bc
       -0.026776908 -0.0077410433 0.06285899 -0.027778883
0002b0 60 5b 59 bd cd d9 a9 3c db da ef bc bc 09 63 bb
       -0.053065658 0.020733738 -0.029279163 -0.0034643253
0002c0 03 93 b3 3d e6 f1 3d 3d d4 34 94 3d fd 1e 5b bd
       0.08768275 0.04637327 0.07236639 -0.05349635
0002d0 bf b4 21 3d 19 4c 9b 3d 1e 16 50 3c 35 5f 64 3c
       0.039479014 0.07582874 0.012700586 0.013938715
0002e0 a0 0d 81 bc 02 f7 3e 3c 8a 9b 1c bd 00 98 8f bd
       -0.015753567 0.011655571 -0.03823427 -0.070114136
0002f0 e0 a1 e2 3c a0 f7 af bd 45 31 ec bc 38 17 1d bd
       0.027665079 -0.085921526 -0.028832087 -0.03835222
000300 e8 50 b6 bc ef ec 76 bc e2 66 92 3b 9c d4 92 bd
       -0.022255376 -0.015071138 0.004467831 -0.07169458
000310 c3 07 8d bd 01 28 26 bd f4 fc 68 3c 73 97 6f bc
       -0.06886246 -0.040565494 0.014220465 -0.014623511
000320 42 c0 bc 3c e0 35 b4 bd 56 f0 90 bc 7d 2f e1 bc
       0.023040894 -0.08799338 -0.017692726 -0.027488464
000330 2b 52 a6 bc 86 53 be bd 6f 8a 81 3d e9 62 65 bc
       -0.020302853 -0.092932746 0.06325232 -0.014000633
000340 1e 8b 1c bd 44 cd c6 bc e3 7d b6 bd ca e0 a0 bd
       -0.03821861 -0.0242678 -0.0891073 -0.07855375
000350 85 38 38 bc fd cb 8c 3c ec 8c ad bd 10 52 76 3c
       -0.011243944 0.017187113 -0.08474144 0.015034214
000360 74 57 03 3e 8f f9 14 3d 81 15 40 bd f4 aa 7b bc
       0.1282633 0.03637081 -0.046895508 -0.015360583
000370 60 b6 22 bb ac a5 b7 3d 2a 98 d4 bd b5 87 7c 3d
       -0.0024827942 0.08967146 -0.103805855 0.061652858
000380 c6 52 c4 3d 28 1b b4 bc 6b ab a1 bd 06 00 89 3d
       0.095861 -0.021985605 -0.078940235 0.066894576
000390 8f c8 e7 bc 16 d0 9d 3d e0 39 89 bc c6 fe ba bd
       -0.028293876 0.07705705 -0.01675123 -0.091306254
0003a0 2b cd b2 bc 5e 07 92 3d e6 ab 2f bd c4 d1 6d bd
       -0.021826347 0.071303114 -0.042888544 -0.058061376
0003b0 49 ec 11 bd 1c 01 a0 3d 26 74 8e 3d 47 55 d9 3d
       -0.03562573 0.078127116 0.06955747 0.106119685
0003c0 4e 10 44 bd 84 a3 3f bc 9c 86 4e 3d 1b 68 28 bd
       -0.04786711 -0.0116967 0.050421342 -0.041114908
0003d0 c4 38 1c bd 6f 6e 7b 3d e9 ab 3b 3d 20 c1 b7 3c
       -0.038140073 0.061384615 0.045818243 0.022430956
0003e0 15 62 ce bd 2a 78 3f 3d a9 bf 1b 3d 7a ee c6 bc
       -0.100773014 0.046745457 0.03802458 -0.024283636
0003f0 f6 59 02 3c c2 8e ca bc 00 dd 4d 3c 71 a5 37 bd
       0.007956019 -0.024726275 0.012564898 -0.04483551

network_body._body_endoder.seq_layers.0.bias f4 [256]
000000 67 3d 80 3c 6c cb 93 3b fa bd 8c 3c 2a 47 0e 3d
       0.015654279 0.0045103338 0.017180432 0.034735836
000010 9e 40 b8 3b 26 cb 9e 3c 25 6d 9b 3a 6e 3c 22 3c
       0.0056229373 0.019383978 0.0011858089 0.009902103
000020 ee 89 4a 3d a3 b5 74 3c a2 1c fa 3c 6f 14 8d 3c
       0.049447946 0.014935884 0.030531231 0.017221658
000030 b9 10 d7 3c 7a 18 ac 3c b1 52 b6 3c d9 a8 aa 3c
       0.026253091 0.021007765 0.022256227 0.020832466
000040 bc 6c 15 3d b7 6b 57 3c 01 33 85 3c 67 61 1c 3d
       0.03648065 0.01314824 0.016259672 0.038178828
000050 0b 15 1c 3c 84 f6 af 3c 09 c4 1e 3c 4f 4b 1e 3c
       0.009526501 0.021479852 0.009690293 0.00966151
000060 7c a4 ad 3c 24 21 d3 3c db e7 3f 3d fc 62 37 3c
       0.021196596 0.025772639 0.046851974 0.011193033
000070 9d d6 87 3c 77 cc 7a 3b f1 63 f5 3c 9a 85 08 3d
       0.016581828 0.0038268843 0.029954882 0.033330537
000080 a5 08 e7 3c 4a 36 9a 3c d4 36 95 3c d0 65 1e 3c
       0.028202364 0.018824715 0.01821462 0.009667829
000090 67 f9 92 3c 03 9e eb 3c 09 8f 0f 3c 6e 16 d9 3c
       0.01794119 0.02876187 0.00876213 0.026499953
0000a0 99 9c 10 3c db fb 65 3d ae b0 0a bc 95 be fa 3a
       0.008826398 0.05614839 -0.008464975 0.0019130284
0000b0 58 3c d4 3c 58 bf 3d 3d bd 72 b8 3c 1d 77 7b 3a
       0.02590768 0.046325058 0.022515649 0.00095926394
0000c0 16 a9 9f 3c 64 40 d5 3c f1 72 81 3c 1b 85 31 3c
       0.019489806 0.02603168 0.015801879 0.0108349575
0000d0 33 5b 09 3d 28 b2 56 3d 94 66 62 3b f2 91 94 3c
       0.03353424 0.052415997 0.0034546005 0.018135998
0000e0 ee d5 12 bb ae af 8a bb 0e 1a 5a 3c 2d bf 0e bc
       -0.0022405344 -0.0042323684 0.013311876 -0.008712572
0000f0 7e 4b a3 3c f2 11 bf 3c df 40 ff 3b 6f 1a c4 bb
       0.019933458 0.023323987 0.0077897157 -0.0059845964
000100 63 fd 4f 3b 81 a8 31 3d aa 3a c1 3c 85 e5 e7 3c
       0.0031736724 0.04337359 0.023587544 0.028307686
000110 3d b7 9c 3c a0 98 91 ba 5c fa c2 39 4c a3 a1 bc
       0.019130344 -0.0011108108 0.00037189096 -0.019731186
000120 07 1b bf 3c 8d b9 f5 3c f2 b8 60 3d 8f 64 d0 3c
       0.023328317 0.029995704 0.054863878 0.025438575
000130 50 97 30 3d 91 66 be bb 73 9a 1f 3c 1b f8 7c 3c
       0.043113053 -0.0058105667 0.009741413 0.015440012
000140 77 19 9d 3c 80 90 95 3c fd db 02 3d 74 06 0e 3d
       0.019177182 0.01825738 0.03194808 0.034674123
000150 7b c2 4e 3b 54 14 4b 3d 83 2a b8 3c 45 23 e0 3b
       0.0031549025 0.049579933 0.022481209 0.006840142
000160 d8 61 28 3d ca 10 6e 3b 23 97 41 3c 00 81 76 3c
       0.041108936 0.0036325925 0.011815819 0.015045404
000170 fc 46 2f 3d 96 53 11 3d f0 d7 ee ba f5 da 06 3d
       0.042792305 0.035480104 -0.0018222313 0.032923657
000180 52 50 ac 3c d6 19 49 3c e6 3c 56 3d a5 ae 6c 3c
       0.021034393 0.012274226 0.05230417 0.014445935
000190 8d 1b 8a 3c 88 42 8c 3d 63 9f 22 bc 28 28 73 3c
       0.01685884 0.06848627 -0.009925696 0.014841117
0001a0 a7 ff 6b bb e3 cd 3a 3a 0c 8d d5 3b 10 3d 28 3b
       -0.0036010535 0.00071260164 0.0065170582 0.0025671162
0001b0 e2 18 48 3c 97 a5 20 3d 47 76 b5 3c b7 a5 4a 3c
       0.012212964 0.03922042 0.022151126 0.012368611
0001c0 bf 96 5a bb 66 c1 8a bc 14 d2 82 3c 2f 3c 91 3c
       -0.0033354012 -0.016937923 0.015969314 0.017728893
0001d0 9a 6e 2a 3d 82 c6 fd 3c 8c bf b8 ba 55 bb d4 3c
       0.041609384 0.030978445 -0.0014095171 0.025968233
0001e0 1e 1e db 3c fe ee 32 3d 80 35 e2 3c 28 57 20 3d
       0.02674776 0.043684952 0.027613401 0.03914562
0001f0 97 06 38 3d 80 1f ac 3c aa 6e 51 3d a5 74 55 3b
       0.04492816 0.021011114 0.051130928 0.0032570746
000200 12 97 08 bc bb 1c 61 3c 1c 70 a8 3c 01 10 1f 3c
       -0.008336799 0.01373976 0.02056127 0.0097084055
000210 e5 2c 98 3c 88 f2 ef 3c ae d5 ef 3c c4 e4 99 3c
       0.018576095 0.029290453 0.029276695 0.018785842
000220 c9 bc a0 3a c9 71 66 bb 4f ef 9b bc 67 bf e9 3c
       0.0012263294 -0.0035163036 -0.01903501 0.02853365
000230 1a 7a 52 3c 09 4b 90 3d 5a a2 e7 3b 48 ed a1 3c
       0.012846494 0.07045562 0.0070689144 0.019766465
000240 99 76 44 3d 61 df e6 3c c2 76 98 3c 1a 8d 8a 3b
       0.047964666 0.028182687 0.018611316 0.0042282464
000250 cc 60 1e 3b 39 0c d3 3c 8f 85 93 39 df c7 9f bb
       0.0024166582 0.025762664 0.00028137534 -0.0048761214
000260 a4 f1 97 3c 84 aa dc ba d5 2e 32 3c 0e ab e0 3b
       0.01854784 -0.0016835486 0.010875423 0.006856329
000270 79 a1 50 3c 97 ad 96 3c b1 fd 84 3d e0 bc 85 3d
       0.012733811 0.018393321 0.064937 0.06530166
000280 e3 30 33 3c a6 d4 58 bc 79 61 c8 3c 6a 30 17 3d
       0.0109369485 -0.013234293 0.024460541 0.036911406
000290 83 cb 3b 3c dc 3e 0a 3d 8b ee 30 3c 6c a1 3f 3d
       0.011462095 0.033751354 0.010799061 0.046784803
0002a0 cb f3 59 3c 95 a2 31 bc d3 83 c1 3c e0 ce aa 3c
       0.013302754 -0.010841985 0.023622429 0.020850599
0002b0 05 38 7b 3c 19 a1 3b 3b c7 a0 d3 3b 9c 4e 80 ba
       0.01533318 0.0028629957 0.006458375 -0.0009789052
0002c0 f0 a1 2b 3d 61 94 4a 3d cb 4f d7 3c 3f 49 7e 3c
       0.041902483 0.04945791 0.026283165 0.015520393
0002d0 56 30 77 3c f7 3d 71 3d 22 d9 16 ba a4 fa 95 3a
       0.015087208 0.058896985 -0.0005754401 0.0011442495
0002e0 20 24 77 bb 15 12 82 bc c6 7b 9c 3c 8a 06 0c 3d
       -0.003771074 -0.015877763 0.019101989 0.034185924
0002f0 28 3b 60 3c 1a 2c 54 3d f9 2e 56 3c 36 5a 99 3c
       0.013685979 0.05179987 0.013072723 0.018719774
000300 1b 7f 1e 3d d0 8b cb b7 de 08 37 39 24 6f 07 3d
       0.038695436 -2.4264591e-05 0.00017455543 0.033064976
000310 c9 09 09 3d f4 3e c3 3c 4c 3d 13 3c 7f 50 11 bb
       0.033456597 0.02383373 0.008986782 -0.0022173224
000320 23 3d df bb 09 7b 6e 3d 27 b9 0e 3d 53 a8 bd 3c
       -0.006812708 0.058222804 0.034844544 0.023151552
000330 f3 1c e3 3b 49 63 0b 3d b0 19 b2 3c 1a 18 b0 3b
       0.0069309413 0.034030233 0.021740764 0.005373967
000340 b7 a7 34 3d a1 09 ba 3c 5b fa 2d 3d fc 21 22 3d
       0.044105258 0.02270967 0.042475086 0.03958319
000350 4a 9c 81 3c ff 2a 58 b9 43 36 c1 3c 7c c5 a7 3b
       0.015821595 -0.00020615383 0.023585444 0.0051199775
000360 8c 57 70 3d 2d 64 76 3c 78 70 a2 3c 1a ae c8 3c
       0.05867724 0.015038532 0.01982902 0.02449708
000370 6e 40 4d 3c d3 f2 0d 3d 66 a9 3c 3d bb f3 86 3c
       0.012527568 0.034655403 0.04605999 0.016473642
000380 75 0e d4 3c 8a 0f ef 3b 0b 21 b8 3c ce 05 c7 3c
       0.0258858 0.0072955536 0.022476694 0.02429476
000390 ac 72 8a 3c 79 21 df 3c b2 d5 04 3d 41 e0 17 3d
       0.016900383 0.02723764 0.03243036 0.0370791
0003a0 e7 f1 0a 3d fd 20 9a 3c 8b af 56 3c 96 b9 bf 3c
       0.033922102 0.018814558 0.013103376 0.023403924
0003b0 25 54 db 3b d7 cb b2 3c 9d 14 8d 3c c0 30 f5 3c
       0.0066933804 0.021825714 0.017221743 0.029930472
0003c0 0d 37 91 3c b9 aa 0e ba ab 0a ae 3b 45 ac 07 3c
       0.017726446 -0.000544231 0.0053113303 0.008280818
0003d0 33 81 bd 3c 04 1d 07 3d a3 96 9e 3c 1e cf d2 ba
       0.023132896 0.032986656 0.019358939 -0.0016083454
0003e0 37 b7 67 3d a1 04 4b 3c 27 f0 f5 3b b7 1e 77 3d
       0.05657121 0.01239124 0.007505435 0.060332026
0003f0 f5 2f d9 bc 59 dc e2 3c 1e 02 bc bc 82 a4 2a 3c
       -0.026512126 0.02769296 -0.022950228 0.010415198

network_body._body_endoder.seq_layers.0.weight f4 [256, 29]
000000 c0 53 df be 26 e9 88 be c2 78 d6 3c fa cd 4d 3d
       -0.43618584 -0.26740378 0.026180629 0.050245263
000010 11 d1 6d 3e 04 e4 18 3e cb ed 87 3c 50 20 91 be
       0.23224284 0.14930731 0.01659288 -0.28344965
000020 f8 9c b9 3d 2f e0 44 bc 0a 25 3a bd 77 60 62 3e
       0.090631425 -0.01201634 -0.04544548 0.22107111
000030 af ab 04 3f ae da 8c bc e4 74 0d bd af 5f 35 be
       0.5182447 -0.017194118 -0.034535304 -0.17712282
000040 49 4d 34 be f4 35 8c bd 50 da 46 be 48 a0 66 bc
       -0.17607607 -0.06846228 -0.19419217 -0.0140763
000050 19 58 2a 3e 59 12 04 3f 36 ae 61 be 5c 6d 96 bd
       0.16635169 0.51590496 -0.22039112 -0.073450774
000060 23 07 8a be e4 a3 df bc 65 e5 00 3e 3b 59 27 3e
       -0.2695857 -0.027299829 0.12587507 0.16342632
000070 82 2a ec 3d 56 03 0c 3c 44 dd d9 bd 2b 2a d4 bc
       0.11531545 0.008545717 -0.10637906 -0.025899014
000080 bb 20 08 bb 9e f4 a1 bd c6 ba f6 3c 55 9d 62 3c
       -0.0020771462 -0.07907985 0.030118357 0.013831456
000090 4d 66 ca 3d 4f 3e 92 be d9 9a ce 3d 21 32 77 be
       0.098827936 -0.28563163 0.100881286 -0.24140216
0000a0 56 fa 24 3d fd 2b 0b 3e 67 f1 ca be 90 7c 4a bd
       0.0402778 0.13590999 -0.396373 -0.0494352
0000b0 6b 40 7e 3e 00 52 11 3e 4e c1 1f bd a6 40 59 bd
       0.24829261 0.14191437 -0.03900271 -0.05304017
0000c0 fe 20 27 be a9 9d 19 3c 32 de 05 be 63 eb 13 bd
       -0.1632118 0.009375968 -0.13073042 -0.036113154
0000d0 79 83 3a 3d d6 da cf 3d c1 43 6f 3d ca 87 57 3e
       0.04553554 0.101491615 0.058414225 0.21047893
0000e0 75 c0 cd 3d 68 8d 1f be 8a a3 54 be 15 3d bf bd
       0.10046474 -0.15581286 -0.2076551 -0.09337822
0000f0 3d 11 5d 3d d2 15 18 be 94 50 b8 3d 1a bf 37 3e
       0.053971518 -0.14852074 0.08999744 0.17943993
000100 c7 e4 0b 3e 85 ca 85 bd cd 1c 58 be 16 fe b0 bd
       0.1366149 -0.06532768 -0.21104737 -0.08642213
000110 72 3a 50 bb e9 14 b1 bd 60 15 a8 3e 34 2e 5c bd
       -0.0031773117 -0.086465664 0.32828808 -0.053755
000120 e4 3d 26 3d da 5f fb bd 11 6b 66 bd 3e da 1d be
       0.040586367 -0.122741416 -0.05625445 -0.15415284
000130 2d 3a ee be a4 5d 35 3e 6a 25 30 3e 29 7b 14 be
       -0.4652876 0.17711502 0.17201772 -0.14500107
000140 19 b9 49 be 4e bb b1 3c 87 5b d8 3e d2 e0 85 3d
       -0.19699515 0.02169576 0.4225733 0.06537022
000150 58 99 14 3d ae 50 60 be 7f c6 fb bc c4 0f 7f be
       0.036279052 -0.21905777 -0.030734299 -0.24908358
000160 05 5b 7d 3e da db ea 3d 1e 14 4b 3c 33 57 c7 be
       0.24741752 0.114677146 0.012394933 -0.38933715
000170 d1 9e 10 be 11 59 89 be 60 c6 65 be 3e 9f bd b9
       -0.14123084 -0.26825765 -0.22438955 -0.00036167534
000180 89 fd d6 3d 2d 6e 95 3e 15 63 36 be 75 f3 51 3e
       0.10497577 0.2918562 -0.17811234 0.20503028
000190 c1 ed aa 3d de 09 4a be 4b 11 4f bd 48 c3 eb 3c
       0.08346129 -0.19730327 -0.0505536 0.02877964
0001a0 fd 1e df bd 8d 0c a9 bc c1 6c 7b be 1d 6b 8e bd
       -0.108945824 -0.020635867 -0.24553205 -0.06954024
0001b0 72 23 95 be d7 87 3a 3d 37 72 30 be da da d3 bd
       -0.29128605 0.045539703 -0.1723107 -0.10344477
0001c0 77 34 6d 3e 3c ba 29 be 21 a5 13 bb 96 10 93 bd
       0.23164545 -0.16574949 -0.0022528844 -0.07180898
0001d0 fa ef 64 be cb 87 a7 bd 7c a3 45 be 90 ad d2 3d
       -0.22357169 -0.08180197 -0.19300646 0.10287011
0001e0 ed 35 28 be 5f 18 15 be a3 d4 8e 3c a9 c4 41 3e
       -0.16426821 -0.14560078 0.017435377 0.18922676
0001f0 96 d9 5c 3d 59 57 9a 3e 57 e9 3f 3d 10 fc c4 be
       0.053918444 0.30144766 0.04685339 -0.38473558
000200 03 d3 c5 3d 77 d6 ea 3d bb 0a 71 bd 53 52 36 3e
       0.09659388 0.11466687 -0.058848124 0.17804842
000210 2f c9 a0 3e 8a 5e fe 3d 6f 91 32 3e 54 55 43 3e
       0.3140349 0.12420376 0.17438291 0.19075519
000220 81 52 80 3d 19 d5 83 be 8d 01 86 3e 62 ea 6e 3e
       0.06265736 -0.25748518 0.26173058 0.23331597
000230 ac 45 ad 3c 63 be a1 be 22 4a 10 3e c8 49 7b 3d
       0.021151386 -0.31590566 0.1409078 0.06134966
000240 df c8 bb 3d 32 d1 f8 bd ea 17 90 3e 93 c1 e4 3d
       0.091691725 -0.12149276 0.28143245 0.11169734
000250 11 60 33 bc e6 49 cb 3e 2a 72 58 be b8 61 77 3e
       -0.010948197 0.39704818 -0.211373 0.2415837
000260 86 8d 8b 3e 8b f8 85 3e 86 9e 17 3d a7 b4 34 3e
       0.2725641 0.26166186 0.037016414 0.17647038
000270 85 d0 a6 3e 2e 99 21 3e 4a e0 48 bb 4f 82 ab bd
       0.32580963 0.1578109 -0.0030651265 -0.08374464
000280 99 37 30 3e f7 92 35 3e 71 a9 ff bd bd 26 c2 bc
       0.17208709 0.17731844 -0.1248349 -0.023700112
000290 da b2 88 be 36 a9 67 3e f9 9e a9 3d 91 0b 0b bd
       -0.26698953 0.22623143 0.08282275 -0.033946577
0002a0 30 c4 93 be 61 cb 2b 3d fe 0a ba 3c d6 31 0a be
       -0.28860617 0.041942004 0.02271032 -0.13495573
0002b0 5d 8a 0e be 9e 44 00 3e 99 42 00 be 03 b5 34 bd
       -0.13919969 0.12526175 -0.12525405 -0.04411794
0002c0 92 fd 72 3e 0b fa 8d 3e 69 b3 b4 be 26 1c 0d 3f
       0.23729542 0.2772983 -0.3529313 0.55121076
0002d0 2d 52 2c be 58 d6 92 3e 4a 1b 87 ba ce d3 13 3e
       -0.16828223 0.28679156 -0.0010307815 0.14436266
0002e0 12 7f 03 3e 76 14 01 be 74 7c c1 3c 01 fb bc 3e
       0.12841442 -0.12605461 0.023618914 0.3691025
0002f0 ed a5 06 bd e9 fb dd 3d 28 ec 4a 3d 5c 5b 22 3e
       -0.032873083 0.10839064 0.049541622 0.15855163
000300 f1 62 34 be d0 f7 53 be c0 bb 8d bd 1f a9 d1 3d
       -0.17615868 -0.20700002 -0.06920576 0.102373354
000310 65 f1 d0 bd 39 46 00 be 95 4f 0d be c2 cb c7 bd
       -0.10202292 -0.12526788 -0.1379989 -0.097556606
000320 9d 06 a6 3e 14 85 32 3d 94 52 9c 3e 0a 9c 3e 3c
       0.3242692 0.043583944 0.30531752 0.011633882
000330 f2 e3 01 be 67 aa ee 3b 3b 88 2d 3e 00 5a da 3d
       -0.1268461 0.007283497 0.16946499 0.106616974
000340 e2 23 38 be 64 1b 0f 3e f2 6d 50 3e a6 76 ef be
       -0.17982438 0.13975292 0.20354441 -0.4677021
000350 c7 e1 fd 3d 0a da fe bc 88 e6 1c be 9e 75 d5 bd
       0.12396579 -0.031109829 -0.15322316 -0.10422824
000360 cb 73 15 bd da 2f cd bd 55 d4 4a 3e ff 88 bc be
       -0.036487382 -0.100188926 0.1980756 -0.3682327
000370 70 4b a6 3c 89 80 dc bd ff a5 70 3e a4 13 90 3d
       0.020299643 -0.10766704 0.23500822 0.07034996
000380 22 ad d8 ba c4 ae 0d 3e a5 3e 05 3e 4d 4a 25 3e
       -0.001653109 0.13836199 0.13012178 0.16141625
000390 15 1f 7e be 93 91 ba bc 2b 6e 8c 3e 68 e1 5e bd
       -0.24816544 -0.022774493 0.274278 -0.054414183
0003a0 92 97 c1 3d 7d 77 4d be 5a d1 f1 3d 8d 19 b1 bd
       0.09452738 -0.20065112 0.11807509 -0.086474515
0003b0 af 96 df be 89 b9 5a be d1 28 05 3f 94 92 06 3f
       -0.4366965 -0.21359839 0.52015406 0.5256741
0003c0 f5 56 fe 3d 56 75 10 be bf 07 be be f8 0f 30 3d
       0.124189295 -0.1410726 -0.37115285 0.04298398
0003d0 42 c0 98 bc 33 4c 9d 3e 03 fb aa be b1 86 c6 3e
       -0.018646363 0.30722198 -0.33394632 0.38774636
0003e0 d0 16 03 bf 75 1f c6 3c 9a d4 38 be c6 36 07 be
       -0.51206684 0.024184922 -0.18049851 -0.13204488
0003f0 79 23 d7 3e 02 24 26 3e 84 00 9d be 1f ad 24 be
       0.4201925 0.16224673 -0.30664456 -0.16081665
