ml-agents-release_20/Result/Dino/Dino05/Dino/Dino-867219.onnx (onnx, 34598 bytes, 4 tensors)

action_model._discrete_distribution.branches.0.bias f4 [2]
000000 82 42 00 38 d0 44 00 b8
       3.057952e-05 -3.0581665e-05

action_model._discrete_distribution.branches.0.weight f4 [2, 256]
000000 d4 c0 3a bd 4b 0e 73 bc 0a 92 73 bc 59 dd ce ba
       -0.04559405 -0.014834951 -0.014866361 -0.001578252
000010 bc 64 03 3d a5 a3 6d 3d 53 7c b4 bc 09 3e 2d 3d
       0.03207849 0.05801739 -0.022031939 0.04229549
000020 3b 95 0c 3e 2c 05 28 bc fb 01 c1 bc 26 79 2e bd
       0.13728802 -0.010255139 -0.023560515 -0.042596005
000030 db 2d 85 3d 5a 99 9c bd 1b 2d ea bb 67 96 18 bd
       0.06502887 -0.07646437 -0.0071464903 -0.03725281
000040 07 13 aa 3d 8a 59 2d bd bd 25 a5 3c 32 71 49 3d
       0.083044104 -0.04232172 0.020159597 0.049180217
000050 21 1d cb 3c eb 96 4d 3c b9 be e5 bc 7e 89 3d bd
       0.024794163 0.012548189 -0.028045045 -0.0462737
000060 f1 9d ca bc 3a 1d 72 bd 07 93 c2 bd c4 5b 17 3d
       -0.024733515 -0.059109904 -0.095006995 0.03695275
000070 fd df 72 3d 8d e7 ca bc c7 96 37 bd 7a cc 55 3d
       0.059295643 -0.024768615 -0.044821527 0.052196957
000080 b3 39 d2 bd ed 95 68 bd 93 24 55 bd 08 4e 05 bd
       -0.102649115 -0.056783605 -0.052036833 -0.03254512
000090 6c 7b 79 bd f3 ca ab 3d da 50 e1 bc 24 4a 83 bd
       -0.06090872 0.08388319 -0.027504373 -0.064106256
0000a0 fc bc 11 bd b4 46 88 bd e3 1b de b9 f1 3c 95 3c
       -0.03558062 -0.066541106 -0.00042363917 0.018217536
0000b0 43 1e bb bc 17 cf 0b 3e a3 f8 9b bd eb bf 63 bc
       -0.022841578 0.13653217 -0.07615783 -0.013900737
0000c0 0e c6 83 3d ea 4e 6e bd 42 14 2f bd 30 01 0c bc
       0.0643426 -0.058180727 -0.04274393 -0.008545205
0000d0 66 ec 9e bd ff 8e 96 bd a5 3a 8e bc 1b d0 6e bd
       -0.07759933 -0.07351493 -0.017361948 -0.058303934
0000e0 47 4c 58 3c 20 e9 48 bc 6d db d0 bc e3 7d 86 bc
       0.01320178 -0.012262613 -0.025495255 -0.01641745
0000f0 34 59 40 bd 45 91 43 bc 36 d5 3c 3b 66 64 29 bb
       -0.04696007 -0.01193649 0.0028813607 -0.0025847196
000100 d4 b7 b6 3c 7b 32 de bd dc 43 6d bd 28 cb 86 3d
       0.022304453 -0.10849472 -0.057926044 0.06581718
000110 ce e7 83 3d 08 26 ba 3c 14 c9 8d 3c 79 df 9c 3a
       0.064406976 0.022723213 0.017307796 0.0011968456
000120 7c 86 51 bd 98 d8 ec 3d c0 d7 02 3d 6f 1f 5f bd
       -0.051153645 0.115647495 0.031944036 -0.054473337
000130 52 49 90 bd 23 df 68 bb 08 fa 19 3d eb 27 62 3d
       -0.07045235 -0.003553339 0.037591964 0.05521385
000140 45 9a 7d bd 01 d9 86 bc cc 36 de bc a4 0c 8f bd
       -0.0619147 -0.016460897 -0.027125739 -0.06984833
000150 50 d8 90 bc c2 b8 b5 bc 03 f0 a8 bc 8f 66 11 3d
       -0.01768127 -0.022182826 -0.020622259 0.035498198
000160 8e 5f c2 bd 09 44 f6 3c 28 4b 1a bd 84 b1 11 bd
       -0.09490882 0.030061739 -0.03766933 -0.035569683
000170 1e e5 39 bd 87 b7 94 bd b5 ca ae 3c b3 25 c3 3d
       -0.04538452 -0.072615676 0.021336893 0.09528675
000180 39 46 91 bd 89 3c 2a 3d cc 0c 8b 3d 8c b6 53 bd
       -0.07093472 0.041561637 0.0678955 -0.051687762
000190 d9 99 5a 3d a9 fd 6b bc 90 ca ab bc 39 e6 d9 bc
       0.053369377 -0.014403739 -0.020970613 -0.026599037
0001a0 a5 f0 84 bb f4 0f 5f bc f4 e8 ca 3c 21 2f 93 bc
       -0.0040570074 -0.013614643 0.024769284 -0.017966809
0001b0 89 16 c5 bc a5 b9 d8 3d 5a 5b 29 bd 11 2f 6b bd
       -0.024058597 0.10582284 -0.041346885 -0.057417933
0001c0 04 1d 2f bc cb 5b d4 3b 11 f7 f7 3c e8 3a 7f bd
       -0.01068807 0.006480669 0.030269178 -0.062312037
0001d0 bf 44 a0 bd 38 90 3b bd 3a 88 0a bc 81 2e bd bc
       -0.07825612 -0.045791835 -0.0084553305 -0.023093464
0001e0 8b e8 4b 3d 0d 43 35 3d e6 41 63 bd 88 68 b3 3d
       0.049782317 0.044253398 -0.055482768 0.08760172
0001f0 fd 3d e0 bd c8 1d 0f 3c 8a a7 72 3d 90 cf d8 bb
       -0.10949323 0.008735128 0.05924181 -0.0066165403
000200 a5 b9 89 3a 54 6d 36 bd fd d4 42 3d 2e d8 4b 3d
       0.0010507597 -0.044537857 0.047566403 0.049766712
000210 38 e3 f6 3c ae 28 82 3d 70 d8 b1 bd 90 c9 48 bd
       0.030137643 0.06355415 -0.0868386 -0.04902035
000220 d9 3e bf 3c 9a 7c 9f 3b 37 ce e1 bb f6 63 8c bd
       0.023345398 0.0048671486 -0.006891038 -0.068550035
000230 41 93 03 bd 67 69 29 bd 9e d5 f2 3c ad 1f 64 3d
       -0.032122854 -0.041360285 0.029642876 0.05569427
000240 2b ff 0e bd 17 e4 25 bc 18 74 68 3d 85 07 34 bc
       -0.034911316 -0.010125182 0.05675134 -0.010988121
000250 6c 5f fb bc 60 23 83 bd 06 de 37 bc c6 8d 7c bb
       -0.03068515 -0.064032316 -0.011222368 -0.0038536652
000260 09 c3 85 bc 7e 9d 87 3c 29 d6 46 3d 8f db 2c bb
       -0.016328352 0.01655459 0.048544083 -0.0026375984
000270 74 1c 1e bd 09 d0 61 bd 5b 23 c3 bd e0 e1 42 bd
       -0.038601354 -0.05513004 -0.09528228 -0.047578692
000280 13 3a eb 3c 7c da c2 3b a0 f0 80 3d 2d df 95 3d
       0.028714215 0.0059464555 0.062958956 0.07317958
000290 e5 c1 58 bd f2 ac b0 bc db af 48 3d 20 62 06 3e
       -0.052919287 -0.021566842 0.048995834 0.13123369
0002a0 bf e2 ca bc 95 42 f3 bb 57 94 7f 3d 24 40 d8 bc
       -0.024766324 -0.0074237087 0.062397327 -0.026397772
0002b0 ec 73 52 bd 50 8c aa 3c 66 cd f0 bc 79 4b 5f bb
       -0.051380083 0.02081886 -0.029394817 -0.0034072085
0002c0 36 fe b2 3d f0 c5 38 3d c5 47 93 3d 78 46 55 bd
       0.08739893 0.045110643 0.07191423 -0.052069157
0002d0 12 f8 19 3d a3 cf 9a 3d 98 1f 4c 3c 91 3c 4e 3c
       0.037590094 0.07559135 0.012458704 0.012587682
0002e0 9f a3 7f bc b2 a9 35 3c 1c 37 1d bd 3d 96 8e bd
       -0.015602975 0.011087822 -0.038382635 -0.069622494
0002f0 7b 34 db 3c 7c e0 ae bd 03 dd e4 bc 6a 59 19 bd
       0.026758423 -0.08538911 -0.027937418 -0.037438788
000300 78 ac c1 bc 13 08 80 bc d0 bd 9a 3b 1f aa 93 bd
       -0.02364181 -0.01562885 0.0047223344 -0.072101824
000310 16 0d 89 bd 19 47 25 bd 3c ad 4f 3c 2f 31 6d bc
       -0.06691949 -0.040351007 0.01267558 -0.014477058
000320 e3 26 b5 3c fd e3 af bd 16 28 91 bc 1a 0d dd bc
       0.02211327 -0.08588407 -0.01771931 -0.026983786
000330 78 ca a0 bc 1e 31 be bd c6 34 79 3d 8f e0 69 bc
       -0.019627795 -0.09286712 0.060841344 -0.01427473
000340 b2 a7 17 bd 85 3e c5 bc 1f ae b3 bd 28 9d 9e bd
       -0.03702516 -0.024077663 -0.08773445 -0.07744819
000350 d7 19 2b bc f0 8b 86 3c c6 2a ac bd 65 12 7c 3c
       -0.010443172 0.01642415 -0.08406596 0.015385245
000360 22 7c 02 3e 50 ec 0f 3d e1 a4 3a bd f0 8e 6e bc
       0.12742665 0.035137475 -0.045567397 -0.014560446
000370 e4 3b 35 bb 3d f4 b1 3d db 77 d1 bd 00 db 77 3d
       -0.0027654106 0.08689163 -0.10227939 0.06051159
000380 35 8d c2 3d 18 99 a6 bc 11 40 a1 bd 05 07 89 3d
       0.09499589 -0.020336673 -0.07873548 0.06690792
000390 8e 52 da bc 86 ba 9b 3d d3 ed 85 bc 12 6f b8 bd
       -0.026650693 0.07603936 -0.016348755 -0.0900556
0003a0 15 5b ad bc 04 87 90 3d 4a 0c 2b bd cd 93 67 bd
       -0.021161595 0.07057002 -0.041759767 -0.05653744
0003b0 ad 77 13 bd b1 f5 9d 3d 6f fb 8b 3d b2 23 d8 3d
       -0.036002804 0.077128775 0.068350665 0.10553683
0003c0 ea 1e 43 bd 58 73 3e bc b5 62 4c 3d f9 b0 21 bd
       -0.047636904 -0.01162418 0.04989882 -0.039475415
0003d0 73 cd 13 bd da e3 75 3d f8 21 36 3d b9 ca b7 3c
       -0.036084604 0.06003175 0.04446599 0.022435533
0003e0 48 46 cc bd 69 16 3c 3d f2 3d 18 3d e5 03 c7 bc
       -0.099743426 0.04591981 0.03716845 -0.02429385
0003f0 55 5d 08 3c 60 8d bc bc ef 8f 3f 3c 3c 66 35 bd
       0.008323033 -0.023016632 0.011692031 -0.04428695

network_body._body_endoder.seq_layers.0.bias f4 [256]
000000 4b 47 81 3c f2 81 9c 3b a2 15 8d 3c 5a e2 09 3d
       0.015781065 0.004776233 0.01722223 0.03366313
000010 1b d4 a2 3b da 18 98 3c 57 39 9b 3a ec c1 14 3c
       0.0049691326 0.018566538 0.001184265 0.009079438
000020 7f 4f 48 3d a1 38 6f 3c 15 7d fa 3c 22 7d 8b 3c
       0.04890394 0.014600904 0.030577222 0.017027441
000030 fa de d2 3c e0 74 ab 3c a2 74 b7 3c c1 32 aa 3c
       0.02574109 0.020929754 0.022394482 0.020776154
000040 22 49 11 3d f5 b5 5d 3c 4e be 80 3c 3f cd 15 3d
       0.035470136 0.0135321515 0.015715744 0.03657269
000050 75 0e 18 3c da 6b ac 3c 83 65 22 3c 8a 74 25 3c
       0.009280791 0.021047521 0.009911898 0.010098586
000060 06 87 ac 3c 97 07 cd 3c 7c bd 40 3d 71 45 1e 3c
       0.021060478 0.025028033 0.047055706 0.009660111
000070 a6 1a 83 3c 4f cb 8a 3b 54 a1 fc 3c 8f 8d 04 3d
       0.016003918 0.004235662 0.030838646 0.032361563
000080 5b 35 e7 3c 7c 71 9c 3c 20 9b 94 3c 88 d6 21 3c
       0.028223684 0.019097082 0.018140376 0.009877808
000090 0f f7 94 3c e3 ff e5 3c 45 bb 14 3c cd f1 d6 3c
       0.018184213 0.028076118 0.009077852 0.026238346
0000a0 41 40 15 3c a6 40 66 3d 0b c5 0c bc d2 c1 c4 3a
       0.009109558 0.056213997 -0.008591901 0.0015011376
0000b0 ce d6 d7 3c 8d 3f 3b 3d a8 c2 b9 3c 50 63 bf 3a
       0.026347544 0.045714904 0.022675827 0.0014601741
0000c0 bf 52 92 3c bc a0 d3 3c d1 80 85 3c 00 b0 36 3c
       0.017861722 0.02583348 0.016296776 0.01115036
0000d0 a6 3b 08 3d d4 d3 53 3d 3e 2a 3d 3b 6a cd 96 3c
       0.03326001 0.051715687 0.002886429 0.018408496
0000e0 ad d7 22 bb 96 bc 78 bb 85 45 61 3c 59 4a 07 bc
       -0.002484779 -0.0037954203 0.013749485 -0.008257472
0000f0 92 b6 a5 3c 53 2c ba 3c 2e 80 f9 3b 92 93 c8 bb
       0.020228658 0.022726214 0.007614157 -0.0061211074
000100 d6 35 3d 3b 00 79 32 3d f2 a7 c1 3c b1 9e e5 3c
       0.00288712 0.043572426 0.023639653 0.028029772
000110 1f 1c 97 3c 3a 12 f0 ba a6 95 57 b9 dc c8 a5 bc
       0.018446026 -0.0018315979 -0.00020559746 -0.020237379
000120 1c 07 bf 3c 06 a5 f0 3c ad 19 5c 3d 57 09 d6 3c
       0.02331882 0.029375564 0.053735424 0.0261275
000130 38 59 31 3d 93 84 be bb 35 7c 13 3c d6 23 75 3c
       0.043297976 -0.005814144 0.009001781 0.014962157
000140 0a f3 9f 3c 9a d3 92 3c 23 8b 01 3d be b9 0f 3d
       0.01952507 0.017923165 0.03162683 0.035089247
000150 35 29 34 3b 49 05 48 3d d0 9e b5 3c 59 b8 cb 3b
       0.0027490382 0.048833165 0.022170454 0.0062170443
000160 1f 52 28 3d bf 52 4e 3b d9 95 38 3c a4 52 81 3c
       0.04109394 0.0031482426 0.011266195 0.015786476
000170 e3 ca 30 3d fa dd 0d 3d 98 cd 10 bb ec 5d 03 3d
       0.043162238 0.03463552 -0.00220952 0.032071993
000180 68 3e b0 3c bf 0c 42 3c 5c a3 51 3d 5e 5a 72 3c
       0.021514133 0.011843859 0.051181182 0.014792053
000190 da 5c 83 3c b9 76 8d 3d 33 31 1c bc 57 a0 79 3c
       0.016035486 0.0690741 -0.009533214 0.015235982
0001a0 b5 3a 4f bb 02 0c 8d 3a c8 1e c1 3b 4c 01 54 3b
       -0.0031620685 0.0010761025 0.005893562 0.0032349406
0001b0 3b d8 53 3c 83 b0 1b 3d e6 8c b5 3c 77 7f 49 3c
       0.012929971 0.03801013 0.022161912 0.012298456
0001c0 64 e1 3a bb 7a c1 85 bc 7d 14 73 3c a0 1f 92 3c
       -0.002851569 -0.016327608 0.014836428 0.017837346
0001d0 f6 93 28 3d ad d2 ff 3c 6d 46 bb ba e0 18 d5 3c
       0.04115673 0.031228388 -0.0014287956 0.026012838
0001e0 0a 15 cb 3c 30 b6 2c 3d c3 7e e6 3c 80 9b 1c 3d
       0.024790306 0.042165935 0.028136617 0.038234234
0001f0 81 a7 37 3d 9e 50 9d 3c 2f 9f 50 3d ba 30 11 3b
       0.04483748 0.01920348 0.05093306 0.0022154287
000200 5a d1 09 bc a6 ae 66 3c 31 a0 a1 3c 75 b3 17 3c
       -0.00841173 0.014079725 0.019729706 0.0092590945
000210 ca 72 92 3c ea 02 e9 3c c4 6e ef 3c 21 ad 94 3c
       0.017877001 0.028443772 0.029227622 0.01814896
000220 d5 92 3d 3a c0 d0 65 bb 1b 9d 9f bc f6 99 ea 3c
       0.00072316575 -0.0035067052 -0.019484093 0.028637867
000230 3f 12 52 3c dd 44 90 3d 0d b1 c7 3b 8d 4e 98 3c
       0.012821733 0.07044385 0.006094104 0.018592143
000240 3e 80 42 3d c7 8b e6 3c d9 f0 90 3c 60 72 99 3b
       0.047485583 0.028142823 0.01769297 0.004682824
000250 ce 8d 2a 3b 08 5f d4 3c 52 11 75 3a 0f 60 9f bb
       0.0026024464 0.02592422 0.0009348589 -0.004863746
000260 ed 00 9d 3c 32 bf 07 bb 8c d1 21 3c 3d 5f e6 3b
       0.01916548 -0.0020713327 0.00987662 0.0070303963
000270 db 3c 4a 3c b3 63 96 3c 71 01 85 3d ee 30 86 3d
       0.012343611 0.018358087 0.064944156 0.06552301
000280 4c 3d 2b 3c 96 ae 62 bc 94 1c c5 3c 48 70 15 3d
       0.010451626 -0.01383557 0.024061479 0.036484033
000290 8b c1 3f 3c 0c 15 0b 3d ac 5c 29 3c 88 11 3c 3d
       0.011703859 0.03395562 0.010337036 0.045915157
0002a0 6c d6 55 3c 82 36 30 bc 6f 2b be 3c d9 70 a6 3c
       0.01305161 -0.010755183 0.02321407 0.020317482
0002b0 32 53 74 3c 78 ef 2d 3b e2 8b dd 3b 7f 87 59 ba
       0.014912413 0.002654044 0.00676106 -0.00082980836
0002c0 13 41 2a 3d 0b 65 47 3d 35 0d d4 3c 49 45 7f 3c
       0.041565966 0.048680346 0.025885204 0.015580484
0002d0 bd 2c 66 3c d7 e8 6f 3d a0 0b 75 ba ea 30 b3 38
       0.014048752 0.058571663 -0.00093477406 8.544496e-05
0002e0 3b af 5a bb a1 3c 86 bc 98 d8 9f 3c 1e 52 0b 3d
       -0.0033368606 -0.016386332 0.01951246 0.03401386
0002f0 4b 6e 53 3c 11 d3 54 3d b4 b7 56 3c 1c bb 97 3c
       0.012904714 0.0519591 0.013105322 0.018521838
000300 78 90 22 3d 67 b1 df 39 7e 4b f1 b9 a2 1b 09 3d
       0.039688557 0.0004266605 -0.00046023348 0.03347362
000310 25 7d 07 3d 7d 75 c4 3c 4f 48 01 3c 1d 45 ff ba
       0.03307833 0.023981804 0.007890775 -0.0019475553
000320 6c 37 f2 bb 92 98 6c 3d b0 3f 11 3d 24 22 bf 3c
       -0.0073918607 0.05776269 0.035461128 0.02333171
000330 c2 34 e0 3b 49 70 0c 3d 59 e2 a8 3c 94 96 b8 3b
       0.0068422267 0.03428677 0.020615743 0.0056331847
000340 c2 9d 33 3d d4 ca bc 3c 32 fc 2d 3d b2 0f 22 3d
       0.04385162 0.023045935 0.04247684 0.03956575
000350 94 ad 77 3c f8 8a 46 ba 13 be c1 3c fc f7 9f 3b
       0.015117068 -0.00075738085 0.023650205 0.004881857
000360 c2 48 6e 3d a0 42 69 3c e0 8c a1 3c 5e b4 c5 3c
       0.058174856 0.014237076 0.019720495 0.024133857
000370 8c 51 56 3c 58 81 08 3d 58 d4 3b 3d 00 4e 81 3c
       0.013080966 0.033326477 0.045856804 0.015784264
000380 d6 b3 cf 3c b3 7d e3 3b 3f 3f ba 3c e1 ef c4 3c
       0.025354307 0.0069424747 0.022735236 0.024040164
000390 34 5b 88 3c f7 52 da 3c 11 21 05 3d 75 f3 16 3d
       0.016645052 0.026650889 0.032502238 0.036853272
0003a0 a7 cb 09 3d 80 66 96 3c 31 31 57 3c 96 45 bd 3c
       0.033641484 0.018359423 0.013134287 0.02310447
0003b0 ac c7 e8 3b 99 90 ae 3c fa ca 87 3c 06 b7 f1 3c
       0.007103881 0.021309184 0.016576279 0.029506218
0003c0 15 0f 93 3c ba b0 95 b9 08 2f a0 3b b6 ea ff 3b
       0.017951528 -0.00028551166 0.004888419 0.007809962
0003d0 d1 40 b8 3c c1 27 04 3d ab 79 98 3c 34 dd e6 ba
       0.022491844 0.032264475 0.018612703 -0.0017613531
0003e0 7f 60 66 3d 4b 2e 43 3c f7 de e3 3b 06 2d 79 3d
       0.05624437 0.011912893 0.0069540697 0.060833953
0003f0 d5 1e d5 bc 28 34 db 3c ce af ba bc 17 2e 2c 3c
       -0.026015678 0.026758268 -0.022788908 0.010509036

network_body._body_endoder.seq_layers.0.weight f4 [256, 29]
000000 09 42 df be d5 1b 89 be e3 bf d7 3c 83 71 4e 3d
       -0.43605068 -0.26779047 0.026336616 0.050401222
000010 05 6b 6e 3e 88 d6 17 3e 56 77 9b 3c 02 e0 90 be
       0.23283012 0.14827931 0.018977802 -0.28295904
000020 ac e3 b9 3d c1 f7 4d bc 9a 6b 39 bd 7c 8c 62 3e
       0.09076628 -0.012571276 -0.045268632 0.22123903
000030 a6 c0 04 3f 38 e0 92 bc 98 dc 02 bd d8 16 34 be
       0.5185646 -0.017929181 -0.031948656 -0.17586839
000040 f1 2c 34 be 70 6f 8d bd 44 aa 46 be e1 ba 63 bc
       -0.17595269 -0.06906021 -0.19400889 -0.013899536
000050 35 e4 29 3e 15 3b 04 3f d0 fd 60 be 3b 56 93 bd
       0.1659096 0.5165265 -0.21971822 -0.071941815
000060 b4 fa 89 be e5 06 e4 bc 49 14 01 3e f5 86 27 3e
       -0.26949084 -0.027835319 0.12605394 0.16360076
000070 82 2a ec 3d 40 82 0c 3c ff 0c da bd 05 ed d1 bc
       0.11531545 0.008575976 -0.1064701 -0.025625715
000080 6d 6f ec ba 67 b1 a1 bd b3 07 f3 3c d8 6c 6d 3c
       -0.0018038579 -0.07895165 0.029666757 0.014491282
000090 f7 38 cb 3d 74 3a 92 be f8 21 ce 3d 0e dd 76 be
       0.099229746 -0.2856022 0.10065073 -0.24107763
0000a0 81 39 26 3d 71 3d 0b 3e c0 15 cb be dc f7 47 bd
       0.040582184 0.13597657 -0.3966503 -0.04882036
0000b0 6c c6 7e 3e 7c 4e 11 3e 32 b3 20 bd c0 e2 57 bd
       0.2488038 0.14190096 -0.039233394 -0.05270648
0000c0 df cc 26 be 8c 0f 1d 3c cd bc 05 be 8d 77 13 bd
       -0.1628909 0.009586226 -0.13060303 -0.036002684
0000d0 5e a2 3c 3d cf c2 cf 3d c1 5a 6e 3d 90 dd 57 3e
       0.046053283 0.10144579 0.05819202 0.21080613
0000e0 55 67 ce 3d 68 8d 1f be cd 83 54 be d5 de bf bd
       0.10078303 -0.15581286 -0.20753403 -0.09368674
0000f0 e6 4f 5d 3d 27 06 18 be b9 24 b9 3d 07 34 36 3e
       0.054031275 -0.14846097 0.090402074 0.17793284
000100 4a 21 0e 3e a6 d9 84 bd 79 fd 57 be ce 40 b2 bd
       0.13879886 -0.06486826 -0.21092786 -0.08703767
000110 a2 2e 45 bb e7 d4 b0 bd 1f 37 a8 3e c1 f6 60 bd
       -0.003008761 -0.08634358 0.32854554 -0.054922823
000120 d9 d9 2e 3d a7 08 f9 bd 26 2a 66 bd 98 7c 1e be
       0.042688224 -0.121598534 -0.05619254 -0.15477216
000130 f4 20 ee be 0e 88 35 3e 56 0c 30 3e a6 13 14 be
       -0.46509516 0.17727682 0.17192206 -0.1446062
000140 cb bc 49 be c4 4c bc 3c 5a 5b d8 3e 25 b9 84 3d
       -0.19700925 0.022985823 0.42257196 0.06480626
000150 dd 55 15 3d 4f 27 60 be 7f c6 fb bc fa e8 7e be
       0.03645884 -0.21889995 -0.030734299 -0.24893561
000160 fe fe 7c 3e 27 be e8 3d a1 26 3a 3c 56 ff c6 be
       0.24706647 0.11364394 0.011361749 -0.3886668
000170 c9 5a 12 be 3e 2a 88 be d5 45 67 be ce fb 61 b9
       -0.14292444 -0.26594728 -0.22585233 -0.00021551477
000180 04 e0 d5 3d 87 f2 94 3e 88 63 37 be fa 4a 52 3e
       0.10443118 0.29091284 -0.17909062 0.20536414
000190 48 f8 a7 3d de dc 48 be 67 16 53 bd 0e 6e ec 3c
       0.08201653 -0.19615504 -0.051535036 0.028861072
0001a0 7d 4f e0 bd 89 8d b0 bc d1 63 7c be 18 69 91 bd
       -0.10952661 -0.021551864 -0.24647452 -0.07100123
0001b0 ea ee 94 be 3b 10 3a 3d bf 2e 31 be 9b c5 d3 bd
       -0.29088527 0.045425635 -0.17302988 -0.103404246
0001c0 22 ac 6c 3e 5f af 2a be d2 12 52 bb 96 10 93 bd
       0.23112538 -0.16668461 -0.0032054675 -0.07180898
0001d0 44 17 65 be 36 97 a6 bd 70 53 46 be b9 4d d1 3d
       -0.22372156 -0.0813431 -0.19367766 0.102199025
0001e0 de ce 28 be 42 59 13 be 26 90 6e 3c 44 6a 40 3e
       -0.16485164 -0.14389518 0.014560735 0.18790537
0001f0 55 42 5c 3d d2 cb 9a 3e 67 94 3c 3d 1d 5f c5 be
       0.053774197 0.30233628 0.046039965 -0.38549128
000200 8f 39 c5 3d 82 ec ec 3d 78 b6 7b bd 65 4f 34 3e
       0.09630119 0.11568548 -0.061453313 0.17608412
000210 2e ce a0 3e b5 1b 00 3e 20 b6 31 3e b0 83 42 3e
       0.31407303 0.1251057 0.17354631 0.18995547
000220 11 d4 7f 3d a4 2f 84 be 38 b4 85 3e a3 cc 6c 3e
       0.0624581 -0.25817597 0.26114058 0.23124938
000230 82 c9 ae 3c cd 54 a1 be 86 74 0f 3e f3 0c 78 3d
       0.02133632 -0.3151001 0.14009294 0.060559224
000240 df c8 bb 3d 3e 20 f9 bd 9b 52 90 3e 41 01 e3 3d
       0.091691725 -0.12164353 0.28188023 0.110842235
000250 dd 62 41 bc 1d ff ca 3e 11 cb 56 be a7 4e 74 3e
       -0.011803356 0.3964776 -0.20975901 0.23858128
000260 6e c9 8a 3e 30 e5 85 3e 9d 75 1b 3d b7 b3 33 3e
       0.27106804 0.2615142 0.03795396 0.17549025
000270 bb 56 a6 3e 71 32 21 3e 02 fb 0f bb 6e 53 b1 bd
       0.32488045 0.15741898 -0.002196968 -0.08658491
000280 a1 fd 2d 3e 57 85 35 3e ce 9f fd bd 81 72 ca bc
       0.16991283 0.17726646 -0.12383996 -0.024712803
000290 00 33 89 be d4 2d 67 3e 44 5b a8 3d ef 4e 0d bd
       -0.26796722 0.22576076 0.082205325 -0.034499105
0002a0 da f1 94 be 0e fe 2b 3d 82 ba c0 3c 89 34 0b be
       -0.29090768 0.041990332 0.023526434 -0.1359426
0002b0 4f 87 0f be 9e 44 00 3e c8 1b 00 be 4c 10 36 bd
       -0.1401646 0.12526175 -0.12510598 -0.044449136
0002c0 69 09 73 3e f3 ff 8d 3e f7 5c b4 be a0 c0 0c 3f
       0.23734058 0.27734336 -0.35227177 0.5498142
0002d0 2c e7 29 be a1 18 93 3e b6 54 6a ba fd 1a 13 3e
       -0.16592091 0.28729728 -0.00089390145 0.14365764
0002e0 11 a0 03 3e 3c fc 00 be ec f5 c2 3c 22 7e bc 3e
       0.12854029 -0.1259622 0.023798905 0.36814982
0002f0 55 17 f9 bc 12 96 e0 3d 1c 28 4a 3d 40 9a 21 3e
       -0.030406633 0.10966124 0.049354658 0.15781498
000300 64 3d 34 be 2e d8 53 be 4c 03 8f bd 52 fb d2 3d
       -0.17601544 -0.20687935 -0.06983051 0.10301842
000310 58 f3 cf bd 6a 83 fd bd 07 9e 0d be f3 1c c9 bd
       -0.10153836 -0.12378581 -0.13829814 -0.09819975
000320 19 18 a6 3e e4 ff 32 3d 94 52 9c 3e 57 16 3c 3c
       0.3244026 0.043701068 0.30531752 0.011479936
000330 1d 6f 01 be 79 34 d3 3b 88 ac 2c 3e 95 f7 d8 3d
       -0.12640043 0.006445464 0.1686269 0.105940975
000340 f2 90 36 be 21 22 0c 3e c8 ec 4e 3e 9c 89 ef be
       -0.1782873 0.13684894 0.20207512 -0.46784675
000350 de b0 ff 3d ed 67 03 bd e4 d6 1d be 26 2d d6 bd
       0.124849066 -0.032081533 -0.15414006 -0.1045783
000360 c5 f5 11 bd 89 ad d2 bd 22 b0 48 3e fa 6b bc be
       -0.035634775 -0.102870055 0.1959844 -0.3680113
000370 df de ad 3c a7 8b de bd da a9 6f 3e fa 5c 8f 3d
       0.021224437 -0.1086648 0.23404637 0.07000156
000380 77 7f 1b bb 00 10 0d 3e 6d 00 03 3e 19 9f 25 3e
       -0.0023727098 0.13775635 0.12793131 0.16173972
000390 1e 49 7d be d5 8e c2 bc 74 f1 8b 3e 68 e1 5e bd
       -0.24734923 -0.023749748 0.27332652 -0.054414183
0003a0 35 50 c1 3d f9 0c 4d be 98 a3 f0 3d 4f 47 b2 bd
       0.094391264 -0.2002448 0.11749953 -0.08705007
0003b0 e7 db df be 76 0a 59 be 89 77 04 3f 2c 43 06 3f
       -0.4372246 -0.21195397 0.51744896 0.52446246
0003c0 53 12 fe 3d 38 99 0f be 93 61 be be 83 70 2d 3d
       0.12405839 -0.14023292 -0.37183818 0.042343628
0003d0 28 4a 9a bc 92 c0 9d 3e cd 59 ac be 8a 8e c5 3e
       -0.018834189 0.30810982 -0.33662263 0.3858531
0003e0 0d 16 03 bf 17 79 cd 3c 38 8e 39 be 7f e8 07 be
       -0.5120552 0.025082154 -0.18120658 -0.13272284
0003f0 4e 0a d7 3e 26 84 25 3e d1 3a 9d be 14 c5 26 be
       0.4200005 0.16163692 -0.30708936 -0.16286117
