ml-agents-release_20/Result/Dino/Dino05/Dino/Dino-499940.pt (torch, 205607 bytes, 21 tensors)

network_body._body_endoder.seq_layers.0.weight f4 [256, 29]
000000 e6 bb df be 73 65 84 be fa b9 9c 3c 92 ee 30 3d
       -0.43698043 -0.2585865 0.01913165 0.04319627
000010 83 e1 76 3e 5e b9 f7 3d 39 07 59 3d 8e a3 8c be
       0.24109463 0.12095903 0.052985404 -0.27468532
000020 b4 f6 b7 3d ce 51 80 bb 9d 7d 56 bd 8a 3e 5b 3e
       0.08982602 -0.003916002 -0.052365888 0.21410576
000030 a0 5e 02 3f 8f ad e3 bc 4d 90 c2 bb f1 dd 21 be
       0.50925636 -0.02779272 -0.005937612 -0.1580732
000040 a9 f7 34 be 42 35 7b bd 10 d2 4d be 29 68 ab bc
       -0.176726 -0.061330087 -0.20099664 -0.02092369
000050 5c e1 26 3e de ec 03 3f a7 fe 71 be 74 f9 59 bd
       0.16296905 0.51533306 -0.23632298 -0.053216413
000060 9e ae 8a be 6d 58 a3 bc fb f4 f3 3d 86 62 20 3e
       -0.27086347 -0.019939626 0.11911961 0.15662584
000070 82 2a ec 3d be a8 da 3b c0 52 ca bd 0d 66 b6 bc
       0.11531545 0.0066729477 -0.098790646 -0.022265458
000080 23 01 cc 3a d3 fa 9a bd 42 04 b0 3b 9d 40 17 3d
       0.0015564304 -0.07567372 0.0053716013 0.036926854
000090 d1 39 e6 3d 02 3b 93 be 29 6f cf 3d b8 a5 72 be
       0.11241496 -0.28755957 0.10128624 -0.23696029
0000a0 78 5f 36 3d 0d 5a 03 3e d0 66 cb be 36 62 19 bd
       0.04452464 0.1282732 -0.39726877 -0.037447177
0000b0 35 25 87 3e ce 32 10 3e 3a 36 26 bd bc b0 45 bd
       0.26395574 0.1408188 -0.04057906 -0.04826425
0000c0 78 67 22 be 12 86 d0 3c c6 f4 08 be f7 ed 49 bd
       -0.15859783 0.025454555 -0.13374624 -0.049299207
0000d0 40 75 72 3d 0e 94 c9 3d 26 a6 6e 3d bb 9a 5c 3e
       0.05919385 0.09842692 0.05826392 0.215434
0000e0 28 91 d7 3d 68 8d 1f be ce 5a 55 be 57 b1 b0 bd
       0.10525733 -0.15581286 -0.2083542 -0.08627575
0000f0 d0 0a 53 3d 6b 97 1a be e8 cd c0 3d ac d9 19 3e
       0.051523983 -0.15096824 0.094142735 0.15024441
000100 51 28 30 3e 6e 6d 54 bd 48 e0 58 be d4 11 a8 bd
       0.1720288 -0.051862173 -0.21179307 -0.082065254
000110 53 ec a5 bb b3 48 b5 bd 60 95 a4 3e 0a 45 7f bd
       -0.0050635724 -0.08851757 0.32145214 -0.0623217
000120 eb 4b 89 3d a6 6b cd bd 07 26 68 bd 27 33 1b be
       0.06703933 -0.10030298 -0.05667689 -0.15156232
000130 6c fc ee be 87 ae 33 3e e9 e3 31 3e bc 04 12 be
       -0.46676958 0.17547046 0.17372097 -0.14259619
000140 cb 24 56 be 03 75 33 3d b0 9b d7 3e 31 94 8e 3d
       -0.20912473 0.043812763 0.42110968 0.06961859
000150 1a 13 0f 3d 3b d9 61 be 7f c6 fb bc b7 95 7f be
       0.034930326 -0.22055523 -0.030734299 -0.24959455
000160 50 53 82 3e a4 d6 ac 3d a2 8a 92 bc 8b ab c3 be
       0.25454187 0.08439377 -0.01788837 -0.38216814
000170 20 7c 28 be eb e1 7c be 89 d9 81 be 62 a6 72 ba
       -0.164536 -0.24695556 -0.2536128 -0.00092563604
000180 72 d9 e4 3d e3 f7 85 3e 66 3e 55 be b0 a7 47 3e
       0.11174287 0.26165685 -0.20824584 0.19497561
000190 5b ab 90 3d 3f 7a 4f be d7 d1 93 bd 96 84 e7 3c
       0.070639335 -0.20261477 -0.07217758 0.028261464
0001a0 d0 c7 d2 bd f3 3f 4e bd 5e f2 8c be 1a c5 cc bd
       -0.102920175 -0.050353955 -0.2752866 -0.09998532
0001b0 84 88 91 be da ec 15 3d 64 18 44 be 6b 37 d5 bd
       -0.28424466 0.036602832 -0.1914993 -0.10410961
0001c0 4e 47 73 3e b0 f9 47 be 58 84 02 bd 96 10 93 bd
       0.2375767 -0.19528842 -0.031864494 -0.07180898
0001d0 0b 77 64 be 6e d9 bb bd 85 e4 47 be 7b 2b ce 3d
       -0.22311036 -0.09172331 -0.19520767 0.10066887
0001e0 a1 dc 2f be 05 70 dc bd ff 77 b3 bc 0b b7 2d 3e
       -0.17174007 -0.107635535 -0.021907805 0.16964357
0001f0 a2 66 5f 3d b7 53 99 3e c1 25 34 3d 42 60 c6 be
       0.054541238 0.29946682 0.043981317 -0.38745314
000200 09 df dc 3d 16 8c f6 3d ec ff a1 bd 51 ec 1c 3e
       0.10784728 0.12038438 -0.07910141 0.15324523
000210 b1 9b a0 3e bd f4 ff 3d 30 3d 2f 3e 6a 27 40 3e
       0.31368783 0.12497852 0.17113185 0.18765035
000220 18 cc 40 3d aa c5 83 be e9 4d 8f 3e 4e d2 57 3e
       0.04706964 -0.25736743 0.27989128 0.21076319
000230 c7 61 c2 3c ac 6d a2 be 6a c4 0c 3e 60 cb 6d 3d
       0.023728264 -0.31724298 0.13746801 0.05805528
000240 df c8 bb 3d c9 1c f8 bd 6f 60 8b 3e f4 96 d6 3d
       0.091691725 -0.12114865 0.2722201 0.10478011
000250 c2 5a 92 bc 98 d1 c7 3e ed ba 34 be ab 8b 4a 3e
       -0.017865542 0.39027095 -0.17649432 0.19779842
000260 f0 24 7e 3e e3 31 86 3e a4 1a 01 3d 20 1e 2d 3e
       0.24818778 0.26209936 0.031519547 0.16906023
000270 a3 11 a3 3e f8 06 29 3e be e5 67 ba b8 aa e3 bd
       0.31849393 0.16506565 -0.0008846185 -0.111165464
000280 1d 27 10 3e c1 88 35 3e fc f1 01 be cf ca 01 bd
       0.1407742 0.17727949 -0.12689966 -0.031687554
000290 b6 b7 8c be 3f a3 55 3e c0 b1 a6 3d 04 e9 79 bc
       -0.2748391 0.20863055 0.08139372 -0.015253309
0002a0 ea 0f a3 be 60 7d 31 3d 39 0b a0 3c 09 98 12 be
       -0.3184808 0.043332458 0.019536601 -0.1431581
0002b0 98 c9 16 be 9e 44 00 3e 23 42 00 be 09 74 1c bd
       -0.1472534 0.12526175 -0.12525229 -0.038196597
0002c0 9a 22 6d 3e 98 0c 8b 3e 34 53 b0 be a5 94 06 3f
       0.2315773 0.27158046 -0.3443848 0.52570564
0002d0 43 e4 10 be 9d a9 96 3e 4f 52 ab ba 38 56 18 3e
       -0.14149575 0.2942628 -0.0013070795 0.1487664
0002e0 84 ea fb 3d c5 b3 06 be af 34 3c 3c 3a a1 b8 3e
       0.1230059 -0.13154514 0.01148717 0.36060506
0002f0 ba 22 6e bc 2f 35 fb 3d d4 15 4f 3d b3 56 25 3e
       -0.014534647 0.12266003 0.050557926 0.16146354
000300 d3 a5 39 be af 51 59 be 9b 41 91 bd 49 5c d4 3d
       -0.18129663 -0.21222566 -0.070925914 0.103691645
000310 3a 3c ea bd e8 2d e3 bd d9 f8 0f be 99 47 c0 bd
       -0.114372686 -0.1109274 -0.14059772 -0.09388656
000320 15 6f a3 3e 75 72 1d 3d 94 52 9c 3e e8 74 43 3c
       0.31920686 0.038439233 0.30531752 0.011929728
000330 a1 62 0b be ed ad 48 3b a6 35 29 3e 06 d5 c3 3d
       -0.13611843 0.0030621246 0.16524372 0.09562115
000340 dd 10 14 be 27 43 cf 3d 8e 85 3b 3e a9 2b ef be
       -0.14459558 0.1012023 0.18312666 -0.46712998
000350 00 f1 fc 3d 56 43 13 bd a7 ac 21 be f7 9e c1 bd
       0.123506546 -0.03595289 -0.15788518 -0.09454148
000360 e0 fa 00 bd 93 02 f9 bd b2 ae 30 3e ac 3c bd be
       -0.031489253 -0.12158694 0.17254141 -0.3696035
000370 fe 55 bc 3c 78 46 e7 bd 7e 6e 6b 3e 5c a0 52 3d
       0.022990223 -0.11292738 0.22991368 0.051422462
000380 dc 78 41 ba ea d9 1f 3e fb 42 da 3d 45 c0 28 3e
       -0.0007380375 0.15610471 0.10657307 0.16479595
000390 86 10 7d be 74 23 e7 bc 29 ba 89 3e 68 e1 5e bd
       -0.24713334 -0.028215148 0.2689984 -0.054414183
0003a0 7b 07 c3 3d 15 1f 57 be 24 3d e0 3d c3 ad c2 bd
       0.09522911 -0.2100795 0.10949162 -0.09505799
0003b0 14 c8 e2 be 5a 8b 35 be a6 d0 f2 3e e2 4a ff 3e
       -0.44293272 -0.1772894 0.4742481 0.4986182
0003c0 fa 0d 00 3e c5 c9 14 be 4e bf c2 be 57 12 0b 3d
       0.12505332 -0.14530094 -0.3803658 0.033953037
0003d0 e9 2f 5e bb b0 0b 9e 3e a5 fb ba be c0 d9 b4 3e
       -0.0033903068 0.30868292 -0.36520115 0.3532238
0003e0 d2 11 03 bf 03 05 b8 3c d1 ad 42 be be e5 10 be
       -0.51199067 0.022463327 -0.19011618 -0.1415014
0003f0 ad 27 cd 3e f1 88 25 3e 95 26 93 be ec 52 47 be
       0.40069333 0.1616552 -0.28740373 -0.19465226

network_body._body_endoder.seq_layers.0.bias f4 [256]
000000 b0 3f 25 3c 74 3d 0c 3c 0c 7d 86 3c ec 8d 92 3c
       0.010085985 0.008559573 0.016417049 0.01788994
000010 34 b6 25 3b d4 e0 39 3c ec 94 47 bb c5 e1 a3 3b
       0.0025285603 0.011345107 -0.0030453755 0.005001279
000020 3c 56 22 3d b3 dc c0 3b 32 c5 d3 3c 89 58 5b 3c
       0.03963302 0.0058856844 0.025850866 0.013387808
000030 ff 26 c3 3c 54 41 53 3c b6 e8 6b 3c 4a 7d a9 3c
       0.023822306 0.012893993 0.014398744 0.020689625
000040 59 bd c9 3c b5 41 9e 3b bd df 32 3c 38 17 6e 3c
       0.02462642 0.00482961 0.010917601 0.014531903
000050 ba cb 3a 3c e5 6b c2 3c 13 88 98 3b 6b 1a fd 3b
       0.011401111 0.023733089 0.004654893 0.0077240965
000060 18 6d 95 3c 04 96 2b 3b 11 fb 16 3d 70 c1 c6 3a
       0.018240497 0.0026181946 0.03686053 0.001516385
000070 cc 74 4b 3c db 2c 08 3b e4 88 0d 3d 77 3b cb 3c
       0.012417983 0.002077869 0.034554377 0.024808628
000080 0a ce a7 3c 44 31 b0 3c 8e 36 56 3c 75 be 4d ba
       0.02048399 0.021507867 0.01307453 -0.00078485097
000090 45 bf 38 3c 1d 42 b9 3c cd bd ca 3b 77 06 82 3c
       0.011276071 0.022614533 0.006187177 0.015872223
0000a0 02 4c bb 3b 41 b9 40 3d c6 c2 fb bb bf 21 d9 3a
       0.005715848 0.047051672 -0.007683131 0.0016565843
0000b0 8c 55 93 3c 2f b1 2b 3d a3 d0 77 3c fa d3 a0 ba
       0.017985128 0.041917022 0.015125426 -0.0012270205
0000c0 df db da 39 d8 6e 98 3c f7 2b 23 3c 73 07 54 3c
       0.00041744017 0.018607542 0.0099592125 0.012941229
0000d0 27 87 c2 3c e2 41 10 3d f8 06 17 bc 25 3e 5a 3c
       0.023746086 0.03521908 -0.00921797 0.0133204805
0000e0 31 54 6f 3a cd ae 08 bb 5d fe 81 3c 16 ec 36 bc
       0.0009129672 -0.0020856143 0.01586836 -0.011164686
0000f0 2e 45 74 3c 5d 6b cb 3b 38 b4 08 3c 9b f2 e4 bb
       0.014909072 0.006207867 0.008343749 -0.0069869286
000100 12 e6 85 3b 6e 29 13 3d 3a d7 92 3c e1 41 d0 3c
       0.0040862644 0.035928182 0.017924894 0.025422039
000110 9b f6 58 3c 4f 14 39 bb 6f d3 a4 b9 1d b9 99 bc
       0.013242389 -0.0028240865 -0.00031438048 -0.018765027
000120 d0 35 79 3c 40 43 ca 3c 76 c6 1c 3d 04 3d d0 3c
       0.015210584 0.02469027 0.038275205 0.02541972
000130 87 08 14 3d 59 b1 83 bb fa e4 ed 3b ff 74 7c 3c
       0.036140945 -0.004018944 0.007259962 0.015408753
000140 06 0c 70 3c d3 de 3c 3c 63 01 8b 3c 53 ba fe 3c
       0.014651304 0.011527735 0.016968435 0.031094706
000150 ba 34 85 bb f4 9b e8 3c c6 bd 01 3b 58 e8 c3 3b
       -0.0040651234 0.028394677 0.0019796952 0.0059786253
000160 19 1c fb 3c e7 a7 10 3b 64 4f 39 3b 49 f2 7a 3c
       0.030653046 0.0022072734 0.002827608 0.015316554
000170 91 46 1d 3d 2d 1d 9f 3c 5a 52 29 bb 9c 72 e8 3c
       0.038397375 0.019423092 -0.002583644 0.028374963
000180 5b c2 94 3c 74 66 26 3c 3c 84 17 3d eb e7 0c 3c
       0.018159082 0.010156263 0.036991343 0.008600215
000190 60 a1 2f 3c 82 84 84 3d 9c d4 69 bc 17 9d 60 3c
       0.010719627 0.06470586 -0.014271881 0.013709328
0001a0 c7 84 90 bb 59 bb d6 ba 66 92 b3 3b 9e 19 92 3b
       -0.0044103595 -0.0016382738 0.0054800985 0.00445862
0001b0 7f 4b ba 3c 95 91 ce 3c 42 7e 36 3c ca b0 c2 3b
       0.022741077 0.025215903 0.011138501 0.005941485
0001c0 6a 12 7a bb 8b ac 8b bc d9 b4 3f 3c 44 6e 55 3c
       -0.0038157948 -0.017050048 0.011700832 0.013026778
0001d0 34 64 d8 3c 92 9b ba 3c 4d c9 e9 bb 60 83 8e 3c
       0.026414968 0.02277926 -0.0071345926 0.017396629
0001e0 86 7d 01 3c de 0d c4 3c c4 70 b8 3c 49 f5 fa 3c
       0.007903462 0.023932394 0.022514708 0.03063454
0001f0 eb 51 f7 3c 1d cc ac 3b dd 0a 4e 3d 2c 01 8e 3b
       0.030190429 0.0052733556 0.05030333 0.004333636
000200 e9 67 f5 bb 7d 02 fa 3b 37 ff 60 3c b8 b9 e0 3b
       -0.0074891937 0.007629691 0.013732723 0.006858077
000210 cf 46 62 3c c7 cc bd 3c 62 95 bd 3c 20 0e d1 38
       0.013810827 0.023168935 0.02314252 9.9685276e-05
000220 88 8d 99 3a 83 28 2a bb 95 a4 ba bc e9 93 86 3c
       0.0011715153 -0.0025964088 -0.022783557 0.016427951
000230 9d 98 b1 3b d1 03 6b 3d 93 cc 49 3b a2 ac 12 3c
       0.0054198042 0.057376686 0.0030792102 0.008952292
000240 b8 de 06 3d 00 b9 b3 3c 12 9a 3a 3c 51 78 7e 3b
       0.032927245 0.0219388 0.011389272 0.0038829038
000250 1d c0 b0 bb be 55 93 3c 44 21 62 39 cc b2 b0 bb
       -0.0053939954 0.017985221 0.00021565432 -0.005392408
000260 9a 78 71 3c 6e fb d6 b8 1f fd 9c 3a 71 0c f0 3b
       0.014738226 -0.000102511476 0.0011977291 0.007325702
000270 63 e5 22 3b 9a 06 0f 3c 5f 30 67 3d 49 97 66 3d
       0.0024855963 0.008729601 0.056442615 0.05629662
000280 58 a8 10 3c 26 a1 5b bc 02 6c b3 3c eb 71 0c 3d
       0.008829199 -0.01340512 0.021902088 0.03428833
000290 51 2f de 3b 48 d2 0c 3d ad 1b 29 3c b4 c2 1a 3d
       0.006780543 0.034380227 0.01032154 0.03778334
0002a0 b0 69 09 3c 12 ea 1e bc f4 fd b3 3c 78 88 0d 3c
       0.008387014 -0.009699361 0.02197168 0.008638494
0002b0 ab 0b aa 3b e7 50 82 3b c3 a1 9a 3b 33 1c 6e 38
       0.005189379 0.0039769295 0.0047189905 5.6769884e-05
0002c0 c3 ab 20 3d 64 dc 11 3d 70 14 d5 3c 05 d2 d4 3b
       0.039226305 0.03561057 0.026010722 0.006494763
0002d0 ed 7d ed 3b 7b fd 59 3d 4a 42 64 3a 8b 81 9c ba
       0.0072476775 0.053220253 0.00087073876 -0.0011940462
0002e0 64 f1 8b bb ac 32 81 bc 2e fc 67 3c da d1 b1 3c
       -0.0042707194 -0.015771233 0.014159245 0.02170651
0002f0 b9 8b 45 3c f9 44 17 3d cd a1 f2 3b 3d 9d 10 3c
       0.012057238 0.03693101 0.007404542 0.008826551
000300 a3 8d 2c 3d be 65 69 ba a2 04 aa bb ce 88 da 3c
       0.042127263 -0.00089034054 -0.0051885406 0.026676562
000310 26 fb b5 3c f1 40 81 3c 0c e8 26 3b 10 54 f5 bb
       0.022214483 0.015778037 0.00254679 -0.0074868277
000320 69 ec e5 bb f4 eb 26 3d 60 8a 0c 3d 14 38 9c 3c
       -0.0070167077 0.040752366 0.034311652 0.019069709
000330 c3 8b 84 bb 76 35 f5 3c d2 24 09 3c ff 91 fe 3b
       -0.004044981 0.029932719 0.008370595 0.007768869
000340 21 2f f9 3c 22 f8 97 3c 8b c8 0a 3d 6c c9 04 3d
       0.03041798 0.018550936 0.03388266 0.032418653
000350 49 86 12 3b ea ee 1c 3a 20 a5 80 3c 4b fb b9 3b
       0.0022357872 0.00059865287 0.015703738 0.0056757084
000360 71 f1 58 3d d6 d2 c6 3b 3f fb 74 3c 65 43 7a 3c
       0.05296463 0.006067614 0.01495248 0.015274857
000370 b6 78 4f 3c da d3 a8 3c ed 4c 10 3d de c7 5b 3c
       0.012663057 0.020608831 0.035229612 0.013414351
000380 94 3d a0 3c 4f 5b 1f 3b b7 b8 7b 3c 80 84 be 3c
       0.019560613 0.0024315899 0.015363864 0.02325654
000390 e0 d8 44 3c 18 22 ca 3c 6d 4f fe 3c e3 64 b2 3c
       0.012014598 0.02467446 0.031043733 0.021776622
0003a0 29 96 dd 3c 29 d6 6a 3c 7e f5 1d 3c de bd 2b 3c
       0.027049141 0.014333286 0.009641049 0.01048228
0003b0 0f ab c4 3b 8c 72 b0 3c ee 38 5b 3c 42 d2 dd 3c
       0.006001837 0.021538995 0.013380272 0.027077798
0003c0 9f 5b 59 3c ac 16 08 bc c2 e7 79 3b d9 e0 1e bc
       0.013266473 -0.008306187 0.0038132523 -0.009697163
0003d0 12 e3 17 3c bd ba d3 3c cc a4 83 3c 18 35 b3 3a
       0.009270446 0.02584588 0.016069792 0.0013672439
0003e0 ad 7d 1a 3d 45 d1 3a 3c d4 ad bd 3b 49 a1 5c 3d
       0.03771751 0.011402433 0.005788544 0.05386475
0003f0 44 08 e1 bc 2b a7 c1 3b a2 a5 ba bc a4 e0 5e 3b
       -0.027469762 0.0059098206 -0.022784058 0.0034008408

action_model._discrete_distribution.branches.0.weight f4 [2, 256]
000000 b2 1a 13 bd 4e 35 e0 bc 67 ab 76 bc f2 b3 06 ba
       -0.03591413 -0.027369168 -0.015055514 -0.0005138508
000010 da 0a b5 3c 73 db 0e 3d c3 53 42 bc c6 6b e9 3c
       0.022099901 0.03487725 -0.011860791 0.028493773
000020 80 4b dd 3d 74 dc a7 bb 56 3f a5 bc c9 8b 04 bd
       0.10805416 -0.0051227156 -0.020171802 -0.032359872
000030 fd e6 53 3d 08 41 58 bd 9d bc 9c bb 0f be 17 bd
       0.05173396 -0.052796394 -0.0047832266 -0.03704649
000040 ce e1 4f 3d 50 c4 e8 bc d8 b5 49 3c 77 20 88 3c
       0.050752454 -0.028413922 0.012311421 0.016617043
000050 f2 d4 de 3c ed 0b 79 3c 47 cd 89 bc a1 a4 2b bd
       0.02720115 0.015200597 -0.016821517 -0.04190505
000060 23 a0 e3 bc 04 8d fe bc 67 67 98 bd 62 ac 64 3c
       -0.02778632 -0.0310731 -0.074415974 0.013957115
000070 f5 5d 30 3d 98 bf b7 bc 9a e4 55 bd 7c 63 0e 3d
       0.043058354 -0.022430226 -0.052219965 0.034762844
000080 7d 83 a3 bd 92 7f 87 bd 19 6c 2a bd ef 45 96 bc
       -0.07984064 -0.06616129 -0.041606996 -0.018343894
000090 2b cd 30 bd e1 5f 81 3d 20 41 b3 bc 7c 0e 2f bd
       -0.043164413 0.063171156 -0.02188164 -0.042738423
0000a0 12 e2 f5 bc b8 94 5d bd 6c 9d f1 ba 20 79 60 3c
       -0.030015025 -0.054096907 -0.0018433756 0.013700753
0000b0 9b fd 7a bc b3 46 f6 3d dd af 70 bd 98 e6 4c bc
       -0.015319253 0.120252036 -0.058761466 -0.01250615
0000c0 08 9f 9a 3c 00 bc 31 bd 41 f1 08 bd 5b 86 23 bc
       0.01887466 -0.04339218 -0.033433203 -0.009980763
0000d0 83 e2 5d bd 78 a7 32 bd 85 ba 1f bc ee 20 40 bd
       -0.054171097 -0.043616742 -0.00974906 -0.046906404
0000e0 d5 0d 9a 3c db 59 a4 bc c1 a1 13 bd 6c bb 39 bc
       0.018805424 -0.020062378 -0.036042932 -0.011336189
0000f0 47 fe 12 bd 9f dc b0 bb 78 a1 48 3a 63 5e 92 bb
       -0.03588703 -0.005397394 0.0007653455 -0.004466818
000100 16 16 b7 3c ff 1e b8 bd 4e 11 39 bd 3c aa 5d 3d
       0.022349399 -0.08990287 -0.04518252 0.054117426
000110 f9 08 3e 3d 44 d5 88 3c b6 e3 4d 3c b6 47 aa 39
       0.046395276 0.016703255 0.012566498 0.00032478356
000120 84 4c 15 bd 48 da bb 3d 4a 75 97 3c a7 6d 6c bd
       -0.036449924 0.09172493 0.018488545 -0.05772176
000130 54 d4 72 bd 50 16 ef 3b 1f bb ee 3c 93 ce 5b 3d
       -0.059284523 0.007296361 0.02914196 0.0536638
000140 02 af 4a bd c1 17 8d bc 05 85 3e bc 10 f4 83 bd
       -0.049483307 -0.01722324 -0.011628394 -0.064430356
000150 01 1c 19 bc 00 92 25 bc a4 12 eb bb ba a1 ec 3c
       -0.009345056 -0.01010561 -0.007173853 0.028885711
000160 6c ff 94 bd fa 3d ad 3c 30 d3 8a bc fa 65 0c bd
       -0.0727528 0.021147717 -0.016946405 -0.03427694
000170 74 3b 28 bd 50 ca 2e bd 8e c3 56 3c ea 6f a3 3d
       -0.041072324 -0.04267341 0.013108147 0.0798033
000180 99 d5 84 bd a5 a1 0d 3d 00 c4 28 3d 93 96 1a bd
       -0.06486053 0.034577984 0.041202545 -0.037741255
000190 9b 3f 13 3d 55 40 63 bc 5e ec 7b bc 37 fc d7 bc
       0.03594933 -0.013870318 -0.015376179 -0.026365383
0001a0 47 30 b8 ba 84 0e 3d bb 56 46 b7 3c 78 a0 c5 bc
       -0.0014052474 -0.0028847763 0.022372406 -0.024124369
0001b0 78 a6 1c bd 42 03 8e 3d e0 e8 bf bc c8 90 1c bd
       -0.038244694 0.06934215 -0.023426473 -0.03822401
0001c0 4e 7f 1f bc 60 9b 81 3b f9 24 b7 3c 4f fb 48 bd
       -0.009734942 0.0039552897 0.022356497 -0.04906779
0001d0 c6 53 41 bd c6 02 07 bd 5c 08 7c bb fc 6a 85 bc
       -0.047199033 -0.03296163 -0.003845713 -0.016286366
0001e0 c1 58 8e 3c 6d fe 95 3c 48 a9 36 bd b0 0f 63 3d
       0.017376306 0.018309796 -0.044595033 0.055434883
0001f0 7d 38 9d bd b4 2a 15 3b cf 2f 54 3d 5e f7 54 bc
       -0.0767679 0.0022761049 0.051803406 -0.01299843
000200 8e 5c 0b 3a 9e d4 ee bc 48 8a f2 3c 41 ec 1d 3d
       0.0005316221 -0.029154118 0.029606953 0.038555387
000210 08 88 a4 3c ec 50 45 3d d2 e3 91 bd 0c 4f bc bc
       0.020084396 0.048172876 -0.071235314 -0.022986911
000220 c8 11 99 3c a2 9e ed 3b 9f 25 02 ba 4d cf 38 bd
       0.018685237 0.0072515765 -0.00049647124 -0.045119572
000230 cc 34 7a bc fa cf 00 bd d2 3d 99 3c ca 61 e5 3c
       -0.015271377 -0.031448342 0.018706236 0.028000731
000240 ea b0 af bc 08 93 01 bc f6 b2 01 3d ee 8d 6e bc
       -0.021446664 -0.00790859 0.03166481 -0.014560206
000250 5e 46 8a bc 4b 63 38 bd fa a3 18 bc f9 ec da bb
       -0.016879257 -0.04501657 -0.009316439 -0.0066810814
000260 ac 2f 74 bc fc f8 97 3c 0b 31 a8 3c ac e4 74 bb
       -0.014903944 0.018551342 0.020531198 -0.0037367744
000270 cc dd a1 bc 90 54 22 bd a2 dd 98 bd c2 d9 0e bd
       -0.019759081 -0.039631426 -0.07464148 -0.03487564
000280 c5 7b a1 3c 10 19 90 3b a3 19 4f 3d 5b 40 76 3d
       0.019712338 0.004397519 0.05056156 0.060119968
000290 00 77 1f bd cd 3b cb bc 81 3a 37 3d c1 70 d1 3d
       -0.038931847 -0.024808789 0.044733528 0.10226584
0002a0 7d 12 4f bc b9 08 0b bc 39 f0 62 3d 88 31 92 bc
       -0.012638685 -0.008485966 0.055404875 -0.017845884
0002b0 62 25 e9 bc cb f1 a9 3c 4e 55 d9 bc 57 4f 07 3c
       -0.028460208 0.020745179 -0.026529934 0.008258662
0002c0 9b bb 9b 3d de 05 ab 3c 97 53 8c 3d 3a 46 e7 bc
       0.07604142 0.020876821 0.06851881 -0.028231729
0002d0 19 54 90 3c 9d dc 68 3d 26 27 62 3c f5 58 6b 3b
       0.017618226 0.05685102 0.013803279 0.0035911177
0002e0 bd a8 04 bc ef ed 04 3c f7 9d f8 bc 1d 9d 56 bd
       -0.008096871 0.008113368 -0.030348761 -0.05239593
0002f0 7c a9 c1 3c 33 0f 65 bd ea 9f 67 bc 86 a0 af bc
       0.023640387 -0.0559227 -0.014137248 -0.021438848
000300 18 7b e8 bc cd 3f 83 bc da 8b 25 bb 08 e7 75 bd
       -0.028379008 -0.016021634 -0.002526036 -0.06003478
000310 ef ee 30 bd e5 d5 f3 bc fd b3 97 3b 59 ed a2 bb
       -0.043196615 -0.029765079 0.0046296106 -0.0049721417
000320 9b fb 61 3c aa 1f 60 bd 32 d8 92 bc ce e7 c2 bc
       0.013792898 -0.054717697 -0.017925356 -0.023792174
000330 93 f2 bd bb 66 bb a9 bd 82 01 cb 3c f6 f3 b5 bc
       -0.0057967394 -0.082876965 0.024780992 -0.022211056
000340 e4 40 b5 bc 09 e3 b2 bc 6f fe 89 bd f5 f9 6d bd
       -0.022125669 -0.021836774 -0.067379825 -0.058099706
000350 8e 45 13 bc 00 fc 80 3c 9d d2 82 bd 85 df 51 3c
       -0.008988751 0.015745163 -0.063878275 0.012809639
000360 2f 4a d9 3d 0a 07 87 3c fe e2 14 bd 9c 2d 38 bc
       0.106098525 0.016482849 -0.03634929 -0.011241343
000370 3b c4 bb bb 4b 8f 4c 3d 2c 2a 9d bd 1e 93 4e 3d
       -0.0057301796 0.049941342 -0.07674059 0.05043327
000380 0e da 97 3d 88 6c d7 ba 58 aa 80 bd 59 12 79 3d
       0.074146375 -0.0016435543 -0.062824905 0.060808513
000390 1c 9d 86 bc f0 b4 8a 3d 29 6f 94 bc f7 98 73 bd
       -0.016432337 0.06772792 -0.018119412 -0.05947205
0003a0 d9 c7 9f bc d2 85 5b 3d a4 a1 13 bd 79 8a d8 bc
       -0.019504474 0.053594418 -0.036042824 -0.026433216
0003b0 e2 8d 0c bd 5b 14 91 3d 23 01 61 3d 75 26 bc 3d
       -0.034314997 0.070839606 0.054932725 0.091870226
0003c0 1d 33 17 bd 90 39 c6 ba b7 06 2b 3d e7 07 2b bc
       -0.03691398 -0.0015123356 0.04175445 -0.010438896
0003d0 be cd 74 bc 04 cc 33 3d f3 92 0b 3d 02 26 f2 3c
       -0.014941631 0.043895736 0.03407569 0.02955914
0003e0 41 64 91 bd 96 89 1a 3d 3e 39 f1 3c ff 24 b3 bc
       -0.070992 0.03772887 0.02944624 -0.021868227
0003f0 9e 51 cb 3b 24 1d 30 bc 8f 99 1a 3c eb a7 f1 bc
       0.006204798 -0.010749135 0.009436025 -0.029499015

action_model._discrete_distribution.branches.0.bias f4 [2]
000000 0f ba 61 3a 1e ba 61 ba
       0.0008610794 -0.00086108025

exp_avg f4 [256, 29]
000000 eb e5 0e b7 31 a6 35 37 be cd 66 b8 be cd 66 b8
       -8.5173915e-06 1.0827135e-05 -5.5027886e-05 -5.5027886e-05
000010 48 9b 96 35 71 de d8 b8 5e ea 4f 38 dc 66 56 b8
       1.1221064e-06 -0.000103411156 4.9570917e-05 -5.111737e-05
000020 ba 52 0f b7 29 5f 02 37 ca e0 59 b8 98 6a 58 b8
       -8.5427255e-06 7.77076e-06 -5.1946183e-05 -5.1597686e-05
000030 a6 07 3f b7 41 05 7e b8 fb 52 a1 37 84 bd 94 b7
       -1.1386268e-05 -6.0563212e-05 1.9231336e-05 -1.7731225e-05
000040 54 c2 09 b7 1f 74 0e 37 21 4a 5e b8 e3 4f 5c b8
       -8.211082e-06 8.490896e-06 -5.2997962e-05 -5.2526488e-05
000050 b1 ba 94 b8 80 05 95 37 29 78 ea 34 af 42 c7 b6
       -7.091964e-05 1.7764745e-05 4.3673325e-07 -5.938425e-06
000060 ff e5 2b b7 54 5b 32 37 04 bb 5e b8 60 04 5d b8
       -1.0245944e-05 1.0630891e-05 -5.3103096e-05 -5.269458e-05
000070 00 00 00 00 01 34 8b b6 ff 5b 1d 36 88 90 58 b7
       0.0 -4.148577e-06 2.3448372e-06 -1.2908255e-05
000080 88 90 58 b7 ef da be b5 c0 08 1f b8 6a 95 ce 37
       -1.2908255e-05 -1.4219821e-06 -3.7916703e-05 2.462669e-05
000090 53 5a 62 b6 d8 9b 8e b6 14 8f d3 b6 23 7c 8b b6
       -3.37292e-06 -4.2500724e-06 -6.3049465e-06 -4.1569742e-06
0000a0 4f 38 86 b6 88 10 cb b6 82 39 a1 b7 be 27 31 37
       -4.0000664e-06 -6.051796e-06 -1.9219475e-05 1.0559275e-05
0000b0 f1 97 84 36 d5 f4 37 b6 e2 23 e9 b6 c6 88 a8 b6
       3.951595e-06 -2.7411636e-06 -6.9481184e-06 -5.0227127e-06
0000c0 78 8e 9e b6 18 1e 22 b7 0a f6 fa b4 7e bb 99 b6
       -4.7253525e-06 -9.662959e-06 -4.6745146e-07 -4.5815823e-06
0000d0 8a 5a de 36 f6 2d 1f b7 5c e1 43 b2 31 e9 ae b6
       6.6266557e-06 -9.48784e-06 -1.1401735e-08 -5.212751e-06
0000e0 a7 e6 a1 b6 00 00 00 00 94 d5 ab b6 81 05 35 36
       -4.8250254e-06 0.0 -5.121061e-06 2.6974305e-06
0000f0 eb 9e 4c b7 eb 9e 4c b7 a2 53 4f b6 d0 bd b7 b7
       -1.21963485e-05 -1.21963485e-05 -3.0894084e-06 -2.1903688e-05
000100 32 08 2e 37 16 ed ff b6 6a e2 ad b6 aa 7c bf b5
       1.0373116e-05 -7.6271926e-06 -5.18216e-06 -1.4266891e-06
000110 8c 67 06 b7 50 d4 06 b7 c5 dd cb b6 47 48 40 b7
       -8.011131e-06 -8.036455e-06 -6.075689e-06 -1.146092e-05
000120 58 bb 43 36 d3 c4 22 b6 4a 68 8f b6 35 9a 10 b6
       2.9166313e-06 -2.4254448e-06 -4.273873e-06 -2.1547432e-06
000130 9f 6d 09 b7 29 ec 08 b7 5c 50 71 b7 f9 7d 55 36
       -8.1913595e-06 -8.161217e-06 -1.43834295e-05 3.18128e-06
000140 de 5d 65 b6 17 60 89 b5 9f cf 0a b7 b3 98 01 36
       -3.4178297e-06 -1.0235261e-06 -8.2737815e-06 1.931138e-06
000150 e2 de 0a b7 33 f1 08 b7 00 00 00 00 9f c1 76 b5
       -8.277335e-06 -8.16239e-06 0.0 -9.1923897e-07
000160 73 78 35 36 e8 56 b2 b6 e8 56 b2 b6 8e de 05 b5
       2.7041212e-06 -5.3149306e-06 -5.3149306e-06 -4.987022e-07
000170 f4 5f 30 b6 70 71 d8 b4 9c ac b3 b6 8a 82 78 b5
       -2.6281896e-06 -4.0315672e-07 -5.35471e-06 -9.257716e-07
000180 be 27 ec 35 80 6c 92 b6 ae 43 92 b6 bb f9 ab b5
       1.7594937e-06 -4.36377e-06 -4.359018e-06 -1.2813174e-06
000190 42 5b 91 b5 92 76 9c b5 8c be 69 b6 9c 4c 5c b5
       -1.0829901e-06 -1.1657414e-06 -3.4830618e-06 -8.206787e-07
0001a0 49 36 00 36 73 04 9b b6 fd e4 98 b6 54 a1 e6 b6
       1.9105084e-06 -4.619878e-06 -4.5566107e-06 -6.873315e-06
0001b0 ef e6 88 36 fb c3 45 b5 22 9e 4a b6 90 f8 99 b5
       4.08e-06 -7.367341e-07 -3.019239e-06 -1.147173e-06
0001c0 22 59 17 36 50 a1 9b b6 aa a9 99 b6 00 00 00 00
       2.2552636e-06 -4.638139e-06 -4.579507e-06 0.0
0001d0 9e 40 b5 36 d7 f2 88 b6 ec 22 25 38 ec 22 25 38
       5.401743e-06 -4.081386e-06 3.937159e-05 3.937159e-05
0001e0 a9 60 fa 35 04 b2 a6 38 68 8a 2a b8 2c 4d a5 37
       1.8654583e-06 7.948655e-05 -4.066006e-05 1.9705469e-05
0001f0 f1 a7 ba 36 1e f5 06 37 c4 34 e3 37 41 7b e2 37
       5.562783e-06 8.044093e-06 2.708508e-05 2.6998694e-05
000200 af cd 05 37 e2 98 3c 38 8e 7e 4d b7 a8 c5 52 36
       7.975307e-06 4.4965076e-05 -1.2248418e-05 3.140749e-06
000210 dc 2e 69 36 ea 93 1d 37 7a 69 e9 37 7b 8d e7 37
       3.4746981e-06 9.392368e-06 2.782488e-05 2.7603228e-05
000220 a6 76 0e 38 d3 3f 9a b5 fd 1f 04 37 c8 74 fd b5
       3.396594e-05 -1.1492469e-06 7.875261e-06 -1.8883957e-06
000230 ef d2 5b 37 d4 df 02 b5 d6 86 eb 37 0f 6e e8 37
       1.3102529e-05 -4.8754487e-07 2.8076971e-05 2.7707805e-05
000240 00 00 00 00 e5 15 97 37 2d 12 43 b7 12 eb 3d 38
       0.0 1.8010798e-05 -1.1627138e-05 4.5280038e-05
000250 12 eb 3d 38 be d0 fe 36 19 6a 01 39 85 68 a6 b8
       4.5280038e-05 7.5940907e-06 0.00012341923 -7.934965e-05
000260 46 d9 b4 37 d8 7d 99 37 04 8c 84 36 0f c2 f6 37
       2.1558848e-05 1.8297622e-05 3.9502065e-06 2.941585e-05
000270 06 8b f2 37 af bb 9a 37 5e 3d 75 38 86 d3 d3 b7
       2.8913386e-05 1.8445628e-05 5.8469705e-05 -2.5251658e-05
000280 48 85 83 b6 c6 9d 75 37 66 2a a2 36 b7 04 07 38
       -3.91962e-06 1.46398725e-05 4.832912e-06 3.21909e-05
000290 a6 ed 02 38 63 c7 51 38 9d 23 c9 b6 11 3a 00 37
       3.1215743e-05 5.0015176e-05 -5.9944127e-06 7.642914e-06
0002a0 10 d0 56 b7 a7 b3 f0 37 39 5d 24 b7 f3 6e 09 38
       -1.2803837e-05 2.8693887e-05 -9.796867e-06 3.2766675e-05
0002b0 b8 1e 05 38 00 00 00 00 c8 11 9d b5 5c e4 ce 36
       3.173828e-05 0.0 -1.1702587e-06 6.165863e-06
0002c0 87 81 30 b8 87 81 30 b8 52 34 60 35 9b f2 84 b8
       -4.20823e-05 -4.20823e-05 8.352264e-07 -6.339439e-05
0002d0 b7 ad d5 37 d8 43 01 b8 79 84 a6 b5 dc c1 46 b5
       2.5472471e-05 -3.081918e-05 -1.2406518e-06 -7.404285e-07
0002e0 5d 3e 13 b8 f9 d5 12 b8 74 11 8a b6 2c 60 26 b8
       -3.510561e-05 -3.500839e-05 -4.1147523e-06 -3.966705e-05
0002f0 79 a6 e0 36 16 48 55 b7 d8 04 82 b4 e5 9a 71 b5
       6.6951e-06 -1.2712573e-05 -2.421791e-07 -9.00049e-07
000300 13 c3 16 b8 f1 a2 15 b8 0c c2 28 b8 38 1c f4 36
       -3.5944464e-05 -3.567612e-05 -4.023504e-05 7.2750518e-06
000310 2b 78 8a b6 e7 31 e0 b6 54 6f b4 b6 6e ec 91 36
       -4.12671e-06 -6.6815296e-06 -5.3773783e-06 4.348861e-06
000320 2b 3d 17 b8 09 dd 15 b8 00 00 00 00 74 a2 34 36
       -3.6058173e-05 -3.5730223e-05 0.0 2.691665e-06
000330 c6 52 8d b6 65 0d 3e 38 65 0d 3e 38 5b 77 4f b6
       -4.2117636e-06 4.5312005e-05 4.5312005e-05 -3.0914878e-06
000340 f0 88 dd 38 31 6d 76 b8 36 6f cb 37 c8 1d 3d 36
       0.00010563608 -5.8752663e-05 2.4251272e-05 2.818053e-06
000350 11 bb 47 37 29 d9 f3 37 f4 fe f1 37 42 4a 96 36
       1.1904879e-05 2.906898e-05 2.884816e-05 4.478993e-06
000360 69 d0 72 38 fc d8 9b b7 e7 9f ec 35 00 ce ed 34
       5.7891393e-05 -1.8578481e-05 1.7629908e-06 4.4294575e-07
000370 2d a7 5d 37 97 cf fc 37 e7 50 f9 37 32 2c 0d 38
       1.321155e-05 3.0137408e-05 2.9720786e-05 3.365818e-05
000380 f4 b8 ff 33 99 04 28 37 e1 5b c9 b6 02 c8 69 37
       1.19080056e-07 1.0014651e-05 -6.000963e-06 1.393445e-05
000390 98 78 28 b5 2a ba ff 37 d6 d1 fa 37 00 00 00 00
       -6.2760364e-07 3.0485058e-05 2.9900035e-05 0.0
0003a0 cd e3 ab 37 43 8d 0e b8 3a 77 62 39 3a 77 62 39
       2.0490867e-05 -3.3987e-05 0.00021597455 0.00021597455
0003b0 1b 5b 19 37 ee e0 f8 39 9a 83 93 b9 9d 34 ad 38
       9.140723e-06 0.00047469832 -0.00028136076 8.259083e-05
0003c0 e1 db b0 37 81 f4 d5 37 55 76 23 39 42 92 22 39
       2.1083224e-05 2.5505435e-05 0.00015588973 0.00015504009
0003d0 eb 40 11 38 d5 d7 81 39 06 5f a7 b8 bb 63 ec b6
       3.4631154e-05 0.00024765605 -7.98088e-05 -7.0449582e-06
0003e0 52 5a 82 37 04 cb d4 37 ba 6b 29 39 b8 45 27 39
       1.5539266e-05 2.5366906e-05 0.00016157227 0.00015952333
0003f0 c0 12 28 39 29 b7 1f 36 11 fb 26 38 11 6b 1b b8
       0.00016028713 2.379946e-06 3.9811308e-05 -3.7054593e-05

exp_avg_sq f4 [256, 29]
000000 13 53 0d 31 c3 b2 d4 31 ba f9 05 34 ba f9 05 34
       2.0565423e-09 6.190335e-09 1.247744e-07 1.247744e-07
000010 62 22 e1 31 e5 02 c7 33 f8 15 12 33 80 46 3e 33
       6.5522707e-09 9.267186e-08 3.4013254e-08 4.430194e-08
000020 94 46 0d 31 3e 24 d4 31 22 2e 06 34 30 17 06 34
       2.055832e-09 6.1741323e-09 1.2496506e-07 1.2488158e-07
000030 94 69 b5 32 d4 00 e2 33 97 16 0c 32 fc 20 b8 32
       2.1119185e-08 1.0524096e-07 8.154209e-09 2.1435419e-08
000040 72 1a 0d 31 5c fa d5 31 5d 0b 06 34 8f 03 06 34
       2.0533233e-09 6.2275785e-09 1.2483856e-07 1.2481017e-07
000050 19 19 53 33 bc 81 a5 33 ba b2 1b 31 f9 75 89 32
       4.9150092e-08 7.70701e-08 2.2657063e-09 1.6002547e-08
000060 10 8f 0f 31 cf b1 d5 31 ff 1d 06 34 a4 13 06 34
       2.089056e-09 6.2193304e-09 1.2490635e-07 1.2486868e-07
000070 00 00 00 00 b6 f0 a2 2f 50 e8 16 2f f0 d5 05 32
       0.0 2.9638664e-10 1.3724955e-10 7.790263e-09
000080 f0 d5 05 32 89 4f 03 30 5a b8 4f 31 72 f5 a7 31
       7.790263e-09 4.777055e-10 3.0227256e-09 4.8882436e-09
000090 6a c1 b4 31 37 49 a2 2f e3 f2 de 2f 88 d2 02 32
       5.260678e-09 2.951965e-10 4.0554146e-10 7.614865e-09
0000a0 0b 88 02 32 76 60 02 31 ed a7 67 31 aa ff 6e 31
       7.5979285e-09 1.8972321e-09 3.371038e-09 3.4778886e-09
0000b0 dd a7 92 31 63 4b b4 2f 1c 2a e6 2f 58 3c 01 32
       4.268243e-09 3.2795375e-10 4.1866677e-10 7.522509e-09
0000c0 f3 28 01 32 d6 a0 95 31 f3 2d ce 30 71 c6 01 31
       7.518099e-09 4.3547557e-09 1.5001532e-09 1.8884772e-09
0000d0 f7 96 7c 31 1b 5b 04 30 fa 9e 99 2f 24 fc 01 32
       3.675664e-09 4.815079e-10 2.7943498e-10 7.566118e-09
0000e0 89 aa 01 32 00 00 00 00 39 c6 69 30 09 00 e5 2f
       7.5475635e-09 0.0 8.50466e-10 4.1654882e-10
0000f0 b3 26 6e 31 b3 26 6e 31 94 c7 8b 30 e0 b9 26 31
       3.4655556e-09 3.4655556e-09 1.0170305e-09 2.4261837e-09
000100 19 fd bd 30 b5 10 da 30 e7 8f 69 30 00 8b 09 30
       1.3823495e-09 1.5866336e-09 8.4969404e-10 5.003784e-10
000110 67 c2 69 31 ef c5 69 31 c0 9d 05 31 17 ed 25 31
       3.4016467e-09 3.4018475e-09 1.9443718e-09 2.414543e-09
000120 14 13 19 30 71 ab 85 30 d6 be 6d 30 88 99 0b 30
       5.568819e-10 9.72575e-10 8.649129e-10 5.0786086e-10
000130 fa bc 66 31 4c f6 66 31 9d 44 63 31 dc b0 88 30
       3.3576826e-09 3.3609409e-09 3.307185e-09 9.945569e-10
000140 16 85 89 2f 04 55 4f 30 86 3b 81 30 27 fd f2 2f
       2.5014718e-10 7.5426976e-10 9.402903e-10 4.419942e-10
000150 6a 59 67 31 b7 49 67 31 00 00 00 00 5c 47 d0 2d
       3.366575e-09 3.3656826e-09 0.0 2.3678552e-11
000160 f4 7e e1 2f 92 a3 44 2f 92 a3 44 2f 83 77 00 2e
       4.1017467e-10 1.7884208e-10 1.7884208e-10 2.9209978e-11
000170 7f bf 12 30 68 96 8b 2d f9 02 0d 2e a7 0b d0 2d
       5.3386623e-10 1.5869264e-11 3.206233e-11 2.3652037e-11
000180 03 37 e0 2f 8f 57 3f 2f 95 9b 3f 2f 28 93 c2 2e
       4.078445e-10 1.7402456e-10 1.7426623e-10 8.848239e-11
000190 9c a2 07 30 66 eb 31 2d 74 3e 98 2d 31 06 d2 2d
       4.9343796e-10 1.0113554e-11 1.7308134e-11 2.3876985e-11
0001a0 4a 22 e1 2f 67 d3 3d 2f a9 0f 3e 2f ec b4 30 2f
       4.0951625e-10 1.7264555e-10 1.7285963e-10 1.6071383e-10
0001b0 6d 37 fa 2f ce ab d2 2c 58 37 72 2d 29 d1 d2 2d
       4.5514117e-10 5.987633e-12 1.3768396e-11 2.3967122e-11
0001c0 04 dd e1 2f 0c 3d 3e 2f de 4f 3e 2f 00 00 00 00
       4.1084303e-10 1.7302088e-10 1.7308774e-10 0.0
0001d0 ae b2 6d 30 4c 6a 48 30 67 5a 06 33 67 5a 06 33
       8.6474017e-10 7.2910633e-10 3.1281527e-08 3.1281527e-08
0001e0 d0 39 b0 30 f0 c7 7f 32 30 b1 97 32 37 4c a7 32
       1.2822117e-09 1.4888414e-08 1.765929e-08 1.9476017e-08
0001f0 81 a4 6c 30 28 6e b7 30 f8 d8 04 33 ad bd 04 33
       8.6090074e-10 1.3346311e-09 3.0930977e-08 3.0906154e-08
000200 42 3f 89 31 f5 02 c1 32 57 4c 1b 32 72 ca 65 32
       3.9944164e-09 2.2469502e-08 9.039545e-09 1.3375585e-08
000210 15 a1 81 30 93 e5 b5 30 72 fd 03 33 61 ff 03 33
       9.431768e-10 1.3234732e-09 3.073132e-08 3.073308e-08
000220 22 45 90 32 55 70 20 32 30 e6 bf 31 09 52 3f 32
       1.6795244e-08 9.338767e-09 5.585001e-09 1.1136316e-08
000230 35 37 b4 30 02 7d 86 30 0c 58 04 33 92 3a 04 33
       1.3112414e-09 9.785313e-10 3.0813723e-08 3.0786914e-08
000240 00 00 00 00 b7 20 33 32 40 0f 04 32 83 26 00 34
       0.0 1.042661e-08 7.686879e-09 1.193494e-07
000250 83 26 00 34 e5 0a 80 32 78 42 7d 33 db 8c 8b 33
       1.193494e-07 1.4906115e-08 5.8966606e-08 6.498313e-08
000260 37 89 98 33 18 be 32 32 0d 4f 17 32 60 44 ff 33
       7.103011e-08 1.0404186e-08 8.807331e-09 1.18868e-07
000270 62 05 ff 33 14 6a e1 32 1c cf cc 33 b7 5b c3 32
       1.1875342e-07 2.6241686e-08 9.537163e-08 2.2742695e-08
000280 0f f2 35 33 08 40 36 32 1e 65 1b 32 0c 70 fd 33
       4.2362498e-08 1.0608353e-08 9.045179e-09 1.1801612e-07
000290 2c 7f fd 33 9a 43 9b 33 4c f0 48 33 42 c0 3d 32
       1.1804363e-07 7.2300466e-08 4.6784677e-08 1.1044962e-08
0002a0 e2 e5 0d 33 2e 10 45 32 13 8b 10 32 b2 0e fe 33
       3.3038198e-08 1.1470588e-08 8.413525e-09 1.183047e-07
0002b0 ba e3 fd 33 00 00 00 00 77 f6 d7 2e ec 4f e7 31
       1.1822654e-07 0.0 9.820849e-11 6.732071e-09
0002c0 3b 43 b6 33 3b 43 b6 33 d4 d2 32 30 83 32 6a 33
       8.4872646e-08 8.4872646e-08 6.505563e-10 5.452831e-08
0002d0 87 6b 22 33 b1 9a 3b 33 62 18 dc 2e cd 3e f2 31
       3.781636e-08 4.368002e-08 1.0008773e-10 7.0502666e-09
0002e0 88 22 b7 33 dd ab b6 33 4d 8a aa 31 6c 9a a1 33
       8.527883e-08 8.506297e-08 4.963374e-09 7.525236e-08
0002f0 b3 2b 34 32 6d 21 c8 32 de a7 2f 2f a4 5c f6 31
       1.0487315e-08 2.3298265e-08 1.5975796e-10 7.1700743e-09
000300 21 52 b6 33 e2 2b b6 33 c8 8e 02 33 46 1f 52 33
       8.4899746e-08 8.483018e-08 3.0397842e-08 4.8922878e-08
000310 db 05 cb 31 d2 33 9c 32 36 8d ee 2f be 63 ec 31
       5.9087433e-09 1.8184355e-08 4.3392284e-10 6.8798434e-09
000320 55 57 b6 33 3c 38 b6 33 00 00 00 00 75 fe 81 2f
       8.490921e-08 8.4852644e-08 0.0 2.3645766e-10
000330 a9 74 70 30 c9 1b a3 33 c9 1b a3 33 43 39 e7 30
       8.7477275e-10 7.595333e-08 7.595333e-08 1.6823737e-09
000340 2c 65 14 33 37 8d 37 33 3b dc 49 33 f3 7b 81 2f
       3.455095e-08 4.2736442e-08 4.6999258e-08 2.3553035e-10
000350 2e 59 0c 31 31 d8 a1 33 25 ba a1 33 56 7e dc 31
       2.0423374e-09 7.536472e-08 7.531006e-08 6.4172054e-09
000360 95 62 6d 33 d8 33 ae 32 95 25 06 33 44 3d c1 2f
       5.5270522e-08 2.0279842e-08 3.1233487e-08 3.5150027e-10
000370 77 a0 10 31 9f e6 a0 33 08 e7 a0 33 7a e9 10 33
       2.1045972e-09 7.49253e-08 7.492605e-08 3.373996e-08
000380 87 f3 f4 32 de 84 46 32 75 0d dd 32 08 f4 98 30
       2.8516082e-08 1.1555327e-08 2.5733906e-08 1.1128813e-09
000390 17 f5 bd 30 a5 3b a1 33 2d 1e a1 33 00 00 00 00
       1.3821219e-09 7.507996e-08 7.502636e-08 0.0
0003a0 d1 5b 45 32 c4 e0 52 33 2e c6 8a 35 2e c6 8a 35
       1.1487786e-08 4.909886e-08 1.0339479e-06 1.0339479e-06
0003b0 07 e4 74 32 34 96 f0 34 3f 7c 30 35 f6 66 3e 35
       1.4254517e-08 4.481277e-07 6.574591e-07 7.0930344e-07
0003c0 e1 a0 44 32 32 74 7e 33 cd 0b 8a 35 2f f8 89 35
       1.1445281e-08 5.9244663e-08 1.0285236e-06 1.0279526e-06
0003d0 a7 6f 88 33 4c d1 79 35 d2 13 38 34 0e 76 d7 34
       6.353303e-08 9.3064295e-07 1.7143546e-07 4.0132767e-07
0003e0 7d df 4d 32 76 35 83 33 1c 9c 89 35 3d 91 89 35
       1.1983386e-08 6.109887e-08 1.0252729e-06 1.0249565e-06
0003f0 b6 f2 24 35 11 4d d0 34 c3 a3 8a 33 c6 05 a0 34
       6.144795e-07 3.8799092e-07 6.455914e-08 2.9806523e-07

exp_avg f4 [256]
000000 3d fb 5c b8 9f da 76 b7 fd 4b 75 b7 85 0a 6d b6
       -5.268607e-05 -1.4713644e-05 -1.462083e-05 -3.5321875e-06
000010 77 ab 2a 38 83 87 58 38 cf 8c 1b b8 7f bb 37 38
       4.0690848e-05 5.162462e-05 -3.7086018e-05 4.380522e-05
000020 11 50 54 39 df d0 e7 b6 ae e3 a9 b7 96 81 c2 b8
       0.00020247723 -6.9086523e-06 -2.0252392e-05 -9.274778e-05
000030 80 85 0b 39 a0 e8 a9 b8 4a d5 10 b7 68 98 7c b8
       0.00013305806 -8.101878e-05 -8.632729e-06 -6.022342e-05
000040 34 a3 6b 38 a2 09 80 b8 00 b4 28 37 3d b2 03 37
       5.618036e-05 -6.10531e-05 1.005549e-05 7.849708e-06
000050 15 ac c3 38 51 f2 a0 37 a0 6b 67 b8 2b 21 70 b8
       9.330377e-05 1.9186324e-05 -5.5174925e-05 -5.725135e-05
000060 b7 82 96 b7 e4 c5 73 b8 99 cc 40 b9 dc 80 95 36
       -1.7942262e-05 -5.8120015e-05 -0.00018386765 4.4555472e-06
000070 f7 e4 b3 38 d0 38 45 b8 5f af 47 b8 67 ab 2c 38
       8.578033e-05 -4.702137e-05 -4.7608624e-05 4.1167626e-05
000080 4d 15 44 b9 b7 d2 ca b8 79 47 be b8 1e 3f c5 b7
       -0.00018699952 -9.671359e-05 -9.073219e-05 -2.3513621e-05
000090 7f 41 d2 b8 c7 70 02 39 10 91 7a b8 d3 90 ef b8
       -0.0001002578 0.00012439779 -5.9739745e-05 -0.00011423384
0000a0 48 89 4b b8 ca 03 01 b9 2c 53 5a b5 d9 02 3f 37
       -4.8526825e-05 -0.0001230381 -8.133236e-07 1.138515e-05
0000b0 b6 a1 0b b7 e6 56 34 39 72 2c 0f b9 d7 e3 ba b7
       -8.322697e-06 0.0001719851 -0.000136541 -2.2279024e-05
0000c0 50 28 52 36 b2 8d f6 b8 c9 a5 89 b8 23 a9 9c b6
       3.1315903e-06 -0.00011756587 -6.563549e-05 -4.6688524e-06
0000d0 4d 82 d6 b8 a3 73 e4 b8 56 16 aa b7 9c 3a 12 b9
       -0.000102285856 -0.00010893426 -2.027598e-05 -0.00013945479
0000e0 2b 83 8e 38 89 0c d5 b7 99 40 17 b8 53 f9 91 b7
       6.7955196e-05 -2.5397416e-05 -3.6061367e-05 -1.7401448e-05
0000f0 de 6e 72 b8 7f 1a 86 b6 92 79 81 35 34 e7 08 b6
       -5.780055e-05 -3.9965958e-06 9.646631e-07 -2.0400157e-06
000100 28 c1 9f 38 31 ed 62 b9 97 3c 0e b9 bf 32 09 39
       7.617689e-05 -0.000216414 -0.00013564747 0.00013084243
000110 5c 1c 91 38 50 57 0d 38 6d d3 0d 38 81 da e3 35
       6.919421e-05 3.3698336e-05 3.3813925e-05 1.6976411e-06
000120 9a 5f da b8 3c 6f 05 39 04 8e 82 36 15 37 7b b8
       -0.00010412857 0.00012725306 3.8908347e-06 -5.9894362e-05
000130 77 a1 b5 b8 eb ce 80 37 b7 ee 6b 38 d6 c9 59 38
       -8.660828e-05 1.5355143e-05 5.6250687e-05 5.1924806e-05
000140 e0 15 a6 b8 6c 1f 8b b7 f8 c5 b8 b7 f7 4d 01 b9
       -7.919571e-05 -1.6584723e-05 -2.2026696e-05 -0.00012331443
000150 ea e4 05 b7 2d 8d d9 b7 ba 55 02 b7 57 f3 12 38
       -7.980716e-06 -2.5934156e-05 -7.768564e-06 3.503574e-05
000160 12 7a 29 b9 b3 bf 89 38 24 38 83 b8 b7 c2 bf b7
       -0.0001616257 6.568376e-05 -6.257024e-05 -2.2859645e-05
000170 d2 3c 98 b8 81 03 23 b9 76 5c 6c 38 bf 9e 83 38
       -7.2592535e-05 -0.00015546197 5.6352896e-05 6.2761355e-05
000180 1b 57 cf b8 fb 3e a3 38 6e f1 04 38 82 67 95 b8
       -9.886754e-05 7.784177e-05 3.16961e-05 -7.1241535e-05
000190 3e 49 86 38 19 f3 3b b7 6b 0e e1 b7 f9 aa f6 b7
       6.40326e-05 -1.1202669e-05 -2.6828804e-05 -2.94051e-05
0001a0 cd 2b 2a b7 0a 95 f0 b6 ed 60 11 38 fd ae 43 b7
       -1.0142988e-05 -7.169908e-06 3.4660963e-05 -1.1663648e-05
0001b0 8b 7f ea b6 5f 4c 09 38 a1 e7 80 b8 bd c3 0c b9
       -6.9885914e-06 3.273447e-05 -6.14666e-05 -0.00013424359
0001c0 66 17 46 b7 95 90 4d b5 29 8d fd 36 6f 99 1d b9
       -1.18071675e-05 -7.6578846e-07 7.5564208e-06 -0.00015029845
0001d0 39 a9 11 b9 c0 1e 7c b8 16 69 b8 b6 35 bf 74 b7
       -0.00013891318 -6.011012e-05 -5.495861e-06 -1.4588052e-05
0001e0 94 b0 41 b6 d1 62 50 36 7e 8e 47 b8 f6 56 6d 38
       -2.8862023e-06 3.1051934e-06 -4.7578003e-05 5.6586192e-05
0001f0 44 06 54 b9 42 35 eb b4 da b2 ed 38 80 75 27 36
       -0.0002022023 -4.381091e-07 0.00011334354 2.4953333e-06
000200 79 15 af 34 be 52 61 b8 b1 11 71 38 0f da 99 38
       3.2611914e-07 -5.372124e-05 5.7475354e-05 7.336225e-05
000210 37 8a 35 37 9f 43 83 38 e8 50 30 b9 1a 41 e1 b7
       1.0820621e-05 6.259162e-05 -0.00016814808 -2.6852405e-05
000220 34 1d 51 38 f5 88 87 36 45 64 15 b4 a7 cc a8 b8
       4.985668e-05 4.0392574e-06 -1.3913184e-07 -8.048984e-05
000230 a8 0c 39 b8 ef 61 32 b8 0f da 70 37 b0 80 05 38
       -4.4119224e-05 -4.2529715e-05 1.43558855e-05 3.182952e-05
000240 b5 81 0d b8 47 87 0a b7 43 fc 25 38 a6 1a a9 b7
       -3.373782e-05 -8.256938e-06 3.9574003e-05 -2.0158779e-05
000250 6d 7a 00 b8 a3 dd bf b8 bc 99 98 b7 f6 ba db b5
       -3.0631596e-05 -9.148873e-05 -1.81914e-05 -1.6371184e-06
000260 ab 3e af b5 2f fa f7 37 f1 4d 00 38 e8 87 fc b6
       -1.3056755e-06 2.9561195e-05 3.0590167e-05 -7.526007e-06
000270 b5 80 62 b8 d4 f0 9f b8 a7 d0 37 b9 50 3a 88 b8
       -5.4002467e-05 -7.6265685e-05 -0.00017529969 -6.495847e-05
000280 bd 0f 2c 38 c1 0d ef 36 37 61 f1 38 6d 09 0d 39
       4.1022653e-05 7.124356e-06 0.00011509883 0.00013450319
000290 6c e8 81 b8 fe 4f 16 b8 aa ca b4 38 d9 3f f7 38
       -6.194491e-05 -3.5837285e-05 8.620818e-05 0.0001178977
0002a0 e6 83 d3 b7 70 4a 16 34 b9 41 df 38 c1 08 49 b8
       -2.521458e-05 1.3996919e-07 0.000106457104 -4.7930287e-05
0002b0 ba 49 58 b8 41 f9 5e 38 12 08 8f b8 7e 6f 38 37
       -5.1567076e-05 5.316106e-05 -6.8202746e-05 1.0993213e-05
0002c0 08 31 05 39 77 83 e8 37 c7 3f 26 39 39 1b 52 b8
       0.00012702134 2.7717773e-05 0.00015854753 -5.0093255e-05
0002d0 26 94 f9 37 cf a4 05 39 1d 36 63 38 48 cc ba b4
       2.97521e-05 0.00012745264 5.4171414e-05 -3.4793834e-07
0002e0 f3 b8 d3 b7 2a c3 9f 37 79 10 46 b8 c2 3c 08 b9
       -2.5239284e-05 1.9045157e-05 -4.722222e-05 -0.00012992605
0002f0 71 10 ad 35 73 8e ec b8 0c f1 6d b8 4c e8 b2 b8
       1.289429e-06 -0.0001127989 -5.6729696e-05 -8.53097e-05
000300 90 c5 8b b7 7a ab a9 b7 00 e2 37 b4 5a 9b 95 b8
       -1.6662088e-05 -2.022622e-05 -1.7125421e-07 -7.13381e-05
000310 13 a4 a5 b8 99 b1 67 b8 c3 20 40 37 35 7a 4f b7
       -7.898374e-05 -5.5240092e-05 1.145172e-05 -1.2366615e-05
000320 19 ff 04 38 90 fa 02 b9 93 81 20 b7 3d ee ff b7
       3.170883e-05 -0.00012491108 -9.566912e-06 -3.0509307e-05
000330 25 84 3e b7 9b 8b 79 b9 c2 d8 dd 37 9d b5 7a b7
       -1.135565e-05 -0.00023798498 2.6446189e-05 -1.4943446e-05
000340 f4 8a 38 b8 2e 23 cb b7 be 44 16 b9 74 19 f2 b8
       -4.399843e-05 -2.4215868e-05 -0.00014330723 -0.000115442
000350 4f 36 13 b7 ac 74 ed 37 a4 1c 05 b9 f5 6c b6 37
       -8.7745275e-06 2.8306931e-05 -0.00012694538 2.1746828e-05
000360 0e 5f 4f 39 e8 87 f8 37 ac 49 a3 b8 13 02 76 b7
       0.00019776469 2.962719e-05 -7.786168e-05 -1.4663226e-05
000370 8a 9a 14 b7 d6 7d 92 37 3b db 43 b9 c4 98 a1 38
       -8.857469e-06 1.7463153e-05 -0.00018678319 7.705533e-05
000380 8c 18 0b 39 ca f4 7b 36 95 80 88 b8 c2 5d 0f 39
       0.00013265217 3.75444e-06 -6.5089356e-05 0.0001367247
000390 f1 c0 20 b8 ee 39 c8 38 b5 ba 13 b7 dd 74 0d b9
       -3.8326663e-05 9.5475334e-05 -8.805354e-06 -0.00013490343
0003a0 fe 42 50 b7 f4 05 05 39 aa 72 95 b8 89 c5 df b8
       -1.2413364e-05 0.00012686086 -7.1262315e-05 -0.000106702624
0003b0 10 2a 77 b8 13 ab 00 39 12 60 a2 38 56 58 37 39
       -5.8928563e-05 0.00012270761 7.7426565e-05 0.00017485148
0003c0 d2 45 e5 b8 cc e0 1f b7 76 28 bf 38 d7 a9 ae b7
       -0.00010932576 -9.529478e-06 9.115126e-05 -2.0821504e-05
0003d0 30 b0 1b b8 7e 8e 99 38 34 64 7d 38 d7 00 52 38
       -3.7118967e-05 7.32215e-05 6.0413222e-05 5.0068684e-05
0003e0 8e 16 24 b9 74 7d d5 38 23 ed 98 38 2c 72 80 b7
       -0.00015648661 0.00010179999 7.292095e-05 -1.5311954e-05
0003f0 15 da 6a 35 9c 82 7d b7 1b a9 8d b6 e3 3d 9a b8
       8.7489144e-07 -1.5110385e-05 -4.221814e-06 -7.3548195e-05
