ml-agents-release_20/Result/Dino/Dino05/Dino/Dino-867219.pt (torch, 205607 bytes, 21 tensors)

network_body._body_endoder.seq_layers.0.weight f4 [256, 29]
000000 09 42 df be d5 1b 89 be e3 bf d7 3c 83 71 4e 3d
       -0.43605068 -0.26779047 0.026336616 0.050401222
000010 05 6b 6e 3e 88 d6 17 3e 56 77 9b 3c 02 e0 90 be
       0.23283012 0.14827931 0.018977802 -0.28295904
000020 ac e3 b9 3d c1 f7 4d bc 9a 6b 39 bd 7c 8c 62 3e
       0.09076628 -0.012571276 -0.045268632 0.22123903
000030 a6 c0 04 3f 38 e0 92 bc 98 dc 02 bd d8 16 34 be
       0.5185646 -0.017929181 -0.031948656 -0.17586839
000040 f1 2c 34 be 70 6f 8d bd 44 aa 46 be e1 ba 63 bc
       -0.17595269 -0.06906021 -0.19400889 -0.013899536
000050 35 e4 29 3e 15 3b 04 3f d0 fd 60 be 3b 56 93 bd
       0.1659096 0.5165265 -0.21971822 -0.071941815
000060 b4 fa 89 be e5 06 e4 bc 49 14 01 3e f5 86 27 3e
       -0.26949084 -0.027835319 0.12605394 0.16360076
000070 82 2a ec 3d 40 82 0c 3c ff 0c da bd 05 ed d1 bc
       0.11531545 0.008575976 -0.1064701 -0.025625715
000080 6d 6f ec ba 67 b1 a1 bd b3 07 f3 3c d8 6c 6d 3c
       -0.0018038579 -0.07895165 0.029666757 0.014491282
000090 f7 38 cb 3d 74 3a 92 be f8 21 ce 3d 0e dd 76 be
       0.099229746 -0.2856022 0.10065073 -0.24107763
0000a0 81 39 26 3d 71 3d 0b 3e c0 15 cb be dc f7 47 bd
       0.040582184 0.13597657 -0.3966503 -0.04882036
0000b0 6c c6 7e 3e 7c 4e 11 3e 32 b3 20 bd c0 e2 57 bd
       0.2488038 0.14190096 -0.039233394 -0.05270648
0000c0 df cc 26 be 8c 0f 1d 3c cd bc 05 be 8d 77 13 bd
       -0.1628909 0.009586226 -0.13060303 -0.036002684
0000d0 5e a2 3c 3d cf c2 cf 3d c1 5a 6e 3d 90 dd 57 3e
       0.046053283 0.10144579 0.05819202 0.21080613
0000e0 55 67 ce 3d 68 8d 1f be cd 83 54 be d5 de bf bd
       0.10078303 -0.15581286 -0.20753403 -0.09368674
0000f0 e6 4f 5d 3d 27 06 18 be b9 24 b9 3d 07 34 36 3e
       0.054031275 -0.14846097 0.090402074 0.17793284
000100 4a 21 0e 3e a6 d9 84 bd 79 fd 57 be ce 40 b2 bd
       0.13879886 -0.06486826 -0.21092786 -0.08703767
000110 a2 2e 45 bb e7 d4 b0 bd 1f 37 a8 3e c1 f6 60 bd
       -0.003008761 -0.08634358 0.32854554 -0.054922823
000120 d9 d9 2e 3d a7 08 f9 bd 26 2a 66 bd 98 7c 1e be
       0.042688224 -0.121598534 -0.05619254 -0.15477216
000130 f4 20 ee be 0e 88 35 3e 56 0c 30 3e a6 13 14 be
       -0.46509516 0.17727682 0.17192206 -0.1446062
000140 cb bc 49 be c4 4c bc 3c 5a 5b d8 3e 25 b9 84 3d
       -0.19700925 0.022985823 0.42257196 0.06480626
000150 dd 55 15 3d 4f 27 60 be 7f c6 fb bc fa e8 7e be
       0.03645884 -0.21889995 -0.030734299 -0.24893561
000160 fe fe 7c 3e 27 be e8 3d a1 26 3a 3c 56 ff c6 be
       0.24706647 0.11364394 0.011361749 -0.3886668
000170 c9 5a 12 be 3e 2a 88 be d5 45 67 be ce fb 61 b9
       -0.14292444 -0.26594728 -0.22585233 -0.00021551477
000180 04 e0 d5 3d 87 f2 94 3e 88 63 37 be fa 4a 52 3e
       0.10443118 0.29091284 -0.17909062 0.20536414
000190 48 f8 a7 3d de dc 48 be 67 16 53 bd 0e 6e ec 3c
       0.08201653 -0.19615504 -0.051535036 0.028861072
0001a0 7d 4f e0 bd 89 8d b0 bc d1 63 7c be 18 69 91 bd
       -0.10952661 -0.021551864 -0.24647452 -0.07100123
0001b0 ea ee 94 be 3b 10 3a 3d bf 2e 31 be 9b c5 d3 bd
       -0.29088527 0.045425635 -0.17302988 -0.103404246
0001c0 22 ac 6c 3e 5f af 2a be d2 12 52 bb 96 10 93 bd
       0.23112538 -0.16668461 -0.0032054675 -0.07180898
0001d0 44 17 65 be 36 97 a6 bd 70 53 46 be b9 4d d1 3d
       -0.22372156 -0.0813431 -0.19367766 0.102199025
0001e0 de ce 28 be 42 59 13 be 26 90 6e 3c 44 6a 40 3e
       -0.16485164 -0.14389518 0.014560735 0.18790537
0001f0 55 42 5c 3d d2 cb 9a 3e 67 94 3c 3d 1d 5f c5 be
       0.053774197 0.30233628 0.046039965 -0.38549128
000200 8f 39 c5 3d 82 ec ec 3d 78 b6 7b bd 65 4f 34 3e
       0.09630119 0.11568548 -0.061453313 0.17608412
000210 2e ce a0 3e b5 1b 00 3e 20 b6 31 3e b0 83 42 3e
       0.31407303 0.1251057 0.17354631 0.18995547
000220 11 d4 7f 3d a4 2f 84 be 38 b4 85 3e a3 cc 6c 3e
       0.0624581 -0.25817597 0.26114058 0.23124938
000230 82 c9 ae 3c cd 54 a1 be 86 74 0f 3e f3 0c 78 3d
       0.02133632 -0.3151001 0.14009294 0.060559224
000240 df c8 bb 3d 3e 20 f9 bd 9b 52 90 3e 41 01 e3 3d
       0.091691725 -0.12164353 0.28188023 0.110842235
000250 dd 62 41 bc 1d ff ca 3e 11 cb 56 be a7 4e 74 3e
       -0.011803356 0.3964776 -0.20975901 0.23858128
000260 6e c9 8a 3e 30 e5 85 3e 9d 75 1b 3d b7 b3 33 3e
       0.27106804 0.2615142 0.03795396 0.17549025
000270 bb 56 a6 3e 71 32 21 3e 02 fb 0f bb 6e 53 b1 bd
       0.32488045 0.15741898 -0.002196968 -0.08658491
000280 a1 fd 2d 3e 57 85 35 3e ce 9f fd bd 81 72 ca bc
       0.16991283 0.17726646 -0.12383996 -0.024712803
000290 00 33 89 be d4 2d 67 3e 44 5b a8 3d ef 4e 0d bd
       -0.26796722 0.22576076 0.082205325 -0.034499105
0002a0 da f1 94 be 0e fe 2b 3d 82 ba c0 3c 89 34 0b be
       -0.29090768 0.041990332 0.023526434 -0.1359426
0002b0 4f 87 0f be 9e 44 00 3e c8 1b 00 be 4c 10 36 bd
       -0.1401646 0.12526175 -0.12510598 -0.044449136
0002c0 69 09 73 3e f3 ff 8d 3e f7 5c b4 be a0 c0 0c 3f
       0.23734058 0.27734336 -0.35227177 0.5498142
0002d0 2c e7 29 be a1 18 93 3e b6 54 6a ba fd 1a 13 3e
       -0.16592091 0.28729728 -0.00089390145 0.14365764
0002e0 11 a0 03 3e 3c fc 00 be ec f5 c2 3c 22 7e bc 3e
       0.12854029 -0.1259622 0.023798905 0.36814982
0002f0 55 17 f9 bc 12 96 e0 3d 1c 28 4a 3d 40 9a 21 3e
       -0.030406633 0.10966124 0.049354658 0.15781498
000300 64 3d 34 be 2e d8 53 be 4c 03 8f bd 52 fb d2 3d
       -0.17601544 -0.20687935 -0.06983051 0.10301842
000310 58 f3 cf bd 6a 83 fd bd 07 9e 0d be f3 1c c9 bd
       -0.10153836 -0.12378581 -0.13829814 -0.09819975
000320 19 18 a6 3e e4 ff 32 3d 94 52 9c 3e 57 16 3c 3c
       0.3244026 0.043701068 0.30531752 0.011479936
000330 1d 6f 01 be 79 34 d3 3b 88 ac 2c 3e 95 f7 d8 3d
       -0.12640043 0.006445464 0.1686269 0.105940975
000340 f2 90 36 be 21 22 0c 3e c8 ec 4e 3e 9c 89 ef be
       -0.1782873 0.13684894 0.20207512 -0.46784675
000350 de b0 ff 3d ed 67 03 bd e4 d6 1d be 26 2d d6 bd
       0.124849066 -0.032081533 -0.15414006 -0.1045783
000360 c5 f5 11 bd 89 ad d2 bd 22 b0 48 3e fa 6b bc be
       -0.035634775 -0.102870055 0.1959844 -0.3680113
000370 df de ad 3c a7 8b de bd da a9 6f 3e fa 5c 8f 3d
       0.021224437 -0.1086648 0.23404637 0.07000156
000380 77 7f 1b bb 00 10 0d 3e 6d 00 03 3e 19 9f 25 3e
       -0.0023727098 0.13775635 0.12793131 0.16173972
000390 1e 49 7d be d5 8e c2 bc 74 f1 8b 3e 68 e1 5e bd
       -0.24734923 -0.023749748 0.27332652 -0.054414183
0003a0 35 50 c1 3d f9 0c 4d be 98 a3 f0 3d 4f 47 b2 bd
       0.094391264 -0.2002448 0.11749953 -0.08705007
0003b0 e7 db df be 76 0a 59 be 89 77 04 3f 2c 43 06 3f
       -0.4372246 -0.21195397 0.51744896 0.52446246
0003c0 53 12 fe 3d 38 99 0f be 93 61 be be 83 70 2d 3d
       0.12405839 -0.14023292 -0.37183818 0.042343628
0003d0 28 4a 9a bc 92 c0 9d 3e cd 59 ac be 8a 8e c5 3e
       -0.018834189 0.30810982 -0.33662263 0.3858531
0003e0 0d 16 03 bf 17 79 cd 3c 38 8e 39 be 7f e8 07 be
       -0.5120552 0.025082154 -0.18120658 -0.13272284
0003f0 4e 0a d7 3e 26 84 25 3e d1 3a 9d be 14 c5 26 be
       0.4200005 0.16163692 -0.30708936 -0.16286117

network_body._body_endoder.seq_layers.0.bias f4 [256]
000000 4b 47 81 3c f2 81 9c 3b a2 15 8d 3c 5a e2 09 3d
       0.015781065 0.004776233 0.01722223 0.03366313
000010 1b d4 a2 3b da 18 98 3c 57 39 9b 3a ec c1 14 3c
       0.0049691326 0.018566538 0.001184265 0.009079438
000020 7f 4f 48 3d a1 38 6f 3c 15 7d fa 3c 22 7d 8b 3c
       0.04890394 0.014600904 0.030577222 0.017027441
000030 fa de d2 3c e0 74 ab 3c a2 74 b7 3c c1 32 aa 3c
       0.02574109 0.020929754 0.022394482 0.020776154
000040 22 49 11 3d f5 b5 5d 3c 4e be 80 3c 3f cd 15 3d
       0.035470136 0.0135321515 0.015715744 0.03657269
000050 75 0e 18 3c da 6b ac 3c 83 65 22 3c 8a 74 25 3c
       0.009280791 0.021047521 0.009911898 0.010098586
000060 06 87 ac 3c 97 07 cd 3c 7c bd 40 3d 71 45 1e 3c
       0.021060478 0.025028033 0.047055706 0.009660111
000070 a6 1a 83 3c 4f cb 8a 3b 54 a1 fc 3c 8f 8d 04 3d
       0.016003918 0.004235662 0.030838646 0.032361563
000080 5b 35 e7 3c 7c 71 9c 3c 20 9b 94 3c 88 d6 21 3c
       0.028223684 0.019097082 0.018140376 0.009877808
000090 0f f7 94 3c e3 ff e5 3c 45 bb 14 3c cd f1 d6 3c
       0.018184213 0.028076118 0.009077852 0.026238346
0000a0 41 40 15 3c a6 40 66 3d 0b c5 0c bc d2 c1 c4 3a
       0.009109558 0.056213997 -0.008591901 0.0015011376
0000b0 ce d6 d7 3c 8d 3f 3b 3d a8 c2 b9 3c 50 63 bf 3a
       0.026347544 0.045714904 0.022675827 0.0014601741
0000c0 bf 52 92 3c bc a0 d3 3c d1 80 85 3c 00 b0 36 3c
       0.017861722 0.02583348 0.016296776 0.01115036
0000d0 a6 3b 08 3d d4 d3 53 3d 3e 2a 3d 3b 6a cd 96 3c
       0.03326001 0.051715687 0.002886429 0.018408496
0000e0 ad d7 22 bb 96 bc 78 bb 85 45 61 3c 59 4a 07 bc
       -0.002484779 -0.0037954203 0.013749485 -0.008257472
0000f0 92 b6 a5 3c 53 2c ba 3c 2e 80 f9 3b 92 93 c8 bb
       0.020228658 0.022726214 0.007614157 -0.0061211074
000100 d6 35 3d 3b 00 79 32 3d f2 a7 c1 3c b1 9e e5 3c
       0.00288712 0.043572426 0.023639653 0.028029772
000110 1f 1c 97 3c 3a 12 f0 ba a6 95 57 b9 dc c8 a5 bc
       0.018446026 -0.0018315979 -0.00020559746 -0.020237379
000120 1c 07 bf 3c 06 a5 f0 3c ad 19 5c 3d 57 09 d6 3c
       0.02331882 0.029375564 0.053735424 0.0261275
000130 38 59 31 3d 93 84 be bb 35 7c 13 3c d6 23 75 3c
       0.043297976 -0.005814144 0.009001781 0.014962157
000140 0a f3 9f 3c 9a d3 92 3c 23 8b 01 3d be b9 0f 3d
       0.01952507 0.017923165 0.03162683 0.035089247
000150 35 29 34 3b 49 05 48 3d d0 9e b5 3c 59 b8 cb 3b
       0.0027490382 0.048833165 0.022170454 0.0062170443
000160 1f 52 28 3d bf 52 4e 3b d9 95 38 3c a4 52 81 3c
       0.04109394 0.0031482426 0.011266195 0.015786476
000170 e3 ca 30 3d fa dd 0d 3d 98 cd 10 bb ec 5d 03 3d
       0.043162238 0.03463552 -0.00220952 0.032071993
000180 68 3e b0 3c bf 0c 42 3c 5c a3 51 3d 5e 5a 72 3c
       0.021514133 0.011843859 0.051181182 0.014792053
000190 da 5c 83 3c b9 76 8d 3d 33 31 1c bc 57 a0 79 3c
       0.016035486 0.0690741 -0.009533214 0.015235982
0001a0 b5 3a 4f bb 02 0c 8d 3a c8 1e c1 3b 4c 01 54 3b
       -0.0031620685 0.0010761025 0.005893562 0.0032349406
0001b0 3b d8 53 3c 83 b0 1b 3d e6 8c b5 3c 77 7f 49 3c
       0.012929971 0.03801013 0.022161912 0.012298456
0001c0 64 e1 3a bb 7a c1 85 bc 7d 14 73 3c a0 1f 92 3c
       -0.002851569 -0.016327608 0.014836428 0.017837346
0001d0 f6 93 28 3d ad d2 ff 3c 6d 46 bb ba e0 18 d5 3c
       0.04115673 0.031228388 -0.0014287956 0.026012838
0001e0 0a 15 cb 3c 30 b6 2c 3d c3 7e e6 3c 80 9b 1c 3d
       0.024790306 0.042165935 0.028136617 0.038234234
0001f0 81 a7 37 3d 9e 50 9d 3c 2f 9f 50 3d ba 30 11 3b
       0.04483748 0.01920348 0.05093306 0.0022154287
000200 5a d1 09 bc a6 ae 66 3c 31 a0 a1 3c 75 b3 17 3c
       -0.00841173 0.014079725 0.019729706 0.0092590945
000210 ca 72 92 3c ea 02 e9 3c c4 6e ef 3c 21 ad 94 3c
       0.017877001 0.028443772 0.029227622 0.01814896
000220 d5 92 3d 3a c0 d0 65 bb 1b 9d 9f bc f6 99 ea 3c
       0.00072316575 -0.0035067052 -0.019484093 0.028637867
000230 3f 12 52 3c dd 44 90 3d 0d b1 c7 3b 8d 4e 98 3c
       0.012821733 0.07044385 0.006094104 0.018592143
000240 3e 80 42 3d c7 8b e6 3c d9 f0 90 3c 60 72 99 3b
       0.047485583 0.028142823 0.01769297 0.004682824
000250 ce 8d 2a 3b 08 5f d4 3c 52 11 75 3a 0f 60 9f bb
       0.0026024464 0.02592422 0.0009348589 -0.004863746
000260 ed 00 9d 3c 32 bf 07 bb 8c d1 21 3c 3d 5f e6 3b
       0.01916548 -0.0020713327 0.00987662 0.0070303963
000270 db 3c 4a 3c b3 63 96 3c 71 01 85 3d ee 30 86 3d
       0.012343611 0.018358087 0.064944156 0.06552301
000280 4c 3d 2b 3c 96 ae 62 bc 94 1c c5 3c 48 70 15 3d
       0.010451626 -0.01383557 0.024061479 0.036484033
000290 8b c1 3f 3c 0c 15 0b 3d ac 5c 29 3c 88 11 3c 3d
       0.011703859 0.03395562 0.010337036 0.045915157
0002a0 6c d6 55 3c 82 36 30 bc 6f 2b be 3c d9 70 a6 3c
       0.01305161 -0.010755183 0.02321407 0.020317482
0002b0 32 53 74 3c 78 ef 2d 3b e2 8b dd 3b 7f 87 59 ba
       0.014912413 0.002654044 0.00676106 -0.00082980836
0002c0 13 41 2a 3d 0b 65 47 3d 35 0d d4 3c 49 45 7f 3c
       0.041565966 0.048680346 0.025885204 0.015580484
0002d0 bd 2c 66 3c d7 e8 6f 3d a0 0b 75 ba ea 30 b3 38
       0.014048752 0.058571663 -0.00093477406 8.544496e-05
0002e0 3b af 5a bb a1 3c 86 bc 98 d8 9f 3c 1e 52 0b 3d
       -0.0033368606 -0.016386332 0.01951246 0.03401386
0002f0 4b 6e 53 3c 11 d3 54 3d b4 b7 56 3c 1c bb 97 3c
       0.012904714 0.0519591 0.013105322 0.018521838
000300 78 90 22 3d 67 b1 df 39 7e 4b f1 b9 a2 1b 09 3d
       0.039688557 0.0004266605 -0.00046023348 0.03347362
000310 25 7d 07 3d 7d 75 c4 3c 4f 48 01 3c 1d 45 ff ba
       0.03307833 0.023981804 0.007890775 -0.0019475553
000320 6c 37 f2 bb 92 98 6c 3d b0 3f 11 3d 24 22 bf 3c
       -0.0073918607 0.05776269 0.035461128 0.02333171
000330 c2 34 e0 3b 49 70 0c 3d 59 e2 a8 3c 94 96 b8 3b
       0.0068422267 0.03428677 0.020615743 0.0056331847
000340 c2 9d 33 3d d4 ca bc 3c 32 fc 2d 3d b2 0f 22 3d
       0.04385162 0.023045935 0.04247684 0.03956575
000350 94 ad 77 3c f8 8a 46 ba 13 be c1 3c fc f7 9f 3b
       0.015117068 -0.00075738085 0.023650205 0.004881857
000360 c2 48 6e 3d a0 42 69 3c e0 8c a1 3c 5e b4 c5 3c
       0.058174856 0.014237076 0.019720495 0.024133857
000370 8c 51 56 3c 58 81 08 3d 58 d4 3b 3d 00 4e 81 3c
       0.013080966 0.033326477 0.045856804 0.015784264
000380 d6 b3 cf 3c b3 7d e3 3b 3f 3f ba 3c e1 ef c4 3c
       0.025354307 0.0069424747 0.022735236 0.024040164
000390 34 5b 88 3c f7 52 da 3c 11 21 05 3d 75 f3 16 3d
       0.016645052 0.026650889 0.032502238 0.036853272
0003a0 a7 cb 09 3d 80 66 96 3c 31 31 57 3c 96 45 bd 3c
       0.033641484 0.018359423 0.013134287 0.02310447
0003b0 ac c7 e8 3b 99 90 ae 3c fa ca 87 3c 06 b7 f1 3c
       0.007103881 0.021309184 0.016576279 0.029506218
0003c0 15 0f 93 3c ba b0 95 b9 08 2f a0 3b b6 ea ff 3b
       0.017951528 -0.00028551166 0.004888419 0.007809962
0003d0 d1 40 b8 3c c1 27 04 3d ab 79 98 3c 34 dd e6 ba
       0.022491844 0.032264475 0.018612703 -0.0017613531
0003e0 7f 60 66 3d 4b 2e 43 3c f7 de e3 3b 06 2d 79 3d
       0.05624437 0.011912893 0.0069540697 0.060833953
0003f0 d5 1e d5 bc 28 34 db 3c ce af ba bc 17 2e 2c 3c
       -0.026015678 0.026758268 -0.022788908 0.010509036

action_model._discrete_distribution.branches.0.weight f4 [2, 256]
000000 d4 c0 3a bd 4b 0e 73 bc 0a 92 73 bc 59 dd ce ba
       -0.04559405 -0.014834951 -0.014866361 -0.001578252
000010 bc 64 03 3d a5 a3 6d 3d 53 7c b4 bc 09 3e 2d 3d
       0.03207849 0.05801739 -0.022031939 0.04229549
000020 3b 95 0c 3e 2c 05 28 bc fb 01 c1 bc 26 79 2e bd
       0.13728802 -0.010255139 -0.023560515 -0.042596005
000030 db 2d 85 3d 5a 99 9c bd 1b 2d ea bb 67 96 18 bd
       0.06502887 -0.07646437 -0.0071464903 -0.03725281
000040 07 13 aa 3d 8a 59 2d bd bd 25 a5 3c 32 71 49 3d
       0.083044104 -0.04232172 0.020159597 0.049180217
000050 21 1d cb 3c eb 96 4d 3c b9 be e5 bc 7e 89 3d bd
       0.024794163 0.012548189 -0.028045045 -0.0462737
000060 f1 9d ca bc 3a 1d 72 bd 07 93 c2 bd c4 5b 17 3d
       -0.024733515 -0.059109904 -0.095006995 0.03695275
000070 fd df 72 3d 8d e7 ca bc c7 96 37 bd 7a cc 55 3d
       0.059295643 -0.024768615 -0.044821527 0.052196957
000080 b3 39 d2 bd ed 95 68 bd 93 24 55 bd 08 4e 05 bd
       -0.102649115 -0.056783605 -0.052036833 -0.03254512
000090 6c 7b 79 bd f3 ca ab 3d da 50 e1 bc 24 4a 83 bd
       -0.06090872 0.08388319 -0.027504373 -0.064106256
0000a0 fc bc 11 bd b4 46 88 bd e3 1b de b9 f1 3c 95 3c
       -0.03558062 -0.066541106 -0.00042363917 0.018217536
0000b0 43 1e bb bc 17 cf 0b 3e a3 f8 9b bd eb bf 63 bc
       -0.022841578 0.13653217 -0.07615783 -0.013900737
0000c0 0e c6 83 3d ea 4e 6e bd 42 14 2f bd 30 01 0c bc
       0.0643426 -0.058180727 -0.04274393 -0.008545205
0000d0 66 ec 9e bd ff 8e 96 bd a5 3a 8e bc 1b d0 6e bd
       -0.07759933 -0.07351493 -0.017361948 -0.058303934
0000e0 47 4c 58 3c 20 e9 48 bc 6d db d0 bc e3 7d 86 bc
       0.01320178 -0.012262613 -0.025495255 -0.01641745
0000f0 34 59 40 bd 45 91 43 bc 36 d5 3c 3b 66 64 29 bb
       -0.04696007 -0.01193649 0.0028813607 -0.0025847196
000100 d4 b7 b6 3c 7b 32 de bd dc 43 6d bd 28 cb 86 3d
       0.022304453 -0.10849472 -0.057926044 0.06581718
000110 ce e7 83 3d 08 26 ba 3c 14 c9 8d 3c 79 df 9c 3a
       0.064406976 0.022723213 0.017307796 0.0011968456
000120 7c 86 51 bd 98 d8 ec 3d c0 d7 02 3d 6f 1f 5f bd
       -0.051153645 0.115647495 0.031944036 -0.054473337
000130 52 49 90 bd 23 df 68 bb 08 fa 19 3d eb 27 62 3d
       -0.07045235 -0.003553339 0.037591964 0.05521385
000140 45 9a 7d bd 01 d9 86 bc cc 36 de bc a4 0c 8f bd
       -0.0619147 -0.016460897 -0.027125739 -0.06984833
000150 50 d8 90 bc c2 b8 b5 bc 03 f0 a8 bc 8f 66 11 3d
       -0.01768127 -0.022182826 -0.020622259 0.035498198
000160 8e 5f c2 bd 09 44 f6 3c 28 4b 1a bd 84 b1 11 bd
       -0.09490882 0.030061739 -0.03766933 -0.035569683
000170 1e e5 39 bd 87 b7 94 bd b5 ca ae 3c b3 25 c3 3d
       -0.04538452 -0.072615676 0.021336893 0.09528675
000180 39 46 91 bd 89 3c 2a 3d cc 0c 8b 3d 8c b6 53 bd
       -0.07093472 0.041561637 0.0678955 -0.051687762
000190 d9 99 5a 3d a9 fd 6b bc 90 ca ab bc 39 e6 d9 bc
       0.053369377 -0.014403739 -0.020970613 -0.026599037
0001a0 a5 f0 84 bb f4 0f 5f bc f4 e8 ca 3c 21 2f 93 bc
       -0.0040570074 -0.013614643 0.024769284 -0.017966809
0001b0 89 16 c5 bc a5 b9 d8 3d 5a 5b 29 bd 11 2f 6b bd
       -0.024058597 0.10582284 -0.041346885 -0.057417933
0001c0 04 1d 2f bc cb 5b d4 3b 11 f7 f7 3c e8 3a 7f bd
       -0.01068807 0.006480669 0.030269178 -0.062312037
0001d0 bf 44 a0 bd 38 90 3b bd 3a 88 0a bc 81 2e bd bc
       -0.07825612 -0.045791835 -0.0084553305 -0.023093464
0001e0 8b e8 4b 3d 0d 43 35 3d e6 41 63 bd 88 68 b3 3d
       0.049782317 0.044253398 -0.055482768 0.08760172
0001f0 fd 3d e0 bd c8 1d 0f 3c 8a a7 72 3d 90 cf d8 bb
       -0.10949323 0.008735128 0.05924181 -0.0066165403
000200 a5 b9 89 3a 54 6d 36 bd fd d4 42 3d 2e d8 4b 3d
       0.0010507597 -0.044537857 0.047566403 0.049766712
000210 38 e3 f6 3c ae 28 82 3d 70 d8 b1 bd 90 c9 48 bd
       0.030137643 0.06355415 -0.0868386 -0.04902035
000220 d9 3e bf 3c 9a 7c 9f 3b 37 ce e1 bb f6 63 8c bd
       0.023345398 0.0048671486 -0.006891038 -0.068550035
000230 41 93 03 bd 67 69 29 bd 9e d5 f2 3c ad 1f 64 3d
       -0.032122854 -0.041360285 0.029642876 0.05569427
000240 2b ff 0e bd 17 e4 25 bc 18 74 68 3d 85 07 34 bc
       -0.034911316 -0.010125182 0.05675134 -0.010988121
000250 6c 5f fb bc 60 23 83 bd 06 de 37 bc c6 8d 7c bb
       -0.03068515 -0.064032316 -0.011222368 -0.0038536652
000260 09 c3 85 bc 7e 9d 87 3c 29 d6 46 3d 8f db 2c bb
       -0.016328352 0.01655459 0.048544083 -0.0026375984
000270 74 1c 1e bd 09 d0 61 bd 5b 23 c3 bd e0 e1 42 bd
       -0.038601354 -0.05513004 -0.09528228 -0.047578692
000280 13 3a eb 3c 7c da c2 3b a0 f0 80 3d 2d df 95 3d
       0.028714215 0.0059464555 0.062958956 0.07317958
000290 e5 c1 58 bd f2 ac b0 bc db af 48 3d 20 62 06 3e
       -0.052919287 -0.021566842 0.048995834 0.13123369
0002a0 bf e2 ca bc 95 42 f3 bb 57 94 7f 3d 24 40 d8 bc
       -0.024766324 -0.0074237087 0.062397327 -0.026397772
0002b0 ec 73 52 bd 50 8c aa 3c 66 cd f0 bc 79 4b 5f bb
       -0.051380083 0.02081886 -0.029394817 -0.0034072085
0002c0 36 fe b2 3d f0 c5 38 3d c5 47 93 3d 78 46 55 bd
       0.08739893 0.045110643 0.07191423 -0.052069157
0002d0 12 f8 19 3d a3 cf 9a 3d 98 1f 4c 3c 91 3c 4e 3c
       0.037590094 0.07559135 0.012458704 0.012587682
0002e0 9f a3 7f bc b2 a9 35 3c 1c 37 1d bd 3d 96 8e bd
       -0.015602975 0.011087822 -0.038382635 -0.069622494
0002f0 7b 34 db 3c 7c e0 ae bd 03 dd e4 bc 6a 59 19 bd
       0.026758423 -0.08538911 -0.027937418 -0.037438788
000300 78 ac c1 bc 13 08 80 bc d0 bd 9a 3b 1f aa 93 bd
       -0.02364181 -0.01562885 0.0047223344 -0.072101824
000310 16 0d 89 bd 19 47 25 bd 3c ad 4f 3c 2f 31 6d bc
       -0.06691949 -0.040351007 0.01267558 -0.014477058
000320 e3 26 b5 3c fd e3 af bd 16 28 91 bc 1a 0d dd bc
       0.02211327 -0.08588407 -0.01771931 -0.026983786
000330 78 ca a0 bc 1e 31 be bd c6 34 79 3d 8f e0 69 bc
       -0.019627795 -0.09286712 0.060841344 -0.01427473
000340 b2 a7 17 bd 85 3e c5 bc 1f ae b3 bd 28 9d 9e bd
       -0.03702516 -0.024077663 -0.08773445 -0.07744819
000350 d7 19 2b bc f0 8b 86 3c c6 2a ac bd 65 12 7c 3c
       -0.010443172 0.01642415 -0.08406596 0.015385245
000360 22 7c 02 3e 50 ec 0f 3d e1 a4 3a bd f0 8e 6e bc
       0.12742665 0.035137475 -0.045567397 -0.014560446
000370 e4 3b 35 bb 3d f4 b1 3d db 77 d1 bd 00 db 77 3d
       -0.0027654106 0.08689163 -0.10227939 0.06051159
000380 35 8d c2 3d 18 99 a6 bc 11 40 a1 bd 05 07 89 3d
       0.09499589 -0.020336673 -0.07873548 0.06690792
000390 8e 52 da bc 86 ba 9b 3d d3 ed 85 bc 12 6f b8 bd
       -0.026650693 0.07603936 -0.016348755 -0.0900556
0003a0 15 5b ad bc 04 87 90 3d 4a 0c 2b bd cd 93 67 bd
       -0.021161595 0.07057002 -0.041759767 -0.05653744
0003b0 ad 77 13 bd b1 f5 9d 3d 6f fb 8b 3d b2 23 d8 3d
       -0.036002804 0.077128775 0.068350665 0.10553683
0003c0 ea 1e 43 bd 58 73 3e bc b5 62 4c 3d f9 b0 21 bd
       -0.047636904 -0.01162418 0.04989882 -0.039475415
0003d0 73 cd 13 bd da e3 75 3d f8 21 36 3d b9 ca b7 3c
       -0.036084604 0.06003175 0.04446599 0.022435533
0003e0 48 46 cc bd 69 16 3c 3d f2 3d 18 3d e5 03 c7 bc
       -0.099743426 0.04591981 0.03716845 -0.02429385
0003f0 55 5d 08 3c 60 8d bc bc ef 8f 3f 3c 3c 66 35 bd
       0.008323033 -0.023016632 0.011692031 -0.04428695

action_model._discrete_distribution.branches.0.bias f4 [2]
000000 82 42 00 38 d0 44 00 b8
       3.057952e-05 -3.0581665e-05

exp_avg f4 [256, 29]
000000 35 c1 8d b6 4f db d7 b6 c9 ad ec b8 c9 ad ec b8
       -4.2246197e-06 -6.43303e-06 -0.00011285727 -0.00011285727
000010 86 ff 62 b8 37 bb d1 b8 d5 66 00 38 dc 12 0b b8
       -5.4120574e-05 -0.00010000768 3.0613348e-05 -3.3157747e-05
000020 ea bf 8e b6 f1 63 0a b7 12 cf e8 b8 8a a7 eb b8
       -4.2542715e-06 -8.24871e-06 -0.00011101192 -0.0001123688
000030 5c 64 58 b8 1c 75 cc b8 f3 7e d6 37 8f 12 2a b7
       -5.159188e-05 -9.749291e-05 2.5569903e-05 -1.0137111e-05
000040 db 83 8e b6 bc 3a 26 b7 f7 57 e5 b8 fb 94 e7 b8
       -4.24728e-06 -9.908046e-06 -0.00010935956 -0.00011042688
000050 2b da 1b b9 25 68 93 37 b7 2b fd 36 0d a0 a1 b5
       -0.00014863226 1.7572262e-05 7.5450766e-06 -1.2042016e-06
000060 47 f0 9b b6 59 d9 23 b7 60 cd e4 b8 24 e7 e6 b8
       -4.647332e-06 -9.766162e-06 -0.00010910141 -0.00011010308
000070 00 00 00 00 2d 7d b7 b4 fd c0 81 b4 74 d8 6a b6
       0.0 -3.4177484e-07 -2.416854e-07 -3.499471e-06
000080 74 d8 6a b6 ac 5e 28 b6 36 48 b0 b6 dd ee 76 36
       -3.499471e-06 -2.5089057e-06 -5.253615e-06 3.6795893e-06
000090 15 d9 63 34 1a 84 c4 b4 47 44 08 b5 a6 5e 57 b6
       2.1219996e-07 -3.6603961e-07 -5.0763305e-07 -3.209259e-06
0000a0 15 75 7a b6 95 1d 1d b6 30 41 ab b6 bb 9f 61 36
       -3.7321054e-06 -2.3412042e-06 -5.103786e-06 3.3620588e-06
0000b0 8e 48 c1 35 ea ed 8c b4 97 c5 84 b5 b1 ff 3d b6
       1.4400737e-06 -2.6250137e-07 -9.892273e-07 -2.8312027e-06
0000c0 b0 bb 56 b6 9a b0 c0 b6 9f e3 f1 34 18 49 a2 35
       -3.1997733e-06 -5.742605e-06 4.5055364e-07 1.2091214e-06
0000d0 19 04 ec 35 dc 2b 66 b4 94 31 93 b5 af 04 3a b6
       1.7584563e-06 -2.1436375e-07 -1.0966783e-06 -2.7718886e-06
0000e0 56 bb 50 b6 00 00 00 00 78 1e 00 b6 e8 c8 a5 b5
       -3.110346e-06 0.0 -1.9091221e-06 -1.2351929e-06
0000f0 5c 12 9e b7 5c 12 9e b7 23 63 27 b7 02 dc 91 b7
       -1.8843617e-05 -1.8843617e-05 -9.977058e-06 -1.7387796e-05
000100 6a 6b b4 36 70 19 d0 b6 ca 7b 04 b6 f4 45 b9 b5
       5.3769227e-06 -6.2018444e-06 -1.9741587e-06 -1.3803933e-06
000110 e1 4e 9c b7 32 c3 a4 b7 a9 94 1f b7 72 f5 8d b7
       -1.863338e-05 -1.9641218e-05 -9.511751e-06 -1.6922804e-05
000120 35 34 95 36 b1 7c 06 b6 1c e0 e9 b5 f3 44 20 b6
       4.4466237e-06 -2.0040136e-06 -1.7425077e-06 -2.3881992e-06
000130 18 cc 95 b7 d6 c9 9b b7 c0 4d bf b7 28 d3 64 34
       -1.7857223e-05 -1.8571427e-05 -2.280518e-05 2.1310973e-07
000140 c5 2b 22 35 3a f2 4a b5 e3 ee cf b5 1c 2d 33 b6
       6.0413396e-07 -7.560335e-07 -1.5492227e-06 -2.6699336e-06
000150 27 0e 95 b7 7b 7e 9a b7 00 00 00 00 ae 16 e4 b4
       -1.7768774e-05 -1.8417128e-05 0.0 -4.248481e-07
000160 89 19 ba b5 5c bb 4f b7 5c bb 4f b7 e2 68 82 b6
       -1.3865512e-06 -1.23817845e-05 -1.23817845e-05 -3.886512e-06
000170 95 d0 36 b7 ff 5b 1e 35 a6 a3 cd b6 d0 ba eb b4
       -1.089661e-05 5.899346e-07 -6.1285273e-06 -4.3908085e-07
000180 8d 41 cb b5 38 59 4d b7 2a 18 51 b7 c0 20 7f b6
       -1.5143756e-06 -1.2239725e-05 -1.2462997e-05 -3.8017024e-06
000190 eb bc 32 b7 cb ba 8c 34 84 f7 6c b6 5b bf c9 b4
       -1.0653613e-05 2.6212942e-07 -3.5310813e-06 -3.7578397e-07
0001a0 f2 91 07 b6 c8 ec 45 b7 10 64 49 b7 ee e1 64 b7
       -2.020152e-06 -1.1797245e-05 -1.2003831e-05 -1.3642462e-05
0001b0 dd 1c f3 b4 ba 36 d2 b3 ee fb 2d b6 f6 ad 7f b4
       -4.5283278e-07 -9.788842e-08 -2.5925651e-06 -2.3812012e-07
0001c0 2b 31 15 b6 3f d4 44 b7 2d 54 48 b7 00 00 00 00
       -2.223135e-06 -1.1731928e-05 -1.1940528e-05 0.0
0001d0 1f 1f 50 36 81 b6 36 36 ba f3 66 38 ba f3 66 38
       3.101253e-06 2.7226345e-06 5.506326e-05 5.506326e-05
0001e0 8e da c9 37 6e f4 aa 38 10 75 3b b8 f3 ca 2f 37
       2.406284e-05 8.15176e-05 -4.4693297e-05 1.0478066e-05
0001f0 47 02 64 36 a8 2e a6 36 15 5b 5c 38 1f 5a 72 38
       3.3975973e-06 4.952617e-06 5.2536914e-05 5.7781228e-05
000200 41 bc b7 37 5b 7e a8 38 c0 79 2d b8 ad 75 2e b7
       2.1902963e-05 8.0344e-05 -4.1359803e-05 -1.0398607e-05
000210 e2 49 1e 36 ee 52 1e 37 ba e7 4d 38 ea 27 5d 38
       2.358684e-06 9.436842e-06 4.909162e-05 5.272768e-05
000220 c4 99 ba 38 88 54 2b b7 a4 fa 95 b7 3b 3a 8a b7
       8.897812e-05 -1.0212076e-05 -1.7878898e-05 -1.6477998e-05
000230 2e 75 d0 35 f2 a7 37 37 69 f3 4a 38 52 32 59 38
       1.5531311e-06 1.0946753e-05 4.8387246e-05 5.1783696e-05
000240 00 00 00 00 6c b5 36 37 4c 89 0d 37 b5 7c 0b 39
       0.0 1.0890286e-05 8.436222e-06 0.0001330253
000250 b5 7c 0b 39 0a 45 a3 38 af 92 1c 39 26 e9 9c b8
       0.0001330253 7.785305e-05 0.00014931963 -7.482087e-05
000260 d5 12 ca 37 8b 67 40 37 df 9c 5e 37 5c d0 05 39
       2.4089046e-05 1.14682e-05 1.32687555e-05 0.00012761488
000270 99 f4 0e 39 5d 44 97 38 43 ee 19 39 9a 9f 8b b8
       0.00013633295 7.212975e-05 0.00014679976 -6.6577646e-05
000280 36 45 41 b7 ef b7 26 37 bf be cc 37 97 7a f7 38
       -1.1519811e-05 9.937196e-06 2.4407518e-05 0.00011800712
000290 f6 bc 02 39 68 a1 45 39 75 2f 82 b7 9d d6 ac b7
       0.0001246816 0.00018847513 -1.5519307e-05 -2.0603935e-05
0002a0 d9 f8 ba b7 3c fd 1f 37 0e 55 dd 37 5d 2c f4 38
       -2.2288807e-05 9.536099e-06 2.638486e-05 0.0001164309
0002b0 73 bb 00 39 00 00 00 00 ac 78 62 b5 d2 1e b1 b6
       0.00012276862 0.0 -8.436716e-07 -5.278599e-06
0002c0 92 9e 90 b8 92 9e 90 b8 88 81 85 b7 10 88 b5 b8
       -6.895991e-05 -6.895991e-05 -1.5915153e-05 -8.656096e-05
0002d0 14 cc e5 37 3f a9 eb b7 5c a6 86 b5 02 07 eb b6
       2.7393959e-05 -2.8092994e-05 -1.0032195e-06 -7.0043616e-06
0002e0 68 aa 8c b8 99 a2 93 b8 80 26 77 b7 57 c3 b2 b8
       -6.707461e-05 -7.0397924e-05 -1.4731311e-05 -8.524086e-05
0002f0 e0 ca d0 37 6c 5c da b6 dc 42 e8 b4 16 fa 31 b7
       2.4890003e-05 -6.5076656e-06 -4.3262014e-07 -1.060825e-05
000300 eb 4d 86 b8 b5 6c 8b b8 09 2d cc b8 bb c6 54 37
       -6.404131e-05 -6.648285e-05 -9.7358665e-05 1.2682455e-05
000310 19 f6 20 37 43 9d 86 35 22 b6 23 34 bb 1c 42 b7
       9.594042e-06 1.0029547e-06 1.5246817e-07 -1.156999e-05
000320 b2 83 85 b8 4a 3b 8a b8 00 00 00 00 8a f3 d8 35
       -6.3664644e-05 -6.591396e-05 0.0 1.6164133e-06
000330 73 ba 3d 36 5f f7 a2 38 5f f7 a2 38 87 c1 1b 38
       2.8271722e-06 7.7708384e-05 7.7708384e-05 3.7135116e-05
000340 27 89 e2 38 e6 20 84 b8 81 80 25 37 34 fe fa 35
       0.000108020664 -6.300378e-05 9.864686e-06 1.8700434e-06
000350 21 56 e6 36 a8 f7 99 38 2c d5 a9 38 d5 d8 0d 38
       6.864561e-06 7.341738e-05 8.098254e-05 3.381896e-05
000360 8a 3b df 38 e0 bd 73 b8 b6 04 91 b7 eb 56 42 35
       0.00010644559 -5.811255e-05 -1.728754e-05 7.2397114e-07
000370 68 67 64 37 67 37 8e 38 3b 66 99 38 6e c2 01 39
       1.3613935e-05 6.781407e-05 7.3146504e-05 0.0001237483
000380 df 81 97 b7 89 6d c5 b7 df 7c d5 b7 cb 53 9c 33
       -1.8061079e-05 -2.3535236e-05 -2.5449726e-05 7.279558e-08
000390 39 b5 80 37 9e f4 8b 38 fc 67 96 38 00 00 00 00
       1.5343177e-05 6.6736e-05 7.171926e-05 0.0
0003a0 50 ef 25 37 3c df a2 37 84 6c 93 39 84 6c 93 39
       9.890486e-06 1.9415857e-05 0.00028118875 0.00028118875
0003b0 13 32 90 38 94 fd e0 39 4f 80 44 b9 98 91 cb 38
       6.875782e-05 0.0004291354 -0.00018739815 9.706913e-05
0003c0 88 ac 36 37 ee 45 11 38 cd eb 8a 39 0d e5 96 39
       1.0888216e-05 3.463582e-05 0.00026497096 0.00028780886
0003d0 f0 a1 5f 38 b6 be de 39 0b d2 2f b9 ea 7a 0d b7
       5.331816e-05 0.0004248523 -0.00016767548 -8.432873e-06
0003e0 32 88 09 37 8c 78 6b 38 9e 0e 81 39 6b a5 89 39
       8.197547e-06 5.6140634e-05 0.00024615688 0.00026253922
0003f0 9e 4f d8 39 70 c6 70 b8 fe 66 3b b8 4a 31 2b b8
       0.0004125805 -5.740527e-05 -4.4680193e-05 -4.081548e-05

exp_avg_sq f4 [256, 29]
000000 a4 fa 3e 31 e5 a1 3a 31 4c 18 69 34 4c 18 69 34
       2.7791112e-09 2.7158589e-09 2.1708655e-07 2.1708655e-07
000010 66 f9 68 32 26 1a 43 34 d8 7a 11 33 35 f9 85 33
       1.3560884e-08 1.8170303e-07 3.387217e-08 6.2386256e-08
000020 1e f3 3e 31 62 2b 46 31 be 44 69 34 9b 3a 69 34
       2.7786835e-09 2.8837452e-09 2.1724824e-07 2.1721137e-07
000030 79 58 08 33 ab 63 3f 34 a2 86 81 32 06 0e 08 33
       3.1745433e-08 1.782452e-07 1.50788e-08 3.1677722e-08
000040 57 20 3f 31 8e 39 48 31 94 40 69 34 03 36 69 34
       2.7812541e-09 2.9136547e-09 2.172331e-07 2.1719465e-07
000050 d5 d3 05 34 c6 c6 c8 33 bb e8 5d 31 e0 d9 c6 32
       1.2463654e-07 9.3493824e-08 3.2292025e-09 2.3149312e-08
000060 1a 21 41 31 41 9a 45 31 17 61 69 34 dd 4c 69 34
       2.8104012e-09 2.8754956e-09 2.1735137e-07 2.1727779e-07
000070 00 00 00 00 2f 99 6b 2f 67 ad 74 2e c2 23 cf 31
       0.0 2.1427547e-10 5.563319e-11 6.028558e-09
000080 c2 23 cf 31 cb 32 da 2f 46 09 21 31 ac 69 80 31
       6.028558e-09 3.969006e-10 2.3433855e-09 3.737304e-09
000090 9f f9 8a 31 ee f3 6a 2f d0 01 bf 2f 7b a4 c9 31
       4.0447072e-09 2.1368837e-10 3.4743985e-10 5.868569e-09
0000a0 9d 2b c9 31 d8 cf 9b 30 ec 45 28 31 05 e5 3f 31
       5.854828e-09 1.1336807e-09 2.4486964e-09 2.792434e-09
0000b0 e0 4d 67 31 68 06 85 2f 46 23 bf 2f 5b 91 c8 31
       3.365919e-09 2.419711e-10 3.476776e-10 5.837291e-09
0000c0 44 02 c8 31 5e ed 79 31 a8 52 8a 30 d8 d2 cd 30
       5.8210237e-09 3.6369197e-09 1.0064314e-09 1.4975639e-09
0000d0 ca 6e 45 31 26 79 cb 2f ee 71 5f 2f 50 30 c9 31
       2.873025e-09 3.7011566e-10 2.0322208e-10 5.8553624e-09
0000e0 89 73 c8 31 00 00 00 00 b6 53 4d 30 4b 03 37 2f
       5.833901e-09 0.0 7.4697526e-10 1.6644923e-10
0000f0 f2 db 94 31 f2 db 94 31 3b b7 8f 30 a6 bf 5a 31
       4.332372e-09 4.332372e-09 1.0456697e-09 3.1832115e-09
000100 d3 87 a8 30 26 1b e8 30 fb 36 4d 30 00 9e a9 2f
       1.2262212e-09 1.6887938e-09 7.46567e-10 3.0853187e-10
000110 6e 31 90 31 8f 10 91 31 fd f3 f8 30 f2 9b 43 31
       4.196571e-09 4.221938e-09 1.811372e-09 2.846488e-09
000120 0e 44 42 30 c6 b1 94 30 c8 c0 51 30 50 a4 a8 2f
       7.06735e-10 1.0818944e-09 7.6307716e-10 3.0675773e-10
000130 16 79 8f 31 eb d5 8f 31 66 ff 91 31 28 b5 38 30
       4.1756136e-09 4.1861674e-09 4.249091e-09 6.719625e-10
000140 df 48 90 2f 07 10 66 30 3d a4 67 30 7b 9c 6d 2f
       2.6245225e-10 8.369629e-10 8.4270707e-10 2.1610617e-10
000150 4e b6 8f 31 25 d1 8f 31 00 00 00 00 e1 e1 e3 2d
       4.1825734e-09 4.1856247e-09 0.0 2.5907223e-11
000160 a1 cf 34 2f 79 c3 56 30 79 c3 56 30 74 42 7e 2e
       1.6444669e-10 7.813053e-10 7.813053e-10 5.7811936e-11
000170 98 fb 72 30 d4 d3 f6 2d 61 09 3d 2f 3a cb e3 2d
       8.8396623e-10 2.8061033e-11 1.7192782e-10 2.5897163e-11
000180 cc 8b 3e 2f 95 4e 55 30 53 1f 55 30 62 42 24 2f
       1.7330065e-10 7.760062e-10 7.7533463e-10 1.4939297e-10
000190 f5 70 5c 30 4f 42 8c 2d cc 8e 90 2e be 77 e6 2d
       8.0196055e-10 1.5945604e-11 6.573728e-11 2.6201149e-11
0001a0 72 56 3f 2f 76 e3 54 30 92 b0 54 30 55 8d 3b 30
       1.740206e-10 7.744839e-10 7.737607e-10 6.823105e-10
0001b0 c0 e1 9f 2f 0a 27 74 2d 2a 2b 3d 2e bf 5c eb 2d
       2.9082337e-10 1.3878463e-11 4.3011962e-11 2.6757594e-11
0001c0 09 82 3f 2f a1 42 55 30 e0 e8 54 30 00 00 00 00
       1.7417547e-10 7.7583634e-10 7.7456086e-10 0.0
0001d0 c8 97 b1 30 2b 14 be 2f 45 a9 b7 33 45 a9 b7 33
       1.2921584e-09 3.457513e-10 8.5523915e-08 8.5523915e-08
0001e0 77 57 48 31 e9 58 62 33 0d 34 22 33 06 80 46 33
       2.9153548e-09 5.270059e-08 3.7765904e-08 4.6216904e-08
0001f0 56 70 b1 30 ce 67 3e 31 1c 69 b3 33 4b 42 b4 33
       1.2910373e-09 2.7707645e-09 8.354456e-08 8.393962e-08
000200 5e 18 f2 31 e8 6c 75 33 1f 7a dc 32 2e 8b 12 33
       7.045897e-09 5.7142557e-08 2.5666905e-08 3.4119857e-08
000210 31 8c c8 30 5f 1d 3a 31 27 1d b3 33 54 68 b3 33
       1.459176e-09 2.7083258e-09 8.34064e-08 8.354314e-08
000220 c1 d7 7e 33 0d 91 79 32 a5 b0 63 32 d2 2d f3 32
       5.933521e-08 1.4526688e-08 1.3253303e-08 2.830976e-08
000230 45 2f 2c 31 93 af e7 30 15 90 b3 33 b3 85 b3 33
       2.5056164e-09 1.6857363e-09 8.3615454e-08 8.359657e-08
000240 00 00 00 00 a9 00 83 32 e9 5d 6d 31 16 87 a2 34
       0.0 1.5250707e-08 3.454142e-09 3.027314e-07
000250 16 87 a2 34 e1 91 05 33 a6 4a 46 34 b4 de 06 34
       3.027314e-07 3.109915e-08 1.8467344e-07 1.2560741e-07
000260 a9 9e 24 34 ae ee 82 32 ba 12 1d 32 33 2d a0 34
       1.533141e-07 1.524253e-08 9.142861e-09 2.983521e-07
000270 43 b3 a0 34 84 80 53 33 b2 b7 5c 34 ef ad 9f 33
       2.9932752e-07 4.924415e-08 2.0555925e-07 7.435653e-08
000280 1c 1f e5 33 df e9 86 32 b9 23 20 32 70 c7 9f 34
       1.0669302e-07 1.5706005e-08 9.321348e-09 2.9761168e-07
000290 4f f7 9f 34 ce bb 73 34 73 6a 88 33 b4 d8 f0 32
       2.9795999e-07 2.2699462e-07 6.3523565e-08 2.8038222e-08
0002a0 f6 4f b6 33 47 81 99 32 24 71 fa 31 3d 34 a0 34
       8.48958e-08 1.7870333e-08 7.28882e-09 2.984033e-07
0002b0 93 20 a0 34 00 00 00 00 9d 26 d1 2e e6 20 31 31
       2.9826023e-07 0.0 9.511079e-11 2.577559e-09
0002c0 f9 4f d7 33 f9 4f d7 33 23 bd 83 30 93 39 ab 33
       1.00262646e-07 1.00262646e-07 9.58526e-10 7.973281e-08
0002d0 2a 6e e3 32 f9 9a 29 33 4b db d2 2e 16 32 73 31
       2.6476375e-08 3.9489326e-08 9.5886486e-11 3.5389625e-09
0002e0 1b 85 d6 33 89 a2 d6 33 11 c3 bb 31 02 7e b9 33
       9.989363e-08 9.9947165e-08 5.464593e-09 8.6376545e-08
0002f0 72 1b 4d 32 84 cb be 32 9c f0 27 2f 86 37 76 31
       1.1938811e-08 2.221146e-08 1.5274043e-10 3.5829273e-09
000300 24 36 d6 33 d8 38 d6 33 1e 31 76 33 3e 50 24 33
       9.975e-08 9.9754914e-08 5.732101e-08 3.8257205e-08
000310 74 f4 c3 31 1f 7e 93 32 29 40 17 30 58 e4 5a 31
       5.703038e-09 1.7170406e-08 5.5024657e-10 3.1852974e-09
000320 cf 6b d6 33 aa 4c d6 33 00 00 00 00 fe ac b5 2f
       9.984762e-08 9.979097e-08 0.0 3.3046627e-10
000330 e2 8c d9 2f 05 e8 41 34 05 e8 41 34 d8 b8 a9 31
       3.9572173e-10 1.8058934e-07 1.8058934e-07 4.9395616e-09
000340 23 51 e9 33 d7 b2 aa 33 18 49 cf 33 df af b5 2f
       1.0864667e-07 7.948773e-08 9.652484e-08 3.3048672e-10
000350 0d fe a4 31 48 42 3e 34 de 00 3f 34 fb b4 4c 32
       4.8019104e-09 1.7719242e-07 1.7788577e-07 1.1915513e-08
000360 91 28 02 34 16 52 62 33 ad b6 97 33 e7 be 15 30
       1.2121951e-07 5.2694382e-08 7.064714e-08 5.447717e-10
000370 06 9f a6 31 b4 eb 3d 34 25 29 3e 34 03 59 f4 33
       4.8493147e-09 1.7687745e-07 1.7710097e-07 1.13783265e-07
000380 f1 fd 32 33 94 02 d7 32 28 29 7a 33 7d 8f 34 31
       4.1674813e-08 2.5030467e-08 5.8245092e-08 2.627501e-09
000390 ff c9 46 31 95 64 3e 34 4f 4f 3e 34 00 00 00 00
       2.8927614e-09 1.773172e-07 1.7723981e-07 0.0
0003a0 f2 10 82 32 29 03 bf 32 02 80 22 36 02 80 22 36
       1.5141698e-08 2.2236764e-08 2.4214391e-06 2.4214391e-06
0003b0 15 e1 f6 32 98 4d cc 35 27 98 92 35 91 fb b2 35
       2.8740525e-08 1.5221767e-06 1.092213e-06 1.3335249e-06
0003c0 2b f3 81 32 2d 52 95 33 3b 72 20 36 55 c3 20 36
       1.5128157e-08 6.953301e-08 2.3908349e-06 2.3955556e-06
0003d0 d4 3b e0 33 60 89 f8 35 cc 42 16 35 ff 29 6e 35
       1.04416955e-07 1.8517421e-06 5.5976557e-07 8.872302e-07
0003e0 10 41 8c 32 f7 41 99 33 0e 53 20 36 b5 5c 20 36
       1.6327732e-08 7.1366166e-08 2.3890202e-06 2.389582e-06
0003f0 4a 42 ea 35 d5 38 10 35 3a cd 38 34 c9 c9 37 35
       1.7453651e-06 5.372688e-07 1.7210996e-07 6.846645e-07

exp_avg f4 [256]
000000 dd 7e 01 b9 ed fd 88 b6 60 76 b8 b7 e8 1e 6e b7
       -0.00012349659 -4.0826767e-06 -2.1989632e-05 -1.4193101e-05
000010 28 60 7f 38 61 c8 1f 39 09 76 9d b8 5e 49 ac 38
       6.088629e-05 0.00015238069 -7.508329e-05 8.215265e-05
000020 9d ce a2 39 88 62 8a b7 80 36 39 b8 49 db 0d b9
       0.00031052987 -1.6496764e-05 -4.4158194e-05 -0.00013528498
000030 39 47 57 39 37 20 41 b9 69 df 8e b7 a4 3a ca b8
       0.0002053053 -0.00018417915 -1.7031753e-05 -9.643033e-05
000040 ed e2 09 39 6b 0c ff b8 bb e2 ff 37 00 8c 40 38
       0.00013149875 -0.000121616606 3.0503948e-05 4.5906752e-05
000050 40 b9 db 38 64 e4 8b 37 01 65 df b8 3f d8 a5 b8
       0.00010477239 1.6676444e-05 -0.00010652282 -7.908092e-05
000060 8c b2 68 b7 7a dd 2f b9 0c ef 98 b9 0d 6f 37 38
       -1.3869849e-05 -0.00016771807 -0.00029169803 4.3734024e-05
000070 ed d6 19 39 d6 37 8a b8 9d ca eb b7 ab a7 a3 38
       0.00014671283 -6.590753e-05 -2.8108532e-05 7.803676e-05
000080 6c 8f 9c b9 f2 d7 f1 b8 90 6c 23 b9 78 e2 3f b8
       -0.00029861496 -0.000115319985 -0.00015585334 -4.5748864e-05
000090 b0 a6 35 b9 d5 05 5d 39 99 12 b3 b8 21 35 6f b9
       -0.00017323601 0.00021078375 -8.538849e-05 -0.00022812608
0000a0 54 12 ae b8 65 84 50 b9 05 be 1d 36 6c ae a8 37
       -8.3003804e-05 -0.00019885747 2.350543e-06 2.0108382e-05
0000b0 f7 bc b9 b7 a5 27 92 39 a0 14 66 b9 48 1d 06 b8
       -2.2141712e-05 0.00027876828 -0.00021942193 -3.197536e-05
0000c0 62 b8 ad 38 62 8d 4f b9 7e 59 c1 b8 00 81 af b6
       8.283627e-05 -0.00019793728 -9.2196264e-05 -5.230424e-06
0000d0 fc 7c 5e b9 f7 76 5b b9 2e 60 31 b8 f5 b8 51 b9
       -0.0002121813 -0.00020929785 -4.2289663e-05 -0.00020000695
0000e0 5f e4 6c 38 14 46 c4 b7 b6 bf 4e b8 3a 96 1f b8
       5.6479472e-05 -2.3397653e-05 -4.9292772e-05 -3.8048463e-05
0000f0 86 8b dc b8 75 cf 81 b7 4e 9a db 36 c9 89 ea b5
       -0.00010516406 -1.5474603e-05 6.544672e-06 -1.7474459e-06
000100 5d 11 c0 38 ab 56 9d b9 cb 45 68 b9 a9 fb 4f 39
       9.1585076e-05 -0.00030009946 -0.00022151244 0.00019834809
000110 db ce 30 39 65 9b 44 38 36 4f 64 38 71 29 71 36
       0.00016861728 4.6874764e-05 5.4433207e-05 3.593592e-06
000120 3a 3d 34 b9 f7 41 92 39 85 c4 e9 37 1d b3 9f b8
       -0.00017188946 0.00027896438 2.7867276e-05 -7.615073e-05
000130 25 ab 11 b9 21 63 db b6 72 c2 b4 38 e0 d7 cc 38
       -0.00013892034 -6.5382487e-06 8.619287e-05 9.767688e-05
000140 ba c0 0a b9 c4 2a c7 b7 b7 7d a9 b8 b2 81 3d b9
       -0.00013232502 -2.3742563e-05 -8.081964e-05 -0.0001807276
000150 19 27 21 b8 dd 2f 95 b8 38 2a ea b7 b4 b7 64 38
       -3.8421804e-05 -7.113789e-05 -2.7914633e-05 5.4530523e-05
000160 9f cf 9b b9 ca b7 e0 38 88 9a 28 b9 25 52 20 b8
       -0.00029718594 0.00010715386 -0.00016079296 -3.8223476e-05
000170 c6 b6 95 b8 d8 70 aa b9 6b 50 ab 38 f3 b1 fb 38
       -7.138918e-05 -0.00032509002 8.1688944e-05 0.00012001758
000180 ca 88 29 b9 66 f2 09 39 b9 e4 82 38 56 90 f4 b8
       -0.00016168054 0.00013155639 6.241486e-05 -0.00011661711
000190 20 4a 9a 38 ad 36 63 b7 25 e4 32 b8 45 12 60 b8
       7.357099e-05 -1.3542985e-05 -4.2650983e-05 -5.3422777e-05
0001a0 f7 e0 ba b7 15 de 05 b8 96 05 00 38 69 c1 70 b7
       -2.2277685e-05 -3.19165e-05 3.052278e-05 -1.4350147e-05
0001b0 fd fc da b7 32 4b d2 38 01 21 27 b9 93 a8 63 b9
       -2.6105432e-05 0.000100275865 -0.00015938656 -0.00021711206
0001c0 7a b5 bd b7 84 66 5d 35 74 9d 5c 37 7d 96 70 b9
       -2.2615062e-05 8.2478095e-07 1.3149682e-05 -0.00022944245
0001d0 2f 62 8b b9 ba 08 96 b8 9f d1 80 b7 08 ed 1f b8
       -0.00026585298 -7.154183e-05 -1.5356401e-05 -3.8129307e-05
0001e0 b2 8a 1b 38 28 d6 93 38 48 e8 cd b8 ce cb 3f 39
       3.708405e-05 7.049396e-05 -9.8184275e-05 0.00018291103
0001f0 07 a1 b0 b9 66 98 60 37 23 aa 15 39 70 01 70 b5
       -0.0003368931 1.33869235e-05 0.00014273128 -8.940906e-07
000200 0e d3 ee 33 b6 98 ae b8 62 e2 0a 39 65 4a 03 39
       1.1121129e-07 -8.325411e-05 0.0001324504 0.00012520848
000210 e7 29 ef 37 3f d8 ff 38 91 6b 8e b9 cf 98 d3 b8
       2.8510533e-05 0.000121996265 -0.00027164494 -0.00010089727
000220 90 b7 a2 38 70 d1 17 35 3d af 6c b7 64 23 13 b9
       7.758953e-05 5.6556655e-07 -1.4107497e-05 -0.00014032196
000230 f5 98 ef b8 ea 73 8d b8 15 f5 d4 37 5b 75 8c 38
       -0.000114248985 -6.7449946e-05 2.5386495e-05 6.6975794e-05
000240 18 ea b7 b8 c4 ef 97 b7 6c 89 06 39 27 2b ae b7
       -8.769723e-05 -1.8112252e-05 0.0001283043 -2.076251e-05
000250 9e 6c a0 b8 6e 47 3d b9 13 83 9f b7 2e 00 bd b5
       -7.649626e-05 -0.00018051054 -1.9015313e-05 -1.408165e-06
000260 5a fc 82 b6 e6 9a e3 37 10 ae bf 38 c9 16 3c b7
       -3.9036795e-06 2.7132639e-05 9.1400114e-05 -1.1210978e-05
000270 b0 14 06 b9 26 3c 35 b9 f3 9d 81 b9 4d d7 f9 b8
       -0.00012786943 -0.00017283912 -0.0002472248 -0.00011913348
000280 95 e4 a5 38 0a 25 3b 37 ac cd 3a 39 5c dc 5c 39
       7.91039e-05 1.1154692e-05 0.00017814961 0.00021062925
000290 e2 dc 03 b9 d0 7b f5 b7 70 be ef 38 91 c8 98 39
       -0.00012575419 -2.926393e-05 0.0001143188 0.00029141133
0002a0 25 46 83 b8 e9 c2 fe 32 e4 09 1b 39 83 b8 b0 b8
       -6.259632e-05 2.9658127e-08 0.00014785636 -8.426702e-05
0002b0 52 bb 0a b9 cf 1e 69 38 5f 34 d2 b8 c0 fe ec b6
       -0.00013230488 5.558022e-05 -0.00010023335 -7.063005e-06
0002c0 2c 71 3a 39 a9 f1 a9 38 29 6a 2c 39 c6 24 e7 b8
       0.00017780502 8.103561e-05 0.00016442746 -0.00011021788
0002d0 64 26 a8 38 7e 54 7a 39 d5 51 81 38 d5 13 d2 36
       8.018015e-05 0.00023873334 6.166442e-05 6.2607965e-06
0002e0 b7 ae 87 b8 e8 72 10 38 04 8b d7 b8 a8 cf 70 b9
       -6.469845e-05 3.443929e-05 -0.000102778926 -0.00022965542
0002f0 e4 08 c7 37 20 8f 4e b9 d5 80 e6 b8 06 eb 20 b9
       2.3726789e-05 -0.00019699009 -0.000109912515 -0.00015346342
000300 da 0e 41 b7 3b 43 9b b7 9f 63 7f 36 fe 66 ee b8
       -1.1507154e-05 -1.8508747e-05 3.8055948e-06 -0.00011367908
000310 70 21 34 b9 4b 05 9b b8 f3 23 c0 37 27 46 39 b8
       -0.00017178594 -7.391962e-05 2.2904924e-05 -4.417277e-05
000320 94 ff 6e 38 43 17 72 b9 bf e3 11 b7 18 90 4c b8
       5.6981648e-05 -0.00023087584 -8.6957e-06 -4.8771588e-05
000330 10 36 2e b8 e2 1b 96 b9 22 be dd 38 c8 02 fe b6
       -4.1535182e-05 -0.00028631004 0.00010573516 -7.5701137e-06
000340 6c df e8 b8 45 84 e5 b7 26 08 6c b9 23 62 40 b9
       -0.00011104238 -2.736052e-05 -0.0002250975 -0.00018347106
000350 e5 7c b5 b7 cc 15 1f 38 ea 61 54 b9 02 07 28 38
       -2.163504e-05 3.7928854e-05 -0.00020254371 4.0060848e-05
000360 d9 69 c8 39 b5 a7 be 38 4a d0 07 b9 37 86 9d b7
       0.00038225835 9.091144e-05 -0.00012952197 -1.8778357e-05
000370 bb b4 b9 b6 54 2a 18 39 b1 ac 9f b9 54 19 08 39
       -5.5344694e-06 0.00014511618 -0.00030455508 0.00012979406
000380 10 44 82 39 22 9e 60 b8 6c 0b 32 b9 8f b9 48 39
       0.00024846243 -5.3553034e-05 -0.00016979658 0.00019142612
000390 c6 de 9f b8 0a 59 00 39 6e f1 73 b7 b3 30 92 b9
       -7.6232056e-05 0.00012240201 -1.4540141e-05 -0.00027883574
0003a0 3a 1f b3 b7 ab f5 4f 39 0a 5c 9b b8 bb 3e 5c b9
       -2.1353004e-05 0.00019832577 -7.4081196e-05 -0.00021004204
0003b0 3e a0 ba b8 ef d8 0d 39 a7 6c 2a 39 e5 5e 90 39
       -8.8990186e-05 0.00013527622 0.0001625294 0.00027536522
0003c0 47 33 20 b9 e3 3b 33 b8 5b 3d 0a 39 67 75 02 b9
       -0.00015277891 -4.27327e-05 0.00013183562 -0.00012441502
0003d0 e2 03 e4 b8 c1 87 22 39 78 ac f3 38 4d e2 05 38
       -0.000108726104 0.00015500096 0.00011619268 3.192043e-05
0003e0 61 b9 9c b9 ea 02 05 39 bc f3 ed 38 df 9d c2 b7
       -0.00029892757 0.00012684954 0.0001134644 -2.3200117e-05
0003f0 60 a2 19 33 0e 73 5f b8 24 e1 a2 b5 15 13 1d b9
       3.5770768e-08 -5.3274496e-05 -1.2135465e-06 -0.00014979795
